models_transformer_encoder/transformer_encoder_model_fold_1.pth (torch, 816034 bytes, 28 tensors)

embedding.weight f4 [128, 13]
000000 98 0b 58 be ce 4e c4 3d 91 37 80 3e 7c 02 0c 3d
       -0.21098173 0.09585343 0.25042394 0.034182057
000010 5b 34 01 3e 95 95 22 bd 42 b6 98 be a1 13 ea 3d
       0.12617628 -0.039693434 -0.29826552 0.11429525
000020 99 12 10 3e f8 16 55 3e a7 7a 24 bc 76 44 51 ba
       0.14069594 0.20809543 -0.010039008 -0.0007982919
000030 fe 45 de bd 42 4d 35 3e d1 64 44 be 44 46 5e be
       -0.10853194 0.17705253 -0.19179083 -0.21706492
000040 4e 73 16 be 81 86 ab 3e 2b 13 31 be d3 12 9f bd
       -0.14692423 0.33501056 -0.17292468 -0.07767262
000050 fa 89 00 3d e8 93 09 be f8 e5 71 3e cf 3a 9c bd
       0.031381585 -0.13435328 0.23622882 -0.07628404
000060 20 5b 7e 3e 2b 1a d5 3d 64 e5 2e be 66 4c 87 be
       0.24839449 0.10405382 -0.17079693 -0.26425475
000070 d7 13 e3 bb 49 07 a3 bd 59 a5 b3 3d df 1d e6 3d
       -0.0069298553 -0.07960374 0.08771772 0.11236166
000080 96 55 63 3c 2a 93 c5 3a 49 4d 88 3b d6 46 74 3d
       0.013875386 0.0015073766 0.0041596037 0.059637867
000090 df 3e ae bd ca 86 8b 3d 90 7a 4a be 54 46 86 bd
       -0.085080855 0.06812818 -0.19773316 -0.06556383
0000a0 d0 43 4c be 44 68 19 be 30 58 32 be dd 9c e9 bd
       -0.19947743 -0.1498118 -0.17416453 -0.114068724
0000b0 cd c5 f5 3c 6c 2d 16 be 3a ea ea 3d fc cb 12 be
       0.030001545 -0.14665765 0.114704564 -0.14335626
0000c0 a0 04 14 3e 4c 49 89 be 7a 88 82 be 2e b2 06 3d
       0.1445489 -0.26813734 -0.25494748 0.03288477
0000d0 4e c5 f5 bc 0a 5c 6a bb 15 68 bd bd 21 90 52 bd
       -0.030001309 -0.0035760426 -0.09248368 -0.051406983
0000e0 d2 90 4a 3e a3 99 78 3e a0 c8 41 3e c0 90 f8 bd
       0.19781807 0.24277358 0.18924189 -0.12136984
0000f0 97 bf 89 be 8f 92 24 be 37 d5 e5 3c 97 d4 94 3e
       -0.26903984 -0.16071533 0.02805577 0.29068443
000100 e1 da 3c be cf 43 14 3d 9b 46 1c 3d 6d 60 b0 bd
       -0.1844287 0.03619748 0.038153272 -0.08612142
000110 9c a8 da 3d 81 7a 62 be 82 8e fd bd 2a ca f7 bd
       0.10676691 -0.22117044 -0.12380697 -0.120991066
000120 83 1c 47 3e 48 67 44 be 8a d2 0f 3e ee 52 91 bd
       0.1944447 -0.19180024 0.14045158 -0.07095896
000130 ad c2 9a be 2b 81 01 be 95 4a de 3d e6 73 45 3c
       -0.3022665 -0.1264693 0.10854069 0.012051558
000140 ad b0 25 be 66 1e c3 bd 60 34 6a be 98 7e 6b be
       -0.16180678 -0.095272824 -0.22871542 -0.2299751
000150 52 20 4f be f2 4a a5 3d c3 d4 17 3e a3 02 92 3d
       -0.20227173 0.08070935 0.14827256 0.07129409
000160 86 f4 04 bd cd 2c 35 3e 46 67 3e bd 3f d9 f2 3d
       -0.03245976 0.17692871 -0.046485208 0.11857843
000170 9c 4f 0d be 15 f2 15 3a 55 15 8a 3d 88 cb 46 3e
       -0.137999 0.0005719972 0.0674235 0.19413579
000180 80 87 52 3e 63 aa 7a 3d 80 82 65 be f3 b8 97 3d
       0.20559502 0.06119765 -0.22413063 0.07408323
000190 d6 2d 81 3e 8f 7d ea bd 3a 13 e7 3d 87 4b d2 bd
       0.25230283 -0.1144973 0.11282964 -0.10268312
0001a0 ed 8c 2f 3d 9b f1 eb 3c 86 2e 1f bd 1c 15 85 3e
       0.042859007 0.02880173 -0.038862728 0.25992668
0001b0 04 d3 99 3e e1 80 80 3e 32 02 ef 3c 5c ee c3 bd
       0.30043805 0.25098327 0.029175851 -0.09566948
0001c0 74 c4 6b 3d 5c 46 49 3e 98 7b 0f 3e f3 09 49 3e
       0.0575604 0.19655746 0.14011991 0.19632702
0001d0 6b 25 4f bd 88 b6 4f 3d 84 8b 15 be 69 09 72 3e
       -0.050572794 0.050711185 -0.14604002 0.23636402
0001e0 97 6b 15 3e 36 d8 01 3e 0d d2 7d 3d b8 c0 22 bd
       0.14591824 0.12680134 0.0619679 -0.039734572
0001f0 ca 18 06 3e 4c 4e 58 be bb 6c 06 be 9b 85 e4 bc
       0.13095394 -0.21123618 -0.13127415 -0.02789574
000200 69 00 54 be 63 d9 7d be a4 6a 50 3e 5d 1a 85 3e
       -0.20703281 -0.24789958 0.2035318 0.25996676
000210 35 bb c3 bd 77 13 df 3d a9 f0 41 be ac 1f 89 3c
       -0.09557191 0.108923845 -0.18939461 0.016738735
000220 40 94 87 3e fb 5a 89 be 36 2e 89 be 53 d9 e9 bd
       0.26480293 -0.26827225 -0.2679307 -0.114184044
000230 ef 1a ec bd d8 cf 70 3d 5f 6e e2 3d 52 12 82 3e
       -0.11528575 0.058791965 0.11056208 0.25404602
000240 b5 04 0f bd f2 31 1d 3e be 9a 60 be dc 86 25 3e
       -0.0349166 0.15351084 -0.2193403 0.16164726
000250 31 33 91 bd 31 62 8c 3d 8b 09 bd 3b f8 44 c3 bc
       -0.07089842 0.06854666 0.00576896 -0.023836598
000260 25 fb a2 bd 2b d9 37 be 38 97 aa 3e c4 d5 69 be
       -0.07958058 -0.17953937 0.33318496 -0.22835451
000270 62 d8 13 be c3 51 25 3c b1 da 4b be d4 2b 31 3e
       -0.14438012 0.010090294 -0.19907643 0.17301875
000280 3c ee 2e 3e 08 db 7e be 39 14 80 be 76 31 e4 3d
       0.17083067 -0.24888241 -0.2501543 0.111422464
000290 62 8b 86 3e 1a df 74 3d bd ef 7f 3d 84 b7 a4 be
       0.26278216 0.05978308 0.06248449 -0.3217126
0002a0 42 a8 23 bc 9a e1 0e be ab 41 47 3d 2f 3c be 3d
       -0.009988846 -0.13953248 0.04864661 0.09288823
0002b0 ea 99 9f be 1a 63 9a 3e c7 c2 a1 bd 00 b4 0c bd
       -0.31172115 0.30153733 -0.07898479 -0.03435135
0002c0 b5 92 4c be 71 05 3a 3e f5 78 59 3e 67 df 0b be
       -0.1997784 0.18166138 0.21237548 -0.1365944
0002d0 39 57 0b be 05 46 31 3e b1 95 1b 3e 02 3c 46 3e
       -0.13607492 0.17311867 0.15193821 0.19358829
0002e0 ff 89 03 be 4c b9 85 bc dc 7f 13 be 1e 1e cc bb
       -0.1284561 -0.016323708 -0.14404243 -0.006229176
0002f0 00 e1 8c 3e 62 92 3b 3e 5d 90 45 3e cf 5b 58 be
       0.2751541 0.1831756 0.19293351 -0.21128772
000300 f4 86 04 3e bd f8 64 be c9 31 e3 3d 85 f0 5a 3e
       0.12942106 -0.22360511 0.1109348 0.21380813
000310 41 ef 30 be 8d b7 2d 3e 2a 02 e3 3d 80 4c 32 3d
       -0.17278768 0.1696455 0.11084397 0.043529987
000320 d9 bd b2 3d ec 9d 3a be 55 b2 27 3d 33 a6 ab bc
       0.08727617 -0.18224305 0.040941555 -0.020953273
000330 09 87 16 be 70 53 05 3d 5e 4d 8c bd 23 6a 63 3a
       -0.1469995 0.032550275 -0.06850694 0.00086751784
000340 47 49 f2 3d 9e 0e f7 bd 6a 73 05 be 54 d6 c1 3d
       0.11830383 -0.12063335 -0.13032308 0.09464708
000350 e1 7c 8a 3e 29 48 fa bd 7d 91 64 3c b6 60 f1 bb
       0.270484 -0.12220795 0.013950703 -0.007366265
000360 7e c4 4d bd 62 f7 60 be 90 14 80 be e8 e8 77 3e
       -0.050236218 -0.21969369 -0.25015688 0.2420994
000370 08 0a aa 3b b9 d0 38 be c4 ee f6 3c 2d 9f 39 be
       0.005189184 -0.18048371 0.03014315 -0.18127127
000380 04 df 4d be 3a 9c 20 bd a9 fb ea 3d e8 50 2e bd
       -0.20104605 -0.03921149 0.114737816 -0.042557627
000390 e8 47 7e be 04 78 36 3e b1 03 13 bd 55 02 35 bd
       -0.24832118 0.1781922 -0.035892192 -0.044191677
0003a0 1c 6c 84 3e 62 04 e0 bd 01 39 98 3c 27 25 9f bd
       0.2586373 -0.10938336 0.01858187 -0.07770758
0003b0 e7 eb ab 3d e5 83 03 3e 10 70 b3 3d e5 81 54 be
       0.08394604 0.12843283 0.087616086 -0.20752676
0003c0 ba 2f 9d be df 58 5a be a9 6a e6 bd f9 6d f1 3c
       -0.30700475 -0.21322964 -0.112508126 0.029471384
0003d0 5a 5d 30 be b5 3f 13 3e 03 07 54 3e f1 27 fc 3d
       -0.17223111 0.14379771 0.207058 0.12312306
0003e0 8f 01 cb 3c da 5e 34 bd 8c 60 85 be 2c b5 31 bb
       0.024781017 -0.04403577 -0.26050222 -0.0027116043
0003f0 f3 01 fa 3d f4 53 f1 3d 0f d1 a5 3d 19 ca 1f bd
       0.12207403 0.11783591 0.080965154 -0.039011095

embedding.bias f4 [128]
000000 9c 6d 9f bc fc 9c d3 3c 80 20 50 be 31 83 ef 3d
       -0.019461446 0.025831692 -0.20324898 0.11694945
000010 05 81 fc bd e3 07 65 bd 5a 21 67 3e 69 65 40 be
       -0.12329296 -0.055915724 0.22571316 -0.18788685
000020 0d 26 2a 3e 44 1e ed bd 44 9d 1f bd 7c 2a 12 3e
       0.16616078 -0.11578038 -0.03896834 0.14274019
000030 3c 31 79 3e 32 6a 1e be c9 73 bc 3d 1e 3d 67 be
       0.24335188 -0.15470198 0.09201772 -0.22581908
000040 16 9a 7b bd 88 be 7f 3b 1d 2e 99 3d d7 9b 04 be
       -0.061426245 0.0039023478 0.074794985 -0.12950073
000050 d8 74 d3 bd cc b4 53 be fd 02 a4 bd 62 75 8d 3c
       -0.103250206 -0.20674437 -0.080083825 0.017267887
000060 44 69 f4 bc fc a9 36 be 3f 58 6b 3d 39 d1 2f be
       -0.02983535 -0.17838281 0.057457205 -0.17169656
000070 cb 9d 82 3d ed 14 f8 3d 00 05 d4 bd c5 69 81 3d
       0.06377753 0.12113366 -0.10352516 0.06319002
000080 78 d0 70 3c 9a 95 82 3c c6 75 d9 bd f6 d7 83 3e
       0.01469814 0.015940476 -0.106181666 0.25750703
000090 40 5c 73 3e ad 5a 0d 3e 5a 78 5d 3d f4 a7 28 bd
       0.2376566 0.13804121 0.054069854 -0.041175798
0000a0 69 62 42 be 19 ec 49 3d 80 e2 1f 3e 98 7c 60 be
       -0.18982853 0.049297426 0.15613747 -0.21922529
0000b0 23 cd ab 3d fd 68 58 3e c9 ca 59 3e b0 de d3 3d
       0.08388736 0.211338 0.21268763 0.10345209
0000c0 5a bc 3a 3e 0b 6f 47 be 46 07 dd bd 63 7a 3f be
       0.18235913 -0.19475953 -0.10792403 -0.1869903
0000d0 f9 6a 66 3e 9a ef 4e bd ce a2 50 3e f9 89 7f bc
       0.22501744 -0.05052147 0.20374605 -0.01559686
0000e0 5e 70 2c 3e 01 9b 5e 3e 91 25 78 3e a5 11 22 be
       0.1683974 0.21738817 0.2423308 -0.15827043
0000f0 d0 f0 4c be 44 e1 4a bc bf 8c 84 be 61 74 d6 bd
       -0.20013738 -0.012382809 -0.2588863 -0.10471416
000100 b6 d0 0b bd 0b a1 32 be 35 15 a8 bd 8d 00 20 3e
       -0.03413459 -0.17444246 -0.0820717 0.1562521
000110 3c 68 dd 3d a1 f5 82 3e c9 f8 03 be d1 52 d3 3d
       0.10810897 0.25578025 -0.12887873 0.1031853
000120 6d 25 6b 3d b0 c7 3e 3e fa bc 47 be 4d 74 fd bd
       0.05740874 0.18630862 -0.19505683 -0.12375698
000130 5b da 50 3e d1 d5 9e bc b6 93 0d 3d d8 04 7a 3e
       0.20395796 -0.019389065 0.034564696 0.2441591
000140 d5 24 67 be aa 01 80 bd 2d 50 9f 3b 11 ef d1 3d
       -0.22572644 -0.062503174 0.0048618526 0.102506764
000150 57 ee 01 be 98 51 08 3d ef bd 50 3e 8d 55 78 3e
       -0.12688576 0.03328094 0.20384954 0.24251385
000160 a1 b2 84 3e 0e 36 2f be da 24 72 be 6b a1 8c bd
       0.25917533 -0.17110464 -0.2364687 -0.068667255
000170 2d 4e b1 bd 20 4c d0 bd 3b e7 68 be 84 8b 11 3d
       -0.08657489 -0.1017077 -0.22744457 0.035533443
000180 52 94 56 3b 0f 13 73 be ac eb 5c 3d ce 2c d3 bd
       0.0032742214 -0.23737739 0.05393569 -0.1031128
000190 2e 19 e1 3d 03 31 83 3e 25 56 a6 3d d6 37 82 3d
       0.10991131 0.2562333 0.081218995 0.06358306
0001a0 07 82 e3 3b 14 d7 13 be 66 72 50 be fb db 89 bd
       0.0069429907 -0.14437515 -0.2035614 -0.06731411
0001b0 6b 3b c8 3d 77 20 69 be de ec 4a be 7f 73 16 3e
       0.09776958 -0.2276629 -0.1981692 0.14692496
0001c0 f7 75 a9 3d ff 1e 5e 3e 4f c6 87 bd af 86 0d 3e
       0.08274453 0.21691512 -0.06629621 0.13820909
0001d0 5a ef c8 bd 6c 9b 99 bd 3e 36 0f be 81 be e3 bd
       -0.09811278 -0.075003475 -0.13985536 -0.1112032
0001e0 5a 3b b2 3d fa 0f d2 bc ae b4 7b be 92 ef bc bd
       0.08702727 -0.025642384 -0.24580643 -0.09225382
0001f0 7f f1 07 3e 54 95 2d 3e 49 f5 97 3d bd 61 23 be
       0.13275717 0.16951495 0.07419831 -0.15955253

transformer_encoder.layers.0.self_attn.in_proj_weight f4 [384, 128]
000000 83 17 80 3d 95 28 95 bd 00 80 9a b8 93 22 8b 3d
       0.062544845 -0.07283131 -7.367134e-05 0.06793704
000010 f2 bd d5 bd e2 0f bf bd 30 21 b9 bc c0 57 f0 3b
       -0.1043662 -0.09329201 -0.022598833 0.0073346794
000020 2e 3f 13 3d c8 53 2f bd fb 6e c0 3d 94 b1 da 3c
       0.035948925 -0.04280451 0.09396168 0.026696004
000030 14 69 58 bd f0 18 74 3c ca eb 10 3d b6 2c 1f bd
       -0.052834585 0.014898524 0.035381116 -0.038861
000040 57 90 69 bd 70 43 b2 bd ba 83 a8 bd 3e f9 72 3d
       -0.05702242 -0.08704269 -0.0822825 0.059319727
000050 20 8b 87 bb 40 57 7b 3b a8 6a 48 3c 4a d9 a7 bd
       -0.004136458 0.0038351566 0.01223246 -0.081957415
000060 e0 39 aa bd 0c b8 11 bd 44 ca d1 bd f3 e6 85 bd
       -0.0831182 -0.03557591 -0.10243657 -0.06538191
000070 90 aa 42 3c 40 04 0b bb cc 3d c4 3c c0 3b 89 bd
       0.011881486 -0.002121225 0.023955248 -0.067008495
000080 18 a8 4b bc d8 df 66 3c ef 9e d5 3d fc 2e fb bc
       -0.012430213 0.014091454 0.10430705 -0.030662052
000090 0e ec 67 3d 20 40 04 bd 4a 7e 50 3d 76 78 06 3d
       0.056621604 -0.032287717 0.05090169 0.032829724
0000a0 47 66 8d bd 9c 23 a3 bd 43 e0 cd 3d a4 43 d1 bd
       -0.069042735 -0.07965776 0.1005254 -0.102179796
0000b0 3e 4d 5d bd 60 1f 00 bb ba 61 68 3d 14 7f a1 bd
       -0.054028742 -0.001954995 0.056733824 -0.07885566
0000c0 d7 7a b9 bd ea 3b 27 3d 8a 6f 4b 3d 94 3f 27 bd
       -0.09056633 0.040828623 0.04966692 -0.040832117
0000d0 be 8e 6e bd 0f 76 c2 3d 94 ac 97 bd 60 4b 00 3b
       -0.0582416 0.09495174 -0.074059635 0.0019576177
0000e0 0d 78 c8 3d a0 ff 21 3c 4e 11 05 3d 0b 40 69 bd
       0.09788523 0.009887606 0.032487206 -0.05694584
0000f0 48 85 d1 bd 7c a4 d2 bc 02 33 64 3d ed 22 cc 3d
       -0.102304995 -0.025713198 0.055712707 0.09967599
000100 04 70 fc 3c 77 df d1 bd 41 be db bd ce 37 3f 3d
       0.030815132 -0.10247701 -0.107296474 0.04668408
000110 5e 67 5f 3d a4 24 91 bd dc 17 c5 bc 7d 08 ab 3d
       0.054541938 -0.07087067 -0.024059229 0.083512284
000120 dc 8a 54 bd e4 d2 f1 3c 07 10 ac bd f9 cc b7 3d
       -0.05189024 0.029519506 -0.084014945 0.08974642
000130 29 5e c9 3d a1 cf a1 3d e9 01 94 3d f1 07 c8 3d
       0.09832413 0.0790093 0.07226927 0.0976714
000140 82 d8 40 3d e5 68 b1 bd 33 c7 96 3d 3f 30 dc bd
       0.047081478 -0.08662585 0.07362213 -0.1075139
000150 6c b3 e3 3c d0 c5 fd bc 41 42 9a 3d 8e 75 44 3d
       0.027795516 -0.030978113 0.07532168 0.04796367
000160 d1 7f 9c bd 5a 09 10 3d 1e 6f 3a bd 4d 60 c3 bd
       -0.076415665 0.03516517 -0.045516126 -0.09539852
000170 08 d2 a8 bd 97 67 af 3d 5f dc db 3d 86 f8 94 bd
       -0.08243185 0.0856468 0.10735392 -0.072739646
000180 3b a4 a4 3d 04 28 cf 3c 66 8d 08 bd c4 c9 a9 bc
       0.08039137 0.025287636 -0.033337973 -0.020726092
000190 6c cb c9 bc a2 b7 2a bd 71 ac db bd ae 46 47 3d
       -0.024633132 -0.041679032 -0.1072625 0.04865139
0001a0 10 d0 ad bb 88 63 16 3c 31 c3 4c bd 70 79 b6 3b
       -0.005304344 0.009179004 -0.049990837 0.0055686757
0001b0 96 05 ba bd 4a 53 0b 3d 5c 89 ed bc 14 e9 a8 3c
       -0.09083097 0.034014978 -0.028996162 0.020618953
0001c0 e0 a4 dc 3b 93 10 92 bd 4d 33 40 bd 4b 74 a3 3d
       0.006733522 -0.071320675 -0.046923924 0.079811655
0001d0 02 59 72 3d 9c 74 a5 3c 5c 29 7a bd 55 40 90 3d
       0.059166916 0.020197205 -0.0610746 0.0704352
0001e0 05 5a c0 bd f9 11 ca 3d 6b 15 42 bd b0 6c 30 bd
       -0.0939217 0.09866709 -0.047383707 -0.043072402
0001f0 c1 4d 87 3d 7c 99 8a 3c 05 b3 d6 3d 80 cf df bb
       0.06606627 0.01691889 0.10483364 -0.006830156
000200 20 80 5e 3c 45 41 68 bd 43 3c 90 3d 3e 82 85 bd
       0.013580352 -0.05670287 0.07042744 -0.06518982
000210 24 4d 66 bd a8 82 75 bc b2 8b 4a 3d 28 fa d1 bd
       -0.05622591 -0.014984764 0.04944963 -0.10252792
000220 1c 4a 2f bd 9d 78 d8 3d bc 0a 97 bc 24 9c a6 bd
       -0.042795286 0.1056988 -0.018437736 -0.0813525
000230 b1 07 ce 3d 61 f0 aa bd 60 07 ae bc 09 47 d6 3d
       0.10060061 -0.0834663 -0.021243751 0.10462768
000240 4a cc 14 bd 4a 9c 41 3d ef 60 a7 3d e2 87 31 3d
       -0.036327638 0.04726819 0.081727855 0.04334248
000250 42 b6 00 3d d3 49 d1 bd 39 c3 cf 3d 60 5e 1d 3c
       0.031423815 -0.10219159 0.10144658 0.00960502
000260 d0 2c 7d bd 83 3f 99 bd 6c 23 c4 bd 00 4c ba 39
       -0.061810315 -0.07482817 -0.09577069 0.0003553331
000270 10 35 ca bd 70 4d c3 bc 5c 04 b0 3c 86 39 33 3d
       -0.09873402 -0.023840636 0.021486454 0.04375603
000280 a1 72 d1 3d 69 3c 85 bd 0d 37 d3 3d ff 00 83 bd
       0.10226942 -0.06505663 0.103132345 -0.06396674
000290 a8 36 f3 bc 44 8b fb 3c 95 73 98 bd 00 ba 67 3a
       -0.029689148 0.030706055 -0.074439205 0.0008839667
0002a0 ad 53 ca 3d 4e 26 54 3d 7f c9 51 bd 90 58 19 3c
       0.09879241 0.051794343 -0.051217552 0.009359494
0002b0 85 b3 d9 3d 02 79 0d bd c4 67 e5 3c 62 b0 7a 3d
       0.10629944 -0.03453923 0.02800358 0.061203368
0002c0 0a 7a 3d 3d 26 8b 63 3d 84 d9 c6 bd ee c8 b9 bd
       0.046258964 0.055552624 -0.097094566 -0.090715274
0002d0 3e 98 27 3d 90 b7 8e bb c2 b9 1a 3d 0b 02 a3 3d
       0.040916674 -0.0043553784 0.03777481 0.07959374
0002e0 a3 ff cf 3d 76 31 67 3d 80 9b 2c bd b0 26 93 bb
       0.10156181 0.056443654 -0.042140484 -0.004490696
0002f0 ba 93 24 bd e6 f5 6c bd 88 39 a7 bd a4 b4 e2 3c
       -0.040179946 -0.057851695 -0.0816527 0.027674027
000300 9a 0c bf bd 1c 57 c0 3c 44 28 89 3c 80 44 87 bd
       -0.093285754 0.023479037 0.016742833 -0.06604862
000310 54 41 ac bd dd 2f 96 3d c9 e3 d9 3d 8c c6 eb 3c
       -0.08410898 0.07333348 0.1063915 0.028781198
000320 ba 68 63 3d 9a 40 18 3d b3 56 8f 3d f8 0a 81 3c
       0.055519797 0.037170984 0.069989584 0.0157523
000330 0e 2d 14 3d 4e ea 9a bd 5c a9 cb 3c 9a 7d 99 bd
       0.03617578 -0.07564221 0.02486103 -0.0749466
000340 aa 68 1d bd 48 2e 55 bd bc d7 07 bd 11 48 ae 3d
       -0.038429894 -0.05204609 -0.033164725 0.08509839
000350 50 95 c2 bc c7 e2 c5 3d 4c df 3a bd 24 4f e3 bc
       -0.023752838 0.09662395 -0.04562311 -0.027747698
000360 11 ae 7d bd c5 d3 b0 bd 9c 54 d2 3c 00 1f 41 ba
       -0.06193358 -0.08634142 0.02567511 -0.0007366985
000370 6a 77 37 3d bd d9 91 3d fa aa 66 3d 2a c5 8f bd
       0.044791616 0.071216084 0.0563154 -0.07020028
000380 e1 07 9a 3d d2 1a 22 3d 26 3a 87 bd 26 18 a2 bd
       0.07521034 0.03957636 -0.06602888 -0.07914762
000390 6b 37 d0 3d b0 7a b1 bd 30 c2 27 bd 54 69 92 3c
       0.1016682 -0.08665979 -0.040956676 0.01787249
0003a0 1b 3b c2 bd f6 a9 73 3d ac ac 92 3c a8 4d 26 3c
       -0.0948393 0.05948826 0.017904602 0.010150351
0003b0 ea 12 7d 3d 68 8b d0 bc 50 aa a8 bb e8 43 d0 bd
       0.061785616 -0.0254571 -0.005147256 -0.10169202
0003c0 00 fe 3a 3b 35 73 cc 3d 4a 47 10 bd 98 06 8a bd
       0.0028532743 0.099829115 -0.035224237 -0.06739539
0003d0 3f 33 c2 3d b6 df 60 3d 8e 56 48 3d b0 07 21 bc
       0.09482431 0.054900847 0.04891067 -0.009828493
0003e0 3b d7 51 bd dc 87 a6 bd 20 4e 9e bc 2c 8e 6b bd
       -0.05123065 -0.08131382 -0.019324362 -0.057508633
0003f0 9a 94 71 3d 5e 0e 46 3d f4 eb 2e bd 12 59 0a bd
       0.058979608 0.048353545 -0.04270549 -0.03377635

transformer_encoder.layers.0.self_attn.in_proj_bias f4 [384]
000000 00 00 00 00 00 00 00 00 00 00 00 00 00 00 00 00
       0.0 0.0 0.0 0.0
000010 00 00 00 00 00 00 00 00 00 00 00 00 00 00 00 00
       0.0 0.0 0.0 0.0
000020 00 00 00 00 00 00 00 00 00 00 00 00 00 00 00 00
       0.0 0.0 0.0 0.0
000030 00 00 00 00 00 00 00 00 00 00 00 00 00 00 00 00
       0.0 0.0 0.0 0.0
000040 00 00 00 00 00 00 00 00 00 00 00 00 00 00 00 00
       0.0 0.0 0.0 0.0
000050 00 00 00 00 00 00 00 00 00 00 00 00 00 00 00 00
       0.0 0.0 0.0 0.0
000060 00 00 00 00 00 00 00 00 00 00 00 00 00 00 00 00
       0.0 0.0 0.0 0.0
000070 00 00 00 00 00 00 00 00 00 00 00 00 00 00 00 00
       0.0 0.0 0.0 0.0
000080 00 00 00 00 00 00 00 00 00 00 00 00 00 00 00 00
       0.0 0.0 0.0 0.0
000090 00 00 00 00 00 00 00 00 00 00 00 00 00 00 00 00
       0.0 0.0 0.0 0.0
0000a0 00 00 00 00 00 00 00 00 00 00 00 00 00 00 00 00
       0.0 0.0 0.0 0.0
0000b0 00 00 00 00 00 00 00 00 00 00 00 00 00 00 00 00
       0.0 0.0 0.0 0.0
0000c0 00 00 00 00 00 00 00 00 00 00 00 00 00 00 00 00
       0.0 0.0 0.0 0.0
0000d0 00 00 00 00 00 00 00 00 00 00 00 00 00 00 00 00
       0.0 0.0 0.0 0.0
0000e0 00 00 00 00 00 00 00 00 00 00 00 00 00 00 00 00
       0.0 0.0 0.0 0.0
0000f0 00 00 00 00 00 00 00 00 00 00 00 00 00 00 00 00
       0.0 0.0 0.0 0.0
000100 00 00 00 00 00 00 00 00 00 00 00 00 00 00 00 00
       0.0 0.0 0.0 0.0
000110 00 00 00 00 00 00 00 00 00 00 00 00 00 00 00 00
       0.0 0.0 0.0 0.0
000120 00 00 00 00 00 00 00 00 00 00 00 00 00 00 00 00
       0.0 0.0 0.0 0.0
000130 00 00 00 00 00 00 00 00 00 00 00 00 00 00 00 00
       0.0 0.0 0.0 0.0
000140 00 00 00 00 00 00 00 00 00 00 00 00 00 00 00 00
       0.0 0.0 0.0 0.0
000150 00 00 00 00 00 00 00 00 00 00 00 00 00 00 00 00
       0.0 0.0 0.0 0.0
000160 00 00 00 00 00 00 00 00 00 00 00 00 00 00 00 00
       0.0 0.0 0.0 0.0
000170 00 00 00 00 00 00 00 00 00 00 00 00 00 00 00 00
       0.0 0.0 0.0 0.0
000180 00 00 00 00 00 00 00 00 00 00 00 00 00 00 00 00
       0.0 0.0 0.0 0.0
000190 00 00 00 00 00 00 00 00 00 00 00 00 00 00 00 00
       0.0 0.0 0.0 0.0
0001a0 00 00 00 00 00 00 00 00 00 00 00 00 00 00 00 00
       0.0 0.0 0.0 0.0
0001b0 00 00 00 00 00 00 00 00 00 00 00 00 00 00 00 00
       0.0 0.0 0.0 0.0
0001c0 00 00 00 00 00 00 00 00 00 00 00 00 00 00 00 00
       0.0 0.0 0.0 0.0
0001d0 00 00 00 00 00 00 00 00 00 00 00 00 00 00 00 00
       0.0 0.0 0.0 0.0
0001e0 00 00 00 00 00 00 00 00 00 00 00 00 00 00 00 00
       0.0 0.0 0.0 0.0
0001f0 00 00 00 00 00 00 00 00 00 00 00 00 00 00 00 00
       0.0 0.0 0.0 0.0
000200 00 00 00 00 00 00 00 00 00 00 00 00 00 00 00 00
       0.0 0.0 0.0 0.0
000210 00 00 00 00 00 00 00 00 00 00 00 00 00 00 00 00
       0.0 0.0 0.0 0.0
000220 00 00 00 00 00 00 00 00 00 00 00 00 00 00 00 00
       0.0 0.0 0.0 0.0
000230 00 00 00 00 00 00 00 00 00 00 00 00 00 00 00 00
       0.0 0.0 0.0 0.0
000240 00 00 00 00 00 00 00 00 00 00 00 00 00 00 00 00
       0.0 0.0 0.0 0.0
000250 00 00 00 00 00 00 00 00 00 00 00 00 00 00 00 00
       0.0 0.0 0.0 0.0
000260 00 00 00 00 00 00 00 00 00 00 00 00 00 00 00 00
       0.0 0.0 0.0 0.0
000270 00 00 00 00 00 00 00 00 00 00 00 00 00 00 00 00
       0.0 0.0 0.0 0.0
000280 00 00 00 00 00 00 00 00 00 00 00 00 00 00 00 00
       0.0 0.0 0.0 0.0
000290 00 00 00 00 00 00 00 00 00 00 00 00 00 00 00 00
       0.0 0.0 0.0 0.0
0002a0 00 00 00 00 00 00 00 00 00 00 00 00 00 00 00 00
       0.0 0.0 0.0 0.0
0002b0 00 00 00 00 00 00 00 00 00 00 00 00 00 00 00 00
       0.0 0.0 0.0 0.0
0002c0 00 00 00 00 00 00 00 00 00 00 00 00 00 00 00 00
       0.0 0.0 0.0 0.0
0002d0 00 00 00 00 00 00 00 00 00 00 00 00 00 00 00 00
       0.0 0.0 0.0 0.0
0002e0 00 00 00 00 00 00 00 00 00 00 00 00 00 00 00 00
       0.0 0.0 0.0 0.0
0002f0 00 00 00 00 00 00 00 00 00 00 00 00 00 00 00 00
       0.0 0.0 0.0 0.0
000300 00 00 00 00 00 00 00 00 00 00 00 00 00 00 00 00
       0.0 0.0 0.0 0.0
000310 00 00 00 00 00 00 00 00 00 00 00 00 00 00 00 00
       0.0 0.0 0.0 0.0
000320 00 00 00 00 00 00 00 00 00 00 00 00 00 00 00 00
       0.0 0.0 0.0 0.0
000330 00 00 00 00 00 00 00 00 00 00 00 00 00 00 00 00
       0.0 0.0 0.0 0.0
000340 00 00 00 00 00 00 00 00 00 00 00 00 00 00 00 00
       0.0 0.0 0.0 0.0
000350 00 00 00 00 00 00 00 00 00 00 00 00 00 00 00 00
       0.0 0.0 0.0 0.0
000360 00 00 00 00 00 00 00 00 00 00 00 00 00 00 00 00
       0.0 0.0 0.0 0.0
000370 00 00 00 00 00 00 00 00 00 00 00 00 00 00 00 00
       0.0 0.0 0.0 0.0
000380 00 00 00 00 00 00 00 00 00 00 00 00 00 00 00 00
       0.0 0.0 0.0 0.0
000390 00 00 00 00 00 00 00 00 00 00 00 00 00 00 00 00
       0.0 0.0 0.0 0.0
0003a0 00 00 00 00 00 00 00 00 00 00 00 00 00 00 00 00
       0.0 0.0 0.0 0.0
0003b0 00 00 00 00 00 00 00 00 00 00 00 00 00 00 00 00
       0.0 0.0 0.0 0.0
0003c0 00 00 00 00 00 00 00 00 00 00 00 00 00 00 00 00
       0.0 0.0 0.0 0.0
0003d0 00 00 00 00 00 00 00 00 00 00 00 00 00 00 00 00
       0.0 0.0 0.0 0.0
0003e0 00 00 00 00 00 00 00 00 00 00 00 00 00 00 00 00
       0.0 0.0 0.0 0.0
0003f0 00 00 00 00 00 00 00 00 00 00 00 00 00 00 00 00
       0.0 0.0 0.0 0.0

transformer_encoder.layers.0.self_attn.out_proj.weight f4 [128, 128]
000000 87 67 07 bd 71 8e 86 3c 6f a7 cc 3c c7 f4 e9 bd
       -0.033057716 0.016425343 0.024982182 -0.11423641
000010 f5 71 f6 3c 26 bb 2d bd 3d c9 19 3d 89 dd cb 3c
       0.030083636 -0.042414807 0.03754543 0.02488591
000020 68 a7 c1 bd e6 68 74 bd a9 60 4a bb 23 e3 29 3d
       -0.09455758 -0.05967035 -0.0030880368 0.04147638
000030 83 1f 86 3d 85 82 4f 3c 21 f2 c1 3d 41 e6 62 bd
       0.06548979 0.012665396 0.094700105 -0.05539537
000040 8e c7 dd 3c 73 f1 0d bd 8f 6b a4 3c 32 54 df 3d
       0.027072694 -0.034654092 0.02007082 0.10904731
000050 e5 39 59 bd 1b 9f 0c 3b 77 03 25 3d 1a 20 04 bd
       -0.05303373 0.002145714 0.040286507 -0.032257177
000060 d3 2d 28 bd 83 ab 43 3d 5b 6c 17 3d ad 31 a7 bd
       -0.041059326 0.04777099 0.03696857 -0.08163772
000070 4f e6 bc 3d 8e ae c7 bd 44 55 b8 3c 04 b1 50 bd
       0.092236154 -0.097500905 0.022501595 -0.050950065
000080 5f 30 9f bd f3 21 c6 3d c7 b1 a8 bd 03 83 32 3d
       -0.07772898 0.09674444 -0.08237033 0.043581974
000090 fe dc 31 3d 1c 6c 50 bd 8e 15 40 3d ef f5 10 bd
       0.043423645 -0.05088435 0.046895556 -0.03539079
0000a0 2c 2f d4 3b bd 35 eb bc cf eb 6d bd dd 81 68 3d
       0.00647535 -0.028712148 -0.058086213 0.056764472
0000b0 a4 27 8d 3d 05 28 8c bc 51 65 1d bd 9b 46 b2 bd
       0.068923265 -0.017108927 -0.0384267 -0.08704873
0000c0 aa 5b 8c bd b7 92 92 bd fa c3 5b 3d df af b6 bc
       -0.06853421 -0.0715689 0.053653695 -0.022300659
0000d0 f2 e7 a5 bd df 29 a6 bd e4 0e 22 3b e0 78 b7 bd
       -0.08100881 -0.08113455 0.0024728114 -0.08958602
0000e0 86 fe da bc 06 47 a6 bd 8b 6b 59 3d ee b7 0b bd
       -0.026732694 -0.081190154 0.053081077 -0.034110956
0000f0 3c 47 0f bd 42 07 bd ba ff a6 f4 bc 0d 5f 3d 3d
       -0.034980044 -0.0014421719 -0.029864786 0.046233226
000100 91 38 26 bd 00 4e 3a 3d 99 09 4e 3d 70 9c 95 3b
       -0.04058129 0.045484543 0.05030212 0.004565768
000110 54 2c 92 bd 54 8d 78 3d 1c 69 52 bd cf 06 4c 3c
       -0.07137361 0.060681656 -0.05136977 0.012452795
000120 31 0b a3 3d 88 a5 66 bd 61 63 66 bd 2f 47 58 3d
       0.07961119 -0.056310207 -0.05624712 0.05280226
000130 d2 00 74 3c 77 25 a1 bd b4 2e 82 bc 40 cf 67 bd
       0.014892774 -0.07868474 -0.01589141 -0.056594133
000140 ff 31 78 3d 40 f1 87 3a b1 18 bd 3d b9 34 93 3d
       0.060594555 0.0010371581 0.09233225 0.071877904
000150 29 de 2f 3d dc 18 05 39 05 8b a0 3c 44 c0 32 bd
       0.042936478 0.00012693129 0.01959754 -0.04364039
000160 a9 9e 80 3d 46 1f cf bb 16 81 81 3d 77 a6 0b 3d
       0.06280262 -0.0063208668 0.06323449 0.0340943
000170 2c 2f fb 38 20 fa 23 bd 9c 1d 48 3d 44 dc 90 3d
       0.00011977399 -0.04003346 0.048856363 0.07073262
000180 4e b7 36 3d 13 02 bc 3d d1 59 77 3b fc 80 b3 3b
       0.044608407 0.09180083 0.0037742744 0.0054780226
000190 0e af 41 3d c8 12 a0 bc 2e 92 3a 3c 45 29 26 bd
       0.047286086 -0.019540206 0.011387391 -0.0405667
0001a0 25 9f 1f bd b7 82 9e bd 74 19 91 bd e6 be 8c bc
       -0.03897013 -0.07739776 -0.07084933 -0.017180871
0001b0 4e a0 81 3d 41 57 90 3b 98 e5 3d 3b c1 d0 dd bc
       0.06329404 0.0044049327 0.002897596 -0.02707708
0001c0 57 8c cd bc 7a 9d 85 3c e4 f9 b0 3d e0 f3 2a bc
       -0.025091333 0.016310442 0.08641413 -0.010434121
0001d0 59 0b e5 3d a1 a4 db bb e5 e2 65 3c 08 c6 40 bc
       0.11183805 -0.006702975 0.014031147 -0.011765964
0001e0 5b 01 15 3d c4 54 92 3d f2 b7 d2 bc c1 48 84 bd
       0.036378246 0.07145074 -0.025722478 -0.06459189
0001f0 c3 48 93 3d 7d 94 c7 3d a4 89 01 be 9c c5 a8 ba
       0.071916126 0.09745119 -0.12650162 -0.0012876275
000200 58 80 40 bc 4c 85 85 bd 0a 44 24 bb 80 81 85 3d
       -0.01174935 -0.06519565 -0.0025064969 0.06518841
000210 62 75 98 3d 45 67 39 3d 70 c2 cc 3a 0b 9a c2 3c
       0.07444264 0.0452645 0.0015621912 0.023755094
000220 db e5 2f 3b fa fe 7c bd 59 77 11 3c 21 22 52 bd
       0.0026839885 -0.061766602 0.008878552 -0.05130208
000230 14 8d a1 3d f5 cd e6 3c e1 b9 35 3d 7a fd 8b bd
       0.07888237 0.02817438 0.04436672 -0.06835456
000240 d3 7d 7c 3c 86 24 61 bc c4 e1 cd bc 9b 3d d3 bd
       0.015410858 -0.013741618 -0.025132068 -0.10314485
000250 35 5d ab 3a 9b 9d aa 3c 3b ff 8b bc f4 8b b7 3c
       0.0013074043 0.020827105 -0.017089477 0.022405602
000260 dd bf 38 bd f8 9d 9b 3b ab 14 f2 3b 0f f4 0b 3d
       -0.04510485 0.004749056 0.0073877177 0.0341683
000270 ef 80 02 3b 10 8b cc bb 21 f3 5c bc b3 96 c0 bd
       0.0019913276 -0.0062421635 -0.013485701 -0.094037436
000280 91 fa 48 3d 95 db c3 3c 3a 52 a3 3d b8 c2 f3 ba
       0.049067084 0.023908416 0.07974668 -0.001859746
000290 f9 46 9e 3c c9 7e c6 bc b2 74 d6 bd 0b 52 82 bd
       0.019320952 -0.024230378 -0.104714766 -0.06363305
0002a0 5f dd 18 bd 53 ee 32 bd a2 18 49 bd 6c 39 1d 3d
       -0.03732049 -0.043684315 -0.049095757 0.03838484
0002b0 da 34 32 3d 69 61 1f 3d 11 9e 89 bd b9 5e b6 3d
       0.043507434 0.038911257 -0.06719602 0.08904786
0002c0 db e6 67 bd aa e9 8d bc fc b4 8c 3b 6d 5d 57 bd
       -0.056616645 -0.017323334 0.004294036 -0.052579332
0002d0 cc 98 11 bb b1 b8 51 bb 73 d4 49 bd 18 c9 c2 3d
       -0.0022216318 -0.0032000954 -0.049274873 0.09511012
0002e0 65 cf 9a bc f3 28 fe bc e7 ba 4a 3d fe c7 27 bc
       -0.018897722 -0.031025385 0.04949465 -0.010240553
0002f0 be 23 f2 3c e3 3a 9c 3d 84 10 7a bd b3 9f 74 3d
       0.029558059 0.07628419 -0.061050907 0.059722614
000300 cf a7 9e 3c 53 3e f3 bc b3 3a a9 3d 0e 54 73 bc
       0.019367127 -0.029692804 0.08263149 -0.014851583
000310 81 d0 31 3d 5f f0 0a bd c5 b7 cb 3b b6 01 61 3d
       0.043411735 -0.033920642 0.0062169754 0.054933272
000320 3f 9f b0 3d 30 03 07 bd 8f 89 b8 3d 75 7c 4f bd
       0.08624124 -0.032962024 0.09010612 -0.0506558
000330 2c 26 f8 bc b5 43 01 3d 6e 2f 08 bc 92 c4 a1 3d
       -0.03029164 0.03155871 -0.008312089 0.07898821
000340 c7 90 2b bd 35 c7 a3 bd fe 29 98 bd 96 5b 03 bd
       -0.041886117 -0.0799698 -0.074298844 -0.032069765
000350 7d 79 82 bd bf e1 3c 3d 70 bf b3 bd b3 fe 53 bc
       -0.06370828 0.046113726 -0.08776748 -0.012939143
000360 91 d9 42 bd 59 76 a6 3c 67 4d 0c bd 2c df 72 bd
       -0.04757077 0.020320104 -0.034253504 -0.059294865
000370 05 c3 40 3d 44 34 97 3c 98 a3 91 3d 1b ec 00 3d
       0.047060985 0.01845754 0.07111281 0.031475168
000380 9a d7 42 bd 1d 79 04 3d af 7c 85 3d 34 4f 7b bc
       -0.047568895 0.032342065 0.06517922 -0.015338708
000390 08 48 88 3d 63 30 08 bd 02 c5 32 3d ee 8d 56 bd
       0.06654364 -0.03324927 0.043644913 -0.05238145
0003a0 ae e1 23 bd d8 19 68 3b f5 3b 05 bd f9 38 ea 3d
       -0.040010147 0.0035415795 -0.032527883 0.11436648
0003b0 3a f2 d8 3c 5d eb 38 3d 33 cb 01 3c 26 6f e7 3c
       0.02648269 0.045146335 0.007921982 0.028251242
0003c0 f4 ba c0 bd 1b 10 8b 3c 0c 32 28 bd 92 82 a0 3d
       -0.094106585 0.016975453 -0.041063353 0.07837404
0003d0 85 c8 99 bd 59 7c 9b 3d 5a 50 84 bd 1d 2c f6 bc
       -0.07508949 0.07592077 -0.06460638 -0.030050332
0003e0 bc e8 02 bd 83 be 65 3c b4 45 8f 3d 8b 7a 43 3c
       -0.031960234 0.014022472 0.06995717 0.011931072
0003f0 c3 20 b4 bd ac c0 61 3d 93 75 a7 bd 2a 1e af 3d
       -0.08795311 0.055115387 -0.081767224 0.08550675

transformer_encoder.layers.0.self_attn.out_proj.bias f4 [128]
000000 79 0e b6 bc b6 ff f7 bb f6 ec bc 3b d1 2b 05 3c
       -0.022223698 -0.007568325 0.0057655526 0.008128122
000010 14 bf 56 3b 0d e2 16 3c 8a 3b e0 ba e1 79 61 3b
       0.00327677 0.009209168 -0.0017107588 0.003440492
000020 ea 91 15 3c 18 38 c3 3a 66 3c 2c 3c 40 fc 5a bc
       0.009129027 0.0014894037 0.010512447 -0.013365805
000030 53 8a 6f bc 9f 38 d4 3c 60 75 b6 3b 17 a7 01 3b
       -0.014620381 0.025905905 0.0055681914 0.0019783431
000040 29 2d d2 bb 49 3c 83 bc 8c 7a 4b 3c e5 e8 00 bc
       -0.006414075 -0.016019957 0.012419354 -0.007868026
000050 45 cc 0a 3c 57 0b df 3a aa 8e a5 b7 3b a9 1e 3c
       0.008471553 0.0017016929 -1.9735966e-05 0.009683902
000060 2e 89 a5 3b 27 05 19 bc 01 ad c5 bc be 20 40 3c
       0.0050517535 -0.009339607 -0.024130346 0.011726556
000070 95 31 fe 3b 12 3e e1 ba f0 3d 73 3b ac dc b0 bc
       0.0077573755 -0.0017184636 0.0037115775 -0.0215896
000080 ba df fa bb 4f ac 3a bc e1 75 81 3c ea 9c a2 bc
       -0.007656065 -0.011393621 0.01580328 -0.019850213
000090 ab 48 e6 3b fd 83 ae 3b 7e 5a 4c 3c 3c cf d5 ba
       0.0070277057 0.005325793 0.012472747 -0.0016312371
0000a0 f0 24 10 3c 6e aa 86 3c 83 95 b2 3b 28 bf 91 3c
       0.008797869 0.01643869 0.005449952 0.017791346
0000b0 e1 70 62 bc ac 8a 93 bb 5f 62 09 bc c9 6b 1e bc
       -0.013820858 -0.004502615 -0.00838527 -0.009669253
0000c0 13 27 72 bc 51 92 84 bb 36 f1 bc 3b b8 39 6c bb
       -0.014779824 -0.0040457626 0.0057660593 -0.0036045145
0000d0 24 b8 c1 bc b6 43 cd 3c 1c 40 c1 3b a2 df 8b 3c
       -0.023647375 0.025056701 0.005897535 0.01707441
0000e0 8b 8e 2b bc d6 1e 2e 3c ba 93 3c 3b 52 f9 30 bb
       -0.010470997 0.010627469 0.0028774575 -0.0027004075
0000f0 bf 53 61 bc ba 9d b5 3c 00 a4 59 ba 6c 8f b8 bc
       -0.013752877 0.022169936 -0.0008302331 -0.022529326
000100 96 3b 85 bb d5 c5 91 3c 76 fe 9b 3b 8e 48 2e 3c
       -0.004065941 0.017794529 0.0047605587 0.010637416
000110 3c 3d 66 3c 29 9e 07 bc 68 7a 36 bc e8 c9 42 3a
       0.014052685 -0.008277454 -0.011137582 0.0007430599
000120 fd 5a a4 3c 9a 1f 02 bd b1 9d 5f bb d1 e3 cc 3b
       0.020062918 -0.03176842 -0.003412109 0.006252744
000130 46 ec 41 bc 95 f3 42 bb 6c 5f c7 bb b0 62 a0 bb
       -0.011836117 -0.0029747237 -0.006084373 -0.004894577
000140 23 e4 54 3a cc 38 0d 3c 83 44 b5 3b ad e9 bb 3b
       0.0008121153 0.008619498 0.005531849 0.0057346434
000150 db da d4 bb 12 6a 0b 3c 7f 5b 6f 3c d1 71 87 3c
       -0.006495816 0.008509176 0.014609217 0.016533764
000160 8c 8a 50 bb 1b 6d 6a bc c0 6b b4 3c e4 c8 57 bc
       -0.0031820862 -0.014308239 0.022024035 -0.013170455
000170 4e ac 06 3c cb 73 2d 3b 25 7d 54 3c ef 0a 1b 3c
       0.008219792 0.0026466723 0.01296929 0.009463056
000180 d3 0d 5c bb b4 0c ef 3b 98 56 72 bc 2b 7b f8 bb
       -0.0033577576 0.0072952155 -0.014791153 -0.007583042
000190 bb 51 8c bc fd 3a 9a bc 58 47 75 bc 4c 2d f9 bb
       -0.017128816 -0.018826956 -0.014970623 -0.0076042768
0001a0 cc 00 f9 bb 70 fc 31 bc f8 f2 0c 3c ad 36 8c bc
       -0.007598972 -0.010863408 0.00860285 -0.017115915
0001b0 15 a8 e5 3b 1e 55 f7 3b 63 f2 ea 3c ec fa 4e 39
       0.0070085623 0.0075479886 0.028680032 0.00019739167
0001c0 6a c0 7c bc 1c ce e8 ba f9 35 02 3c a4 f4 99 b9
       -0.015426734 -0.0017761621 0.007947438 -0.00029364706
0001d0 98 a9 90 bb 80 2b 92 bb f9 fc a7 3b 77 6c e1 ba
       -0.0044147484 -0.004460752 0.0051265922 -0.0017198463
0001e0 59 52 a8 3b 14 55 45 3b 0c 2a 00 bb dc fa bb bb
       0.0051367697 0.0030110525 -0.0019556312 -0.005736692
0001f0 0f 9a f4 3b 52 e2 6e bc 46 a1 a0 bb 8f 3a 5e bc
       0.0074646543 -0.014580326 -0.004902038 -0.013563766

transformer_encoder.layers.0.linear1.weight f4 [128, 128]
000000 fc 06 45 bd b0 4a 82 bd ea d0 28 3d e8 29 36 bd
       -0.048102364 -0.06361902 0.04121486 -0.04447356
000010 b4 e2 26 bd d8 bf d6 3c bc 77 af bd c6 a7 cf 3c
       -0.040743545 0.026214525 -0.085677594 0.025348555
000020 13 40 9b 3d 47 62 db 3d fb ad 4b bd 87 60 cc 3d
       0.075805806 0.10712104 -0.049726468 0.09979349
000030 16 b5 76 3d ac 41 8f bd 4c 46 cd 3c bd 9d eb 3d
       0.06023129 -0.06994948 0.025057934 0.115046956
000040 b0 8e 22 bd 5a eb eb 3c 0b 37 34 3d 03 b1 e3 3c
       -0.03968686 0.028798748 0.043997806 0.027794367
000050 ed 1b 60 3c 38 a0 26 3e 79 8e 12 bc 98 8b 93 bd
       0.013678533 0.16272056 -0.008945101 -0.0720436
000060 1a 4e 1f bc 8d e5 26 3c 52 9c 9b 3d da 1c 31 bd
       -0.009723211 0.010186565 0.07598175 -0.043240406
000070 8a 38 31 3d 85 1d 23 3d a1 14 bb 3c 3c e6 b2 bc
       0.04326681 0.039823074 0.022836985 -0.0218383
000080 ba 73 ae 3d b9 1b 86 bc c9 0a 80 3c c6 f7 e7 3c
       0.08518167 -0.016370641 0.015630143 0.02831639
000090 b4 58 8e bd 48 b8 42 3d e8 db e9 3b 1b 4d eb bc
       -0.069505125 0.047539026 0.0071368106 -0.02872329
0000a0 4e c5 7b 3d 64 88 eb 3d 78 4d 43 bc 2f 13 e5 3b
       0.06146746 0.11500624 -0.011920325 0.0069908123
0000b0 20 72 b0 bd d6 92 82 bc 89 e6 68 bb b9 28 07 3b
       -0.086155176 -0.015939157 -0.00355378 0.0020623638
0000c0 51 ad 24 bd 8e d7 90 3c 7a af bb ba a3 95 8e bc
       -0.04020435 0.01768091 -0.0014319264 -0.017405337
0000d0 df a2 92 bc ac 38 3a 3d d0 87 72 3c fb 0f 8e 3d
       -0.017899929 0.045464203 0.014802888 0.06936642
0000e0 fe 69 d1 3c 14 34 f1 3c 7c 7a 50 bd dc 67 4f 3d
       0.025563236 0.029443778 -0.05089806 0.050636157
0000f0 f1 b3 7f 3d 1f b7 cd 3c e4 c0 06 3d 28 a4 9e 3d
       0.062427465 0.025111733 0.0328988 0.07746154
000100 85 32 81 bd 30 12 fc bd a8 da 65 38 36 5b 7d bd
       -0.06308464 -0.123081565 5.4801494e-05 -0.061854564
000110 02 9f d4 3d 34 9f c1 bd 26 7b a2 3d f5 8c 8f 3d
       0.10381891 -0.09454194 0.07933645 0.07009307
000120 d6 91 39 3d e0 47 c1 3b d0 55 83 3d 32 95 22 3c
       0.045305096 0.0058984607 0.06412852 0.009923266
000130 ed 97 b1 3b 20 55 8a bb 27 ab 2d bd 53 fb be 3b
       0.0054197223 -0.0042215735 -0.04239955 0.0058283
000140 27 2a f1 3d 1a 97 0b 3b 91 dd e9 3c df cf e2 3c
       0.11775618 0.002129978 0.028548034 0.027687011
000150 3f 2e 79 bd af 20 2a bd dc e6 44 3d fd 0d 6b bd
       -0.06083512 -0.041535076 0.048071727 -0.057386387
000160 c4 f9 35 3d e9 92 07 bd 8d 66 c3 3b d9 17 41 bc
       0.04442765 -0.03309909 0.0059631527 -0.011785471
000170 c4 7d 55 3d 11 a5 de bd 37 c5 90 3c f5 29 56 3d
       0.052121893 -0.10871328 0.017672164 0.052286107
000180 59 86 99 3d 0c 7f 0d b9 c6 dc b0 bc 76 5e 22 3d
       0.07496328 -0.00013494137 -0.021589648 0.039640866
000190 ca f1 97 bd 19 b9 37 bd e3 eb 1c 3d 09 b6 9a bb
       -0.074191645 -0.044854257 0.038310897 -0.0047214073
0001a0 4b 4f 2e 3d ea e8 8b 3d 1a 18 90 3d 87 b3 3f bd
       0.04255609 0.06831534 0.07035847 -0.04680207
0001b0 33 a4 47 bd f1 ed cd 3c 55 4d 39 3d 01 e2 b6 3d
       -0.048740577 0.025137873 0.045239765 0.089298256
0001c0 28 fd 8a 3c 1c 12 ae bd 85 86 90 bd a0 99 21 bc
       0.016966417 -0.08499548 -0.070569076 -0.009863287
0001d0 7f 24 0a bc 24 2f a1 3c 0f fa ed bd 22 61 de bc
       -0.008431553 0.019675799 -0.116199605 -0.027145926
0001e0 30 ab 94 3c af 9f 93 bc 9e 13 24 bd 4b 42 af 3b
       0.018148035 -0.018020479 -0.04005777 0.005348479
0001f0 f2 17 b7 3d 87 71 2e 3d 49 9e 85 3d db 94 1b bd
       0.08940114 0.042588737 0.06524331 -0.037983757
000200 8e 26 45 3d 4b 8e 99 3d 4a 20 4a 3c 96 a9 56 3d
       0.04813247 0.07497843 0.0123368 0.052407824
000210 4a b7 81 3d d6 f3 dd bc 00 5d a9 ba ee 52 93 3d
       0.06333788 -0.02709381 -0.0012921393 0.07193552
000220 88 1c b4 39 00 44 f4 3a 47 97 08 bd e8 e0 8e 3d
       0.00034353533 0.0018635988 -0.033347394 0.06976491
000230 5e ce 0f 3d 94 42 2f 3c 5b f7 5d bd e7 95 33 3d
       0.035108916 0.010697026 -0.054190975 0.04384413
000240 62 d1 b5 ba b8 7e f7 bb 1d 17 74 bc f8 34 d5 3d
       -0.0013871605 -0.007552948 -0.014898089 0.104104936
000250 92 c7 9d bd 76 88 bd bc 67 d8 23 bd ab ea c8 bd
       -0.07704081 -0.023136359 -0.0400013 -0.09810384
000260 f5 35 76 3d 82 b2 d0 3c d1 fa 99 bd f2 32 93 3d
       0.06011005 0.025475744 -0.075185426 0.071874514
000270 07 7a c8 bd bf 26 87 bd 28 3c 06 3d 3a 16 7e 3d
       -0.097889 -0.06599187 0.032772213 0.062032916
000280 25 ab 28 3d 1e 24 d9 bc 5c 23 d0 3c 4a ca e0 bd
       0.04117884 -0.02650648 0.025407486 -0.109760836
000290 a2 ad 93 bc f3 6c e9 bd 02 1e a5 bb 22 db 0d bd
       -0.01802713 -0.113977335 -0.0050389776 -0.03463281
0002a0 78 3e 0d bc 05 eb 42 bc 0b 12 40 3d 60 52 1d bd
       -0.008620851 -0.011896853 0.046892207 -0.038408637
0002b0 f6 91 59 3d 0a e7 2e bd 81 94 df 3c 9f fc 7b bd
       0.053117715 -0.042700805 0.027292492 -0.061520215
0002c0 12 07 aa bc 2d 66 f5 3d 31 97 cb 3d fb 33 40 3c
       -0.020755325 0.11982379 0.09940947 0.011731143
0002d0 bf d3 d1 bd 1b 72 cb 3d 62 3a a0 bd db f6 5b bc
       -0.102454655 0.09933873 -0.07823636 -0.013425554
0002e0 5a f5 2b bd 81 9e 45 bd e0 78 a2 3c e8 cb 54 3d
       -0.041982032 -0.048246864 0.019833028 0.051952273
0002f0 bd e2 ba 38 ae 40 9f 3c 56 6a f6 bc 6b 75 8e 3d
       8.9114044e-05 0.019440021 -0.030080002 0.069559895
000300 74 29 2e bd f9 27 92 3d d7 25 7f 3d c8 b2 8b bd
       -0.04252 0.071365304 0.062291946 -0.06821209
000310 f0 8c da bd 4e c6 d3 bd 5d 28 5f 3a d7 80 ff bd
       -0.10671413 -0.10340558 0.00085127895 -0.12475746
000320 30 9d 23 3c b7 f5 63 bc 67 0e 57 3d c8 61 0b bd
       0.009986207 -0.013913563 0.05250397 -0.0340288
000330 50 a3 2f 3c e3 55 0c 3d 95 cb 23 3d a2 99 26 bb
       0.010720089 0.034261595 0.039989073 -0.0025421162
000340 c9 e8 b4 3d 11 ae 4b bd 9e 73 73 3b 6a 1a 80 bc
       0.08833463 -0.04972655 0.003714777 -0.015637595
000350 61 19 e0 bc b0 67 dd 3d 3e be 83 bc 64 4b e0 bd
       -0.027355852 0.108107924 -0.016081925 -0.109518796
000360 a2 e2 d1 bd 72 e2 b5 3c 4c cf 5f 3c 80 6e b1 3d
       -0.10248305 0.022202704 0.013660263 0.08663654
000370 9e ce 3a 3d 32 c6 f9 3d 27 79 da 3a 5c 07 39 bd
       0.0456072 0.12196006 0.0016668186 -0.045173034
000380 6c f6 07 3d 3d 58 b9 3d 81 a7 7a bd 08 33 2c bd
       0.03319399 0.09050033 -0.0611949 -0.042040855
000390 6f 47 9a 3c 75 bf 8a bd 22 05 94 3d ca 1e 55 3b
       0.01883289 -0.06774799 0.072275415 0.0032519572
0003a0 4f 7b c5 bd 5b ee 21 bd 86 cb 94 3d 24 cf d5 3c
       -0.0964266 -0.039533954 0.072653815 0.026099749
0003b0 e6 28 75 bd aa 0a 9c bd d4 c9 6e bd 93 a3 0f 3d
       -0.059853457 -0.076192215 -0.058297947 0.035068106
0003c0 64 24 6b bd a6 4d ae bd 78 d1 55 3d 5a d4 88 3d
       -0.05740775 -0.08510904 0.052201718 0.06681128
0003d0 a5 02 28 3d b2 b4 89 bd 29 49 03 3e 60 dc f5 bc
       0.041018147 -0.06723918 0.12820877 -0.03001231
0003e0 0a 91 2f bd 89 95 b9 bd 20 99 42 3d 8f fb 39 3d
       -0.04286293 -0.09061725 0.047509313 0.04540592
0003f0 31 ca a5 3c d3 e2 5c 3d 48 89 42 3d e0 94 be 3d
       0.020238014 0.053927254 0.047494203 0.093057394

transformer_encoder.layers.0.linear1.bias f4 [128]
000000 0f 8c e3 bc 28 34 67 bd 9a 75 ab 3c 25 af 75 bc
       -0.027776746 -0.056446224 0.0209301 -0.014995371
000010 bf 3c 0b 3d a6 18 43 bd 75 b9 10 3d 8d 46 ec bd
       0.03399348 -0.04763093 0.035333116 -0.11536894
000020 8d 52 a8 bd 8c ee d2 3a b9 67 2f bd a0 04 47 bd
       -0.0821887 0.0016092821 -0.042823527 -0.048588395
000030 6f 89 9b bd 35 45 ce 3c 1e aa d6 3c 6d 7c 37 3d
       -0.07594573 0.025179485 0.026204165 0.044796396
000040 5a 74 62 bc 83 61 9b 3d 78 0a 96 bd c9 14 74 bd
       -0.013821686 0.07586958 -0.073262155 -0.059590135
000050 13 af 97 bd d2 e8 91 bd 97 97 0f be ac e3 8c bd
       -0.0740644 -0.07124485 -0.1402267 -0.068793625
000060 ff 14 1e 3d a9 0b 99 bd a4 b3 67 3d df e7 17 bd
       0.038594242 -0.07472927 0.056567803 -0.037086364
000070 2c 49 3c bd 5f 21 4f 3d 8b 6d 28 3d 5a 85 94 bd
       -0.04596822 0.050568935 0.041120093 -0.07251997
000080 eb 51 1d 3d cd a5 c0 bd ca d7 fb 3c a9 59 9d bc
       0.0384082 -0.09406624 0.030742545 -0.019207792
000090 0e db 6d bc c1 cf b3 bd 68 2c 6e bd 50 e7 4c bd
       -0.014517559 -0.0877986 -0.058147818 -0.050025284
0000a0 e0 e7 86 3b 87 0c ff 3b d7 a8 e3 bc 35 5d 09 be
       0.004116997 0.007783476 -0.02779047 -0.13414462
0000b0 1b 26 2a bd ec 34 01 3d 93 05 be 3c bd d7 e9 3c
       -0.041540246 0.03154461 0.023196017 0.028545255
0000c0 47 ad f4 bc 34 13 ee bd 9a 13 0a 3c f4 02 0c bc
       -0.029867781 -0.116247565 0.008427525 -0.008545626
0000d0 3a 7d 85 bd e6 eb b5 bc 1a 6b c7 bc df 2f ca bb
       -0.06518026 -0.022207212 -0.024343062 -0.0061702575
0000e0 54 a8 91 bc d0 44 d6 bc bd 4c de bd 8a 25 a8 bc
       -0.01778046 -0.02615586 -0.108544804 -0.020525713
0000f0 2b 69 1a bd 52 08 dc bd 1f 5e 82 3d e8 5a 04 bd
       -0.037697952 -0.107437745 0.063656084 -0.032313257
000100 a9 18 08 bd 37 57 2e 3d 71 91 86 3d 1f 2c 1c bd
       -0.033226643 0.042563643 0.065707095 -0.038128015
000110 42 f8 89 3d d4 08 9d b8 81 25 77 bd 95 c2 62 3d
       0.067368045 -7.487988e-05 -0.0603385 0.05536135
000120 0b 49 31 bd 69 38 37 bd a3 06 b4 bd 70 d0 9f 3d
       -0.04328255 -0.04473153 -0.08790328 0.07803428
000130 44 a0 00 bd f8 d4 30 3d 35 77 bc bd b3 6c e5 bd
       -0.03140284 0.043171853 -0.092024244 -0.11202373
000140 15 13 aa bd 2c 0d 9a bd 07 94 16 bd 4b 33 d0 bd
       -0.08304421 -0.075220436 -0.036762264 -0.10166033
000150 aa af 05 bd 8a 8f d0 bd de c3 d4 bd 5a bb cc bd
       -0.03263823 -0.10183628 -0.10388921 -0.09996672
000160 5b e6 62 bd a1 74 5e bd da fc 6b bd a6 cb e2 3c
       -0.055395465 -0.054310445 -0.057614185 0.027684998
000170 15 e6 9e bd bc 31 b4 bd 9f 36 94 bd d9 c7 bc bc
       -0.077587284 -0.087985486 -0.07236981 -0.023044514
000180 00 cc 6f 3d 6c 99 33 bd 20 41 7e 3d 7f 74 70 3d
       0.05854416 -0.043847486 0.062073827 0.05870485
000190 b5 25 88 bc 63 6a 7a bd 7a de 28 bd f4 02 24 3d
       -0.016619543 -0.061136615 -0.041227795 0.04004188
0001a0 0a 88 0c bd a7 1b 87 bc 7c 22 c0 bd 77 2b f7 bc
       -0.034309424 -0.016492678 -0.093815774 -0.030172093
0001b0 ec 23 db bd 79 f3 2b 3d aa 9c 31 bc cd 56 15 bd
       -0.10700211 0.04198024 -0.010840574 -0.036459733
0001c0 50 cd 6d bd a5 78 a5 bc 75 04 17 3d 3c 59 d4 bc
       -0.05805713 -0.02019913 0.036869485 -0.025921457
0001d0 ef 13 66 3d 12 ad c3 bb 3d 20 57 bd 0a 1f 00 3d
       0.056171354 -0.0059715593 -0.05252098 0.0312796
0001e0 b7 0c a1 bd ff 41 fc bc 12 28 0b 3d e5 ee c1 bc
       -0.07863753 -0.030793188 0.03397376 -0.023673484
0001f0 44 95 19 3d 95 74 c6 bd 58 d0 e4 3b e0 2b 31 bd
       0.037495866 -0.09690205 0.0069828443 -0.043254733
