models_transformer_encoder/transformer_encoder_model_fold_3.pth (torch, 822178 bytes, 28 tensors)

embedding.weight f4 [128, 25]
000000 cf f4 14 3e 3f 2c ef bd 21 c7 de bd 0c 5b a2 bd
       0.14546512 -0.11678361 -0.108778246 -0.07927522
000010 75 2e 8e bc 71 0b 0c 3e 1d 0d 35 bd 1f fb c4 bd
       -0.017356137 0.1367624 -0.04420196 -0.0961821
000020 31 2d 43 3e 4c 86 fd bc 83 29 b3 bd 0a ce 03 be
       0.19060208 -0.030947827 -0.08748152 -0.12871566
000030 ca 31 fc 3d 19 07 d2 3d 42 4e 14 be 31 30 30 bd
       0.12314184 0.1025526 -0.14482978 -0.04301471
000040 1c 21 39 be 17 11 41 be 9f dc b7 bc 82 2e fd 3d
       -0.18079036 -0.18854176 -0.022444068 0.12362386
000050 72 95 ed bd 22 13 bd bd d1 73 ed bd 7f b6 8f 3d
       -0.1160077 -0.09232165 -0.11594356 0.0701723
000060 31 a1 05 be 70 2f 3f 3d 0b 03 9e bd 4c 59 3e 3d
       -0.13049771 0.0466761 -0.07715424 0.04647188
000070 81 c5 c1 bd b7 9a ad bd 5c b5 af bd 81 44 e0 3d
       -0.09461499 -0.08476775 -0.085795134 0.10950566
000080 96 69 e6 3a c2 79 b6 3d 57 83 6d 3d bb 4a 7e 3d
       0.0017579074 0.08909942 0.057986584 0.062082987
000090 4c 6f c9 bd 16 5c 1c be 68 0d 2d 3e 2f d3 ef bd
       -0.09835681 -0.15269503 0.16899645 -0.11710202
0000a0 1b 61 e8 3c 49 be 06 3e a1 af ab bd fc 66 6f be
       0.028366616 0.13158526 -0.08383108 -0.23379129
0000b0 75 a6 13 3e 59 e6 a7 bd 41 25 0a 3e 45 a8 16 bd
       0.14418967 -0.08198232 0.13490774 -0.036781568
0000c0 99 83 d6 3d 64 cd c8 3d 84 37 24 be 05 46 45 3c
       0.10474319 0.098048 -0.16036803 0.01204062
0000d0 9b f8 03 be b1 83 00 3e 1d e7 b0 bd a2 69 f4 bd
       -0.12887804 0.12550236 -0.08637831 -0.1193421
0000e0 18 04 e2 bc 4d 32 56 be 55 34 5e 3d 6e c9 93 3d
       -0.027589843 -0.20917626 0.054249126 0.07216154
0000f0 c6 ff 2d 3e 3c 36 1d 3d d7 b0 0d 3d 71 37 49 3e
       0.16992101 0.0383818 0.034592476 0.19650055
000100 ad 77 23 be 47 41 9b 3d 90 87 a2 3d 6f 72 83 3d
       -0.15963621 0.0758081 0.07936013 0.06418311
000110 4f b5 8f 3e ff c2 1d be 41 f1 3a 3e c5 4c 97 bd
       0.28068015 -0.15406416 0.18256094 -0.073876895
000120 f2 78 66 bd 6e bf 6d 3e 6d f9 1a 3e 31 38 4a 3d
       -0.056267686 0.23217556 0.15134211 0.049369995
000130 e0 09 3a bd df 7e 55 3d 29 9b a3 3d 2c dd 3d 3e
       -0.045419574 0.052122947 0.07988579 0.18541402
000140 5b b8 43 3e 56 0f 14 3e fd a6 32 be e8 1e f8 3c
       0.19113295 0.14458975 -0.17446513 0.030288175
000150 ce e2 3e be 49 61 fa 3d bc e3 87 bc 9a bb e0 bc
       -0.18641207 0.12225587 -0.016588084 -0.027433205
000160 5b db ea 3d 2c e9 ac bd 8d 91 df bd ce b9 da bc
       0.1146762 -0.084429115 -0.109164335 -0.026699927
000170 cd 6e d8 3d 2e fa 40 3d 36 25 cf 3d 91 d3 1a be
       0.105680086 0.04711359 0.10114519 -0.15119769
000180 71 83 25 bd 81 75 99 3c c9 63 34 3e 3c 80 eb bd
       -0.040408555 0.018732788 0.1761619 -0.11499068
000190 c1 7d 02 3b 05 73 95 3d a5 7b 99 3c 6c 57 3c 3e
       0.001991138 0.07297329 0.018735716 0.18392724
0001a0 11 af 4d 3e 4f 29 42 bd 81 b0 5a bd f8 72 08 be
       0.20086314 -0.047402676 -0.053390983 -0.13325107
0001b0 13 55 3b 3e a4 3a 1d 3e cc 2a 05 3e 34 5c 30 3e
       0.18294172 0.15354401 0.13004607 0.17222673
0001c0 60 13 90 bd 60 9e 60 3d 75 88 05 be 74 ff 98 3d
       -0.070349455 0.05483854 -0.13040335 0.07470599
0001d0 4d a9 f3 3c 0d ef e9 3c f6 78 02 3e 7a e1 2f 3e
       0.029743815 0.028556371 0.12741455 0.17175856
0001e0 bf 71 6d 3c a6 67 81 bd 5f a3 dc 3d f4 92 82 bd
       0.014492451 -0.063185975 0.10773348 -0.06375685
0001f0 2e f0 11 3e 64 11 54 3d 87 47 34 3e ee 05 03 3e
       0.14251778 0.051774397 0.1760541 0.12795231
000200 8f 6d c0 bd 4a fc d2 bd 74 9c 5e bc 5d a6 1d bd
       -0.09395897 -0.103020266 -0.013587106 -0.038488735
000210 26 5d 00 be e9 55 47 3e 85 00 f6 3d 40 1e 35 3e
       -0.12535533 0.19466366 0.12011818 0.1768732
000220 87 93 dd 3d cf 6e 37 3e 74 1d b1 bd cf 79 bb bd
       0.10819154 0.17913364 -0.08648196 -0.091540925
000230 a9 73 32 3e f5 3c 41 3d 80 58 1b 3e 19 09 34 be
       0.17426933 0.047177274 0.15170479 -0.17581595
000240 84 12 a1 bd b4 c9 1a bc d0 03 d0 bc 46 7f 38 3c
       -0.0786486 -0.009447504 -0.025392443 0.011260813
000250 46 00 fc bd 4b d7 26 3e 44 fa fa 3d 0e d8 dc 3d
       -0.1230474 0.16293065 0.12254766 0.10783397
000260 7e 38 5f bd 21 5f 0f 3e d5 61 ab bb 45 73 27 3e
       -0.054497235 0.14001133 -0.0052301683 0.16352566
000270 b1 dd 15 be be aa 3e be d6 8b 83 3d c9 4d 48 3e
       -0.1463535 -0.1861982 0.06423156 0.19560923
000280 d9 ab 22 3e ae 99 1f 3d 60 e8 30 be 37 0c 2a 3e
       0.15885867 0.03896492 -0.17276144 0.16606222
000290 69 98 52 bd ba 78 e9 bd 7b 89 1a be b2 af 29 be
       -0.05141488 -0.1139998 -0.15091507 -0.16570929
0002a0 f6 ce 43 3e 7e 80 85 3d 87 7a 13 be 04 37 2c be
       0.19121918 0.065186486 -0.14402209 -0.16817862
0002b0 28 7a c3 3d ff 90 92 bc a6 17 da 3d 2c 44 96 3d
       0.09544784 -0.017891405 0.10649042 0.073372215
0002c0 cc 7a e9 3c b3 2b e6 3d 3f e3 33 3e e5 22 03 be
       0.028500937 0.11238804 0.17567156 -0.1280628
0002d0 63 4f ac 3d 4b 94 58 be e7 d7 b6 3d 00 a8 23 be
       0.08413579 -0.2115032 0.08927899 -0.15982056
0002e0 cc 98 df 3d ee ef 1d bd 1e 9d 8a bd e6 ea bc 3d
       0.109178156 -0.038558893 -0.06768249 0.09224491
0002f0 5d bc d1 3d 86 50 43 be a6 ce 04 be a4 46 b6 3c
       0.102410056 -0.19073686 -0.12969455 0.022250481
000300 d2 50 b6 bc ca fc 21 3e c9 ed 1a bc f5 2a bb 3d
       -0.022255335 0.15819088 -0.009456106 0.09139053
000310 04 e7 d6 3d 84 04 c7 bd ba fd cd bd 7f 20 3a 3e
       0.104932815 -0.09717658 -0.1005816 0.18176459
000320 b4 8d bb 3c 62 1f ea 3d 98 10 bb bd 86 2b 18 be
       0.022894718 0.11431767 -0.091340244 -0.14860353
000330 fe 42 1b 3e 17 75 e8 bd fa 78 41 be 7b 02 3a be
       0.15162274 -0.11350458 -0.18893805 -0.18165009
000340 da b7 a1 bd f9 e7 0e bd 44 49 cd bd 25 a8 c8 3d
       -0.07896395 -0.034889195 -0.1002374 0.09797696
000350 a6 47 47 3d d4 60 66 3d b3 f2 e9 bd 1d 0d 24 be
       0.048652314 0.056244686 -0.11423244 -0.16020627
000360 82 f7 8f bd f1 dd fe bd 3c e9 cb bd 10 f2 b3 bd
       -0.0702963 -0.12444676 -0.09956595 -0.08786404
000370 10 62 0a be ba 04 34 bc 85 c7 18 3e 3d 26 04 3e
       -0.1351397 -0.010987455 0.1491986 0.12905212
000380 8c 6a 69 3d 5c 65 cb 3d 69 b3 16 3e 0c 21 0f 3e
       0.056986377 0.09931442 0.14716877 0.1397745
000390 86 97 8c 3d 61 bb 14 be e5 15 c1 3d 24 3f 0a be
       0.06864838 -0.14524604 0.09428004 -0.13500649
0003a0 11 34 e3 3a bd 41 ba 3d 3d e2 4b bd ac de 46 be
       0.0017334243 0.0909457 -0.049776305 -0.1942088
0003b0 4d 01 05 3e 62 9f 15 3d 76 e4 e7 bd 0d 6c e0 3d
       0.12988777 0.036528952 -0.11322872 0.10958109
0003c0 b8 46 ff bd 77 ef 53 be df 2e 0e be f3 47 3e be
       -0.124646604 -0.20696817 -0.13885067 -0.18582134
0003d0 1e e8 f7 3d dc 35 31 3e 42 1d 50 be ca f0 fe 3d
       0.1210482 0.17305702 -0.20323661 0.124482706
0003e0 67 8e 83 be f0 af aa bd 4a ce 2c bc a2 43 06 3e
       -0.25694582 -0.08334339 -0.01054723 0.13111737
0003f0 df f0 39 be 5f aa d3 bd d9 b6 df 3d fc 52 7a bd
       -0.18158291 -0.1033523 0.10923547 -0.061114296

embedding.bias f4 [128]
000000 50 cb d8 3c b3 5b d7 bd b0 e1 fc 3c cc 90 e9 bd
       0.026464134 -0.10515537 0.030869335 -0.11404571
000010 61 3b 09 be 94 e2 3b bd 67 8b 2a 3c d6 3d 8e b7
       -0.13401558 -0.04587038 0.010409213 -1.6956514e-05
000020 af bf aa bd 8e 8d 4a 3e b8 a9 25 be 5b 92 78 3d
       -0.08337342 0.19780561 -0.16178024 0.06068645
000030 93 bb 06 be b1 62 0e bd e8 83 d4 3d 34 a2 0d be
       -0.13157491 -0.03476209 0.103767216 -0.13831407
000040 0e 0d 2f 3e 0a fc 25 3e 2d 40 07 3e 3e 64 a2 bd
       0.17094824 0.16209427 0.13208075 -0.07929276
000050 f1 30 ed 3d 57 bc ba 3d f3 c9 4f bb 49 ec 13 be
       0.115816005 0.09117954 -0.0031706064 -0.14445604
000060 fa 49 8b 3d 77 70 79 3d 7b b4 76 3a 38 51 84 bd
       0.06801219 0.06089827 0.0009411049 -0.06460804
000070 44 0a 83 3d 4b f9 75 3d 62 37 76 3b f6 ca ee 3d
       0.063984424 0.060052197 0.0037569632 0.116598055
000080 b4 47 c2 3d d9 dc db 3d c0 ef 39 bd ae 3f 44 be
       0.094863325 0.10735483 -0.04539466 -0.19164917
000090 d6 bc a1 3d 14 76 e1 bd b2 63 81 3c de ad 8a bd
       0.07897346 -0.1100885 0.015794609 -0.06771444
0000a0 3b 8a 25 3e 6f 99 6f bd 77 cd fe 3d 55 f8 13 3e
       0.16166012 -0.058495935 0.12441533 0.144502
0000b0 0e 90 44 be e8 d0 3b 3d 27 79 fc bd d2 b5 07 3e
       -0.19195578 0.045853525 -0.123277955 0.13252953
0000c0 e9 d6 d2 bd b5 24 f0 bd 36 be 40 bc cc 23 5f 3d
       -0.10294897 -0.11725751 -0.0117641 0.054477498
0000d0 b5 d8 9b bd 3e fa aa 3d e0 05 b0 3d b7 a8 34 be
       -0.07609693 0.08348511 0.085948706 -0.17642485
0000e0 09 44 94 3d ae d6 ec 3b 4c 03 37 bc 93 f4 14 3e
       0.07239539 0.0072277403 -0.01117022 0.14546423
0000f0 4b 53 1b be 24 de 5d bd 7b cd 51 3d e9 3f 75 3d
       -0.15168492 -0.054166928 0.051221352 0.059875403
000100 b3 56 06 3d 36 90 36 bd fb 31 1e be b6 ab b9 3d
       0.032797527 -0.044571124 -0.15448754 0.090659544
000110 6d 69 00 3e 97 3d 0a 3d 5e f6 fd bc 3c 44 12 be
       0.12540217 0.033750143 -0.031001266 -0.14283842
000120 7b 79 07 be 09 87 56 bd b9 e2 7f bd 88 fa 44 be
       -0.13229935 -0.052374873 -0.06247208 -0.19236195
000130 bf 82 94 3d 48 7c 99 bd 80 6e 64 3c 76 a9 3f 3e
       0.072515 -0.07494408 0.013942361 0.18716988
000140 b6 86 8a 3d 37 aa 59 be a7 65 bb 3b b3 b2 30 bd
       0.06763975 -0.21256338 0.005718905 -0.04313917
000150 93 07 b0 bb 9b 88 26 3e 03 b8 30 be 4f 73 18 be
       -0.0053719967 0.16263048 -0.17257695 -0.14887737
000160 d7 46 b4 3d e4 39 40 be ba c9 db 3c 13 cf 1b 3e
       0.08802574 -0.18772084 0.02682959 0.15215711
000170 c1 3f 6d 3d b5 2a 0a be ad 03 f1 3d 57 df 70 be
       0.05792213 -0.13492854 0.11768279 -0.23522697
000180 56 8f 31 bd c4 a4 46 3e 5a 3d cb 3d 81 39 ae bd
       -0.043349586 0.1939879 0.09923811 -0.08507062
000190 c6 8b 61 3d 4e 61 9f 3d 93 b3 23 be 5f 1b ba 3d
       0.05506494 0.07782231 -0.15986471 0.09087252
0001a0 07 64 96 3b 3a b2 31 bd bd 9f 22 be 38 cb b4 bd
       0.004589561 -0.04338286 -0.15881248 -0.088278234
0001b0 c0 ae 3f be b7 34 03 3e 4d 5a 30 be 10 c1 08 3e
       -0.18719006 0.12813078 -0.17221947 0.13354897
0001c0 b2 c8 1f 3e f3 6e 25 be 49 56 1c 3e 88 7c 21 3e
       0.15603903 -0.16155605 0.1526729 0.15770161
0001d0 ac bc dd 3d 49 c9 19 3e eb f0 1f be fe 15 63 bb
       0.10827002 0.1501819 -0.15619247 -0.003465056
0001e0 c2 25 90 3d 31 41 3e be 27 54 07 be 2e b3 3b 3a
       0.07038452 -0.18579556 -0.13215695 0.0007160184
0001f0 d9 68 1f be e0 f2 ff 3d 77 bc c6 3d f5 e7 e4 bc
       -0.1556734 0.124974966 0.097039156 -0.027942637

transformer_encoder.layers.0.self_attn.in_proj_weight f4 [384, 128]
000000 b2 13 82 bd ee b7 2b 3d 66 bd 9b bd 40 8b 1b 3b
       -0.06351413 0.041923456 -0.07604484 0.0023734123
000010 51 95 ca 3d 52 28 10 bd 51 a1 5d bd ab fb a3 bd
       0.09891761 -0.035194702 -0.05410892 -0.08006986
000020 36 e3 04 3d 46 21 be bd e4 f1 a8 bd c6 a5 90 bd
       0.032443248 -0.0928369 -0.08249262 -0.07062869
000030 33 52 51 bd 4e 5f 66 3d b2 95 52 3d d8 f4 a6 bc
       -0.051103782 0.056243233 0.05141229 -0.020380422
000040 1a 47 29 3d 90 36 a5 bd 6e d7 dc bd e4 0e fe 3c
       0.041327573 -0.080670476 -0.107832775 0.03101296
000050 ca 65 51 3d 94 96 c4 bc e0 2c d8 bd a9 de b7 3d
       0.051122464 -0.023997582 -0.10555434 0.08978016
000060 80 60 70 3a b6 8a cf bd 88 ac b7 bd 6a a9 55 3d
       0.0009169653 -0.10133879 -0.089684546 0.05216352
000070 b4 38 03 bd 9c 2e a8 3c 96 a1 ae bd 1b cf d8 bd
       -0.0320365 0.020530038 -0.08526914 -0.10586377
000080 32 f4 4d bd 43 ed a0 bd 88 b3 be bc 7c 31 93 3c
       -0.05028171 -0.07857754 -0.023278967 0.017967932
000090 f6 2d 14 3d af bd 4c bd 2d ee b6 3d 3c 1a cb bd
       0.036176644 -0.049985584 0.08932147 -0.09917113
0000a0 1d 7f c1 3d 2b dc 9e 3d de 17 09 3d 79 82 a7 bd
       0.09448073 0.077568375 0.033470027 -0.081791826
0000b0 36 e9 d2 bd 16 b1 aa bd 3e de 62 3d db 67 4a bd
       -0.10298388 -0.08334558 0.055387728 -0.04941545
0000c0 4c 51 dd bd 06 3d 5c 3d 49 ef 60 bd 20 37 7d bd
       -0.10806522 0.053769134 -0.0549157 -0.06182015
0000d0 5c 94 ea 3c 22 ed 63 3d 6e ae 08 bd f6 80 98 bd
       0.028635196 0.05564607 -0.033369474 -0.07446472
0000e0 0c 15 f1 3c 94 55 ce 3c fc fc da bc cb be b5 3d
       0.029428981 0.025187291 -0.02673196 0.088742815
0000f0 c7 dd aa bd a0 01 b4 bd aa d6 84 bd 8f b8 94 3d
       -0.08343082 -0.087893724 -0.064862564 0.07261764
000100 26 af 94 bd 36 30 a0 bd ee 74 88 bd 90 75 e0 3b
       -0.072599694 -0.078216955 -0.066629276 0.006849952
000110 bb 2f b1 bd 62 b1 77 3d 67 47 cf 3d e0 9e 7e 3b
       -0.08651682 0.0604719 0.10121041 0.003885202
000120 4c 20 c1 3c 48 d1 38 bd 64 1f be bd e7 39 a6 3d
       0.02357497 -0.04512146 -0.09283331 0.08116513
000130 0c eb a5 bd 94 e0 b5 bc c0 1c d2 3b 93 58 c0 bd
       -0.08101472 -0.022201814 0.0064121187 -0.09391894
000140 94 57 e7 bc 8b de 99 bd 96 5d 89 bd e0 e3 4d bb
       -0.028240003 -0.0751315 -0.06707303 -0.0031416342
000150 84 8a c3 3c 66 4c ba bd 2f 90 9a 3d ca 02 14 3d
       0.02386976 -0.09096603 0.07547032 0.036135472
000160 e0 54 ee bc 99 34 a2 3d 2b b9 c0 3d c0 41 1e 3c
       -0.029093206 0.079201885 0.09410318 0.009659231
000170 c4 fa c5 3c b8 11 34 bc 98 63 4d bd 51 e4 95 3d
       0.024167426 -0.010990553 -0.050143808 0.073189385
000180 6a b8 4a 3d 53 46 85 3d 46 bf 4f 3d b0 b5 66 bc
       0.049492277 0.06507554 0.050719522 -0.014081404
000190 14 a7 e2 bc 38 fe 41 bc 98 17 13 3c 54 d8 c6 3c
       -0.02766756 -0.011840396 0.008977793 0.024273075
0001a0 18 14 c7 bd 6c 37 d4 bc 54 46 c9 3c 2e 84 56 3d
       -0.097206295 -0.025905333 0.024569668 0.05237215
0001b0 62 95 52 3d 74 f2 aa bd bc 4a a6 3c ff e3 db 3d
       0.051411994 -0.083470255 0.020299308 0.10736846
0001c0 1e 71 76 3d 24 b0 ba bd 5b c0 79 bd b8 38 10 3c
       0.06016647 -0.091156274 -0.06097446 0.008802585
0001d0 69 e8 c5 3d 96 1c 10 3d 3b f8 d6 3d 20 67 2e 3c
       0.09663469 0.03518351 0.10496565 0.010644704
0001e0 c0 4b 12 3c 34 04 22 bd e2 8a 05 bd a4 14 8e 3c
       0.008929193 -0.03955479 -0.032603152 0.017343827
0001f0 3e 25 be bd f0 11 44 bd 9e bd 8e bd b2 1b 04 3d
       -0.09284447 -0.04786867 -0.0696976 0.032252975
000200 e3 99 a6 3d e7 9b a1 3d 83 55 cb bd 2b 0b 88 3d
       0.0813482 0.07891064 -0.099284194 0.06642755
000210 73 21 91 3d 5d 20 da bd 96 d8 a2 bd fd bc a4 bd
       0.07086458 -0.10650704 -0.07951467 -0.08043859
000220 05 e5 b7 3d 16 70 5d 3d b4 65 86 3c 60 bc 5c 3c
       0.08979229 0.05406197 0.016405918 0.0134726465
000230 09 55 b7 bd 98 25 86 bc 64 16 6b bd 50 00 df bb
       -0.08951766 -0.016375348 -0.0573944 -0.006805457
000240 f3 0b 8c bd 44 10 93 bc 51 2c ab 3d 46 fc 6a bd
       -0.06838217 -0.017952092 0.08358062 -0.057369493
000250 90 67 b4 bc 1f 99 9e 3d 92 11 10 bd a8 bf 2d bc
       -0.022022039 0.07744049 -0.035173006 -0.010604776
000260 02 71 98 bd 00 2e 00 bd ca 19 07 3d b4 4d 88 3c
       -0.074434295 -0.03129387 0.03298358 0.016638614
000270 40 65 69 3c ec 00 0a bd 20 38 a9 bc 3b fd a2 bd
       0.014245331 -0.033692285 -0.020656645 -0.07958456
000280 8c 05 86 3c a4 21 e9 3c ff e0 6a bd 38 72 f7 bc
       0.016360067 0.028458424 -0.05734348 -0.030205831
000290 30 c8 12 3c 80 18 a7 3a 60 2b 2d bb 95 e4 9e bd
       0.008958861 0.001274839 -0.0026423559 -0.07758442
0002a0 28 e9 e6 bc 0c 0b 93 bd c0 e3 57 bb 44 1f b3 bc
       -0.02818735 -0.071798414 -0.0032942146 -0.021865495
0002b0 00 14 06 3a 29 51 44 bd bc 7b 4d bd 66 81 9b bd
       0.00051146746 -0.047928963 -0.05016683 -0.0759304
0002c0 d8 59 7d 3c 40 79 a8 ba 70 ae d2 bc 74 c4 fb bc
       0.015463315 -0.0012853518 -0.025717944 -0.030733325
0002d0 21 47 88 3d 00 a0 22 37 7c db a7 bd be f2 60 3d
       0.06654192 9.693205e-06 -0.0819616 0.054918997
0002e0 5f c9 c6 3d a5 8e 6d bd 97 07 d1 3d 28 d1 b5 bd
       0.09706377 -0.057997365 0.10206526 -0.08877784
0002f0 b1 a4 b8 3d 41 94 64 bd 7b f6 cc 3d 46 81 5e 3d
       0.090157874 -0.05580545 0.1000795 0.054322504
000300 81 ba 6e bd 1e 70 2b 3d 25 26 cb 3d f2 80 1c 3d
       -0.058283333 0.04185497 0.09919385 0.03820891
000310 7e 95 97 bd 9e ee 10 3d d2 5f 0d bd 8b 3c c3 3d
       -0.0740156 0.035383813 -0.03451521 0.09533032
000320 96 f0 18 bd 26 95 a5 bd be 11 71 3d 9d a6 b0 3d
       -0.037338816 -0.080850884 0.05885481 0.08625529
000330 40 0a dc bc 49 a8 d3 bd 50 eb 6e bc 54 9e 2f bd
       -0.026860356 -0.10334832 -0.01458247 -0.042875603
000340 df d1 96 3d 7e e3 11 3d 09 cc b7 3d 97 d8 8d 3d
       0.073642485 0.035617344 0.089744635 0.06926077
000350 0f fe 71 bd f3 16 92 3d dc e1 a3 3c 1f 6f b2 3d
       -0.05908018 0.071332835 0.02000516 0.08712601
000360 a2 34 00 3d 40 8d 29 3c d2 04 98 bd 77 12 d4 3d
       0.031300195 0.010348618 -0.074227944 0.103550844
000370 0b 9d 8b bd 52 a9 42 3d 56 0c 1f 3d 9e 48 76 3d
       -0.06817063 0.047524758 0.038830124 0.060127847
000380 1e d1 00 3d 20 cb 2d 3c f6 ca 6f 3d c5 12 8a 3d
       0.03144943 0.010607511 0.058543168 0.06741861
000390 f6 47 6f 3d cc 4b fe 3c e4 1e f3 3c 95 d8 a3 3d
       0.058418237 0.031042002 0.029677816 0.08000294
0003a0 24 57 84 bd 72 23 68 3d b0 52 49 3c a4 7e a2 3c
       -0.06461933 0.05667443 0.012287781 0.019835778
0003b0 8e 4e a0 bd e7 e0 8f 3d 37 a7 a3 3d 02 57 53 3d
       -0.07827483 0.070253186 0.07990878 0.05159665
0003c0 36 58 1e 3d ae 66 9a bd f8 5d d9 bd 36 91 6f bd
       0.038658343 -0.07539116 -0.10613626 -0.058488093
0003d0 d4 3b 86 bc 0c 40 b2 bd 70 70 62 3c 24 29 c2 bc
       -0.01638595 -0.08703622 0.0138207525 -0.023701258
0003e0 a2 14 bd bd 86 48 05 3d 32 20 1b 3d 4a 1e 27 bd
       -0.09232451 0.032539867 0.0378725 -0.04080037
0003f0 dc 37 b0 bc 82 78 4c 3d 68 b8 ba bd 43 9e b5 3d
       -0.02151101 0.049919613 -0.09117204 0.08868077

transformer_encoder.layers.0.self_attn.in_proj_bias f4 [384]
000000 00 00 00 00 00 00 00 00 00 00 00 00 00 00 00 00
       0.0 0.0 0.0 0.0
000010 00 00 00 00 00 00 00 00 00 00 00 00 00 00 00 00
       0.0 0.0 0.0 0.0
000020 00 00 00 00 00 00 00 00 00 00 00 00 00 00 00 00
       0.0 0.0 0.0 0.0
000030 00 00 00 00 00 00 00 00 00 00 00 00 00 00 00 00
       0.0 0.0 0.0 0.0
000040 00 00 00 00 00 00 00 00 00 00 00 00 00 00 00 00
       0.0 0.0 0.0 0.0
000050 00 00 00 00 00 00 00 00 00 00 00 00 00 00 00 00
       0.0 0.0 0.0 0.0
000060 00 00 00 00 00 00 00 00 00 00 00 00 00 00 00 00
       0.0 0.0 0.0 0.0
000070 00 00 00 00 00 00 00 00 00 00 00 00 00 00 00 00
       0.0 0.0 0.0 0.0
000080 00 00 00 00 00 00 00 00 00 00 00 00 00 00 00 00
       0.0 0.0 0.0 0.0
000090 00 00 00 00 00 00 00 00 00 00 00 00 00 00 00 00
       0.0 0.0 0.0 0.0
0000a0 00 00 00 00 00 00 00 00 00 00 00 00 00 00 00 00
       0.0 0.0 0.0 0.0
0000b0 00 00 00 00 00 00 00 00 00 00 00 00 00 00 00 00
       0.0 0.0 0.0 0.0
0000c0 00 00 00 00 00 00 00 00 00 00 00 00 00 00 00 00
       0.0 0.0 0.0 0.0
0000d0 00 00 00 00 00 00 00 00 00 00 00 00 00 00 00 00
       0.0 0.0 0.0 0.0
0000e0 00 00 00 00 00 00 00 00 00 00 00 00 00 00 00 00
       0.0 0.0 0.0 0.0
0000f0 00 00 00 00 00 00 00 00 00 00 00 00 00 00 00 00
       0.0 0.0 0.0 0.0
000100 00 00 00 00 00 00 00 00 00 00 00 00 00 00 00 00
       0.0 0.0 0.0 0.0
000110 00 00 00 00 00 00 00 00 00 00 00 00 00 00 00 00
       0.0 0.0 0.0 0.0
000120 00 00 00 00 00 00 00 00 00 00 00 00 00 00 00 00
       0.0 0.0 0.0 0.0
000130 00 00 00 00 00 00 00 00 00 00 00 00 00 00 00 00
       0.0 0.0 0.0 0.0
000140 00 00 00 00 00 00 00 00 00 00 00 00 00 00 00 00
       0.0 0.0 0.0 0.0
000150 00 00 00 00 00 00 00 00 00 00 00 00 00 00 00 00
       0.0 0.0 0.0 0.0
000160 00 00 00 00 00 00 00 00 00 00 00 00 00 00 00 00
       0.0 0.0 0.0 0.0
000170 00 00 00 00 00 00 00 00 00 00 00 00 00 00 00 00
       0.0 0.0 0.0 0.0
000180 00 00 00 00 00 00 00 00 00 00 00 00 00 00 00 00
       0.0 0.0 0.0 0.0
000190 00 00 00 00 00 00 00 00 00 00 00 00 00 00 00 00
       0.0 0.0 0.0 0.0
0001a0 00 00 00 00 00 00 00 00 00 00 00 00 00 00 00 00
       0.0 0.0 0.0 0.0
0001b0 00 00 00 00 00 00 00 00 00 00 00 00 00 00 00 00
       0.0 0.0 0.0 0.0
0001c0 00 00 00 00 00 00 00 00 00 00 00 00 00 00 00 00
       0.0 0.0 0.0 0.0
0001d0 00 00 00 00 00 00 00 00 00 00 00 00 00 00 00 00
       0.0 0.0 0.0 0.0
0001e0 00 00 00 00 00 00 00 00 00 00 00 00 00 00 00 00
       0.0 0.0 0.0 0.0
0001f0 00 00 00 00 00 00 00 00 00 00 00 00 00 00 00 00
       0.0 0.0 0.0 0.0
000200 00 00 00 00 00 00 00 00 00 00 00 00 00 00 00 00
       0.0 0.0 0.0 0.0
000210 00 00 00 00 00 00 00 00 00 00 00 00 00 00 00 00
       0.0 0.0 0.0 0.0
000220 00 00 00 00 00 00 00 00 00 00 00 00 00 00 00 00
       0.0 0.0 0.0 0.0
000230 00 00 00 00 00 00 00 00 00 00 00 00 00 00 00 00
       0.0 0.0 0.0 0.0
000240 00 00 00 00 00 00 00 00 00 00 00 00 00 00 00 00
       0.0 0.0 0.0 0.0
000250 00 00 00 00 00 00 00 00 00 00 00 00 00 00 00 00
       0.0 0.0 0.0 0.0
000260 00 00 00 00 00 00 00 00 00 00 00 00 00 00 00 00
       0.0 0.0 0.0 0.0
000270 00 00 00 00 00 00 00 00 00 00 00 00 00 00 00 00
       0.0 0.0 0.0 0.0
000280 00 00 00 00 00 00 00 00 00 00 00 00 00 00 00 00
       0.0 0.0 0.0 0.0
000290 00 00 00 00 00 00 00 00 00 00 00 00 00 00 00 00
       0.0 0.0 0.0 0.0
0002a0 00 00 00 00 00 00 00 00 00 00 00 00 00 00 00 00
       0.0 0.0 0.0 0.0
0002b0 00 00 00 00 00 00 00 00 00 00 00 00 00 00 00 00
       0.0 0.0 0.0 0.0
0002c0 00 00 00 00 00 00 00 00 00 00 00 00 00 00 00 00
       0.0 0.0 0.0 0.0
0002d0 00 00 00 00 00 00 00 00 00 00 00 00 00 00 00 00
       0.0 0.0 0.0 0.0
0002e0 00 00 00 00 00 00 00 00 00 00 00 00 00 00 00 00
       0.0 0.0 0.0 0.0
0002f0 00 00 00 00 00 00 00 00 00 00 00 00 00 00 00 00
       0.0 0.0 0.0 0.0
000300 00 00 00 00 00 00 00 00 00 00 00 00 00 00 00 00
       0.0 0.0 0.0 0.0
000310 00 00 00 00 00 00 00 00 00 00 00 00 00 00 00 00
       0.0 0.0 0.0 0.0
000320 00 00 00 00 00 00 00 00 00 00 00 00 00 00 00 00
       0.0 0.0 0.0 0.0
000330 00 00 00 00 00 00 00 00 00 00 00 00 00 00 00 00
       0.0 0.0 0.0 0.0
000340 00 00 00 00 00 00 00 00 00 00 00 00 00 00 00 00
       0.0 0.0 0.0 0.0
000350 00 00 00 00 00 00 00 00 00 00 00 00 00 00 00 00
       0.0 0.0 0.0 0.0
000360 00 00 00 00 00 00 00 00 00 00 00 00 00 00 00 00
       0.0 0.0 0.0 0.0
000370 00 00 00 00 00 00 00 00 00 00 00 00 00 00 00 00
       0.0 0.0 0.0 0.0
000380 00 00 00 00 00 00 00 00 00 00 00 00 00 00 00 00
       0.0 0.0 0.0 0.0
000390 00 00 00 00 00 00 00 00 00 00 00 00 00 00 00 00
       0.0 0.0 0.0 0.0
0003a0 00 00 00 00 00 00 00 00 00 00 00 00 00 00 00 00
       0.0 0.0 0.0 0.0
0003b0 00 00 00 00 00 00 00 00 00 00 00 00 00 00 00 00
       0.0 0.0 0.0 0.0
0003c0 00 00 00 00 00 00 00 00 00 00 00 00 00 00 00 00
       0.0 0.0 0.0 0.0
0003d0 00 00 00 00 00 00 00 00 00 00 00 00 00 00 00 00
       0.0 0.0 0.0 0.0
0003e0 00 00 00 00 00 00 00 00 00 00 00 00 00 00 00 00
       0.0 0.0 0.0 0.0
0003f0 00 00 00 00 00 00 00 00 00 00 00 00 00 00 00 00
       0.0 0.0 0.0 0.0

transformer_encoder.layers.0.self_attn.out_proj.weight f4 [128, 128]
000000 29 6b 90 3d 16 ea 1b 3d dc 6a 9f bc 79 46 e0 bc
       0.07051689 0.03806504 -0.019460134 -0.027377354
000010 a4 cf 0b 3d 07 21 e7 3d ac 3b ed 3a c8 43 a5 bc
       0.03413357 0.11285596 0.0018099449 -0.020173922
000020 a5 92 af bc b8 dc ec 3c 93 72 c3 bd 90 af 25 bd
       -0.02143223 0.02891384 -0.09543338 -0.040450633
000030 9f c1 7c bc ed 24 c5 3d 53 ba 22 3b ba 3e 93 3c
       -0.015427022 0.09626184 0.0024830296 0.017974246
000040 b6 f8 54 bd 08 18 80 bd 8b 11 9b 3d 48 e0 3b 3c
       -0.051995 -0.062545836 0.075717054 0.011467047
000050 14 54 14 3d 2d 5a 15 bd 9b 3b d8 bb ef e0 a7 bd
       0.036212996 -0.03646295 -0.0065989024 -0.081971996
000060 16 10 d6 bc fb c0 3a bd b4 f7 09 bd 0b dd a8 3d
       -0.026130717 -0.045594197 -0.033683494 0.082452856
000070 5e f9 52 3d de 0d bf 3d dc 0c 83 bd de 0a 90 bd
       0.051507346 0.09328817 -0.06398937 -0.07033323
000080 42 5a 8f bd 58 87 9d bd 72 3a 9f bd 58 7a 91 3c
       -0.06999637 -0.076918304 -0.077748194 0.017758533
000090 26 97 8c bd 70 36 f9 3c 75 1c 91 bd 62 84 a0 bc
       -0.06864767 0.030421466 -0.07085506 -0.019594375
0000a0 2f 1d ae bc 27 20 5e 3d 00 0d 5c bd ba 5c 26 bc
       -0.02125415 0.05422988 -0.053723335 -0.010153944
0000b0 b8 10 6a 3d ca e4 d2 3d fc cc 4c 3d 19 8f 22 3d
       0.05714485 0.10297544 0.050000176 0.03968725
0000c0 dc c3 9c bd 7e 9e 92 bd 4d 76 e8 3c 08 a9 ad 3d
       -0.07654545 -0.07159136 0.028376723 0.08479506
0000d0 54 83 8d bb a5 ec 3d bd b0 39 82 bd 5a 9a c5 3c
       -0.004318634 -0.04636826 -0.06358659 0.024121452
0000e0 5d 23 52 bd 1a 01 a8 3d b6 d4 b5 3d 9d 05 1e 3c
       -0.051303256 0.08203335 0.08878462 0.009644893
0000f0 07 bc 57 3c 98 f9 0d 3d 6c 73 1a 3c c2 94 25 bd
       0.013167388 0.03466186 0.009426933 -0.04042507
000100 10 2f 60 3a 51 d8 77 3d 04 4a 8a 3d c3 91 23 3d
       0.0008551935 0.06050903 0.067523986 0.03993393
000110 fc a4 45 bd 23 0e e4 bc 79 ed 24 bd 59 1c 34 bd
       -0.048253044 -0.027838772 -0.040265534 -0.043972347
000120 23 26 c2 3c c6 2f b9 ba 30 e3 52 3d 71 ac 5f 3d
       0.023699826 -0.0014128617 0.051486194 0.054607812
000130 dc b2 3d bc 98 06 83 3c 49 b0 90 bd d8 2c 26 3c
       -0.011578288 0.015994355 -0.07064874 0.0101425275
000140 97 c5 8f bd 78 46 b7 3d 8e 44 0b bd 53 21 30 bc
       -0.07020109 0.08948988 -0.034000926 -0.010750133
000150 e8 6a 3d bd 2f 2d ac bd 82 a8 28 bd d8 bb b5 3c
       -0.046244532 -0.084070556 -0.041176327 0.022184297
000160 58 ef 6a bd 38 ac 47 bd ec bf 26 bc 11 f4 59 3d
       -0.057357162 -0.048748225 -0.010177594 0.053211275
000170 c3 73 90 3d 74 c8 b1 3c ce 3b 2d bc 39 3b a0 bb
       0.0705333 0.021702029 -0.010573341 -0.0048898724
000180 1d fa a2 bd 41 3b 63 bd ab 2d 85 3c f7 eb d3 3c
       -0.079578616 -0.05547643 0.016257128 0.025869353
000190 f5 26 9d bd 01 f5 ec 3c 2b 78 a5 bb 69 8d a6 3d
       -0.07673446 0.02892542 -0.0050497255 0.081324406
0001a0 41 95 e4 bc 72 bb 5d 3d 75 6c a5 3c be 36 1d 3d
       -0.027903201 0.05413384 0.020193318 0.038382284
0001b0 c7 12 1d bd b0 c2 0d bd ea dc 9b 3d 72 49 86 bc
       -0.038347986 -0.034609497 0.076104954 -0.016392443
0001c0 93 b2 36 bd 05 47 99 3d 63 80 d1 bc 59 77 9c 3b
       -0.044603895 0.07484249 -0.025573915 0.0047749695
0001d0 3a 48 ea 3c 6c 54 88 bd c7 54 bb bc 0c e7 93 bd
       0.028598893 -0.06656727 -0.022867573 -0.07221803
0001e0 a2 f7 63 3c fc a5 74 bc f2 10 51 bd 2f 41 72 bd
       0.013914021 -0.014932152 -0.05104155 -0.059144195
0001f0 b8 96 c8 3d 5a 30 7e 3d 3e 45 c2 bc f8 5d d8 3c
       0.09794372 0.06205783 -0.023714658 0.026411995
000200 e1 c1 48 3d 10 f6 85 bd 6e d3 7f bd 7a b0 84 3d
       0.049013022 -0.06541073 -0.062457494 0.06478973
000210 48 3e 17 bd b1 22 a4 3c ac 01 5f 3d a6 cc 82 bd
       -0.03692463 0.020036073 0.054444954 -0.0638669
000220 e4 ad 88 bd a1 ea ca 3c 58 b2 bb bc 8f e1 0d bc
       -0.06673792 0.024770083 -0.02291219 -0.008659734
000230 e2 eb 59 3c ba 7b f5 3a a0 b6 a9 3c 69 6d 22 3d
       0.013300868 0.001872889 0.020716965 0.039655123
000240 b0 10 c3 bc 06 a0 97 3d 54 13 6f 3d 42 c2 5a 3c
       -0.023811668 0.07403569 0.058368042 0.013351979
000250 0c d7 97 bd 68 64 64 3d 2a c2 72 3c b3 58 16 3b
       -0.07414064 0.055759817 0.0148168 0.0022941052
000260 96 aa 83 3d 69 51 b2 3c 81 54 1b bd be a7 9f bc
       0.06429021 0.021767335 -0.037922386 -0.019489165
000270 2b 08 4f bb cb 09 1a bd b3 d4 45 3d 8b 34 f3 3c
       -0.0031590562 -0.037606996 0.04829855 0.02968814
000280 5a ab 97 3d 3a 7a 1a 3d 0c 76 5b bc a6 02 20 3d
       0.074057296 0.03771422 -0.013394844 0.039065026
000290 65 9c 8a bd 3f 39 8e bd ce fd d9 bb 80 e7 83 bd
       -0.06768111 -0.069445126 -0.0066525703 -0.064406395
0002a0 f3 46 b1 3d 54 f6 23 3d f7 ab 76 3c c5 9b 90 3d
       0.086561106 0.04002984 0.015055648 0.07060961
0002b0 6c b8 38 3c d0 42 a7 3d e9 18 95 bd b7 ba 3f 3c
       0.011274438 0.0816704 -0.07280142 0.011702231
0002c0 11 f1 1a bd 98 51 ae bc 4d 41 6e 3d c2 7f 90 3d
       -0.037827555 -0.021279141 0.058167744 0.07055618
0002d0 ef ed 25 3d 93 9c 4c 3a dc 4f 0d bd b5 ea b8 bb
       0.040510114 0.0007805314 -0.034499988 -0.0056432136
0002e0 b8 84 1d 3b 7c 13 b3 bc ea e8 14 3d 65 a9 e4 bc
       0.0024035405 -0.021859877 0.036354937 -0.027912805
0002f0 cf 77 4e 3d 6f 00 48 bd 6d e1 85 3d 72 a9 08 ba
       0.050407227 -0.04882854 0.06537137 -0.00052132376
000300 23 db fd bc 2b 0e c3 bc 48 cb 18 3d 9c fb 69 3d
       -0.030988282 -0.023810467 0.03730324 0.05712472
000310 f1 ab b2 bc ef d3 43 bd 9b 16 fc 3c b8 e2 4d 3d
       -0.021810504 -0.047809538 0.030772498 0.050265044
000320 c9 7e 02 3c d7 fd 03 3d 25 97 a2 3c bd 04 bd bd
       0.007964798 0.032224502 0.019847462 -0.092294194
000330 5d a7 2b bd 4b 59 2b 3d d1 3e 69 bd 88 a1 99 ba
       -0.041907657 0.041833203 -0.056944672 -0.0011721114
000340 9d 71 10 3d d0 86 e8 3c b5 3e 02 bd 98 09 0e 3d
       0.0352646 0.028384596 -0.031798083 0.034677118
000350 04 63 ee 3c 5e 94 ad bd 02 e3 f3 bc 5d 79 29 3b
       0.029099949 -0.084755644 -0.029771332 0.0025859692
000360 2e 16 8f bd 00 fc 61 3d 24 c0 60 3d f9 53 4e bd
       -0.06986652 0.055171967 0.05487074 -0.05037305
000370 5a d3 90 3c 13 8a f2 3c 3a 06 d4 3c d4 9a bf 3b
       0.017678905 0.029606855 0.025881875 0.0058473144
000380 d8 9c 85 3d 0e b9 fd 3c 50 a4 30 3d 49 1d a1 3d
       0.06524056 0.03097203 0.04312545 0.07866914
000390 4d 69 ac bd d3 c9 1a 3d 1e f7 96 bd 3e f9 96 bd
       -0.08418522 0.03779013 -0.073713526 -0.07371758
0003a0 ba f3 75 3d 93 9f 0e bd d9 31 8d bd 3f 14 b6 3d
       0.06004689 -0.03482015 -0.06894273 0.088905804
0003b0 ff 7f a8 3d 49 30 db bb d1 6a 62 bd 17 c1 92 3d
       0.08227538 -0.0066891056 -0.05527765 0.07165735
0003c0 f8 20 0e bd a5 c7 bc 3d 07 d4 a2 bd 9f cf 00 bd
       -0.03469941 0.09217767 -0.07950597 -0.031448003
0003d0 b4 6a 48 bd f9 6b 4d bd c1 2f df bd 6f 0c 14 3d
       -0.048929885 -0.0501518 -0.1089778 0.03614467
0003e0 15 46 18 3c 10 09 3b 3d f7 82 87 bd ea 1a e9 bc
       0.009294053 0.04566294 -0.066167764 -0.028455216
0003f0 de 1e 02 bd 8b f3 7b bd f6 ee 20 3d 55 54 da bc
       -0.03176772 -0.061511558 0.03929039 -0.02665154

transformer_encoder.layers.0.self_attn.out_proj.bias f4 [128]
000000 96 60 98 39 40 44 64 b9 8b 24 82 bc 0a 90 a7 3c
       0.0002906366 -0.000217692 -0.015886566 0.020454425
000010 c1 97 8a bc 7a 6f 72 bc 09 a7 b6 3b e4 a5 f7 bb
       -0.016918065 -0.014797086 0.0055741114 -0.0075576175
000020 58 4e 1d bc b1 88 b1 3b 13 25 27 bd 6c be 61 3b
       -0.009601198 0.005417906 -0.04080684 0.0034445776
000030 2c cd a4 bc 25 3b 89 3b ba 36 6d bc dc db bd 3b
       -0.020117365 0.004187959 -0.01447838 0.0057940315
000040 c8 b0 23 bb 72 b9 0f bc 21 ca d7 3a b8 6c 86 bc
       -0.0024977196 -0.008772241 0.0016463437 -0.016409263
000050 62 18 ba bb 4e 51 24 3c 57 28 b4 bc eb 7d 1e 3c
       -0.005679176 0.01002915 -0.021991892 0.009673576
000060 c2 b9 a7 3c 00 33 21 ba 5f f6 78 3c 30 16 25 3c
       0.020474318 -0.0006149262 0.015195458 0.010076091
000070 a7 c8 0e 3b c3 55 0a 3c b3 5f 69 3c 05 f3 04 3c
       0.0021787079 0.008443299 0.014244008 0.008114581
000080 0b 6c 14 bc 9b 51 31 3c f9 cf 05 bc 94 4d 51 bc
       -0.009058963 0.010822679 -0.00816726 -0.012774844
000090 74 d1 bf 3c 53 e4 fd bb 27 ed d4 bc 34 6c 51 3a
       0.023415305 -0.0077481656 -0.02599199 0.0007988841
0000a0 08 36 01 bd d4 1b 2f 3c 49 12 22 bc 4e 91 36 bc
       -0.03154567 0.010687787 -0.009892055 -0.011143042
0000b0 49 8f 9c bb 41 2a a9 bb 26 63 a7 bc d9 15 d6 bb
       -0.004777823 -0.0051625078 -0.02043302 -0.006533366
0000c0 de fe ae bb 07 9c 05 bc d7 a1 41 3c 94 c5 61 bc
       -0.005340441 -0.008154876 0.011818371 -0.013780016
0000d0 6e 24 cd b9 f8 27 ea ba 89 91 f5 3b f9 37 e8 3b
       -0.0003912779 -0.0017864695 0.007494156 0.0070867506
0000e0 59 34 8e bb 3b b4 e2 3b 35 fc 64 3c 78 b3 62 3c
       -0.0043397364 0.006918458 0.0139761465 0.013836734
0000f0 b1 9f a8 bc c0 7b 0d 3d ad f3 18 3c 65 6b 88 3b
       -0.02058396 0.034541845 0.009335441 0.004163193
000100 7b 00 54 3c f2 d5 47 3c 60 4b 92 ba 29 61 fc bb
       0.012939568 0.012197005 -0.001116138 -0.007702012
000110 ad c5 91 b9 95 e8 9c 3c d7 83 88 3c ec 44 03 3c
       -0.00027803835 0.019153873 0.016664429 0.008012038
000120 3b a1 81 3b 14 23 8c 3c 89 f2 cf bb 15 53 87 ba
       0.0039559877 0.01710657 -0.006346051 -0.0010324443
000130 57 dc 87 bc 63 fe b5 bb 50 e4 8b 3b 66 38 e8 bb
       -0.016584558 -0.005554007 0.0042691603 -0.0070868013
000140 34 95 89 3c 8f ea 76 bc c3 e4 45 bc 9d 00 99 3c
       0.016794778 -0.015070572 -0.012078467 0.01867705
000150 31 e0 c9 3b 84 55 7f bb 89 5e 09 bb 40 67 d9 bb
       0.006160759 -0.0038960883 -0.0020960888 -0.006634623
000160 6f bf 04 3c 22 c5 2d bc 5e e7 5e 3c 2a c0 56 bb
       0.008102282 -0.010606082 0.013604967 -0.0032768347
000170 15 69 c9 3a 90 6d ae 3a f1 2c b0 3c c8 68 63 bd
       0.00153664 0.0013307799 0.021505805 -0.05551985
000180 38 45 e0 3b 2a e4 34 3c 5c 3b a1 3c 47 25 43 bc
       0.006844189 0.011040727 0.019681625 -0.011910743
000190 cc ac d1 bb 7c 3d e6 3c cc 8d 40 3c 93 0b 1b bc
       -0.006398773 0.02810549 0.011752557 -0.009463209
0001a0 92 80 cb 3c 70 f6 9b 3c bb e0 49 3c b3 db be 3b
       0.02484158 0.019038409 0.012321646 0.00582453
0001b0 91 8e 05 bd 4d 31 a8 bb 43 4c 46 3c d7 c8 a8 bb
       -0.032606665 -0.0051328302 0.012103143 -0.005150895
0001c0 3d f1 ba 3a 6f f4 a1 bc db 27 4d bc 76 22 bd 3c
       0.0014262568 -0.019769875 -0.012521709 0.023087721
0001d0 7b ef be 3a d5 21 4a 3c b9 ee 8c 3c 42 8d 54 3b
       0.001456722 0.012337168 0.017203676 0.003243283
0001e0 b7 38 19 3c 34 01 65 bb fb cb d7 bc bf d4 f1 3c
       0.009351901 -0.0034943344 -0.026342383 0.02952039
0001f0 58 1a ad bc 71 b7 0e bd 82 69 c0 3b a8 d6 a6 3c
       -0.021130726 -0.034842912 0.0058719525 0.020366028

transformer_encoder.layers.0.linear1.weight f4 [128, 128]
000000 de 6a 02 be de 2a 70 3c fa 5c 12 3d 92 f4 85 bb
       -0.12736079 0.014658658 0.0357332 -0.004087993
000010 3b 05 74 3d db ba c6 3d d6 aa 2e 3d 67 a7 5a 3c
       0.0595753 0.097036086 0.04264339 0.013345576
000020 e7 fa 91 bd f3 a2 b4 bd 43 a8 87 3d f5 b2 91 3d
       -0.07127934 -0.088201426 0.0662389 0.071142115
000030 5e 46 d1 3d 55 30 86 bc 87 6e f3 bd 46 59 b2 3d
       0.102184996 -0.016380468 -0.11886316 0.08708434
000040 04 32 83 bd 43 c2 b9 bd ae 78 cc 3c 63 98 cb bd
       -0.06406024 -0.090702556 0.024959888 -0.09941175
000050 4b 1d 46 bd 08 98 91 3d 35 95 79 bd d4 53 24 3d
       -0.04836778 0.07109076 -0.06093331 0.040119007
000060 73 bb e6 bb 09 e3 8d 3c 97 f5 62 3d 64 05 30 3d
       -0.0070413887 0.017320173 0.055409994 0.04297389
000070 1c 4a 2b 3d ba b6 75 bc b3 47 07 be ad 7f f9 3c
       0.041818723 -0.014997179 -0.13210945 0.030456388
000080 b5 29 29 3d 35 fa c6 bd 7e 4d 11 bd 40 3d a8 3c
       0.04129954 -0.09715692 -0.035474293 0.020537019
000090 f0 5f 83 3d 55 f9 4d bd 43 40 f5 3b f3 22 25 3b
       0.06414783 -0.05028661 0.0074844672 0.0025197833
0000a0 92 f2 bb bd 99 28 4b bd 3c 9a 1c 3d 2c 68 8f 3c
       -0.09177126 -0.049599264 0.038233027 0.017505728
0000b0 d1 04 5d bd bd 9a b9 3b 9e ff ef 3c d5 73 a4 bd
       -0.05395967 0.005664198 0.029296692 -0.08029906
0000c0 44 03 9e bc 92 9c 84 3d 95 ad 6f 3c 38 90 3e 3c
       -0.019288667 0.06475176 0.0146287875 0.011631064
0000d0 ea 7d 65 bc 23 03 0b 3d de 6a a2 bd 2d 2b c3 3d
       -0.014007071 0.03393854 -0.079305395 0.095297195
0000e0 e3 ec 20 bd 3f 7b 97 bd c6 d5 22 3d 6d 6e 56 3c
       -0.039288413 -0.07396554 0.03975465 0.013087851
0000f0 dc 50 90 3d b3 04 b8 3d fb 5c 2e 3d 20 75 a6 bd
       0.07046673 0.08985271 0.04256914 -0.081278086
000100 c8 c2 73 bd 2f 54 90 3d b4 e0 1d 3d 65 a5 73 3d
       -0.05951193 0.07047307 0.03854437 0.059483904
000110 a6 7c b4 bd 05 18 26 3d 8e 80 71 3b 16 bd bd 3d
       -0.08812837 0.04055025 0.0036850306 0.09264581
000120 4c ff ad bc 72 a9 a8 bd 9c 44 56 3d 00 07 0e 3d
       -0.0212399 -0.08235444 0.052311525 0.034674644
000130 c1 55 14 3d 1b 3a b1 3c 9b c7 70 3b 3c f5 43 3d
       0.036214594 0.021634152 0.0036740068 0.047841296
000140 66 13 aa bd 58 fe 3e 3d c7 b9 50 3d d3 dd 14 3d
       -0.08304481 0.04662928 0.05095842 0.03634436
000150 b5 b2 f2 bd d3 69 84 bc 07 cf 96 3d 88 6c 04 3d
       -0.11850492 -0.016163742 0.07363706 0.032330066
000160 5a e0 d3 bc 3a f2 94 bd 8b a0 b6 3d ba 96 90 bd
       -0.025863815 -0.072727636 0.0891734 -0.07059999
000170 60 6c 24 bb d5 df 9b bc e4 fa 2a 3b 3d 25 be 3c
       -0.002508901 -0.01902763 0.0026089484 0.023211116
000180 88 45 10 3d 1e 3d 8b 3d 02 22 e0 39 fa da 83 3d
       0.03522256 0.067987666 0.00042749947 0.06438251
000190 4a 3e bf 3c cf 2e ee 3c 26 29 94 bb e4 6a 1a be
       0.023345131 0.029075054 -0.004521507 -0.15079838
0001a0 0d d5 65 3c 86 34 09 3d 9f c0 50 3c bc c0 a9 3d
       0.014027846 0.033497356 0.012741237 0.08288714
0001b0 d4 90 65 3d ae f5 2e 3d 61 95 25 3c 2d d1 31 3d
       0.056046322 0.042714767 0.0101064155 0.043412376
0001c0 fa 9b 42 3d d4 68 9f 3c 97 1f 64 3d c4 cc 4a 3d
       0.047512032 0.019459166 0.05569419 0.049511686
0001d0 ed df f7 3d 92 7c 74 3d 8e d4 9f 3d 85 cb 0a 3d
       0.12103257 0.059689112 0.078042135 0.033885498
0001e0 9f 0a ae 3b ca 92 83 bc 90 14 b7 bc f2 35 9f bd
       0.0053113247 -0.016061205 -0.022348672 -0.07773961
0001f0 40 a3 af 3d 43 2a bf 3b 3c 58 4f 3d 15 7d 60 3d
       0.08576059 0.0058338954 0.050621256 0.054806788
000200 d6 d0 b8 3c f6 20 22 bd f1 60 e7 bd f5 21 6e 3b
       0.022560518 -0.039582215 -0.11297787 0.0036336158
000210 da ef 29 bc 11 8e d6 bd ee c9 f4 bb f0 5d f2 3c
       -0.0103721265 -0.10476316 -0.007470361 0.029585809
000220 ad 72 cb 3d a7 aa ca 3d 86 55 7f bd 83 c9 a0 3d
       0.09933982 0.098958306 -0.06233742 0.07850935
000230 f5 07 76 3d e5 c0 07 bc 6c df 7a 3c 90 d5 4b 3d
       0.060066182 -0.008285736 0.015312057 0.049764216
000240 76 64 45 bd 70 db 30 bd a9 5f ac bd e0 a9 fb 3c
       -0.04819151 -0.043178022 -0.08416683 0.030720651
000250 2d 0b ca 3c 80 fa 41 3d 32 a6 ac bd d7 30 ef bc
       0.024663532 0.047358036 -0.08430137 -0.029198093
000260 f8 09 84 3d 42 f5 13 3d aa b5 58 ba ce 86 b0 3c
       0.06447214 0.036122568 -0.0008266816 0.021548655
000270 e6 62 d3 3c 12 0d 23 3d b8 dd a4 3d 33 88 f3 bc
       0.025803994 0.039807387 0.08050102 -0.02972803
000280 66 07 50 bc d2 6d ba bd 20 54 96 bd e1 63 dd bd
       -0.012697076 -0.09102978 -0.07340264 -0.10810066
000290 8e a9 b5 3c 32 5d 9d 3d af 6e ef 3c f2 62 88 3d
       0.022175577 0.07683791 0.029227583 0.06659497
0002a0 ae 5c 30 3b 46 5f 2a bd 00 f2 92 bd aa 5c 85 3d
       0.002691071 -0.041594766 -0.07175064 0.06511815
0002b0 87 ad 9a bd 7f 20 b4 bd b9 06 25 3d 26 35 06 3d
       -0.07552629 -0.08795261 0.040289614 0.03276553
0002c0 87 fe 7e bd a2 0a a9 bd 81 16 4a 3b d9 c0 83 3d
       -0.062254455 -0.08253981 0.0030836167 0.06433267
0002d0 da 40 5d 3d 49 a8 85 3c de 85 22 bd d8 60 5c bc
       0.054016925 0.016315596 -0.039678447 -0.013450824
0002e0 66 73 c0 bc e3 85 28 bc c9 3e 12 3e 15 92 a1 bd
       -0.023492526 -0.010285827 0.14281763 -0.07889191
0002f0 23 d8 0f 3c be d2 9c 3d 0b e6 9e bd 1b ad 6d bd
       0.008779558 0.076573834 -0.07758721 -0.058026414
000300 40 57 55 bd e7 33 fa bc f1 19 ae 3b 6b b6 25 3d
       -0.05208516 -0.030542327 0.005313151 0.04045717
000310 92 b8 e4 3d f3 0a b3 bd 7b 4c be bc 52 de 43 3d
       0.111680165 -0.08742323 -0.023229828 0.047819443
000320 dd a1 d0 bd cc 06 37 3d e9 2d 82 bd 93 0e 2b 3c
       -0.10187123 0.044684216 -0.06356413 0.0104404865
000330 eb ad d9 3b 52 0e 23 3d ef 81 96 ba ae 9d a0 bd
       0.006643047 0.03980858 -0.0011482815 -0.07842575
000340 78 f0 a9 bd d8 c8 be 3d 2a f6 a2 3c 4c 92 4e bd
       -0.08297819 0.09315652 0.01989277 -0.05043249
000350 78 56 ae 3c 6f 01 9f bd 6a 01 8e bd 01 d1 90 3d
       0.021281466 -0.07763945 -0.069338635 0.07071114
000360 f0 84 9b bd 38 1d 33 3d a8 b2 a1 3d 93 0f 7d bc
       -0.07593715 0.043729037 0.07895404 -0.015445608
000370 66 ef 22 bd 60 ec 4a 3d a7 41 46 bc 70 03 2b 3d
       -0.03977909 0.04954183 -0.012100614 0.041751325
000380 89 32 05 3d 37 28 82 3d 2d 62 3a 3d fb ad 78 3d
       0.032518897 0.063553266 0.045503784 0.060712796
000390 f6 85 85 3d 44 fe 99 bd 7a 5b b1 ba 93 b8 9d bd
       0.06519692 -0.075192004 -0.001353129 -0.0770122
0003a0 05 15 d8 bd 21 95 3a 3c 1e ed ea 3d 9f 1f 11 3d
       -0.10550884 0.011388094 0.11471008 0.035430547
0003b0 44 58 69 bd 61 17 d0 bc ea 8f 60 bd 7b 46 15 3b
       -0.056968942 -0.025401773 -0.054824747 0.0022777605
0003c0 99 00 09 3a d6 fa a1 bd 4e 7a 3e bd dc 00 c4 3c
       0.00052262243 -0.07909171 -0.046503358 0.023926191
0003d0 80 a0 a9 bd 69 b7 90 bd 72 b5 4a 3d 01 11 13 3c
       -0.08282566 -0.07066233 0.049489446 0.008976222
0003e0 f0 bc d6 3c 78 89 97 3d 58 36 5f bd 89 fb 69 3d
       0.02621314 0.07399267 -0.054495186 0.05712465
0003f0 ef dd 91 3d 9a 15 c3 bc 27 0d b4 3d a9 09 1f bd
       0.071224086 -0.023814011 0.08791571 -0.038827572

transformer_encoder.layers.0.linear1.bias f4 [128]
000000 5c 20 34 3d c6 a6 fd 3c 2c 94 74 bc 38 e9 30 bd
       0.043976173 0.030963313 -0.014927905 -0.043191165
000010 2f ab 1f bd 0e d0 c4 b8 08 77 6a bd b4 7c 7e 3d
       -0.038981613 -9.3847615e-05 -0.057242423 0.062130645
000020 0b 0f 6c bd ef 57 af bd ba 20 be bd e2 df 37 3d
       -0.057631534 -0.08561694 -0.09283586 0.044891246
000030 4d 12 32 3d 58 1f 0e 3d 68 0c 96 bc cd b3 9d bd
       0.043474484 0.03469786 -0.018316463 -0.0770031
000040 44 09 05 3d 23 19 2e bc 48 d5 5a 3d a7 4a 5c 3d
       0.03247954 -0.01062611 0.053426057 0.05378213
000050 1e ab 45 3d 97 b9 f9 bd 8c 9c 88 3d 9d cc 9d bd
       0.048258893 -0.121936016 0.06670484 -0.077050425
000060 98 67 94 bd c9 70 c1 3b b0 ad 86 3b 3e 8a 69 3d
       -0.072463214 0.0059033376 0.0041100606 0.057016604
000070 8d fb 26 bd 94 c1 07 3b 22 7d 3d 3d 0d c4 65 3d
       -0.04076724 0.0020714747 0.046261914 0.05609517
000080 f9 da 6b 3c 94 f5 5f 3c 5b 16 05 bd 58 66 73 bd
       0.014395469 0.01366939 -0.032492023 -0.059423774
000090 e1 00 9a 3d 64 6f 4c bc 77 83 32 bd 95 8f 91 3d
       0.07519699 -0.0124777295 -0.043582406 0.07107464
0000a0 ec 9b 9d bd aa 7b b6 bc 18 47 86 bb 3c e3 77 3c
       -0.07695755 -0.022275764 -0.0040978305 0.0151298605
0000b0 e7 b4 18 bc 8f a5 72 bc cf d1 1b 3c b7 02 61 bd
       -0.009320474 -0.01480998 0.0095104715 -0.05493423
0000c0 cf c8 33 bd 9e e3 b1 bc f7 7f a3 bd db 5f f7 3b
       -0.043892678 -0.021714982 -0.07983392 0.0075492687
0000d0 9c 12 ce 3c 82 27 f5 3b d2 1d 3c 3b 3d 44 8e bd
       0.025155358 0.0074815163 0.0028704298 -0.06946609
0000e0 21 b3 3d 3b a0 3d d6 3c 6a 87 30 3d 5f 22 6c bd
       0.002894588 0.026152432 0.04309789 -0.057649966
0000f0 77 fb 0c 3d 98 1f 5e bd 65 55 0d bd e1 66 a7 bd
       0.034419503 -0.05422935 -0.034505267 -0.081739195
000100 a2 1f c1 3b e1 8a 88 bd 97 d3 c8 bd 87 9c c5 bd
       0.0058936635 -0.06667114 -0.098059826 -0.09648996
000110 45 31 89 3d 5f cf 31 3d 68 06 14 bd 9f 6a c5 3d
       0.066988505 0.043410655 -0.036138922 0.09639477
000120 03 63 50 bd 07 4b 27 bd 9e 49 8f bd 5f d0 b5 3a
       -0.050875675 -0.040843036 -0.06996463 0.0013871304
000130 b9 8b 88 bd 0d 6a 4e bc f4 f4 8a bc 03 80 6c bd
       -0.06667275 -0.012598527 -0.016962506 -0.05773927
000140 b8 99 fd bc 03 90 b9 bd 03 42 d7 bb a9 ff 40 bd
       -0.030957088 -0.09060671 -0.0065691485 -0.047118817
000150 5f 60 09 3c 75 e0 df ba 3d 20 33 3c bd 20 ae bd
       0.008384793 -0.0017080443 0.010932979 -0.08502338
000160 2d fa 8d 3d e0 88 d4 bd 2d b5 06 bb fd 13 af 3b
       0.06932483 -0.10377669 -0.0020554767 0.005342959
000170 e1 d0 1d 39 25 a4 17 3d cb 34 b4 bd f4 93 1e bc
       0.000150505 0.037021775 -0.08799132 -0.009678829
000180 c1 dc 6a 3d 37 d9 bf bd 14 20 be bd 98 21 11 3d
       0.057339434 -0.09367602 -0.09283462 0.035432428
000190 c0 13 61 bd 98 6a 5d bc 8c 57 9a bd 9d cd dd 3b
       -0.054950476 -0.013514183 -0.075362295 0.006768896
0001a0 7d 53 e6 bc 03 f4 a4 bd fc fc a9 ba 4d 7a 7c bd
       -0.028115982 -0.08054354 -0.0012969072 -0.061640073
0001b0 3b b1 02 3c 39 0e 76 3d 9e 00 8d ba 60 52 4f ba
       0.007976825 0.060072158 -0.001075763 -0.0007908698
0001c0 8c 0e 1e bd f3 8b 29 bd cc cb 9c bc 66 80 8d bd
       -0.03858809 -0.04139323 -0.019140147 -0.06909256
0001d0 41 03 05 bc 4f 6c cf 3c 7e b9 ba 3d 8f 56 61 bc
       -0.008118452 0.0253202 0.09117411 -0.013753547
0001e0 4d b7 ac 3b 2d 67 24 bb 23 69 a3 bd 57 0c 47 bd
       0.0052708746 -0.0025085912 -0.079790376 -0.048595753
0001f0 40 91 a6 3c 9d 91 37 bc 12 19 4c bd 03 9e bd bc
       0.020332932 -0.0112041505 -0.049828596 -0.023146635
