temporal_transformer_encoder/transformer_encoder_model_fold_1.pth (torch, 816034 bytes, 28 tensors)

embedding.weight f4 [128, 13]
0.053080976 0.07395193 0.08494978 -0.3574693 0.22856987 0.1829434 0.26082444 0.07149374
0.16379324 0.006361128 -0.08059657 0.41207463 -0.21128923 -0.090772346 -0.24212208 0.19897074
-0.32681373 0.2585584 0.0803105 0.05986631 0.22765768 0.21613301 -0.21168996 0.14975986
0.10006881 -0.073011436 0.11932155 -0.19586627 0.16824824 -0.23418278 -0.15926036 -0.09041725
-0.30192253 -0.123715445 0.14848126 -0.011261447 0.14994659 -0.25646877 0.22271581 0.07770111
-0.07774997 -0.23362823 0.2887282 -0.13615377 0.1710423 -0.15578662 0.032622848 0.074099876
0.2438137 -0.2505793 -0.2499908 -0.2804069 0.060127802 -0.02555528 0.09884315 -0.04233888
-0.032255035 -0.1393484 -0.1867373 0.19051304 -0.04886896 -0.12799965 0.04520669 -0.25920293
-0.03441939 -0.13259567 -0.1365954 0.1504872 0.12818956 -0.12811963 -0.22280528 -0.15915096
-0.21810973 0.13615568 0.21431759 0.09902625 -0.34693065 -0.15121502 -0.06114508 -0.18781905
0.13549046 -0.14076382 0.16938898 -0.05279373 -0.0799016 -0.12058382 -0.20238209 0.02456695
-0.031842828 0.3464337 0.049277168 0.25258747 0.21539661 -0.081751846 -0.20751905 0.37740603
-0.25558484 0.20203978 0.17334223 -0.10767341 0.03206436 -0.0047656316 0.42211792 0.03164095
0.18263789 -0.13120332 0.00014591863 -0.18546301 -0.30636024 -0.18502265 0.23381345 0.12132142
-0.0077232146 0.09759409 -0.0036505796 -0.34333378 0.07586265 -0.21551749 -0.24360421 0.088433556
-0.15313242 0.1196683 0.11093422 -0.06281046 0.049060658 0.09153867 0.2034093 -0.1682219
0.10659549 0.12109904 0.05079117 -0.07517296 0.2069112 0.18386859 0.3746809 0.09875597
-0.15918303 -0.137322 -0.047623996 0.13567883 -0.079830855 0.06019358 0.18715003 0.058028933
-0.22284447 0.04285298 -0.16467534 -0.26139382 0.024430946 0.13104585 0.107042216 0.009157887
-0.053536545 0.07860285 -0.053034134 0.14141169 -0.26011527 -0.013014582 -0.12312557 -0.01325734
-0.2582583 -0.014039299 0.36337405 0.17448506 -0.12371096 0.028171046 -0.20727085 -0.19619042
-0.13081732 0.07979686 -0.15387823 0.03350024 -0.04795939 0.09162159 -0.18337266 -0.19370903
-0.07090607 -0.050159372 -0.03362287 0.01413032 -0.26726827 -0.05213611 -0.093218796 -0.21879427
0.16251601 0.01747836 0.18645673 0.19563603 0.32251427 -0.070737824 -0.083051346 -0.15340634
-0.11113703 0.0105348015 -0.16304071 -0.16537039 -0.20014894 -0.16688026 -0.17172809 0.3815964
-0.047033846 -0.0004381251 -0.07624786 -0.13089722 -0.13896334 0.066108406 0.024510482 0.13475409
-0.20583749 0.012075881 -0.050862838 -0.32242906 0.17585051 0.12134649 -0.09619936 -0.25984594
0.20881481 -0.22245383 -0.12527983 0.4103824 0.112063706 -0.17288685 -0.039918657 0.18338795
-0.26478758 0.27024543 -0.008299355 -0.046377562 0.07392575 -0.21483956 -0.09559945 0.07607152
0.15844399 0.09474428 -0.085858345 0.18829896 -0.17174496 -0.288912 0.10884487 -0.05212641
-0.27384403 0.22445217 0.023442848 0.030684007 -0.11636392 0.2886437 -0.09496647 -0.24401452
0.22358881 -0.20431003 -0.10405672 -0.17156233 -0.1015707 0.46157148 -0.08183593 -0.052397702
00000000: 706b 593d 1c74 973d 26fa ad3d 3706 b7be
00000010: 380e 6a3e 8455 3b3e c88a 853e 4f6b 923d
00000020: 6ab9 273e 0271 d03b d10f a5bd 72fb d23e
00000030: 345c 58be dae6 b9bd daee 77be fcbe 4b3e
00000040: 2154 a7be c461 843e d579 a43d 6036 753d
00000050: 181f 693e f951 5d3e 41c5 58be a65a 193e
00000060: e0f0 cc3d 0587 95bd db5e f43d 2b91 48be
00000070: 4449 2c3e 9ccd 6fbe 2615 23be ae2c b9bd
00000080: 9795 9abe 865e fdbd 790b 183e ef81 38bc
00000090: 998b 193e e04f 83be 9d0f 643e c221 9f3d
000000a0: 603b 9fbd 3d3c 6fbe 2fd4 933e e56b 0bbe
000000b0: b625 2f3e 8786 1fbe 899f 053d adc1 973d
000000c0: 4caa 793e ee4b 80be 97fd 7fbe 7e91 8fbe
000000d0: 9248 763d 4e59 d1bc 476e ca3d 896b 2dbd
000000e0: db1d 04bd 59b1 0ebe 1038 3fbe da15 433e
000000f0: d22a 48bd 5712 03be a62a 393d 3fb6 84be
00000100: 59fb 0cbd 29c7 07be aadf 0bbe 5119 1a3e
00000110: 2044 033e cb31 03be 1127 64be 78f8 22be
00000120: 2858 5fbe 656c 0b3e 1276 5b3e 46ce ca3d
00000130: e5a0 b1be 1cd8 1abe 4373 7abd a353 40be
00000140: 03be 0a3e 6424 10be 4e74 2d3e 3d3e 58bd
00000150: 73a3 a3bd a6f4 f6bd 403d 4fbe a140 c93c
00000160: a06d 02bd c25f b13e dbd6 493d 2553 813e
00000170: ee90 5c3e 836d a7bd e07f 54be 5d3b c13e
00000180: 04dc 82be 84e3 4e3e a080 313e e083 dcbd
00000190: eb55 033d 0429 9cbb d71f d83e f199 013d
000001a0: 6d05 3b3e 2a5a 06be bc01 1939 04ea 3dbe
000001b0: 40db 9cbe 9476 3dbe cb6c 6f3e 5d77 f83d
000001c0: 0513 fdbb 69df c73d 903e 6fbb 72c9 afbe
000001d0: e15d 9b3d 9eb0 5cbe 6273 79be a71c b53d
000001e0: bfce 1cbe a714 f53d 7b31 e33d c5a2 80bd
000001f0: d4f3 483d a078 bb3d 874a 503e 5d42 2cbe
00000200: bc4e da3d c602 f83d 670a 503d 48f4 99bd
00000210: 88e0 533e 0c48 3c3e 2dd6 bf3e 9240 ca3d
00000220: e000 23be 239e 0cbe 6111 43bd 64ef 0a3e
00000230: 5c7e a3bd 8b8d 763d 42a4 3f3e bfaf 6d3d
00000240: 5731 64be 9b86 2f3d a7a0 28be 69d5 85be
00000250: 6823 c83c e230 063e f338 db3d f60a 163c
00000260: 2349 5bbd 88fa a03d 523a 59bd 3ace 103e
00000270: d42d 85be 1d3b 55bc 4229 fcbd 5035 59bc
00000280: 6f3a 84be 1705 66bc 2a0c ba3e 36ac 323e
00000290: 2c5c fdbd f7c6 e63c cf3e 54be 24e6 48be
000002a0: faf4 05be 896c a33d 4192 1dbe 8c37 093d
000002b0: 1171 44bd 1aa4 bb3d 0bc6 3bbe a95b 46be
000002c0: 3437 91bd ea73 4dbd 22b8 09bd dc82 673c
000002d0: 63d7 88be ac8c 55bd 7fe9 bebd 9b0b 60be
000002e0: 996a 263e c72e 8f3c 83ee 3e3e d054 483e
000002f0: 9720 a53e fede 90bd d316 aabd 8d16 1dbe
00000300: d09b e3bd 299a 2c3c 25f4 26be db56 29be
00000310: d8f3 4cbe a9e2 2abe 7dd9 2fbe 9a60 c33e
00000320: 90a6 40bd 28b4 e5b9 d727 9cbd ec09 06be
00000330: 684c 0ebe d863 873d 35ca c83c fafc 093e
00000340: 10c7 52be ead9 453c 8d55 50bd 6c15 a5be
00000350: 2812 343e 8284 f83d 2c04 c5bd 870a 85be
00000360: 8dd3 553e f0ca 63be 5b49 00be a41d d23e
00000370: a881 e53d 4009 31be bf81 23bd 0dca 3b3e
00000380: 3d92 87be 9c5d 8a3e 05fa 07bc 66f6 3dbd
00000390: 6266 973d e7fe 5bbe a5c9 c3bd 63cb 9b3d
000003a0: 243f 223e 4a09 c23d 80d6 afbd 71d1 403e
000003b0: e9dd 2fbe 46ec 93be 0fea de3d 8182 55bd
000003c0: 4935 8cbe cad6 653e 370b c03c 075d fb3c
000003d0: 3550 eebd 1bc9 933e c87d c2bd f1de 79be
000003e0: 77f4 643e a636 51be b11b d5bd 09ae 2fbe
000003f0: 4d04 d0bd 1953 ec3e 9999 a7bd f99e 56bd

embedding.bias f4 [128]
-0.21069846 0.2119448 0.07030246 -0.20897257 -0.10137595 0.18556511 0.06070105 0.066415146
0.059541374 0.06938374 0.143747 -0.096963644 -0.018877866 -0.016967652 0.16778706 -0.21446353
0.2533786 -0.20314269 -0.14424288 0.10869617 0.13371843 0.20108806 0.05596958 -0.14429839
-0.010369264 -0.22249922 0.06899313 0.034948196 0.20246689 -0.030338015 -0.020995239 -0.15369256
-0.26458308 -0.15496644 -0.024073048 -0.059188306 -0.24803361 0.15123624 0.037725933 0.10530339
0.059889242 -0.12552916 -0.04214819 0.086151175 -0.085293405 -0.14603516 -0.08731853 -0.055627864
-0.12773485 -0.027372226 -0.13448803 -0.21531637 0.07902701 -0.08040224 0.035217475 0.23594753
-0.203141 -0.0051522353 -0.15742655 -0.17434329 0.003648124 -0.15298945 -0.08733726 -0.13431022
0.1416981 0.23482078 -0.020344118 0.046090443 -0.037114184 0.09694495 0.25532967 -0.1965997
-0.15186068 0.17064543 -0.058824245 0.069514036 0.16814657 0.13805589 -0.11037382 0.20074913
-0.0508324 -0.0373708 0.08722189 0.095456064 -0.02114724 0.21254635 -0.010014409 0.19512817
-0.034398317 0.20425037 0.20747553 0.23338579 0.12396934 -0.2533484 0.1140769 -0.09237528
0.1994713 -0.0066776494 0.053976823 0.030375414 -0.11264715 0.14813022 0.22474983 0.2517987
0.13870136 -0.014448744 0.021892117 0.058773298 0.24960665 -0.063129954 0.05238338 -0.18840785
0.05934105 -0.20270176 0.23415363 0.12016222 0.19717385 -0.044753585 0.18329088 0.19087458
-0.021262458 -0.095587865 0.20300195 -0.09756146 0.06849853 -0.23077358 0.21050571 -0.07590279
00000000: 56c1 57be 0f08 593e bcfa 8f3d e8fc 55be
00000010: 329e cfbd c804 3e3e aaa1 783d aa04 883d
00000020: a8e1 733d 1019 8e3d 6a32 133e e094 c6bd
00000030: c1a5 9abc bfff 8abc 5fd0 2b3e 549c 5bbe
00000040: d7ba 813e a304 50be 68b4 13be 199c de3d
00000050: 7ced 083e 07ea 4d3e 5c40 653d f5c2 13be
00000060: d8e3 29bc d6d6 63be 454c 8d3d d725 0f3d
00000070: 7b53 4f3e 6e87 f8bc 35fe abbc 9561 1dbe
00000080: 6f77 87be 86af 1ebe d734 c5bc 706f 72bd
00000090: 86fc 7dbe acdd 1a3e 8286 1a3d 4ea9 d73d
000000a0: 6c4e 753d b78a 00be 95a3 2cbd 0770 b03d
000000b0: 4fae aebd 3e8a 15be 0fd4 b2bd 0bda 63bd
000000c0: edcc 02be b83b e0bc 3bb7 09be e57b 5cbe
000000d0: ead8 a13d eea9 a4bd 3340 103d 3b9c 713e
000000e0: 3204 50be 15d4 a8bb 6d34 21be 0c87 32be
000000f0: 5d15 6f3b 44a9 1cbe e1dd b2bd 9e88 09be
00000100: 4f19 113e dc74 703e b5a8 a6bc 55c9 3c3d
00000110: 0b05 18bd 138b c63d 92ba 823e 6f51 49be
00000120: 5e81 1bbe adbd 2e3e b1f1 70bd 605d 8e3d
00000130: 9d2e 2c3e 865e 0d3e ab0b e2bd 2e91 4d3e
00000140: a235 50bd 2012 19bd 64a1 b23d 787e c33d
00000150: fa3c adbc c0a5 593e 7a13 24bc aecf 473e
00000160: 40e5 0cbd 0227 513e 7774 543e affc 6e3e
00000170: a3e3 fd3d e2b6 81be 26a1 e93d 402f bdbd
00000180: 3442 4c3e 2fd0 dabb cd16 5d3d dcd5 f83c
00000190: 8db3 e6bd 73af 173e d224 663e c2eb 803e
000001a0: bb07 0e3e 6dba 6cbc 1957 b33c 45bc 703d
000001b0: e398 7f3e 474a 81bd f48f 563d fded 40be
000001c0: 9a0f 733d 0d91 4fbe f8c5 6f3e 9c17 f63d
000001d0: f1e7 493e 894f 37bd 9bb0 3b3e a074 433e
000001e0: 9b2e aebc 92c3 c3bd bedf 4f3e 4ece c7bd
000001f0: f548 8c3d e94f 6cbe cf8e 573e ec72 9bbd

transformer_encoder.layers.0.self_attn.in_proj_weight f4 [384, 128]
-0.074445754 -0.016092114 0.00814452 -0.056757625 -0.05302587 0.01775252 -0.010407552 -0.06051865
-0.08276473 -0.08149273 -0.081005715 0.002219908 0.022023626 -0.0077545345 0.0960708 -0.0107758045
0.033336036 -0.08297763 -0.04409139 -0.0079825 -0.094351456 0.068381794 -0.07208209 0.10698112
-0.0286237 0.061626352 0.013958372 0.0068775564 0.031381987 0.0682961 0.04026667 -0.10054881
0.09070582 -0.034559168 -0.07091545 -0.02755721 -0.086586095 -0.04144618 0.015343726 0.03020183
-0.09392124 -0.055815656 0.033251353 -0.051217463 0.063018866 0.018708818 -0.02575916 0.0784811
-0.017412953 -0.030998878 -0.081191376 0.032058664 0.09060646 -0.05632635 -0.05137174 0.059966527
-0.09224541 0.08309441 -0.02618733 -0.043055236 0.09360083 0.0018331856 -0.015075371 0.06763279
-0.009562291 0.019259326 -0.08098817 0.07557414 0.046316124 -0.0016632304 -0.0885496 -0.021824986
-0.007782027 0.004940942 0.045333765 -0.08455444 0.023818143 -0.00789503 -0.06307629 0.107952125
0.09461928 0.076304935 0.009515405 0.07930643 0.085034065 -0.019404061 -0.07649289 0.04553578
0.06998547 0.043016903 0.08672667 -0.03481903 -0.009499446 0.038522787 0.07589277 0.013282336
0.0073760524 -0.060518056 -0.062221266 0.035137378 0.07479382 -0.07457445 -0.06978444 -0.018580087
-0.060856484 0.08611674 0.061594434 0.09858436 0.095358424 0.03404387 0.012938634 -0.04770869
-0.028680228 0.0109662935 0.07769338 0.10026761 -0.06713319 0.07063528 -0.08835446 -0.053789914
-0.058172625 0.05713319 0.07700034 -0.09398657 -0.024994537 -0.016002774 -0.05858426 -0.07455167
-0.05236489 -0.043545954 0.08265928 0.040918015 0.046923466 -0.006486915 -0.07702049 0.031025387
0.014629506 -0.07833098 0.024077736 -0.082061715 0.04984059 0.075763725 0.07410324 0.08705386
0.10228052 0.025985457 0.03286069 -0.0968595 0.0053002387 0.07498645 0.06759123 -0.08008189
-0.019156173 -0.057312805 -0.0553679 -0.095631234 -0.0011184737 0.03302946 -0.075773016 -0.063634485
0.105358936 -0.06365664 -0.044722095 0.004708685 -0.08490265 -0.011982776 -0.0016869679 -0.04693258
-0.023172498 0.023946978 -0.06703079 -0.09211062 0.09326815 -0.10749614 -0.08879157 -0.0047010854
-0.0073417276 0.02362939 0.018440284 0.08840624 -0.068422586 0.0024160445 -0.026489079 -0.0013503581
0.04057563 0.059454076 0.09888873 -0.097231776 0.041528575 0.036332734 -0.047384314 -0.01892373
-0.054037996 0.045438312 -0.00031030923 -0.02807349 0.10341745 0.097191505 -0.07455328 -0.024061993
0.06279399 -0.022244863 -0.04448422 0.065581925 0.077409424 -0.099729896 -0.0033990592 0.037333272
0.047545813 -0.077452734 -0.10625945 0.03225132 0.05628989 0.099134676 -0.067855015 -0.033066563
-0.036344722 0.06425039 -0.107947744 -0.08281691 0.0059734955 0.0131530315 0.07558975 -0.048809055
0.011935815 0.053450696 -0.029079676 0.040708356 0.032892816 0.05299755 0.030073382 -0.020744026
-0.028116502 -0.088338226 -0.041608274 0.020736195 -0.04915524 -0.0934369 -0.09811172 0.0716235
0.052198283 0.068347715 0.047264628 0.0018207878 0.03776232 0.10396955 0.010783456 0.0024139658
0.060700394 -0.07850517 0.082336955 -0.01859995 0.102807276 -0.03340087 0.0848588 0.03960737
00000000: 0477 98bd 9cd3 83bc 9870 053c af7a 68bd
00000010: a831 59bd bc6d 913c 7084 2abc 67e2 77bd
00000020: 8e80 a9bd a9e5 a6bd 53e6 a5bd e07b 113b
00000030: e46a b43c c019 febb c5c0 c43d 008d 30bc
00000040: 5e8b 083d 2df0 a9bd 2c99 34bd 08c9 02bc
00000050: 563b c1bd c10b 8c3d c69f 93bd eb18 db3d
00000060: 407c eabc ea6b 7c3d a8b1 643c 205d e13b
00000070: 668a 003d d3de 8b3d aaee 243d 89ec cdbd
00000080: f9c3 b93d ea8d 0dbd 1f3c 91bd a8bf e1bc
00000090: 0d54 b1bd 78c3 29bd 4064 7b3c d469 f73c
000000a0: c759 c0bd f59e 64bd 9232 083d 67c9 51bd
000000b0: 0910 813d 3c43 993c e004 d3bc b3ba a03d
000000c0: 9ca5 8ebc 5cf1 fdbc aa47 a6bd f24f 033d
000000d0: e18f b93d 75b6 66bd 2c6b 52bd 769f 753d
000000e0: 29eb bcbd 672d aa3d d086 d6bc b05a 30bd
000000f0: cbb1 bf3d 8047 f03a b0fe 76bc 0f83 8a3d
00000100: 28ab 1cbc bcc5 9d3c 20dd a5bd 9dc6 9a3d
00000110: fab5 3d3d c000 daba 7e59 b5bd 50ca b2bc
00000120: 6000 ffbb a0e7 a13b e6af 393d e12a adbd
00000130: 441e c33c 285a 01bc 242e 81bd 0116 dd3d
00000140: c1c7 c13d c345 9c3d 80e6 1b3c 696b a23d
00000150: 5726 ae3d 44f5 9ebc 4ea8 9cbd ba83 3a3d
00000160: 8b54 8f3d 7e32 303d c19d b13d 669e 0ebd
00000170: 90a3 1bbc 12ca 1d3d ab6d 9b3d 289e 593c
00000180: d0b2 f13b c8e1 77bd badb 7ebd 36ec 0f3d
00000190: 812d 993d 7dba 98bd 25eb 8ebd 4435 98bc
000001a0: a644 79bd f95d b03d 724a 7c3d 99e6 c93d
000001b0: 474b c33d 9671 0b3d 90fc 533c 306a 43bd
000001c0: ccf2 eabc f8ab 333c b51d 9f3d 1b59 cd3d
000001d0: 207d 89bd 3ba9 903d 2ff3 b4bd d052 5cbd
000001e0: 6b46 6ebd 7e04 6a3d 5bb2 9d3d 087c c0bd
000001f0: 58c1 ccbc 4018 83bc 0df6 6fbd 8cae 98bd
00000200: 917c 56bd 3e5d 32bd 4549 a93d a699 273d
00000210: d232 403d 3090 d4bb ebbc 9dbd f428 fe3c
00000220: 98b0 6f3c fe6b a0bd ac3e c53c f90f a8bd
00000230: a625 4c3d 032a 9b3d 71c3 973d 4b49 b23d
00000240: 7378 d13d 74df d43c ee98 063d 465e c6bd
00000250: a0ad ad3b 7f92 993d 456d 8a3d f901 a4bd
00000260: 68ed 9cbc d5c0 6abd 73c9 62bd 4fda c3bd
00000270: c099 92ba e649 073d e22e 9bbd cc52 82bd
00000280: 6dc6 d73d 6a5e 82bd 842e 37bd 504b 9a3b
00000290: 71e1 adbd 6853 44bc 401d ddba 613c 40bd
000002a0: 40d4 bdbc 742c c43c 7047 89bd 7ea4 bcbd
000002b0: 5f03 bf3d f026 dcbd 5bd8 b5bd 900b 9abb
000002c0: e092 f0bb 6c92 c13c 1410 973c 550e b53d
000002d0: 2421 8cbd 8056 1e3b a0ff d8bc 80fe b0ba
000002e0: a232 263d 1e86 733d 2d86 ca3d 7421 c7bd
000002f0: de19 2a3d a2d1 143d 0e16 42bd f005 9bbc
00000300: f256 5dbd 861d 3a3d 00b1 a2b9 60fa e5bc
00000310: 87cc d33d 570c c73d 64af 98bd a81d c5bc
00000320: 239a 803d dc3a b6bc 1635 36bd d14f 863d
00000330: d588 9e3d 303f ccbd c0c2 5ebb c6ea 183d
00000340: 66bf 423d 8a9f 9ebd 8e9e d9bd f619 043d
00000350: 3a90 663d 1f07 cb3d 92f7 8abd ce70 07bd
00000360: 34de 14bd b595 833d b513 ddbd ea9b a9bd
00000370: 50bd c33b d07f 573c cdce 9a3d 01ec 47bd
00000380: 708e 433c 1eef 5a3d 8038 eebc cebd 263d
00000390: 9eba 063d f613 593d 745c f63c 60ef a9bc
000003a0: 9454 e6bc acea b4bd 706d 2abd f4de a93c
000003b0: 0157 49bd d85b bfbd ccee c8bd 57af 923d
000003c0: decd 553d e3f9 8b3d 8e98 413d 80a7 ee3a
000003d0: aaac 1a3d fded d43d 18ad 303c a033 1e3b
000003e0: faa0 783d 52c7 a0bd 47a0 a83d ec5e 98bc
000003f0: 9f8c d23d 5acf 08bd 73ca ad3d 563b 223d

transformer_encoder.layers.0.self_attn.in_proj_bias f4 [384]
0.0 0.0 0.0 0.0 0.0 0.0 0.0 0.0
0.0 0.0 0.0 0.0 0.0 0.0 0.0 0.0
0.0 0.0 0.0 0.0 0.0 0.0 0.0 0.0
0.0 0.0 0.0 0.0 0.0 0.0 0.0 0.0
0.0 0.0 0.0 0.0 0.0 0.0 0.0 0.0
0.0 0.0 0.0 0.0 0.0 0.0 0.0 0.0
0.0 0.0 0.0 0.0 0.0 0.0 0.0 0.0
0.0 0.0 0.0 0.0 0.0 0.0 0.0 0.0
0.0 0.0 0.0 0.0 0.0 0.0 0.0 0.0
0.0 0.0 0.0 0.0 0.0 0.0 0.0 0.0
0.0 0.0 0.0 0.0 0.0 0.0 0.0 0.0
0.0 0.0 0.0 0.0 0.0 0.0 0.0 0.0
0.0 0.0 0.0 0.0 0.0 0.0 0.0 0.0
0.0 0.0 0.0 0.0 0.0 0.0 0.0 0.0
0.0 0.0 0.0 0.0 0.0 0.0 0.0 0.0
0.0 0.0 0.0 0.0 0.0 0.0 0.0 0.0
0.0 0.0 0.0 0.0 0.0 0.0 0.0 0.0
0.0 0.0 0.0 0.0 0.0 0.0 0.0 0.0
0.0 0.0 0.0 0.0 0.0 0.0 0.0 0.0
0.0 0.0 0.0 0.0 0.0 0.0 0.0 0.0
0.0 0.0 0.0 0.0 0.0 0.0 0.0 0.0
0.0 0.0 0.0 0.0 0.0 0.0 0.0 0.0
0.0 0.0 0.0 0.0 0.0 0.0 0.0 0.0
0.0 0.0 0.0 0.0 0.0 0.0 0.0 0.0
0.0 0.0 0.0 0.0 0.0 0.0 0.0 0.0
0.0 0.0 0.0 0.0 0.0 0.0 0.0 0.0
0.0 0.0 0.0 0.0 0.0 0.0 0.0 0.0
0.0 0.0 0.0 0.0 0.0 0.0 0.0 0.0
0.0 0.0 0.0 0.0 0.0 0.0 0.0 0.0
0.0 0.0 0.0 0.0 0.0 0.0 0.0 0.0
0.0 0.0 0.0 0.0 0.0 0.0 0.0 0.0
0.0 0.0 0.0 0.0 0.0 0.0 0.0 0.0
00000000: 0000 0000 0000 0000 0000 0000 0000 0000
00000010: 0000 0000 0000 0000 0000 0000 0000 0000
00000020: 0000 0000 0000 0000 0000 0000 0000 0000
00000030: 0000 0000 0000 0000 0000 0000 0000 0000
00000040: 0000 0000 0000 0000 0000 0000 0000 0000
00000050: 0000 0000 0000 0000 0000 0000 0000 0000
00000060: 0000 0000 0000 0000 0000 0000 0000 0000
00000070: 0000 0000 0000 0000 0000 0000 0000 0000
00000080: 0000 0000 0000 0000 0000 0000 0000 0000
00000090: 0000 0000 0000 0000 0000 0000 0000 0000
000000a0: 0000 0000 0000 0000 0000 0000 0000 0000
000000b0: 0000 0000 0000 0000 0000 0000 0000 0000
000000c0: 0000 0000 0000 0000 0000 0000 0000 0000
000000d0: 0000 0000 0000 0000 0000 0000 0000 0000
000000e0: 0000 0000 0000 0000 0000 0000 0000 0000
000000f0: 0000 0000 0000 0000 0000 0000 0000 0000
00000100: 0000 0000 0000 0000 0000 0000 0000 0000
00000110: 0000 0000 0000 0000 0000 0000 0000 0000
00000120: 0000 0000 0000 0000 0000 0000 0000 0000
00000130: 0000 0000 0000 0000 0000 0000 0000 0000
00000140: 0000 0000 0000 0000 0000 0000 0000 0000
00000150: 0000 0000 0000 0000 0000 0000 0000 0000
00000160: 0000 0000 0000 0000 0000 0000 0000 0000
00000170: 0000 0000 0000 0000 0000 0000 0000 0000
00000180: 0000 0000 0000 0000 0000 0000 0000 0000
00000190: 0000 0000 0000 0000 0000 0000 0000 0000
000001a0: 0000 0000 0000 0000 0000 0000 0000 0000
000001b0: 0000 0000 0000 0000 0000 0000 0000 0000
000001c0: 0000 0000 0000 0000 0000 0000 0000 0000
000001d0: 0000 0000 0000 0000 0000 0000 0000 0000
000001e0: 0000 0000 0000 0000 0000 0000 0000 0000
000001f0: 0000 0000 0000 0000 0000 0000 0000 0000
00000200: 0000 0000 0000 0000 0000 0000 0000 0000
00000210: 0000 0000 0000 0000 0000 0000 0000 0000
00000220: 0000 0000 0000 0000 0000 0000 0000 0000
00000230: 0000 0000 0000 0000 0000 0000 0000 0000
00000240: 0000 0000 0000 0000 0000 0000 0000 0000
00000250: 0000 0000 0000 0000 0000 0000 0000 0000
00000260: 0000 0000 0000 0000 0000 0000 0000 0000
00000270: 0000 0000 0000 0000 0000 0000 0000 0000
00000280: 0000 0000 0000 0000 0000 0000 0000 0000
00000290: 0000 0000 0000 0000 0000 0000 0000 0000
000002a0: 0000 0000 0000 0000 0000 0000 0000 0000
000002b0: 0000 0000 0000 0000 0000 0000 0000 0000
000002c0: 0000 0000 0000 0000 0000 0000 0000 0000
000002d0: 0000 0000 0000 0000 0000 0000 0000 0000
000002e0: 0000 0000 0000 0000 0000 0000 0000 0000
000002f0: 0000 0000 0000 0000 0000 0000 0000 0000
00000300: 0000 0000 0000 0000 0000 0000 0000 0000
00000310: 0000 0000 0000 0000 0000 0000 0000 0000
00000320: 0000 0000 0000 0000 0000 0000 0000 0000
00000330: 0000 0000 0000 0000 0000 0000 0000 0000
00000340: 0000 0000 0000 0000 0000 0000 0000 0000
00000350: 0000 0000 0000 0000 0000 0000 0000 0000
00000360: 0000 0000 0000 0000 0000 0000 0000 0000
00000370: 0000 0000 0000 0000 0000 0000 0000 0000
00000380: 0000 0000 0000 0000 0000 0000 0000 0000
00000390: 0000 0000 0000 0000 0000 0000 0000 0000
000003a0: 0000 0000 0000 0000 0000 0000 0000 0000
000003b0: 0000 0000 0000 0000 0000 0000 0000 0000
000003c0: 0000 0000 0000 0000 0000 0000 0000 0000
000003d0: 0000 0000 0000 0000 0000 0000 0000 0000
000003e0: 0000 0000 0000 0000 0000 0000 0000 0000
000003f0: 0000 0000 0000 0000 0000 0000 0000 0000

transformer_encoder.layers.0.self_attn.out_proj.weight f4 [128, 128]
-0.07881457 -0.05600996 -0.1070738 0.0869977 -0.051149927 -0.010418789 0.03363333 -0.06511596
0.07534477 0.0066292034 -0.056760233 0.016230172 -0.059629943 0.051512174 0.043310195 0.019436827
-0.078581855 -0.0031729746 0.13102475 -0.098948196 -0.068622865 0.08913935 -0.0058981623 0.020371212
0.00014288761 0.035115276 0.06933783 -0.0060502184 -0.029384471 -0.049595512 0.024628231 -0.060770683
0.030173372 -0.038883913 0.09027433 0.0663316 -0.052772053 0.055635843 0.05354721 0.054589573
-0.03624589 0.02107374 -0.13215907 -0.025580082 0.041196454 0.00040045148 -0.08180864 0.09131815
-0.028192783 0.0846798 0.06385114 0.04102013 -0.043531485 0.0361109 -0.061574757 -0.067301296
0.065173574 -0.057895895 0.053736906 -0.041073084 0.002359349 0.0018994592 0.08356235 -0.07014093
0.031231545 -0.02331913 0.018170847 0.033424072 -0.033720657 -0.070092924 0.0133373765 0.012757626
-0.026342342 -0.020090654 0.11906111 0.08897592 -0.10053795 0.046247385 0.09627069 0.06822718
-0.08834559 -0.07382172 -0.010000233 0.047627583 -0.012018375 0.013345695 0.057489023 0.047070015
0.06600335 -0.031495973 -0.15476364 -0.016347371 0.026208913 -0.0476224 -0.049080577 -0.09266692
-0.07974122 0.03894529 0.0041398276 0.026297856 -0.03872625 0.07788826 -0.015824117 -0.021700745
-0.04265168 -0.023989193 -0.11249264 0.055156138 -0.013494759 0.03470012 -0.104674816 -0.050415426
-0.1009223 0.06082259 0.09253044 -0.00038373913 0.012638451 0.0014584007 0.02336532 -0.040093876
-0.094073474 -0.026632553 -0.023645388 -0.11383414 -0.088127464 -0.0072284094 -0.07265974 0.038361862
-0.09362451 0.0080349585 -0.07086186 0.019918967 -0.120550476 -0.11158508 -0.04680352 0.006134918
0.075121626 -0.0041054115 -0.00065948576 0.028097859 -0.1134868 0.020269828 -0.0004593614 0.053518087
-0.05715324 -0.02289784 -0.0323857 0.013764277 -0.094735496 0.035335172 -0.022833416 0.01812746
0.022803612 0.034207705 0.078828864 0.016569942 0.050452378 -0.029991267 -0.01957498 -0.067325205
0.016796732 0.05342321 -0.037949722 0.03773369 0.094633795 0.20554207 -0.0034536389 0.042087883
0.013034013 -0.0033049088 -0.10565483 -0.003579722 -0.05704299 0.09521135 -0.048185904 -0.06499141
-0.08319778 0.05634391 -0.051492546 0.039903667 0.06645722 0.039126355 0.014292331 0.035310756
0.050327934 0.08506649 0.07570399 0.085191086 0.05478249 0.097417094 -0.033677164 -0.019471034
-0.035603017 0.07472223 -0.021920903 -0.0003099084 -0.011279056 -0.018381238 -0.12384031 -0.07590088
0.011164369 0.05285066 0.031578593 -0.024765735 0.0027022373 0.026960112 0.033073485 0.076228596
-0.045682725 -0.016059395 0.07687351 -0.043062262 0.015503049 -0.092647806 -0.08277132 -0.038512327
-0.013514184 -0.09664914 -0.055802148 -0.014560503 0.024733733 0.017600961 0.073856026 0.022813344
-0.032950796 -0.078667164 -0.06062371 0.06298174 0.016384842 0.014441205 -0.033589087 0.055267025
-0.09133371 0.017371712 0.06557056 -0.05293077 0.025111867 -0.052837748 -0.012837402 -0.07388542
-0.025080929 -0.020412669 0.09474899 0.021591948 -0.0427026 0.07748133 -0.03778103 -0.049699698
-0.011998511 0.058371913 -0.02296733 -0.072920784 -0.09906062 0.03387966 0.044028267 -0.009434747
00000000: 8969 a1bd b36a 65bd 8249 dbbd da2b b23d
00000010: 9682 51bd 92b3 2abc 1ac3 093d 845b 85bd
00000020: 5c4e 9a3d ca39 d93b 6b7d 68bd 23f5 843c
00000030: 873e 74bd 6efe 523d 0866 313d fb39 9f3c
00000040: 86ef a0bd aef1 4fbb 5a2b 063e 5aa5 cabd
00000050: 258a 8cbd b18e b63d 5f45 c1bb 87e1 a63c
00000060: 1ad4 1539 09d5 0f3d fe00 8e3d e940 c6bb
00000070: b4b7 f0bc aa24 4bbd 25c1 c93c aeea 78bd
00000080: 262e f73c bd44 1fbd bfe1 b83d ddd8 873d
00000090: 8227 58bd 69e2 633d 5254 5b3d 5199 5f3d
000000a0: 9276 14bd d6a2 ac3c b554 07be 528d d1bc
000000b0: 9dbd 283d b0f3 d139 4a8b a7bd 0305 bb3d
000000c0: 8df4 e6bc 9a6c ad3d 63c4 823d b904 283d
000000d0: 124e 32bd 06e9 133d d035 7cbd 43d5 89bd
000000e0: b979 853d 3f24 6dbd 3b1b 5c3d 403c 28bd
000000f0: 4f9f 1a3b 46f7 f83a bd22 ab3d 0ca6 8fbd
00000100: 4cd9 ff3c c307 bfbc 07db 943c aee7 083d
00000110: ac1e 0abd e18c 8fbd 0385 5a3c 5d05 513c
00000120: e5cb d7bc 2895 a4bc 50d6 f33d 0239 b63d
00000130: d7e6 cdbd e66d 3d3d 9129 c53d b1ba 8b3d
00000140: 88ee b4bd d82f 97bd 04d8 23bc 2415 433d
00000150: b8e8 44bc e7a7 5a3c 9c79 6b3d 7dcc 403d
00000160: c42c 873d ec01 01bd 5c7a 1ebe ecea 85bc
00000170: 13b4 d63c b50f 43bd b708 49bd 27c8 bdbd
00000180: 5d4f a3bd 1985 1f3d 64a7 873b 9a6e d73c
00000190: 6b9f 1ebd e183 9f3d 94a1 81bc c3c5 b1bc
000001a0: 87b3 2ebd fc84 c4bc 8b62 e6bd 67eb 613d
000001b0: 1f19 5dbc b721 0e3d c05f d6bd 6880 4ebd
000001c0: 5ab0 cebd 1c21 793d 9980 bd3d 9830 c9b9
000001d0: 8111 4f3c cf27 bf3a a168 bf3c 7a39 24bd
000001e0: 98a9 c0bd 832c dabc f9b3 c1bc e021 e9bd
000001f0: 2c7c b4bd 4bdc ecbb a1ce 94bd 5421 1d3d
00000200: 35be bfbd 0fa5 033c 0620 91bd 1a2d a33c
00000210: 2be3 f6bd b886 e4bd 0cb5 3fbd 6c07 c93b
00000220: 5ed9 993d b086 86bb 57e1 2cba 7b2d e63c
00000230: c46b e8bd e90c a63c 72d6 f0b9 c835 5b3d
00000240: 8419 6abd 4094 bbbc dea6 04bd 9083 613c
00000250: af04 c2bd 9dbb 103d 250d bbbc 0a80 943c
00000260: a4ce ba3c 611d 0c3d 0771 a13d b0bd 873c
00000270: 27a7 4e3d 3fb0 f5bc b55b a0bc cce1 89bd
00000280: 4d99 893c 4cd2 5a3d 2b71 1bbd a48e 1a3d
00000290: 5dcf c13d 9f79 523e 7256 62bb 5864 2c3d
000002a0: 9d8c 553c 2b97 58bb 8f61 d8bd c599 6abb
000002b0: e9a5 69bd 2bfe c23d 955e 45bd 371a 85bd
000002c0: 9963 aabd dfc8 663d d9e9 52bd 0772 233d
000002d0: b91a 883d f542 203d 622a 6a3c 03a2 103d
000002e0: aa24 4e3d 5737 ae3d b20a 9b3d aa78 ae3d
000002f0: 9b63 603d 9d82 c73d 11f1 09bd b881 9fbc
00000300: 78d4 11bd f807 993d 7793 b3bc 347b a2b9
00000310: cacb 38bc 4094 96bc fd9f fdbd ec71 9bbd
00000320: c2ea 363c ef79 583d 8e58 013d 83e1 cabc
00000330: 0518 313b 74db dc3c 1078 073d bd1d 9c3d
00000340: cf1d 3bbd fe8e 83bc dc6f 9d3d 0e62 30bd
00000350: 8000 7e3c 22be bdbd 0384 a9bd 1abf 1dbd
00000360: 996a 5dbc fcef c5bd cb90 64bd 2d8f 6ebc
00000370: 669e ca3c e42f 903c d441 973d 0de3 ba3c
00000380: 6af7 06bd 401c a1bd 9150 78bd 92fc 803d
00000390: 8139 863c ce9a 6c3c b694 09bd ad5f 623d
000003a0: 2b0d bbbd 1f4f 8e3c dc49 863d efcd 58bd
000003b0: 67b7 cd3c 656c 58bd f753 52bc 3d51 97bd
000003c0: 8576 cdbc 7838 a7bc c20b c23d 99e1 b03c
000003d0: ece8 2ebd 88ae 9e3d 48c0 1abd e991 4bbd
000003e0: 6795 44bc 6317 6f3d fb25 bcbc 7e57 95bd
000003f0: 4be0 cabd 66c5 0a3d fc56 343d 3294 1abc

transformer_encoder.layers.0.self_attn.out_proj.bias f4 [128]
-0.031107375 0.060941778 -0.0081782015 -0.00583149 -0.012235586 -0.0466914 -0.016741253 0.00603545
0.0005790664 0.04155168 0.015320709 -0.035984695 0.007892867 -0.03473125 0.010759696 -0.05487973
0.00077658345 -0.028438669 -0.05934133 0.012542633 -0.02044977 0.048792444 -0.00033621496 -0.039113704
0.028673649 -0.014951997 -0.02292356 -0.00932983 0.080542155 0.017719034 -0.02438822 -0.037131965
-0.08909826 0.019489942 0.035050295 -0.00510564 -0.0770699 0.081568524 -0.03702035 -0.002556347
0.03423649 -0.019142637 0.028609078 0.06424412 -0.04211371 -0.03934525 0.0063170474 0.007668784
0.026732976 -0.011204941 -0.019188426 -0.039192397 0.015219966 -0.00848355 0.0017805747 0.017758423
-0.02481059 0.026959905 0.01406527 -0.077743955 0.027709331 -0.028845988 -0.024452448 -0.05173383
-0.024695983 0.02401748 -0.033474147 -0.029057618 -0.03368277 0.015680218 0.07643499 -0.013011114
-0.03495382 0.033151574 -0.05421956 -0.015461501 0.025791876 0.052318927 -0.009626653 -0.003828264
-0.020613696 0.023523958 0.024946544 0.013757236 -0.0206853 -0.0142817125 -0.054767378 0.040321335
-0.037219025 0.029289233 0.028771449 -0.009967215 0.06327555 -0.049033526 0.06832371 -0.033053603
-0.008491752 0.021103112 -0.030198105 0.019617245 -0.037515406 0.0015598133 0.002498008 0.06310282
0.006556765 0.0035433685 -0.013932487 -0.018224746 -0.028300151 -0.062445287 0.016393151 0.0056086965
-0.022177488 -0.08257978 0.035775878 0.0017713599 0.0048432252 0.0026219985 0.025449287 0.025775481
-0.007663488 0.0052316436 -0.039207242 0.009419865 0.059512712 -0.024830477 0.07203468 0.003971173
00000000: e5d4 febc 169e 793d ddfd 05bc 1516 bfbb
00000010: c477 48bc 7b3f 3fbd f424 89bc 06c5 c53b
00000020: 7dcc 173a 1832 2a3d b603 7b3c b064 13bd
00000030: 1551 013c 5b42 0ebd 7049 303c 91c9 60bd
00000040: a293 4b3a 36f8 e8bc e50f 73bd 9e7f 4d3c
00000050: 4786 a7bc 96da 473d 0246 b0b9 b135 20bd
00000060: 00e5 ea3c 39f9 74bc 31ca bbbc 25dc 18bc
00000070: 49f3 a43d 8227 913c cec9 c7bc b017 18bd
00000080: 2679 b6bd 5fa9 9f3c e690 0f3d 364d a7bb
00000090: d3d6 9dbd 660d a73d a7a2 17bd 6388 27bb
000000a0: 903b 0c3d 05d1 9cbc 965d ea3c 6c92 833d
000000b0: 6d7f 2cbd 7c28 21bd 3cff ce3b 6c4a fb3b
000000c0: 1dff da3c ee94 37bc 0c31 9dbc 3588 20bd
000000d0: 2a5d 793c 96fe 0abc 2c62 e93a 1d7a 913c
000000e0: 943f cbbc 05db dc3c 0572 663c 3938 9fbd
000000f0: aefe e23c 6c4e ecbc 8050 c8bc dae6 53bd
00000100: 3b4f cabc 4ec0 c43c 301c 09bd 3e0a eebc
00000110: f2f6 09bd cd73 803c f389 9c3d 912c 55bc
00000120: bd2b 0fbd f2c9 073d 5415 5ebd 3c52 7dbc
00000130: 7c49 d33c 5f4c 563d 1cb9 1dbc 9de3 7abb
00000140: 0ede a8bc 51b5 c03c b25c cc3c 0866 613c
00000150: 3874 a9bc d8fd 69bc c253 60bd fc27 253d
00000160: fa72 18bd f9ef ef3c 1ab2 eb3c 884d 23bc
00000170: 9d96 813d 61d7 48bd 4ded 8b3d 3763 07bd
00000180: fd20 0bbc 6fe0 ac3c 0462 f7bc 58b4 a03c
00000190: c1a9 19bd a672 cc3a 9fb5 233b 0d3c 813d
000001a0: 22da d63b dc37 683b 1645 64bc 104c 95bc
000001b0: b8d5 e7bc a1c6 7fbd ee4a 863c 28c9 b73b
000001c0: 90ad b5bc 961f a9bd ba89 123d fa2c e83a
000001d0: ebb3 9e3b d6d5 2b3b 067b d03c 1a27 d33c
000001e0: ff1d fbbb 356e ab3b c697 20bd c755 1a3c
000001f0: 9ac3 733d 4969 cbbc eb86 933d 9d20 823b

transformer_encoder.layers.0.linear1.weight f4 [128, 128]
-0.08883507 -0.038221866 0.036537237 0.055115335 -0.028851494 -0.018015457 0.0094758365 -0.14160022
0.0504612 0.045520645 0.06370388 -0.048811402 -0.013747439 0.11366628 0.0025702235 -0.049262
0.07126618 0.059897218 0.08288511 -0.015280699 0.02425515 0.01969983 0.027707601 -0.061005723
0.08446022 0.06659202 0.007783664 -0.015541725 -0.0747933 -0.07613847 0.113817476 -0.0335258
-0.058016177 0.0631338 -0.09825204 0.060523324 0.015814275 -0.042750727 0.015799608 -0.07388675
0.009741748 0.104967035 -0.007443487 -0.047486443 -0.036178004 0.10477958 0.03368227 -0.080096304
-0.058635995 -0.058306742 0.05329175 -0.06280255 -0.10550418 -0.007561631 0.06251047 -0.07446492
-0.07838332 0.007922703 0.007167998 0.0292193 -0.03843489 -0.035041064 0.054815702 0.11181195
0.06626549 -0.0026300075 -0.027797256 0.01628262 -0.0044452017 0.049188588 -0.028743654 0.13664626
-0.10778171 -0.011723037 -0.036811873 -0.022439532 -0.06873622 0.05825763 -0.037172105 0.08380784
-0.0073633716 -0.032158546 0.03466011 0.020081041 0.10492903 -0.108292356 0.062471956 -0.021214034
-0.011501669 0.093527876 0.06532378 -0.041379917 -0.07767244 0.09496018 0.03238796 0.011931167
-0.020039607 0.048138883 0.05151425 0.05894505 0.09572104 0.003129458 0.040278874 -0.081269905
-0.069982454 -0.009236702 0.06500674 0.0183084 -0.07282208 -0.006550374 0.022733554 0.042326175
0.12781662 0.012960732 -0.09565539 0.04408955 0.010667644 -0.06255313 -0.026236502 0.05685249
0.03220211 -0.0106913475 0.084213935 -0.09996521 -0.13867724 -0.04851073 0.004394388 0.063263975
0.12020629 -0.045923367 0.042973414 0.09278477 -0.14191392 0.019594943 0.07133358 -0.10169914
-0.06560783 0.0041783787 0.013213228 0.05858024 0.003657075 0.08031827 -0.044628646 0.012337202
0.010071172 -0.019913835 0.017201584 -0.036349654 0.031204257 0.017717006 0.014596262 0.0067085344
-0.019850241 -0.09434458 0.1759377 0.05754946 -0.022871729 -0.019759545 -0.040064543 -0.049773317
-0.04003958 0.051729932 -0.14062394 0.013942193 -0.011541217 -0.06618658 -0.027840002 0.033005416
0.019777844 0.046528123 -0.05813886 0.06401765 0.022072673 -0.108342774 -0.071980506 0.0048784297
-0.021291846 0.03611766 0.09896517 -0.037363775 0.110059336 -0.032768812 -0.016341325 -0.022963215
-0.010175857 0.18923034 -0.049034655 0.03778534 -0.060296338 0.017832387 -0.055467714 -0.060986284
-0.10679794 0.044108137 0.032297585 0.044684034 -0.06562426 -0.030816486 -0.1185475 0.073044926
0.024065472 0.025300408 0.085019805 -0.041120637 -0.13367243 -0.19429708 -0.12710209 -0.03515061
-0.05433194 -0.14950836 0.06345486 -0.011515434 0.0057600588 0.04405307 0.12318859 -0.023792265
-0.021176705 0.042439483 0.09038458 -0.05284034 -0.06158524 0.15760712 -0.029948382 0.10395478
0.151171 -0.14076549 -0.09930406 0.06935517 0.029843561 -0.01856245 -0.00689517 -0.12334796
0.041203905 -0.08473017 0.061434742 -0.045524385 0.0541242 0.011606086 0.02874054 -0.006441306
0.08494741 0.05200085 -0.097447485 -0.09354805 -0.103298776 0.16501322 0.01334217 0.009968087
-0.037925363 0.025303077 0.0071132705 0.014967885 -0.017986337 0.01620896 -0.021361046 -0.07561468
00000000: 29ef b5bd 888e 1cbd 12a8 153d 9ec0 613d
00000010: f859 ecbc 2795 93bc 8a40 1b3c a6ff 10be
00000020: 67b0 4e3d db73 3a3d 2e77 823d 77ee 47bd
00000030: f03c 61bc dec9 e83d 3271 283b f3c6 49bd
00000040: 01f4 913d c956 753d abbf a93d e65b 7abc
00000050: bdb2 c63c 8a61 a13c 0dfb e23c 23e1 79bd
00000060: 7bf9 ac3d 6661 883d 1b0e ff3b b8a2 7ebc
00000070: 3b2d 99bd 7cee 9bbd 2319 e93d 5952 09bd
00000080: 5fa2 6dbd 4b4c 813d 5e38 c9bd 4ee7 773d
00000090: f08c 813c 631b 2fbd 2e6e 813c f051 97bd
000000a0: da9b 1f3c f5f8 d63d 7fe8 f3bb 2581 42bd
000000b0: 632f 14bd ad96 d63d 6cf6 093d 8809 a4bd
000000c0: 4c2c 70bd 0dd3 6ebd 7348 5a3d a09e 80bd
000000d0: 9312 d8bd 8fc7 f7bb 7d05 803d 1081 98bd
000000e0: 6f87 a0bd 3ace 013c 86e1 ea3b 505d ef3c
000000f0: e76d 1dbd 3887 0fbd 6e86 603d aafd e43d
00000100: 34b6 873d 345c 2cbb 12b7 e3bc 2163 853c
00000110: 0ea9 91bb f979 493d d077 ebbc ffec 0b3e
00000120: a8bc dcbd fb11 40bc 0cc8 16bd 1cd3 b7bc
00000130: 93c5 8cbd 8d9f 6e3d c741 18bd 72a3 ab3d
00000140: 7048 f1bb aeb8 03bd c2f7 0d3d ff80 a43c
00000150: 08e5 d63d 62c8 ddbd 98e2 7f3d 0ec9 adbc
00000160: 7f71 3cbc 8b8b bf3d 79c8 853d fd7d 29bd
00000170: ba12 9fbd 7c7a c23d 3da9 043d f17a 433c
00000180: 1a2a a4bc 472d 453d 9b00 533d 5d70 713d
00000190: 6509 c43d 9817 4d3b 76fb 243d d670 a6bd
000001a0: f652 8fbd 8955 17bc 4122 853d 7ffb 953c
000001b0: be23 95bd 85a4 d6bb b83b ba3c 365e 2d3d
000001c0: 5ce2 023e 4059 543c f9e6 c3bd 3e97 343d
000001d0: 58c7 2e3c db1b 80bd efed d6bc 28de 683d
000001e0: 5ce6 033d c32a 2fbc 5b78 ac3d 8fba ccbd
000001f0: 6801 0ebe 30b3 46bd ccfe 8f3b 8b90 813d
00000200: b72e f63d 241a 3cbd e404 303d f105 be3d
00000210: e251 11be 9385 a03c 5717 923d a447 d0bd
00000220: 665d 86bd c8ea 883b 4c7c 583c d5f1 6f3d
00000230: 8aab 6f3b e87d a43d 87cc 36bd fa21 4a3c
00000240: 8f01 253c 5722 a3bc 56ea 8c3c 60e3 14bd
00000250: 12a0 ff3c 4123 913c 2925 6f3c 44d3 db3b
00000260: f99c a2bc bb37 c1bd 0329 343e fcb8 6b3d
00000270: 7e5d bbbc c5de a1bc b81a 24bd 1bdf 4bbd
00000280: 8b00 24bd c4e2 533d b9ff 0fbe cc6d 643c
00000290: 5f17 3dbc d48c 87bd b710 e4bc b030 073d
000002a0: 2505 a23c 4694 3e3d 0323 6ebd b01b 833d
000002b0: c0d1 b43c d1e2 ddbd 846a 93bd 3cdb 9f3b
000002c0: 3d6c aebc 1df0 133d 40ae ca3d c20a 19bd
000002d0: ca66 e13d 9738 06bd 3ede 85bc 5a1d bcbc
000002e0: a3b8 26bc 99c5 413e 90d8 48bd cdc4 1a3d
000002f0: 4bf9 76bd 3a15 923c 1d32 63bd c1cc 79bd
00000300: e1b8 dabd bcaa 343d 794a 043d 9b06 373d
00000310: 0366 86bd db72 fcbc 08c9 f2bd 9498 953d
00000320: f424 c53c cd42 cf3c dd1e ae3d 1d6e 28bd
00000330: 6de1 08be d0f5 46be 0d27 02be 16fa 0fbd
00000340: 2b8b 5ebd b818 19be 9ff4 813d 3bab 3cbc
00000350: e0be bc3b fe70 343d 4d4a fc3d ffe7 c2bc
00000360: c57a adbc 06d5 2d3d 8d1b b93d 1d6f 58bd
00000370: ce40 7cbd c363 213e 4f56 f5bc 3ee6 d43d
00000380: 92cc 1a3e d424 10be ed5f cbbd 150a 8e3d
00000390: 7c7a f43c 4710 98bc e1f0 e1bb db9d fcbd
000003a0: 6dc5 283d 0387 adbd ffa2 7b3d c777 3abd
000003b0: 56b1 5d3d 7427 3e3c 4871 eb3c 9711 d3bb
000003c0: e8f8 ad3d d8fe 543d 8c92 c7bd 1f96 bfbd
000003d0: 4f8e d3bd 3af9 283e 1e99 5a3c 3051 233c
000003e0: a057 1bbd 6648 cf3c 7016 e93b dc3b 753c
000003f0: 1558 93bc a7c8 843c 5cfd aebc dfdb 9abd

transformer_encoder.layers.0.linear1.bias f4 [128]
-0.07702386 -0.021962887 -0.08969292 0.044308856 -0.034341037 -0.106144145 -0.03338276 -0.12640128
-0.08757404 -0.018958524 0.025951682 -0.12977602 -0.038330853 0.029746646 0.023210106 -0.06668231
-0.10057172 -0.02452926 -0.1109188 -0.0935395 0.04154188 -0.14452562 -0.107887655 -0.13392131
-0.071833946 0.03073126 -0.1534438 -0.07986594 -0.043711036 -0.048655275 -0.028803784 0.01541637
-0.12561502 -0.019923188 0.016859083 0.0066357497 -0.029472103 -0.062303316 0.03617812 -0.01248099
-0.074457504 0.0540343 0.022941813 -0.015131483 -0.027187688 -0.10624042 -0.11550412 0.060744468
0.016372573 -0.077609695 -0.06897102 0.0025879303 0.011733673 -0.13625616 0.051208753 -0.09800261
-0.04059711 0.014137428 -0.07521808 -0.10343166 -0.10007758 -0.0128635755 0.024598377 -0.03130119
0.023971573 -0.023110833 -0.17677723 -0.047975894 0.0078049614 -0.029364899 -0.0011070942 0.007759544
-0.034324005 -0.088323094 -0.029430976 -0.09470862 -0.1529416 -0.040379263 -0.061123595 -0.12857637
0.008302014 0.03349671 0.03229881 -0.07530764 -0.044885386 -0.09590088 -0.056944747 -0.13418959
0.002750072 -0.09411581 -0.0103339795 -0.0004994542 -0.00015231206 -0.09407607 -0.12437077 0.0028073355
-0.0026930408 -0.038201515 -0.037152182 -0.09017948 -0.060909156 -0.112015836 0.040151153 0.0018500293
-0.044745974 -0.10940529 -0.14481123 -0.007354844 -0.032981373 -0.06867439 -0.06635205 -0.12420799
-0.095590144 -0.07401739 -0.12089397 -0.06195738 -0.06275245 0.0045251567 -0.029097065 -0.089007184
-0.02738808 -0.061311796 -0.02133707 -0.107076526 -0.10555031 -0.083117485 -0.042018853 -0.054507732
00000000: afbe 9dbd 83eb b3bc ecb0 b7bd 347d 353d
00000010: 30a9 0cbd 1a62 d9bd 5cbc 08bd 566f 01be
00000020: 055a b3bd e84e 9bbc 9f98 d43c 01e4 04be
00000030: d000 1dbd 3daf f33c 1f23 be3c bc90 88bd
00000040: 8cf8 cdbd 96f1 c8bc 6529 e3bd a391 bfbd
00000050: d227 2a3d 86fe 13be 34f4 dcbd ab22 09be
00000060: ad1d 93bd 20c0 fb3c 5f20 1dbe c190 a3bd
00000070: 580a 33bd c14a 47bd eaf5 ebbc f194 7c3c
00000080: 39a1 00be f435 a3bc 0f1c 8a3c b470 d93b
00000090: 7b6f f1bc c331 7fbd 822f 143d 117d 4cbc
000000a0: 2d7d 98bd 1253 5d3d 78f0 bb3c 0aea 77bc
000000b0: b7b8 debc 9494 d9bd 6d8d ecbd 31cf 783d
000000c0: c61f 863c d5f1 9ebd ae40 8dbd 449a 293b
000000d0: 973e 403c bc86 0bbe 45c0 513d 98b5 c8bd
000000e0: 2849 26bd aca0 673c f00b 9abd fad3 d3bd
000000f0: 79f5 ccbd bfc1 52bc 8982 c93c ad35 00bd
00000100: 0860 c43c ee52 bdbc 1705 35be 5f82 44bd
00000110: c3c0 ff3b a88e f0bc eb1b 91ba c643 fe3b
00000120: 5497 0cbd bde2 b4bd 3b19 f1bc 98f6 c1bd
00000130: b99c 1cbe ba64 25bd bc5c 7abd 86a9 03be
00000140: 2c05 083c d933 093d c24b 043d e43a 9abd
00000150: bdd9 37bd ae67 c4bd e53e 69bd ff68 09be
00000160: 8d3a 343b cabf c0bd da4f 29bc ceed 02ba
00000170: f5b5 1fb9 f4aa c0bd 1ab6 febd 46fb 373b
00000180: ba7d 30bb 3179 1cbd e32c 18bd 05b0 b8bd
00000190: e17b 79bd 8f68 e5bd 8975 243d af7c f23a
000001a0: 8e47 37bd e10f e0bd 6549 14be e700 f1bb
000001b0: 7a17 07bd 29a5 8cbd 95e3 87bd c260 febd
000001c0: c4c4 c3bd 6e96 97bd 4297 f7bd 06c7 7dbd
000001d0: 5b84 80bd c447 943b f85c eebc 6649 b6bd
000001e0: f75c e0bc 1422 7bbd 14cb aebc f04a dbbd
000001f0: c32a d8bd 8039 aabd f61b 2cbd 8043 5fbd

transformer_encoder.layers.0.linear2.weight f4 [128, 128]
0.058262676 0.056467924 -0.013951511 -0.026186146 -0.027441788 -0.08557612 -0.011563305 0.0778066
0.057552606 -0.07047681 0.030432511 -0.011138464 0.05190198 -0.05166993 -0.036826592 0.07103436
0.023097882 0.043594114 0.042610396 0.009905781 -0.00840931 0.06273273 0.13069089 -0.0014527785
0.17123051 -0.078991875 0.053951185 0.059554588 0.005651662 -0.0057454742 0.111208245 0.06818631
0.07642382 -0.07556459 -0.012077196 -0.0310236 -0.059949853 0.05706991 0.021748502 0.00038767484
0.064774014 -0.034561086 0.108431906 -0.06432411 0.03633948 0.07120102 -0.018153029 0.08639979
-0.041190878 0.026759163 -0.002943047 0.019110177 -0.022942621 0.03686096 -0.050972704 -0.04480813
-0.01365246 -0.03414718 -0.08998068 -0.0015451167 -0.08308665 0.053511094 -0.07597552 -0.05124021
-0.058088217 0.077959776 -0.07663381 -0.03659072 0.0965741 0.09549648 -0.049914964 -0.055261455
0.101532005 -0.07179092 -0.054505523 0.050920233 0.0810445 -0.032567367 -0.047066744 0.045198258
0.056861427 0.06956657 0.0017814573 0.07599966 -0.018968925 0.0019094886 -0.0057104784 0.080715515
-0.09198269 -0.020343555 0.05834984 0.06750771 0.03484829 0.08775481 0.031957407 -0.040930875
0.082491554 0.02355237 -0.044540435 0.042384736 0.03169136 0.021360347 -0.022233237 -0.046233077
0.048752315 0.030558532 -0.016055236 -0.041989133 0.008118674 0.045666713 0.06676053 0.03961445
0.10080385 0.021402521 0.09011768 -0.008912511 -0.019778565 0.032878574 -0.0413435 -0.06266287
0.028283918 -0.11110785 0.0012921958 0.10191972 0.053447552 0.0125960335 -0.105370894 0.1352625
0.03246274 -0.012176298 -0.1214133 0.029924085 0.08676724 0.09373432 -0.09803469 -0.016515255
-0.017455706 0.004951636 -0.029119734 -0.075794555 0.08465148 0.018729437 -0.05531975 -0.017050125
-0.05997119 0.06599126 -0.0137771815 -0.12795435 0.10764357 -0.055050094 0.065144 -0.033750135
0.08767847 -0.0531203 -0.03853597 -0.086874016 0.04832293 0.058716044 0.008601324 -0.006602227
-0.045554884 -3.4899607e-05 0.069257654 -0.0020711098 0.059050187 0.02196341 0.06781952 0.05102584
0.08147538 0.07026803 0.05755009 -0.079097174 0.10131817 0.013923033 -0.022057857 0.092911534
0.04707259 -0.02562599 -0.047100574 -0.0063582454 -0.07842728 0.0450225 0.08114524 0.013948767
0.025533423 0.074530035 0.0044420077 0.002871975 0.036361005 0.028687827 -0.015316011 0.116047986
-0.09998678 -0.029674778 0.00065730745 -0.123095684 -0.06566717 0.047767024 -0.0024069066 0.01077403
0.06244881 -0.026090369 0.1081655 0.08943037 -0.072275035 -0.08304931 -0.013669916 0.042477492
-0.06665898 -0.08340116 -0.019504253 -0.015634133 -0.00095145736 0.08259256 -0.023059037 0.114488676
-0.075001605 -0.076853245 0.05292624 0.039623283 -0.020358915 -0.06736268 0.05804226 -0.06579774
0.124345675 -0.119387954 -0.102721445 -0.0693407 0.026077216 0.09304807 -0.016874205 -0.0030392138
-0.060298316 0.079116374 0.070756055 0.03177623 -0.0788275 0.016552355 -0.030727206 0.03621433
-0.015621665 0.0022797643 0.040224947 -0.057724215 0.030247651 0.04779144 -0.0785772 0.008006663
-0.05176401 -0.016023103 0.049637154 0.048209067 0.081143014 -0.087569974 0.027592907 0.10939903
00000000: d8a4 6e3d e94a 673d e194 64bc 5484 d6bc
00000010: 9acd e0bc 8842 afbd 0474 3dbc 1159 9f3d
00000020: 48bc 6b3d 2556 90bd 9a4d f93c 1b7e 36bc
00000030: 2c97 543d d9a3 53bd 7bd7 16bd 767a 913d
00000040: c537 bd3c be8f 323d 3d88 2e3d db4b 223c
00000050: 34c7 09bc 047a 803d d5d3 053e 286b beba
00000060: 0d57 2f3e 7ec6 a1bd ebfb 5c3d 83ef 733d
00000070: 9431 b93b 8844 bcbb 26c1 e33d 44a5 8b3d
00000080: 1784 9c3d 9cc1 9abd 6edf 45bc 3425 febc
00000090: fa8d 75bd 23c2 693d ea29 b23c d640 cb39
000000a0: 3da8 843d ed8f 0dbd 8c11 de3d 5cbc 83bd
000000b0: b5d8 143d d7d1 913d a9b5 94bc 60f2 b03d
000000c0: c4b7 28bd 0836 db3c 23e0 40bb f28c 9c3c
000000d0: 2af2 bbbc 85fb 163d c1c8 50bd bb88 37bd
000000e0: 91ae 5fbc eadd 0bbd ca47 b8bd 8385 caba
000000f0: 5529 aabd 732e 5b3d 0e99 9bbd 41e1 51bd
00000100: e9ed 6dbd 60a9 9f3d 30f2 9cbd 27e0 15bd
00000110: a4c8 c53d a993 c33d a273 4cbd d659 62bd
00000120: 03f0 cf3d 1e07 93bd 2f41 5fbd bc91 503d
00000130: a9fa a53d 5c65 05bd 0fc9 40bd cf21 393d
00000140: 87e7 683d eb78 8e3d ca7f e93a b6a5 9b3d
00000150: b864 9bbc ce47 fa3a f71e bbbb 2d4e a53d
00000160: 6c61 bcbd 87a7 a6bc 3e00 6f3d 7b41 8a3d
00000170: 15bd 0e3d cbb8 b33d c5e5 023d 22a7 27bd
00000180: 55f1 a83d e6f0 c03c 0870 36bd 9e9b 2d3d
00000190: cdce 013d e5fb ae3c 7a22 b6bc e55e 3dbd
000001a0: 82b0 473d e355 fa3c 4586 83bc ccfc 2bbd
000001b0: 3004 053c 050d 3b3d bfb9 883d c342 223d
000001c0: 4072 ce3d 5754 af3c 9e8f b83d c805 12bc
000001d0: a806 a2bc afab 063d cd57 29bd 6455 80bd
000001e0: adb3 e73c 838c e3bd e55e a93a 49bb d03d
000001f0: d2eb 5a3d 985f 4e3c b2cc d7bd 4182 0a3e
00000200: a6f7 043d 187f 47bc 89a7 f8bd 5b23 f53c
00000210: 06b3 b13d c7f7 bf3d 69c6 c8bd 004b 87bc
00000220: 45ff 8ebc 5541 a23b 828c eebc 2d3a 9bbd
00000230: c15d ad3d 7a6e 993c f696 62bd b4ac 8bbc
00000240: 5aa4 75bd 6d26 873d b0b9 61bc 7706 03be
00000250: 3b74 dc3d 357c 61bd 386a 853d 953d 0abd
00000260: c590 b33d ac94 59bd e5d7 1dbd 01eb b1bd
00000270: 44ee 453d 3c80 703d 91ec 0c3c 7f57 d8bb
00000280: c297 3abd 2b61 12b8 f5d6 8d3d 75bb 07bb
00000290: 9cde 713d 9cec b33c f6e4 8a3d 7900 513d
000002a0: 90dc a63d afe8 8f3d a5b9 6b3d b3fd a1bd
000002b0: e77f cf3d 6f1d 643c aeb2 b4bc 6748 be3d
000002c0: 30cf 403d 99ed d1bc 88ec 40bd d458 d0bb
000002d0: 7b9e a0bd 8369 383d 7a2f a63d 5f89 643c
000002e0: 782b d13c 34a3 983d 438e 913b bf37 3c3b
000002f0: 47ef 143d bc02 eb3c 02f0 7abc 91aa ed3d
00000300: dec5 ccbd 8518 f3bc 284f 2c3a 9719 fcbd
00000310: 827c 86bd 5ba7 433d 31bd 1dbb 8f85 303c
00000320: 53ca 7f3d 78bb d5bc e085 dd3d 4527 b73d
00000330: ef04 94bd c215 aabd c9f7 5fbc e1fc 2d3d
00000340: 8184 88bd 3ace aabd 62c7 9fbc 2713 80bc
00000350: 396b 79ba 4a26 a93d 4ee6 bcbc 0a79 ea3d
00000360: 719a 99bd 3c65 9dbd 2fc9 583d 064c 223d
00000370: bdc7 a6bc 72f5 89bd b9bd 6d3d f7c0 86bd
00000380: f2a8 fe3d ac81 f4bd 9f5f d2bd 7f02 8ebd
00000390: e39f d53c fd8f be3d c63b 8abc 8c2d 47bb
000003a0: 5efb 76bd c407 a23d 8de8 903d cb27 023d
000003b0: 5070 a1bd ce98 873c 9fb7 fbbc 7a55 143d
000003c0: 03f2 7fbc 1968 153b eac2 243d 3a70 6cbd
000003d0: ecc9 f73c f5c0 433d 15ed a0bd 612e 033c
000003e0: 8006 54bd e242 83bc 5450 4b3d df76 453d
000003f0: 4f2e a63d e357 b3bd 850a e23c 990c e03d

transformer_encoder.layers.0.linear2.bias f4 [128]
0.032610822 -0.0073713884 0.028023927 -0.061586462 0.019306283 -0.015969189 0.02582882 0.031588487
-0.04605323 -0.05103948 0.027801191 0.082021505 -0.024990367 0.00982591 0.060775004 -0.031532716
0.035228617 0.015387956 -0.0144742355 -0.050154615 0.006791395 0.065556616 -0.07159053 0.026420496
-0.059583522 0.04772814 -0.10316709 -0.022617346 -0.08278658 0.04599137 0.036098737 0.043766886
-0.019759556 0.0072764894 0.05996863 0.027713 0.029918354 0.08114642 0.0126165785 -0.002734292
0.07652964 -0.08053909 -0.033606675 0.046889983 -0.06024092 0.068134435 0.0047289776 -0.03793488
0.091958016 0.036894195 -0.07920271 -0.06964466 0.1028149 -0.026166307 -0.07432988 -0.074219964
-0.044118825 0.09023932 -0.060985144 0.034416933 -0.018736785 0.0016308393 0.060694803 0.05512119
0.038165912 0.014809097 -0.07598979 -0.080013655 0.029929766 0.037100714 0.03822766 0.07907083
-0.06836992 0.022419292 -0.054160077 -0.07713773 0.0069329613 -0.083658494 -0.070743375 -0.03804903
0.09958665 0.082257695 0.067682765 -0.065648764 -0.059424657 0.061320763 0.08305927 -0.03846793
-0.016462432 0.061122496 -0.06438956 -0.023178186 -0.04246681 0.020573504 0.04506715 -0.01954856
0.0061092256 -0.030971808 -0.021678086 -0.02993952 -0.03545998 -0.016046803 0.054009933 0.011621272
-0.07301656 0.0077905874 0.035802625 0.049220167 0.07479718 -0.014975857 -0.009716867 0.066516094
0.02027028 0.05954266 -0.015443955 -0.025576558 0.07301264 -0.026242234 0.035921827 0.07190981
0.021423656 0.04513795 0.003733906 -0.063639864 -0.026243875 -0.033990186 -0.055282246 -0.07005315
00000000: ed92 053d b08b f1bb 6f92 e53c 1642 7cbd
00000010: 3628 9e3c d1d1 82bc f696 d33c ee62 013d
00000020: 50a2 3cbd c60e 51bd 53bf e33c e4fa a73d
00000030: 99b8 ccbc dbfc 203c 36ef 783d 7328 01bd
00000040: e24b 103d c41d 7c3c 5825 6dbc ed6e 4dbd
00000050: 5a8a de3b 8c42 863d 0e9e 92bd cc6f d83c
00000060: da0d 74bd 957e 433d 4449 d3bd 0348 b9bc
00000070: 038c a9bd 7261 3c3d 45dc 133d e844 333d
00000080: cbde a1bc 9e6f ee3b aba1 753d 6006 e33c
00000090: 5617 f53c 1830 a63d c4b5 4e3c cf31 33bb
000000a0: 92bb 9c3d aef1 a4bd 27a7 09bd b60f 403d
000000b0: 2fbf 76bd 118a 8b3d 8af5 9a3b 9b61 1bbd
000000c0: 7c54 bc3d 5e1e 173d 0835 a2bd dca1 8ebd
000000d0: 9e90 d23d b95a d6bc 443a 98bd a300 98bd
000000e0: f1b5 34bd 65cf b83d 8fcb 79bd c5f8 0c3d
000000f0: e37d 99bc e3c1 d53a 1d9b 783d c2c6 613d
00000100: dc53 1c3d dba1 723c 89a0 9bbd 33de a3bd
00000110: 452f f53c ebf6 173d 9b94 1c3d e3ef a13d
00000120: 8705 8cbd aaa8 b73c f5d6 5dbd 63fa 9dbd
00000130: e52d e33b 2555 abbd e7e1 90bd 4dd9 1bbd
00000140: 16f4 cb3d b976 a83d 439d 8a3d dc72 86bd
00000150: 4567 73bd 7b2b 7b3d fb1a aa3d 8c90 1dbd
00000160: 39dc 86bc 955b 7a3d acde 83bd 2ee0 bdbc
00000170: aef1 2dbd c489 a83c 5598 383d 4d24 a0bc
00000180: e62f c83b 97b8 fdbc 3e96 b1bc b943 f5bc
00000190: 7c3e 11bd 9674 83bc 8539 5d3d 2667 3e3c
000001a0: b589 95bd 2f48 ff3b c6a5 123d 169b 493d
000001b0: 442f 993d 4c5d 75bc 7e33 1fbc 9739 883d
000001c0: dc0d a63c 01e3 733d a408 7dbc ee85 d1bc
000001d0: a787 953d f4f9 d6bc c422 133d 7345 933d
000001e0: aa80 af3c 92e2 383d 8cb4 743b 9e55 82bd
000001f0: 65fd d6bc 4b39 0bbd a36f 62bd 0778 8fbd
