temporal_transformer_encoder/transformer_encoder_model_fold_2.pth (torch, 816034 bytes, 28 tensors)

embedding.weight f4 [128, 13]
00000000: bc12 843e 6f4a fa3d 10fa 2e3e bcec 463e
00000010: 3486 4dbe 5d3f 5dbe 4037 243e 7bd3 4e3e
00000020: 9d2e bebd 4591 863e 683d 62be 7aff 603e
00000030: 18f3 ccbd a5be 8ebc 76ff afbc 0762 043e
00000040: 33d0 9bbe 4b3c 9b3e 812c 4e3e 7f53 13be
00000050: b0e4 f8bd e9bd 4bbe e781 ff3d 1fcd 123e
00000060: 6fd8 abbd 9a77 2d3e 73d5 513e 9ca0 4cbe
00000070: 58cf 5b3b 4edd a9be 3c40 8d3e 42ce 32bd
00000080: d8db 9d3e 2625 953d 146f 293e 4069 05be
00000090: 6fb0 0bbe 5153 9c3e d6e4 fdbd 1f0f d03c
000000a0: 26b1 7bbe 26c2 553e 09c6 7f3e 4afe 57bc
000000b0: b101 9abd 9db2 523c 1031 8d3e 5846 d43c
000000c0: d12e b93d e253 93bd 79a2 40be a6e3 f3bd
000000d0: 0e6c 63be a254 83be 222a 8c3e 5582 22be
000000e0: 8e17 83be a7c5 02be 980b 73be 14d3 343d
000000f0: ac8e 70be 26e6 67be 8304 673e e68d 86be
00000100: 4735 1c3d 2b4a 933d 758b 823e 7e94 6c3e
00000110: 5734 5f3d e6ca 88be 174a 51be 8978 73be
00000120: b6d5 babc dc22 7b3e ea52 0c3e 7091 34be
00000130: 2686 6ebe 0511 663e 0fbb 953c b5f9 e4bd
00000140: b4e2 dabd 0232 3ebe 755b 8a3e a2ea 30be
00000150: 012b 443e 1c1d 64be f2fc 16be e784 3a3e
00000160: c60b 7d3d 4313 bbbc ad10 f13d a7ef ff3d
00000170: a295 10be 3b0b 353e 8d10 223e c257 a13e
00000180: aff8 623e 046d 9c3d 12dd d7bc 25d4 62be
00000190: 8ccb 92bc ab1d 59bc 66b7 013e 3291 fe3d
000001a0: f05e 783e 1815 02be 65d2 1dbd f5ca d5bd
000001b0: 588f 44be dbc8 32be 392a 57be ff27 1bbe
000001c0: ba3e 833e 1fc5 693e fcdf 513e 7b11 46be
000001d0: 8468 c1bd da70 033e 3c21 8f3c e031 8fbd
000001e0: d8a1 9ebd ea56 e2bd d383 09be 7e01 f9bd
000001f0: f760 233c 2426 e13d a30e 0d3e 20be 9fbd
00000200: 4267 433d 4202 6a3d fdbd 443e d89b 5dbd
00000210: b8b5 e2bb 99b5 c6bd 127b 973e bfba f33d
00000220: 3ea9 89bd 2c88 733e 37e4 35be fe73 243e
00000230: 6793 7b3e 12f7 e53d 349d 003e f80b 133e
00000240: 89a6 223c a857 1bbe 461b 843c a65e 073e
00000250: 8e30 5a3e b3db 3bbe 113b 57be 7b86 5d3e
00000260: 66a1 513e 4d66 55bb 3eb1 a03d 28a0 2e3e
00000270: ed56 88be c261 4cbd 8837 8cbe 44ad 053e
00000280: 9cf8 8d3e eed9 753d 2ed4 8dbe f25f 10bd
00000290: 2866 7a3c 87d5 36bd 6d4e 8d3d ed54 a83d
000002a0: 7b5f 2f3e cd7a 82bd c9ad 1cbc cecb 62be
000002b0: 3616 5b3e 3644 5ebd 351b c8bc 9123 7c3e
000002c0: fe0b e23d f46d 243e 961b 9c3c d1d3 133e
000002d0: 8a3e 903e b7ca e1bd a486 e4bd 3d13 4a3e
000002e0: e1b9 813e bb89 3f3e b4b9 983e c914 20be
000002f0: 7ee1 fb3c 0031 ccbd e7d2 51be 1f6b 773d
00000300: 027c 09bd 8851 9dbe 6390 563e b34d 81be
00000310: 5937 06bd d494 61be 2129 923e 2f0a 963d
00000320: 576d a53d 9b8e 0e3e 68ce 853e d2ac 11be
00000330: 0c40 403d 1ba2 bcbd 8f67 2dbe d2cc 52be
00000340: 180a e1bd 3583 a83d 838e 773e c99f f4bb
00000350: dbbe 38be 3938 ebbd 1d29 f5bc 2611 84bd
00000360: 115b 593e 5e78 023e 8ad5 74be 0a68 6fbe
00000370: 0be1 8bba 4d4e cc3d 0954 283e 2442 313e
00000380: 02f2 0c3e 2764 843e 6849 01be 4c12 c83e
00000390: d69f db3d 757f 26be 78f9 24be 0f38 acbd
000003a0: 104b 663d d675 923b 893f 30bd 2cda 563a
000003b0: b1f8 40be 9aee b63d 4f6e 0ebe fc18 2c3e
000003c0: fcf8 31be f410 06be 4ab9 943b cc03 453e
000003d0: 8b4f 02bd be14 31be 7887 953d 149c 2cbe
000003e0: efb8 703d 7c0f 8e3e 4621 bcbb 1615 253e
000003f0: 818c a0bd 5318 d7bc 70be 333e 100d 4abe
0.25795543 0.12221228 0.17087579 0.19426244 -0.20070726 -0.21606202 0.16036701 0.20197861
-0.092862345 0.26282707 -0.22093737 0.21972457 -0.10007304 -0.01742489 -0.021484118 0.1292802
-0.3043228 0.30319437 0.20134164 -0.1438732 -0.12152994 -0.19896664 0.12475949 0.1433606
-0.08390891 0.16940156 0.2049158 -0.19983143 0.0033540335 -0.33176655 0.2758807 -0.043653734
0.3083179 0.07282476 0.16546279 -0.13028431 -0.13641523 0.30532315 -0.123971626 0.025397835
-0.24579296 0.20874843 0.24977888 -0.013183186 -0.07519854 0.012859968 0.27576494 0.025912449
0.09042133 -0.07193734 -0.18811978 -0.11908655 -0.22209188 -0.25650507 0.27375895 -0.1587003
-0.25603908 -0.12770711 -0.23734891 0.044146612 -0.23491925 -0.22646388 0.22560315 -0.26280135
0.038136747 0.07191881 0.25497022 0.2310352 0.054493275 -0.267173 -0.2043842 -0.2377645
-0.022806983 0.24525017 0.13703504 -0.17633605 -0.23293361 0.2246743 0.018277673 -0.1118044
-0.106877714 -0.18573764 0.270229 -0.17277005 0.1915703 -0.2227673 -0.14744928 0.1821476
0.061778806 -0.022836333 0.11770759 0.12496882 -0.1411958 0.17680065 0.15826626 0.31512266
0.22165178 0.076379806 -0.026350532 -0.22151239 -0.017919324 -0.013251702 0.12667617 0.124300376
0.24254966 -0.12703359 -0.038530726 -0.104391016 -0.19195306 -0.17459433 -0.210122 -0.15151976
0.25633794 0.22829102 0.204956 -0.19342606 -0.09443763 0.12836018 0.017471902 -0.06991935
-0.07745713 -0.11051734 -0.13429193 -0.12158488 0.009971849 0.10993603 0.13775115 -0.07799935
0.047705896 0.05713106 0.192131 -0.054103702 -0.006918635 -0.09702606 0.29586083 0.11900853
-0.067217335 0.23782414 -0.17762838 0.16059873 0.24567948 0.112287655 0.12559968 0.14360034
0.0099274 -0.15170157 0.016126286 0.132197 0.21307585 -0.18345527 -0.21018626 0.21633331
0.20471725 -0.0032562197 0.07846306 0.17053282 -0.2662882 -0.049897917 -0.27386117 0.13054377
0.27728736 0.060022287 -0.27700943 -0.03524775 0.015283145 -0.04463723 0.06899724 0.08219323
0.17126267 -0.06371079 -0.009562918 -0.22148058 0.21395192 -0.05426427 -0.024427036 0.24622943
0.110374436 0.16057569 0.019056123 0.1443627 0.28172714 -0.11024993 -0.11158493 0.19733901
0.25337127 0.18704884 0.2982918 -0.15632929 0.030747171 -0.099702835 -0.20490609 0.060404893
-0.03356553 -0.30726266 0.20953517 -0.25254592 -0.032767627 -0.2202943 0.28547004 0.07326161
0.080774955 0.13921587 0.26134038 -0.14226082 0.04693608 -0.09210607 -0.16934036 -0.20585945
-0.10988253 0.08228151 0.24175458 -0.007465337 -0.18041556 -0.11485333 -0.02992683 -0.06448583
0.21226145 0.12741229 -0.23909584 -0.23379532 -0.0010671926 0.09975872 0.16438307 0.17310387
0.13764194 0.2585766 -0.12625659 0.3907646 0.10723846 -0.16259558 -0.1611079 -0.0840913
0.05622393 0.0044696135 -0.04302934 0.00081959623 -0.18844868 0.089322284 -0.13909267 0.16806406
-0.17380136 -0.13092405 0.0045386897 0.1923973 -0.03181414 -0.17293069 0.07301229 -0.16856414
0.058770116 0.2774619 -0.005741271 0.16121325 -0.07839299 -0.026256716 0.17553115 -0.19731545

embedding.bias f4 [128]
00000000: 4178 52be 7176 11be bd3f 87be aaeb a53d
00000010: 853e ddbd 8224 92bd 390d 95bd 3db3 853d
00000020: 94fe 1c3e ce86 a93d ccec 563e df25 e8bd
00000030: 8409 a73d 29cc 653e cf31 1ebe f2e7 2abd
00000040: 9da0 bf3d 7153 813e 09d7 5abe ecb4 43be
00000050: ae04 33be f489 11bc 4309 5a3e 1b0a 76be
00000060: 9bdd a2bd f835 473e 4f9e fdbd 7d2a 013e
00000070: ec36 b93d 903c 12be c821 e33d 4014 b3bc
00000080: 7151 883d 0db1 833e 15cc 673c 3294 073e
00000090: b3eb c63d 039a f53d f27a edbd b49a 0e3d
000000a0: e99b 2dbe 33ae bcbd 2fe9 0ebe 3df2 56bd
000000b0: fe56 58be 3243 67be 7c34 6e3e ddf0 cabd
000000c0: 4307 023e 9181 c5bc 5b4f fa3d 4390 34bd
000000d0: 789d 32be 1877 503e 0741 fcbd f731 753e
000000e0: ee7d 30be 776c 893c 4d09 cb3d 32f3 a13c
000000f0: 030a e83d 0ca4 833e d0b0 a4bd 2311 573e
00000100: eadc 7f3e a054 323e 0b16 433e e4da 043e
00000110: ef8f 09be c990 af3d d907 063d 9441 67be
00000120: a7a1 77ba 179c 103e 1eae 5dbe 9289 303e
00000130: a2f0 5bbe 190c 4dbe a051 2d3e f230 5b3e
00000140: e7b5 803d 067d 323e 3d2c e6bd 0bff e73d
00000150: f69d 3dbe 4788 2a3e 2781 0fbe 181a 47bd
00000160: af18 563e 310e ce3d 1e35 b43d c5aa 353e
00000170: 0b88 75be 0597 b13c 43be dcbd e7cd e43d
00000180: 972e 27be 947e 36be 48fd 0a3e 8d27 263e
00000190: 86e8 a2bd 8cc2 9abc 8b46 533d e48b 2fbe
000001a0: 197a 67be 5bc5 47be 3b90 ae3c f479 be3d
000001b0: 7b73 1fbe ea59 433e 4315 c2bc f39d 703e
000001c0: ce1b 7d3d a146 f13d 12bc 4b3e e85c 8ebe
000001d0: 7ab3 55be 0e5e 2b3e 5e8b 703e 2656 2cbe
000001e0: bdf4 0d3e f328 8ebe b1bb 46bd ec9c 80be
000001f0: b9af 383e 9920 1abe 1807 fc3d ff14 063e
-0.20553686 -0.14205338 -0.26415816 0.0810159 -0.1080294 -0.071358696 -0.07277913 0.065283276
0.15331489 0.08277665 0.20988768 -0.11335348 0.08156112 0.22441162 -0.15448688 -0.041725107
0.093568064 0.25258973 -0.21371092 -0.19111985 -0.17482254 -0.008882988 0.21292596 -0.24027292
-0.07952424 0.19454181 -0.123837106 0.12613864 0.09043679 -0.14280915 0.11090428 -0.021860242
0.06656159 0.25721017 0.014147778 0.13240126 0.09712925 0.11992266 -0.115957156 0.034815505
-0.16954006 -0.09212913 -0.1395614 -0.05247711 -0.21126935 -0.22584227 0.23262209 -0.09909222
0.12698083 -0.024109634 0.12222167 -0.04408289 -0.17442882 0.2035793 -0.123170905 0.23944841
-0.17235538 0.016775353 0.09913883 0.019769285 0.113300346 0.25711095 -0.08041537 0.21002631
0.24986616 0.17415094 0.19051377 0.12974125 -0.13433813 0.085725375 0.032722328 -0.2258361
-0.00094463903 0.14122044 -0.21648452 0.17239979 -0.21478513 -0.20024146 0.16925669 0.2140539
0.06284695 0.17430505 -0.112389065 0.113279425 -0.18517289 0.16653548 -0.14014111 -0.04860887
0.20907854 0.100613005 0.08799194 0.17740925 -0.23977678 0.021678457 -0.10778477 0.11172085
-0.16326366 -0.17821723 0.13573182 0.16226025 -0.079545066 -0.018891595 0.051580947 -0.17143208
-0.2260517 -0.19508879 0.021309009 0.093006045 -0.15571396 0.19077268 -0.023691779 0.23497753
0.061794095 0.117810495 0.19895962 -0.27805257 -0.20869246 0.16735098 0.23490664 -0.16829738
0.13862891 -0.27765617 -0.04851884 -0.25119722 0.18035783 -0.15051498 0.123060405 0.13093947

transformer_encoder.layers.0.self_attn.in_proj_weight f4 [384, 128]
00000000: 7652 23bd e8ef 363c 701f dabd 8640 363d
00000010: 54db f23c 2eb1 743d be75 323d 4005 863a
00000020: b897 1f3c 0047 e839 26af 213d 4a18 0b3d
00000030: 8666 2dbd 10d8 ca3b 15c7 d13d d6d1 89bd
00000040: 4ce7 cd3c 9e98 9dbd 55a0 bc3d f498 ac3c
00000050: 828e 7e3d 2e02 163d 6c67 a63c d859 f6bc
00000060: d43b c53c c65e 9cbd b5d5 d83d 2b8b 823d
00000070: 9bb0 8c3d 0838 16bc 900e aebd 2424 a1bc
00000080: d021 52bc daff 7d3d 2961 933d 724d ccbd
00000090: 410a 873d b033 8c3b 7c68 3ebd dc9a ccbc
000000a0: d9c9 8bbd ece2 a53c d23c c5bd 001c eaba
000000b0: 22c4 5a3d 7945 913d cab7 93bd ad7b a33d
000000c0: 3257 2b3d 96cf 733d c053 d83b 1c0e ecbc
000000d0: 12ec c3bd ead7 6cbd 9396 c4bd 7361 c4bd
000000e0: 4cdb d6bd 4917 bc3d a8fa 51bd eee6 3a3d
000000f0: d44d b23c 0a77 30bd e3f6 d9bd b160 9ebd
00000100: 2eb2 10bd a82d bcbc e60f 5d3d 40e0 943b
00000110: 43d8 a33d 542d a5bd 0009 c039 1339 dc3d
00000120: d774 53bd 2a37 abbd 4030 bebd 9a1c 97bd
00000130: 3f0a a73d 6720 843d c24c 4a3d 5d91 b63d
00000140: f8b2 85bc 7fb0 943d 64c1 963c 36e8 d6bd
00000150: 90ff 94bb f0fc c7bb b6c8 1d3d f0cc d7bd
00000160: b0cd 88bc ad7b ce3d 3cd7 893c 209a 4e3c
00000170: 93d8 be3d e21d 313d 1ed8 a6bd 14a8 d5bd
00000180: f60f 473d 2e2c 91bd a46e e1bc 026a 443d
00000190: c60a 2a3d b2ee 233d d188 c2bd 5f7c d03d
000001a0: c2fd 343d 6bcf ccbd 3ac5 1fbd 3aaf 03bd
000001b0: f6fe 273d 2c93 0cbd c041 d13a 8c69 fbbc
000001c0: c5b6 d13d 3475 c1bd 2c21 be3c 8730 b53d
000001d0: ee84 bfbd c2f1 093d 00e7 3f3a ac13 ed3c
000001e0: 9981 9a3d 5831 57bc 72c3 353d e6dc 6a3d
000001f0: 2210 663d 2860 093c c407 c43c 50a6 83bd
00000200: 130a 5bbd c045 abbc 060e 0c3d 56e3 d9bd
00000210: cf62 c03d 1acb 7d3d 8864 f8bc a849 19bc
00000220: 9bcc 923d 801b 1cbc 5b2c cc3d 7293 263d
00000230: 00bc 21bd 20de f7bb 85e3 be3d 1caa a83c
00000240: e7b8 cabd 5e92 dbbd 23de 74bd d4ba 28bd
00000250: e345 b93d 54ad ce3c 7a88 0b3d b929 aa3d
00000260: 2654 5a3d d977 dcbd d688 1c3d 2a55 d0bd
00000270: 34a5 d83c 58bf 1fbd 844d 99bc daa6 7b3d
00000280: 6d81 3cbd c0cb b8bc 7409 ef3c 62db 593d
00000290: d054 aabd 80cf 04ba f800 95bd 4869 e9bc
000002a0: 00e8 b43a 5a2b 463d d0e9 43bc be13 23bd
000002b0: c219 233d c475 aa3c 3b97 d93d 0bf2 adbd
000002c0: 5b78 863d d3ac c2bd 8290 043d c0fa 383c
000002d0: 91db 6cbd ecb2 cd3c 5cd0 57bd 8534 9f3d
000002e0: 7e5c 1f3d 38b6 b7bc c75a 9a3d 5c95 3fbd
000002f0: eaff 3c3d 2920 49bd 28f2 f5bc 2895 46bc
00000300: e065 62bb f0a7 783c e1b9 c93d 4394 3fbd
00000310: c6ed 8ebd 6813 bbbd 9ddd 91bd e827 c8bd
00000320: 8075 f5bc f821 f4bc 94a6 d93c f56d ab3d
00000330: e843 c7bd b87b c7bd 3d76 bb3d 7ca6 e1bc
00000340: 9165 db3d d07b 7bbd 4859 0f3c 9406 8a3c
00000350: 5b20 aabd 4269 abbd 7392 d23d 5663 273d
00000360: aecb 40bd 9f18 a03d 9b98 6bbd ecc5 01bd
00000370: 6bae 9a3d d730 da3d edce cc3d b9f4 a73d
00000380: 954c bf3d 245a b1bc 22e0 63bd ccd9 bdbd
00000390: 31e8 7cbd b458 8e3c acc4 9b3c 8270 1cbd
000003a0: ae8f cabd b406 f93c dd59 b33d 2cb3 e83c
000003b0: 50a9 39bd 91ca d63d f0e5 2dbc 4f8c d13d
000003c0: 78a4 c9bc 8aa7 4f3d 63a7 57bd 6381 b6bd
000003d0: 168e 5f3d c18b 8f3d f0a7 d7bb fa1b 113d
000003e0: da6d 2bbd 41d3 d93d 5c61 a4bc 5fd0 883d
000003f0: 10e3 a5bd c6f5 a4bd cf37 ccbd 8afd 90bd
-0.039873563 0.011165597 -0.106505275 0.044495128 0.0296456 0.059739284 0.04356932 0.0010224953
0.009740762 0.00044303387 0.039473675 0.03395871 -0.042334102 0.0061903074 0.1024305 -0.06729476
0.025134705 -0.07695125 0.092102684 0.021069027 0.062147625 0.036623172 0.020312987 -0.030072138
0.02407638 -0.07635264 0.105876364 0.063742004 0.06869622 -0.009168632 -0.08498871 -0.019670554
-0.012825444 0.062011577 0.07196266 -0.09975709 0.06593753 0.0042786226 -0.046486363 -0.024976186
-0.06825609 0.020249806 -0.09630741 -0.0017861128 0.053409703 0.07093329 -0.07212789 0.07982574
0.041831203 0.05952414 0.0066017807 -0.028815322 -0.09566511 -0.0578231 -0.09599032 -0.095888995
-0.10491046 0.09184129 -0.051264435 0.045630388 0.021765627 -0.043082274 -0.10642793 -0.07733286
-0.035326175 -0.02297099 0.05397024 0.0045433342 0.08000233 -0.08065286 0.000366278 0.107530735
-0.0516251 -0.08360131 -0.09286547 -0.07378502 0.08156251 0.06451493 0.04938961 0.089144446
-0.01632069 0.072602265 0.018402763 -0.104935095 -0.004547067 -0.0061031505 0.03852149 -0.105371356
-0.016699642 0.10082183 0.016826265 0.012609988 0.09318652 0.04324139 -0.0814669 -0.10432449
0.048599206 -0.07088505 -0.027518578 0.04795266 0.04151418 0.04002256 -0.09498752 0.10179972
0.044187315 -0.10000499 -0.03900645 -0.03214953 0.041014634 -0.03432004 0.001596503 -0.030689977
0.10239939 -0.09446183 0.023209177 0.088471465 -0.09351526 0.033677824 0.00073204935 0.028940044
0.0754425 -0.013134323 0.044375844 0.05733957 0.05616773 0.008384742 0.023929484 -0.06428206
-0.053476404 -0.020907283 0.03419306 -0.10639064 0.09393846 0.06196127 -0.030321375 -0.00935594
0.07167932 -0.009528041 0.09969398 0.04066796 -0.03948593 -0.007564321 0.0932074 0.020588927
-0.098985486 -0.10721277 -0.05978216 -0.0411938 0.09046533 0.025229134 0.0340657 0.08308739
0.053302906 -0.107650466 0.038216434 -0.10172494 0.026445962 -0.03900084 -0.01871372 0.06143842
-0.046021868 -0.022558093 0.029179312 0.053187735 -0.08316958 -0.00050663203 -0.072755754 -0.028492585
0.0013802052 0.048381187 -0.011957601 -0.03981375 0.039819486 0.020808108 0.10624548 -0.08493432
0.06565925 -0.0950562 0.032364376 0.011290252 -0.057826582 0.02510973 -0.05268894 0.07773689
0.038906567 -0.022425756 0.07536846 -0.0467733 0.046142496 -0.049102936 -0.030022696 -0.012120523
-0.0034545586 0.015176758 0.09849907 -0.046772253 -0.069789454 -0.09134561 -0.071223475 -0.097732365
-0.029963255 -0.029801354 0.026568688 0.08370582 -0.09729749 -0.09740394 0.091534115 -0.027545206
0.10712732 -0.061397374 0.008749314 0.01684884 -0.083069526 -0.08369686 0.10281839 0.04086622
-0.047069244 0.07817196 -0.057518583 -0.031682894 0.07552799 0.10653847 0.100004055 0.08200974
0.09340779 -0.021649428 -0.05563367 -0.09270057 -0.061744872 0.017376281 0.019014679 -0.038193233
-0.09890686 0.030398704 0.087573744 0.028405748 -0.045327485 0.10487855 -0.010613903 0.1023184
-0.024614558 0.050696887 -0.052649867 -0.08911397 0.054578863 0.07009078 -0.006581299 0.03542707
-0.04185281 0.106359966 -0.020065956 0.06680369 -0.08099949 -0.0805469 -0.09971582 -0.07079609

transformer_encoder.layers.0.self_attn.in_proj_bias f4 [384]
00000000: 0000 0000 0000 0000 0000 0000 0000 0000
00000010: 0000 0000 0000 0000 0000 0000 0000 0000
00000020: 0000 0000 0000 0000 0000 0000 0000 0000
00000030: 0000 0000 0000 0000 0000 0000 0000 0000
00000040: 0000 0000 0000 0000 0000 0000 0000 0000
00000050: 0000 0000 0000 0000 0000 0000 0000 0000
00000060: 0000 0000 0000 0000 0000 0000 0000 0000
00000070: 0000 0000 0000 0000 0000 0000 0000 0000
00000080: 0000 0000 0000 0000 0000 0000 0000 0000
00000090: 0000 0000 0000 0000 0000 0000 0000 0000
000000a0: 0000 0000 0000 0000 0000 0000 0000 0000
000000b0: 0000 0000 0000 0000 0000 0000 0000 0000
000000c0: 0000 0000 0000 0000 0000 0000 0000 0000
000000d0: 0000 0000 0000 0000 0000 0000 0000 0000
000000e0: 0000 0000 0000 0000 0000 0000 0000 0000
000000f0: 0000 0000 0000 0000 0000 0000 0000 0000
00000100: 0000 0000 0000 0000 0000 0000 0000 0000
00000110: 0000 0000 0000 0000 0000 0000 0000 0000
00000120: 0000 0000 0000 0000 0000 0000 0000 0000
00000130: 0000 0000 0000 0000 0000 0000 0000 0000
00000140: 0000 0000 0000 0000 0000 0000 0000 0000
00000150: 0000 0000 0000 0000 0000 0000 0000 0000
00000160: 0000 0000 0000 0000 0000 0000 0000 0000
00000170: 0000 0000 0000 0000 0000 0000 0000 0000
00000180: 0000 0000 0000 0000 0000 0000 0000 0000
00000190: 0000 0000 0000 0000 0000 0000 0000 0000
000001a0: 0000 0000 0000 0000 0000 0000 0000 0000
000001b0: 0000 0000 0000 0000 0000 0000 0000 0000
000001c0: 0000 0000 0000 0000 0000 0000 0000 0000
000001d0: 0000 0000 0000 0000 0000 0000 0000 0000
000001e0: 0000 0000 0000 0000 0000 0000 0000 0000
000001f0: 0000 0000 0000 0000 0000 0000 0000 0000
00000200: 0000 0000 0000 0000 0000 0000 0000 0000
00000210: 0000 0000 0000 0000 0000 0000 0000 0000
00000220: 0000 0000 0000 0000 0000 0000 0000 0000
00000230: 0000 0000 0000 0000 0000 0000 0000 0000
00000240: 0000 0000 0000 0000 0000 0000 0000 0000
00000250: 0000 0000 0000 0000 0000 0000 0000 0000
00000260: 0000 0000 0000 0000 0000 0000 0000 0000
00000270: 0000 0000 0000 0000 0000 0000 0000 0000
00000280: 0000 0000 0000 0000 0000 0000 0000 0000
00000290: 0000 0000 0000 0000 0000 0000 0000 0000
000002a0: 0000 0000 0000 0000 0000 0000 0000 0000
000002b0: 0000 0000 0000 0000 0000 0000 0000 0000
000002c0: 0000 0000 0000 0000 0000 0000 0000 0000
000002d0: 0000 0000 0000 0000 0000 0000 0000 0000
000002e0: 0000 0000 0000 0000 0000 0000 0000 0000
000002f0: 0000 0000 0000 0000 0000 0000 0000 0000
00000300: 0000 0000 0000 0000 0000 0000 0000 0000
00000310: 0000 0000 0000 0000 0000 0000 0000 0000
00000320: 0000 0000 0000 0000 0000 0000 0000 0000
00000330: 0000 0000 0000 0000 0000 0000 0000 0000
00000340: 0000 0000 0000 0000 0000 0000 0000 0000
00000350: 0000 0000 0000 0000 0000 0000 0000 0000
00000360: 0000 0000 0000 0000 0000 0000 0000 0000
00000370: 0000 0000 0000 0000 0000 0000 0000 0000
00000380: 0000 0000 0000 0000 0000 0000 0000 0000
00000390: 0000 0000 0000 0000 0000 0000 0000 0000
000003a0: 0000 0000 0000 0000 0000 0000 0000 0000
000003b0: 0000 0000 0000 0000 0000 0000 0000 0000
000003c0: 0000 0000 0000 0000 0000 0000 0000 0000
000003d0: 0000 0000 0000 0000 0000 0000 0000 0000
000003e0: 0000 0000 0000 0000 0000 0000 0000 0000
000003f0: 0000 0000 0000 0000 0000 0000 0000 0000
0.0 0.0 0.0 0.0 0.0 0.0 0.0 0.0
0.0 0.0 0.0 0.0 0.0 0.0 0.0 0.0
0.0 0.0 0.0 0.0 0.0 0.0 0.0 0.0
0.0 0.0 0.0 0.0 0.0 0.0 0.0 0.0
0.0 0.0 0.0 0.0 0.0 0.0 0.0 0.0
0.0 0.0 0.0 0.0 0.0 0.0 0.0 0.0
0.0 0.0 0.0 0.0 0.0 0.0 0.0 0.0
0.0 0.0 0.0 0.0 0.0 0.0 0.0 0.0
0.0 0.0 0.0 0.0 0.0 0.0 0.0 0.0
0.0 0.0 0.0 0.0 0.0 0.0 0.0 0.0
0.0 0.0 0.0 0.0 0.0 0.0 0.0 0.0
0.0 0.0 0.0 0.0 0.0 0.0 0.0 0.0
0.0 0.0 0.0 0.0 0.0 0.0 0.0 0.0
0.0 0.0 0.0 0.0 0.0 0.0 0.0 0.0
0.0 0.0 0.0 0.0 0.0 0.0 0.0 0.0
0.0 0.0 0.0 0.0 0.0 0.0 0.0 0.0
0.0 0.0 0.0 0.0 0.0 0.0 0.0 0.0
0.0 0.0 0.0 0.0 0.0 0.0 0.0 0.0
0.0 0.0 0.0 0.0 0.0 0.0 0.0 0.0
0.0 0.0 0.0 0.0 0.0 0.0 0.0 0.0
0.0 0.0 0.0 0.0 0.0 0.0 0.0 0.0
0.0 0.0 0.0 0.0 0.0 0.0 0.0 0.0
0.0 0.0 0.0 0.0 0.0 0.0 0.0 0.0
0.0 0.0 0.0 0.0 0.0 0.0 0.0 0.0
0.0 0.0 0.0 0.0 0.0 0.0 0.0 0.0
0.0 0.0 0.0 0.0 0.0 0.0 0.0 0.0
0.0 0.0 0.0 0.0 0.0 0.0 0.0 0.0
0.0 0.0 0.0 0.0 0.0 0.0 0.0 0.0
0.0 0.0 0.0 0.0 0.0 0.0 0.0 0.0
0.0 0.0 0.0 0.0 0.0 0.0 0.0 0.0
0.0 0.0 0.0 0.0 0.0 0.0 0.0 0.0
0.0 0.0 0.0 0.0 0.0 0.0 0.0 0.0

transformer_encoder.layers.0.self_attn.out_proj.weight f4 [128, 128]
00000000: 10f2 2f3d 001e dcbc 4a41 b8bd af57 0cbd
00000010: 14e7 1ebd a4b9 923c 044b 13bd 4d00 70bd
00000020: 715c 8d3d 919a 993d fdb6 5fbc 3396 a93d
00000030: 1c8d 253c 1297 4cbc acb8 3c3d e86f f73d
00000040: f059 1abd 6556 0cbd 11ed 573d d8d3 b8bd
00000050: b781 9a3d 488f 423d 1db1 96bd 315c 583d
00000060: e664 87bd 737a 8bbd fcfe b43c 997b 76bd
00000070: e1f4 a5bd 43da 0dbd 1e1e 92bd 2bcb 50bd
00000080: 2e49 1fbc ceab 8b3c 6944 55bd 4723 32bc
00000090: 1e1d 333d 4746 7b3d 59b6 823d c3db 87bb
000000a0: d099 99bc 9394 833d 206c 663c 4a1e 08bd
000000b0: e500 aa3d 367d c8bc 8a39 8fbc c1f7 3a3d
000000c0: 362f 21bd 9378 4f3c 273c e3bc d872 8c3b
000000d0: 50d8 963d 0061 d33c 797e c13c 3c46 343c
000000e0: de16 25bd de67 223d 1770 92bd 3b3e 3e3d
000000f0: 14e3 bf3b 8cb7 76bd 5ee9 b9bd 48b7 18bc
00000100: d32c a03d 0b9b 8c3d c0b4 a7bd 81dc 083c
00000110: b3e8 68bd 7678 203d f745 96bd 77b4 a53d
00000120: 938f 78bd 53e9 b9bd 4c01 8b3c d776 a43d
00000130: f517 b3bd 5722 17bd ec31 393d 9173 a9bd
00000140: 660e a0bd 9da8 2b3d 4196 42bd 761d 903d
00000150: 3cc4 a1bd 9b34 063c 0052 7cbd a1fd 813d
00000160: bfc4 9bbc 46d8 acbc 80b6 efbc 5cc3 e33b
00000170: 8ba9 6a3d c32b d03b de7c f43b b69b 9d3d
00000180: 5629 97bd 3e06 fdbb 03c1 8d3d 4d64 6e3c
00000190: 9cf0 a4bd 8d70 17bd f975 b13b db90 cabc
000001a0: a708 c23d 1589 aabb a829 d93d 4589 0cbd
000001b0: a40e 36bc 947b 49bd ac18 d63c eca7 a9bd
000001c0: 308b 873d 74c1 1cbd a6ca d13c b05e 6dbd
000001d0: fb17 5a3d 2d73 943d 65c0 2abd d638 653d
000001e0: 7ac4 203d 54a9 bfbc c531 9fbd af81 a13a
000001f0: a896 9cbd 63e0 603d 639e 943d 96b6 7d3d
00000200: d4f4 9abd 120d 003d 9621 753d 3e48 233d
00000210: 9c9b 853d 90f9 003d 9757 a0bd ca46 b9bd
00000220: 7b0a 54bc 347d 83bd 2cb9 07bd f1d8 263d
00000230: 0ff2 8d3d 7ae6 0bbd 1317 803d 999d c93c
00000240: e3f6 b53d cf7f a2bd 4c59 abbd 44b0 5d3b
00000250: b065 103d 38d1 2e3d e0d0 2e3b 352d a8bc
00000260: 20e8 443d 2783 7fbd 9104 0c3c caa0 12bc
00000270: 8425 bb3d 2f17 ac3d cd92 7fbd 5170 d5bc
00000280: 07ea 76bd 1a9a 00bd b3ae 243d 9387 633d
00000290: c995 003c cb14 033d e865 95bd 3129 7e3d
000002a0: c5f9 b13d 92c0 20bd 78d0 b33d 5c69 133d
000002b0: dabf 4f3d d495 01bd becf 18bc 1888 99bc
000002c0: d698 babd 9346 69bd 52c3 b73c 5ba9 973c
000002d0: e998 e0bb 160c 903c 2c34 a03d be3c 97bc
000002e0: 060e 93bd e484 99bd f154 d73c 3b81 62bd
000002f0: 5506 2c3d 2a16 75bd 4878 273d c0c0 833d
00000300: 79db bcbc eec5 9f3d bd9e d93c eb14 8dbd
00000310: f87c 5f3d ab46 803d 2194 013c 4f3f a23c
00000320: 0a39 b2bb b5ed dabc 6637 8fbc 0f8c 89bb
00000330: ed2d 85bd 1f9a acbd a26e c33c 4157 863d
00000340: 1afd dabc 2825 bc3a cc26 843d c4db 123d
00000350: 2789 aabc 7bd6 babd c370 8f3d 134e 793d
00000360: a40e 223d 2c42 32bd 48d4 163c f09d 363c
00000370: 6f0c 7abd 1ac4 6d3a 3376 2abd f021 95bd
00000380: 6990 af3d de32 15bd 964d 8cbd 5792 193c
00000390: cdef 6fbd 9dc2 3dbd 4b6d 2b3d 7d76 a9bb
000003a0: 51a3 8e3d d4a6 9abd e5d6 a43c d4e9 2b3d
000003b0: 5c11 12bd 72a5 adbd bd55 5b3d 3aeb 03bb
000003c0: 609d ac3d f45b 83bc a731 903d 501a 77bd
000003d0: 22ab c33d c0c3 e63c 44ea 893c 0f20 b73d
000003e0: 764f 6bbc 5743 58bd fee4 1dbd b583 76bd
000003f0: 2b03 c2bc 2072 18bd ea93 8abd 38fc a93d
0.04295546 -0.026869774 -0.08996828 -0.03426331 -0.038794592 0.017910786 -0.035960212 -0.058594037
0.069023974 0.07500184 -0.013654468 0.08280601 0.010104444 -0.01248719 0.046074554 0.12081891
-0.037683427 -0.03426208 0.05271632 -0.09024781 0.075442724 0.047499925 -0.073580004 0.052822296
-0.06611042 -0.06810465 0.022094242 -0.060176466 -0.081033476 -0.03463198 -0.07134651 -0.050975006
-0.009722037 0.017049696 -0.052067194 -0.010872669 0.04372894 0.06134632 0.06382436 -0.0041460707
-0.018750101 0.06424823 0.014063865 -0.03323201 0.08300952 -0.024473768 -0.017483491 0.045646433
-0.039351664 0.0126630245 -0.027738644 0.0042861514 0.07365477 0.02580309 0.023619877 0.011003073
-0.04030501 0.039649837 -0.07150286 0.046446066 0.0058559272 -0.060233638 -0.090777144 -0.009321041
0.078210495 0.068655096 -0.08188772 0.0083533535 -0.056862544 0.03917738 -0.073375635 0.080910616
-0.060683798 -0.09077706 0.016968392 0.080304794 -0.08744804 -0.036897983 0.045213625 -0.08273996
-0.07815246 0.04190885 -0.047506575 0.07036869 -0.07898757 0.008191253 -0.06160164 0.06347204
-0.019014714 -0.021099221 -0.029261827 0.006950779 0.057290595 0.006352873 0.0074611744 0.07695715
-0.07380931 -0.0077216914 0.0692158 0.014550281 -0.08053705 -0.03697257 0.0054156748 -0.024727276
0.094743066 -0.0052043297 0.106036484 -0.034310598 -0.011111889 -0.04919012 0.026134811 -0.08283982
0.06618345 -0.03827043 0.025609326 -0.05795163 0.053245526 0.072485305 -0.041687388 0.055962406
0.039249875 -0.023396172 -0.07773165 0.0012321974 -0.07645923 0.05490149 0.07256772 0.061941706
-0.075662285 0.031262465 0.059846483 0.039863817 0.06523821 0.031488 -0.078292064 -0.09046705
-0.012941952 -0.06420365 -0.033135578 0.040734235 0.06930935 -0.034155346 0.06254401 0.024611281
0.088849805 -0.07934534 -0.083666414 0.0033826986 0.035253227 0.042679995 0.0026674792 -0.020529369
0.048072934 -0.062380936 0.008546011 -0.008949468 0.09138015 0.084028594 -0.06239586 -0.026054533
-0.06028178 -0.031396963 0.04020567 0.055549216 0.007848212 0.03200225 -0.07294828 0.062051002
0.08690218 -0.03924615 0.08779997 0.03598915 0.050720073 -0.031637028 -0.009326873 -0.018741652
-0.091111824 -0.05695207 0.022432003 0.018513372 -0.006854166 0.017583888 0.07822451 -0.018461581
-0.07180409 -0.0749605 0.02628562 -0.055299025 0.041998226 -0.05983559 0.040886194 0.064332485
-0.023053871 0.07801424 0.02656495 -0.068887554 0.05456254 0.06263479 0.007908852 0.019805579
-0.0054389285 -0.026724676 -0.01748247 -0.0041976045 -0.065029 -0.08427834 0.023856465 0.06559611
-0.026732016 0.0014354335 0.064527124 0.035854116 -0.020817352 -0.0912294 0.070039295 0.060865473
0.039564744 -0.043520138 0.009205885 0.011146054 -0.061047014 0.0009070054 -0.04161663 -0.07281864
0.08572466 -0.036425464 -0.06850736 0.009373269 -0.0585783 -0.046328176 0.041852277 -0.0051715956
0.06964744 -0.07551351 0.020122001 0.041971043 -0.035661086 -0.08478822 0.053548563 -0.002012922
0.084284544 -0.016035058 0.070407204 -0.060327828 0.09554125 0.028169513 0.01683534 0.089416616
-0.014362207 -0.052798595 -0.038548462 -0.0601842 -0.023683151 -0.037218213 -0.067664936 0.0830006

transformer_encoder.layers.0.self_attn.out_proj.bias f4 [128]
00000000: 1d22 60bc 18e9 7a3c 239e 4fbc 56a4 d03b
00000010: 3fec 633c c073 8abb ade1 853c 2008 c3bb
00000020: b589 deba 401b 483b 4ffc 8d3b 9900 a2bc
00000030: 674d 263c 9bef 58bc 07a5 4c3d b1bf 583c
00000040: 4def 633c 399c 7dbb d7a5 5c3b 607d fe3c
00000050: 18c2 553c 52b0 edbb 2916 bf3c ffac 1b3b
00000060: 38f2 5a3a b68f a53b 58ab 1ebb 9c1c dbba
00000070: ff1f 163c 4b7a 203c 6974 833c ccb2 97bb
00000080: 490a 8e3c e1f1 f03b 555b 373c 3ad4 17bc
00000090: 539c a9bb fbad c83c 3652 00bc 47c8 9b3c
000000a0: a5a5 6abc 7edd 46bc bb71 6bbb c8d4 51ba
000000b0: c65d 9ebc 5f98 14bb 8733 f5bc 09c5 233c
000000c0: 5ba0 90bb 78c8 dabb 9f43 f6bb 3e23 81ba
000000d0: bd4d de3c b024 fabc 190e bebc 754c 47bc
000000e0: e2e5 95bb 89cc 02bc d724 273c 5a34 a63b
000000f0: 41a1 b9b9 fd59 74bb ff09 9fbc 519a 1fbc
00000100: 1d01 afbb 7fc5 c0bc 3e6f 87bc c256 33bc
00000110: 6aac 1cbc 88da 7ebc 70a3 93bb faa6 e83b
00000120: 1321 6abc 864e 9e3a a116 44bb 0dfb 86bc
00000130: 5b71 cbbb 740e 35b8 6ed4 2a3a a938 7d3b
00000140: 941c 0d3c ccb4 9dbb 9afc 8bbb 7bcd d7bc
00000150: 84f5 1ebb 5149 b23b b3c6 9bbc 9e32 9fbb
00000160: bf64 103c c951 53bc 922e eeba 1108 753c
00000170: 4130 713b 33ed 91bc 076a 953b ae44 debc
00000180: ed9f 0b3c 8cf6 753c a91f 0abb 4696 833b
00000190: e181 d53c 1249 8b3c 35ea d4bb fd2d af3c
000001a0: 420c 8b3c 8007 08bb 78a2 c23b 415a 6b3a
000001b0: 3aec 2f3c d097 1d3c 840a b83c d817 a1bc
000001c0: 9171 66bb 26b5 aeba 160d 2f3c 8eeb d2bc
000001d0: 3959 ee3b 05f1 44bc b805 6fbc b5d1 b5bb
000001e0: 75cf 80bb dcbc 09bd 34e9 e137 80da 19bc
000001f0: 6675 53bb 4d13 ec39 4e87 7a3c e824 ebbc
-0.013680008 0.015314363 -0.01267198 0.0063672466 0.013911306 -0.0042252243 0.016342962 -0.0059518963
-0.0016978296 0.003053382 0.004333056 -0.019775676 0.01015029 -0.01324072 0.04996207 0.013229297
0.013912034 -0.0038697852 0.0033668184 0.031065643 0.013046764 -0.007253685 0.023325996 0.0023754237
0.00083521334 0.005052532 -0.0024211016 -0.00167169 0.009162902 0.009794782 0.01604672 -0.0046294685
0.017338889 0.007353053 0.011191209 -0.009266907 -0.005176106 0.024497023 -0.007832101 0.019016398
-0.014321719 -0.012137769 -0.0035925943 -0.0008004424 -0.019331824 -0.0022673828 -0.029931797 0.009995707
-0.004413647 -0.00667673 -0.0075153853 -0.0009852422 0.027136678 -0.030535072 -0.023200082 -0.012164225
-0.0045745233 -0.007983335 0.010201654 0.0050721588 -0.00035406093 -0.0037285083 -0.019413946 -0.009741382
-0.005340709 -0.023531673 -0.016532537 -0.010945978 -0.009562591 -0.015555032 -0.0045055673 0.0070999833
-0.014290112 0.0012077845 -0.0029920714 -0.016477132 -0.0062085814 -4.3167223e-05 0.000651664 0.0038638508
0.008612771 -0.0048128124 -0.004272056 -0.026343098 -0.0024255225 0.005440869 -0.019015646 -0.004858329
0.008813082 -0.012897917 -0.0018171838 0.014955536 0.0036802443 -0.0178133 0.0045597586 -0.027132358
0.008522016 0.015012395 -0.0021076 0.0040157167 0.026062908 0.017002616 -0.006497646 0.021384234
0.016973618 -0.0020756423 0.005939778 0.00089779875 0.010737473 0.009618714 0.022465952 -0.01966469
-0.0035162906 -0.0013329133 0.010684272 -0.025747087 0.0072738198 -0.012020354 -0.014588766 -0.0055486807
-0.003930981 -0.033627376 2.6930684e-05 -0.009390473 -0.003226602 0.00045027808 0.015291048 -0.028704122

transformer_encoder.layers.0.linear1.weight f4 [128, 128]
00000000: 67dd c7bd 7afc 10bd b4b0 883d 675a 183d
00000010: 4185 96bd f8bc dabd a298 bd3c 28f6 b9bd
00000020: 5639 87bd 3517 8f3c 0f0b 3dbd b6c2 8b3d
00000030: 58c3 81bd cc87 ddbd 5289 c8bd c8af 9d3c
00000040: 3799 ea3b 1747 da3c 75f0 6f3d 38c5 afbd
00000050: 7604 003e 54ab d23c 2bdc febc 7a28 1ebd
00000060: 3e16 dc3d 56e2 12bd e233 483d d21c 27bd
00000070: afc0 a1bb b6e2 c6bd 451a 1fbd 7edb 9cbc
00000080: 8e60 843c b77e e83b 8101 b9bd 1dd8 89bd
00000090: 8b5e 263d 82ce 9cbd 2d50 71bd 8c2e 3d3d
000000a0: a3d1 be3d 9dab 983c b60a e43c d89c a2bd
000000b0: 42be 7a3c e4f4 8d3d 83f3 dd3a 8c19 ccbc
000000c0: e45a ac3d 1261 293d d5b3 77bd 7df1 fabc
000000d0: 7830 323c 51c9 67bb 6deb 13bd 7d03 ba3d
000000e0: e9a5 49bc 4552 973d d2d2 65bc 4aed cdbd
000000f0: 0125 633d 4dcc 0e3d a280 ebbd a660 113c
00000100: e3c1 2fbd cfbe adbd 5fa0 d9bd ba98 373d
00000110: ffe0 bc3c 7b48 1bbd 19ce 4ebd 66f2 8ebc
00000120: 478d 46bc f6e6 a0bd e896 043d 283d c33d
00000130: fa21 143a d896 77bd bf9c e0bc 5fca f6bd
00000140: e845 7d3d e0ee 663d e3ec 073d d26f 06bc
00000150: dd42 773d 2443 b4bd 9790 88bd ae2c e2bd
00000160: 3f78 5b3c 859e 3cbd 6c09 24bd a2b4 bd3c
00000170: 9de6 85bb 6305 173d 7315 80bd d51e 07bd
00000180: 88b5 d03d 34df 433d 1dd7 6cbd 1e3f 133d
00000190: 3dc9 94bd d9c7 01bd f1cd f6bc fa2d cfbb
000001a0: e8aa be3d 7f86 c93d 61af 7a3d 6bf6 a8bd
000001b0: 5eb6 b3bd d73c 6dbd bd60 66bd 661b a03d
000001c0: c785 973d a959 b8bd bc85 f5bc c749 353d
000001d0: b91c 0bbd 72e2 12bd 20db 943b f8e3 803d
000001e0: c58e f8bc 9311 ba3d a896 00bd 2fc4 dbbc
000001f0: 6235 4b3d a06f 663d ee6e 7bbd 133d d63c
00000200: 753f 1ebd fec3 893d d4e2 143d 449c 3d3d
00000210: ec8a 923d 555f bbbd 008c a13d 859c 18bc
00000220: 8ba3 493d b3bc 893d e737 99bd 6f5c a83c
00000230: 2315 ce3d fa13 273d f435 ffbc 2c05 34bd
00000240: ae31 0a3d 995c 0f3d 1692 3a3d 5336 3ebd
00000250: 8438 abbd 0fc0 ac3c 59fa 0dbd c096 51bd
00000260: f7f3 0bbd e474 91bb 5a83 d73c a84a 0cbd
00000270: a5e5 9fbc da9e 233d 7a3a 9c3a f5f4 d6bd
00000280: af58 fcbc 0208 dabc affb c2bd 6e68 e4bc
00000290: b165 a33d 9679 80bd 7c5e 3b3d 9f32 ea3a
000002a0: a6b4 6e3c 9324 d5bd d049 9abd 30f0 663c
000002b0: 4cbb b7bd a744 33bd 7bd7 7ebd 7d52 533d
000002c0: 00ba d0bd d1d0 2c3d 179d 8b3d b975 783d
000002d0: 0e73 9fbd 96d4 893d e181 583d 7b1e 413d
000002e0: 33bb dc3b d9b3 213d f027 e0bd da2a 603c
000002f0: a2f6 503c 5134 ad3c 408d 3d3c 46bb 98bd
00000300: ff79 0f3d 5036 dfbc df6f 61bd d4f8 8fbd
00000310: 5249 bd3c e59f 103d c9c1 19bd a06a a5bc
00000320: b231 9a3d 45c5 dabc d430 68bd 66f8 883d
00000330: 61c3 0abd d1b9 35bc 2667 a7bd 6533 e7bc
00000340: 230f 2fbd 7849 b53d d9a8 f0bc 3539 3e3d
00000350: 6532 95bd c078 2139 9414 ccbc bb56 acba
00000360: 2de2 6abd 21b4 5e3d a0eb 6d3d c5e7 f0bb
00000370: 8f6d 2bbd 8298 96bd 7367 c13d a754 cfbd
00000380: 057c 3b3d a9ec 6f3d da20 91bc d194 c93d
00000390: 2bc2 af3c a895 c63c 01a9 38bd 6942 cebd
000003a0: c229 433c 13cb fcbc 5499 0abc e66b a53c
000003b0: 9fb4 44bc 2b5a 0b3d 0047 60bd 33e0 963d
000003c0: d0bc 95bd d93a 9bbc 47ef 39bd b86e 7d3c
000003d0: 8f25 133d cb0a 113d ecd6 753d 5591 77bd
000003e0: 3b7e 88bd 67f5 b53d d425 6d3d 0ac5 38bd
000003f0: bf95 893d 2b4c 63bd 8210 2ebd 1aa8 b6bd
-0.09759026 -0.03539703 0.066743284 0.03719559 -0.07349635 -0.10680574 0.02314407 -0.09080154
-0.06602733 0.01746712 -0.046153124 0.068242475 -0.06336087 -0.10816917 -0.09791817 0.019248858
0.007159378 0.026645226 0.058578927 -0.08582538 0.12501702 0.025716461 -0.031110844 -0.03861282
0.1074643 -0.035860382 0.048877604 -0.04079897 -0.0049362998 -0.097112104 -0.038843412 -0.01914763
0.016159322 0.0070951837 -0.0903349 -0.067306735 0.040617507 -0.07656576 -0.058914352 0.04618697
0.09317329 0.01863652 0.027837139 -0.07940072 0.01530415 0.06931475 0.0016933534 -0.024914525
0.084157735 0.04135234 -0.060474236 -0.030632729 0.010875814 -0.0035367797 -0.03611319 0.090826966
-0.0123076225 0.073887385 -0.014027314 -0.10055025 0.05545521 0.034862805 -0.11499144 0.00887314
-0.042909514 -0.084836595 -0.106262915 0.044823386 0.023056505 -0.03791092 -0.05048952 -0.017449569
-0.012118644 -0.07856552 0.032370478 0.09533149 0.0005650815 -0.06044659 -0.027418492 -0.12050318
0.061834246 0.056380153 0.033184897 -0.008205371 0.0603665 -0.088018686 -0.06668203 -0.11043678
0.013395368 -0.046049614 -0.040048048 0.023157421 -0.004086329 0.03687037 -0.06254091 -0.032988388
0.10190874 0.047820285 -0.057822336 0.035948865 -0.07264946 -0.03168473 -0.030127497 -0.0063226195
0.093099415 0.09840106 0.06120241 -0.082501255 -0.08775018 -0.05791935 -0.0562446 0.07817726
0.07398563 -0.09001476 -0.029970996 0.044259813 -0.03396294 -0.035860486 0.0045427233 0.062934816
-0.030341515 0.09085383 -0.031393677 -0.026826946 0.049611457 0.056258798 -0.061385088 0.02615217
-0.038634736 0.06726836 0.036349133 0.046291605 0.071554035 -0.091490425 0.07888031 -0.009314661
0.049228232 0.06725445 -0.07481366 0.020551888 0.10062625 0.040790536 -0.031153657 -0.043950245
0.033738784 0.035000417 0.045549475 -0.046438526 -0.08360389 0.021087674 -0.03466258 -0.051169157
-0.03416821 -0.0044389833 0.02630775 -0.034250885 -0.019518683 0.039946415 0.0011919283 -0.104959406
-0.030804006 -0.026615147 -0.09520661 -0.027881827 0.079783805 -0.06273191 0.045744404 0.001786787
0.014569437 -0.104073666 -0.0753361 0.014095351 -0.08971271 -0.043766644 -0.062217217 0.05159234
-0.10191727 0.04219133 0.06817072 0.060659144 -0.07785617 0.06730001 0.052858237 0.04714821
0.006736183 0.039478157 -0.109451175 0.013682092 0.012754114 0.02114311 0.011569321 -0.074575946
0.035028454 -0.027247578 -0.05503833 -0.07029882 0.02310625 0.035308737 -0.037538324 -0.020192444
0.0752901 -0.026705394 -0.05668719 0.06688003 -0.033877734 -0.011091665 -0.08173971 -0.028222749
-0.042739045 0.08851904 -0.029377388 0.046441276 -0.072850026 0.0001539914 -0.024912156 -0.0013148406
-0.057344604 0.054371003 0.058086038 -0.007351848 -0.04185253 -0.07353307 0.094435595 -0.10123568
0.04577257 0.058575306 -0.01771586 0.098428376 0.021454891 0.024241284 -0.04508305 -0.100712605
0.011911811 -0.030858552 -0.008459408 0.020193052 -0.012005954 0.034021538 -0.05475521 0.07366981
-0.07311404 -0.01894896 -0.04539421 0.015468292 0.03592449 0.035410684 0.06001942 -0.060441334
-0.066647016 0.088846974 0.057897404 -0.045109786 0.06718015 -0.05549256 -0.04249621 -0.089187816

transformer_encoder.layers.0.linear1.bias f4 [128]
00000000: 2d45 e03c 8780 33bd 597a 993d f0e8 c13a
00000010: 6e38 d3bd ed6e 0f3d 7b33 913d 9a15 cebd
00000020: 401c 65bd 222a 523d 9de2 e73b 45a7 f33c
00000030: 87da e5bd cf1b f4bd 98f7 093d 74a6 82bd
00000040: 320b 5ebc e02f d1bd 667b db3c db67 2dbd
00000050: 0846 bebd 50f5 2d3d fbf9 84bd fed4 88bd
00000060: e44f 2abd bcf9 b63c 06bb 1c3c 1160 273c
00000070: 9ade b7bd b040 9f3c 2100 26bd 61b5 823d
00000080: 8cef 94bd 1b79 c2bc 807e 113d 3a99 b6bc
00000090: c4a6 ec3c e3fa 1a3d 0fe4 26bd dec6 a0bd
000000a0: a849 063d 1a50 bfbc d847 29bd 45c1 cabd
000000b0: d983 f1bb 7fcd 6dbc 6ab6 0e3d b5ac 843c
000000c0: b8d9 353a fc8a f83b ffd6 893b 9960 5ebd
000000d0: a5af 633c 194d 3abd db21 993d f9c2 b5bd
000000e0: c102 08be 81ea 12bd 829f 933d f312 463d
000000f0: 649d 873d 5d34 243d ac87 a0bd 572d aabc
00000100: 812e c9bd 8d63 9b3c 0e7c f23c 4d60 553d
00000110: 668b 4dbc 89f7 933c 5b2a cdbc d960 d8bd
00000120: b113 d83c 9a3f d5bd b33c dabd e7a6 08bd
00000130: e90b 77bc fe43 8c3c 475f b5bd 9611 49bd
00000140: eb21 7b3d 2c43 abbd bfee bb3c 49d4 b4bd
00000150: b312 0e3d 14d5 543c f01f 893d 989c a83c
00000160: 3367 d43c 6023 24bd 006e 35bc 2633 833d
00000170: 17df 163d 152c 0dbd 7325 073d 7b6e 9f3d
00000180: fda0 c7bd bd02 8fbb 7cc1 b03b dac5 86bd
00000190: 23ea 513d a717 fcbc 8cae 15bd 03b5 673d
000001a0: 4c20 843d 4b23 5c3b 85ca dd3c 062f 63bc
000001b0: d741 493d 5064 48bd fe9f 9ebd c4d3 003d
000001c0: ea58 a5bd 52f2 843d 7a6e 893c befe 8eba
000001d0: 8718 ebbc 068c 513d 49ab d8bd 6eae 90bd
000001e0: 9c1d 84bd 8897 bfbd a0a1 483d 9cd6 8c3d
000001f0: f6b9 8bbc 35d6 333d 30c1 d8bc aa84 3f3d
0.027376736 -0.043823745 0.07494039 0.0014794152 -0.103134975 0.035017896 0.07089897 -0.10062714
-0.055935144 0.051309712 0.007076575 0.029742846 -0.112233214 -0.119193666 0.03368339 -0.06379405
-0.013552474 -0.102142096 0.02679224 -0.042335372 -0.09290701 0.042470276 -0.064929925 -0.0668125
-0.041580096 0.02233588 0.009566074 0.010215775 -0.08978005 0.019440025 -0.040527467 0.063822515
-0.072722524 -0.023739388 0.03552103 -0.022289861 0.028888114 0.03783692 -0.040744837 -0.07850431
0.032785088 -0.023353625 -0.04132828 -0.099001445 -0.007370454 -0.014514326 0.034841932 0.016195634
0.00069370447 0.0075849276 0.0042065377 -0.05429134 0.013896857 -0.045483682 0.074771605 -0.08875079
-0.132823 -0.03586817 0.07208158 0.048357915 0.06621817 0.040089 -0.07838377 -0.020773573
-0.09823323 0.018968368 0.02960017 0.052093793 -0.012545442 0.01806237 -0.02504461 -0.10565347
0.026376577 -0.10412522 -0.10656109 -0.033362295 -0.015078523 0.017122265 -0.08856063 -0.049089037
0.061311644 -0.083624214 0.022940991 -0.08829553 0.0346858 0.012990255 0.06695545 0.020582482
0.025928115 -0.0400728 -0.011073589 0.0640624 0.03683385 -0.034465868 0.0329947 0.07784744
-0.09747503 -0.00436434 0.005394159 -0.06580706 0.05124868 -0.030772997 -0.036543414 0.05656911
0.06451473 0.0033590372 0.027074108 -0.013866192 0.049135055 -0.04892379 -0.0774536 0.031451955
-0.080736 0.064915314 0.016776312 -0.0010909659 -0.028698219 0.051158927 -0.10579545 -0.0706452
-0.0645096 -0.09355074 0.048982263 0.06876871 -0.017056447 0.043905456 -0.026459306 0.046757378

transformer_encoder.layers.0.linear2.weight f4 [128, 128]
00000000: f60d 213d 9796 2f3c 56f2 a83d dbef 16bc
00000010: 2d25 843d 8d11 06bd a093 73bd 90df bbbc
00000020: b741 883d 16dd 9b3c 7104 bd3b d418 3dbd
00000030: 5787 9e3c 09bb 5e3d 02b8 da3a 313d d03c
00000040: 0a02 37bd e40a 943d e03d b2bd 285b 9a3c
00000050: c7d6 c23d 7675 68bd a41b 2b3d 59f1 043e
00000060: 8107 9abd 40dc 093c 0198 193d 356d 80bd
00000070: 7ba8 a43d c2f8 b7bc 5b56 bbbb dec7 a03d
00000080: 742d ae3d 46c6 b1bd 8871 283d 100c 61bd
00000090: 854b 5ebd 4495 603d c54d adbc 5146 793d
000000a0: fc66 0abd b8c2 fabd 7e07 9dbd fe9b 2dbd
000000b0: 8cd9 473d eddf 7fbd b4ad a5bd 7938 2e3c
000000c0: d9b3 93bd 7f88 d2bc 5c92 443d 598c 16bc
000000d0: 7ccf 263d c4bc 22be 0995 493d 51f9 47bd
000000e0: 78e1 cc3c 4483 123e ff13 8fbc 7a4e 05bd
000000f0: ba33 f23d 6335 843d 4ebf 94bd 5a2f c0bd
00000100: 90f9 8abd 39a4 ef3d feaf b5bd dfc3 ff3d
00000110: 39dd e43d 964b 20bd f030 fd3c 9887 a8bd
00000120: 870a 873c 1684 87bc 8591 78bb 394d e23d
00000130: d402 7b3d 1cf5 99bc 2cad 2dbd 657f bdbd
00000140: 6525 c0bd c24d 923c 1ac3 af3d f311 89bd
00000150: fab6 f03d e436 2b39 e821 3f3d b622 ee3c
00000160: c8cc 16be 7f23 2bbd f600 4e3d 0c7d efbd
00000170: f7f9 c9ba f5f6 28bd f50c 8cbc c049 e53d
00000180: c1d7 c53c e55f 46bd b261 cd3b 129c 543d
00000190: 87f5 c43c 0db5 8fbc 2ccd 10bd 09bf 6f3d
000001a0: a008 a1b9 beae 8cbd 6473 023d dcaf a1bd
000001b0: a157 49bd d818 40bd cdce 17bd ce7e 8abd
000001c0: 94bb bbbd 3dec 24bd 633c e7bb 1a22 613d
000001d0: 4bd5 5a3b faab b73c b906 92bd f82e 993d
000001e0: 89e4 853d ea40 debc edff 0c3d 1389 ac3d
000001f0: 1359 683d 5114 5d3d 4bbd 093e f88d c13c
00000200: 9292 233d 2942 9aba 7fde a8bd 336f be3c
00000210: c76a f8bc 7281 46bd 5f01 e83b 05b6 42bd
00000220: 222b d7bd 6446 f93c ccd3 97bd 2e0b 9dbd
00000230: a594 9a3d 1f58 083d f642 97bc 6cbc abbc
00000240: c9ae c23c 76f9 1c3c 4f6a 09bd a457 42bd
00000250: ef80 f0bc 6efe 0d3d 2ba0 36bc 88e5 1cbd
00000260: cff7 a7bc 0dda 2fbd f3ee 4ebd f05c 2fbd
00000270: 82ae 553c 7d4b d03d 004d 1e3b d15a 81bd
00000280: 8020 a9bd 98e4 883b 1ad7 27bd 5cad a23d
00000290: cb26 e03d 625d dbbd b533 ea3b 121b 57bd
000002a0: ad68 2f3d fa1d d73d 11a4 f13d ccae 8abb
000002b0: 467c c63c f338 35bd 0737 b13d 384c 7dbd
000002c0: 3b71 033e 6866 35bd 2cc0 8ebc d7ab bebd
000002d0: 326a b03d 126d c63c 48a7 cf3b 3d3e 2d3d
000002e0: 35da d63c 23a2 78bd 1a4a e03d 28f6 bd3d
000002f0: dfb9 8abd 08c5 1a3d 7759 0abb 09db cb3c
00000300: 7791 393a 33db 69bb f6b1 97bd e4bf d3bd
00000310: f145 cebc 588e e2bd d43b 563d 3fce 3c3d
00000320: 7811 313d a5e4 18bd 0437 80bc bc8d d13c
00000330: e09e 42bc 6eab 0839 7142 823d e3cc c13d
00000340: 9d4e 1bbc 7dc2 99bd cf4f c7bd 9135 803d
00000350: e3fc 11be 307a 7a3d 24ba 3a3c 7b27 a2bd
00000360: 44d9 193e b232 7c3c 8ad4 6c3d aa1c 1ebc
00000370: 3aef 493d 118e 57bd 073d 28bd fcbd c8bc
00000380: a30e 97bc 38a5 c73c cd7b 2abd b006 56bc
00000390: bd89 69bc 4f6d ba3c 4acf 3e3b 987d 853d
000003a0: 82cf 8e3d 4a11 b5bd 120e 5e3d 86b2 d13d
000003b0: cf5d 3cbc af8e b23c a46f 99bd e7c3 4b3c
000003c0: f908 d03c 8ffc 5a3d 0508 99bd 021e c1bd
000003d0: 7c1c 2abb 9a6f 713c 9210 fd3c b1ae ad3b
000003e0: 304b 8bba 330f 03bd d6b0 ddbd 09f1 ee3c
000003f0: fae6 a63d 6e70 583d 913e dcbb 6dd7 a4bc
0.039319955 0.010717056 0.08249347 -0.009212459 0.06452403 -0.03273158 -0.059466958 -0.022933751
0.06653159 0.01902632 0.0057683517 -0.046166256 0.019351644 0.05437759 0.0016686919 0.025419803
-0.04467968 0.0722864 -0.08703208 0.018842295 0.09513622 -0.056752644 0.041774407 0.12982692
-0.075209625 0.008414328 0.037498478 -0.062708296 0.080399476 -0.022457484 -0.0057170815 0.07850622
0.08504763 -0.08680396 0.041123897 -0.054943144 -0.05427124 0.05482985 -0.021155247 0.060858075
-0.03378962 -0.12244171 -0.07667445 -0.042385094 0.048791453 -0.06246941 -0.08089772 0.010633581
-0.072120376 -0.025699852 0.04799114 -0.009188735 0.040725216 -0.15892321 0.049214397 -0.04882175
0.025009856 0.14307886 -0.01746559 -0.032545544 0.11826272 0.06455495 -0.07263051 -0.093840316
-0.067858815 0.11701245 -0.088714585 0.12488531 0.111750074 -0.039134584 0.030907124 -0.082289875
0.016484512 -0.016542476 -0.0037928533 0.11049885 0.061281994 -0.018793635 -0.042401478 -0.09252814
-0.093821324 0.017859343 0.085821345 -0.06692877 0.1175365 0.00016328279 0.046663195 0.029069286
-0.14726555 -0.0417819 0.050293885 -0.11693773 -0.0015409578 -0.04125114 -0.017096022 0.11195707
0.024150731 -0.048431296 0.0062677497 0.051906653 0.024042858 -0.017542386 -0.035351917 0.058531795
-0.0003071474 -0.06869267 0.031848326 -0.07894871 -0.049155835 -0.046898693 -0.037062455 -0.06762467
-0.09166637 -0.040264357 -0.007056759 0.054964162 0.0033391293 0.022420872 -0.071301885 0.07479662
0.0653773 -0.027130563 0.034423757 0.08424582 0.056725573 0.053974453 0.13451116 0.023627266
0.039934702 -0.0011768985 -0.08245563 0.023246383 -0.030324353 -0.048463292 0.0070802416 -0.04753687
-0.10506274 0.030429073 -0.07413444 -0.07668148 0.07547883 0.033287164 -0.018464547 -0.02096387
0.023764985 0.0095809605 -0.03354865 -0.047446862 -0.029358355 0.03466647 -0.011146585 -0.038304836
-0.020503907 -0.04293256 -0.05052085 -0.04281324 0.013042094 0.10170648 0.0024154782 -0.0631615
-0.08258152 0.004177641 -0.04097662 0.07943222 0.10944899 -0.10711171 0.0071472772 -0.05251605
0.042824436 0.105037645 0.11798871 -0.004232263 0.02422918 -0.044243764 0.08653074 -0.061840266
0.12836163 -0.044287115 -0.017425619 -0.093101196 0.08614005 0.02422193 0.00633708 0.042295683
0.026227096 -0.0607015 0.10951634 0.09275466 -0.06773733 0.03778556 -0.0021110454 0.024884718
0.0007078866 -0.0035683631 -0.0740699 -0.103393346 -0.025179835 -0.11062306 0.05230315 0.04609513
0.04322955 -0.037327427 -0.015651233 0.02558028 -0.011878699 0.00013033833 0.06360329 0.09462907
-0.009479192 -0.07507799 -0.09732019 0.06260217 -0.14256625 0.061151683 0.011396918 -0.079176866
0.15024287 0.015392946 0.05781988 -0.009650389 0.04930041 -0.05262572 -0.041073825 -0.024504654
-0.018439597 0.024370775 -0.041621972 -0.013063118 -0.014254031 0.0227572 0.0029115253 0.06518096
0.06973173 -0.08841188 0.054212637 0.10239129 -0.011496975 0.021796552 -0.07491997 0.0124368435
0.025394903 0.053463515 -0.07472233 -0.09429552 -0.002595692 0.014736081 0.03089169 0.005300366
-0.0010627266 -0.031996917 -0.108247444 0.029167669 0.08149524 0.052841596 -0.0067213257 -0.020122254

transformer_encoder.layers.0.linear2.bias f4 [128]
00000000: 9bf3 983c 27c7 013d f7b8 823c 0b02 e5bc
00000010: 7ad8 e63b 1334 5d3c 4aa7 84bd 150c 5cbd
00000020: b4a2 373d 8641 563d 6bb5 843c d7c2 823d
00000030: 8b5f 533d 1b00 4fbd 05c1 dfbc f5f0 82bc
00000040: e0a0 363d 10d6 083d b371 a73d 626e 883d
00000050: b87d 94bc 8757 253d 9d14 acbb 8be8 6b3d
00000060: 8773 31bd 7277 3fbd 120a 9ebd 4e1a 6f3d
00000070: 53c5 e8ba a1db 443d 56d6 2abc 4d04 22bd
00000080: 3031 593d 3bdf 893d 58fd 90bc 6ff3 a9bd
00000090: e879 d2bd bb7f 8b3c 8591 073d 6308 3ebd
000000a0: 4a82 9bbd 1a35 ce3c b856 7a3c 5127 6ebd
000000b0: e180 6c3c 8bd4 693d a620 19bd 1cfe 76bd
000000c0: 2b56 d53c e58b 95bd 513d 84bd 78d1 a93d
000000d0: 709e 3fbd 01bf 3ebd 4176 113c 7032 8e3c
000000e0: 6930 1f3c ab2d 9a3d ef60 f2bc 5704 70bc
000000f0: 9ae3 94bb 919e 4b3d 9274 453d ec8d a8bd
00000100: ac2e 333d ac9c 8f3d 12b7 a9bd 7867 eebc
00000110: 5890 9abd 1d7e 803d 90f1 d03c 8ff8 2fbd
00000120: 6b7a 9bbd d8af 18bc 279f a3bb 2cd3 633d
00000130: d381 8d3d c30a b63d e856 42bd 1cf7 b83d
00000140: b2bc 4e3b 7aa3 92bd f1d2 003d 1735 26bd
00000150: 3a12 af3c adb7 aebb bec6 543c 5b73 b4bc
00000160: e0f4 af3d 7b9a a5bc 4828 91bc 3bdf 85bd
00000170: 21c3 863d 464b a5bd a2ba 9fbc 07da 823d
00000180: d576 9a3d eb7b 843d 7ac2 ecbc 4f81 223c
00000190: 33c2 da3c 3aa2 943d b860 3bbd 4a0d 97bd
000001a0: a88b e63b 236d 06bd 6537 a03d 4604 13bb
000001b0: 6291 9e3d 3c11 df3c 7ca3 20bd b85d 05bd
000001c0: 07a6 f03c e9af 5a3d 7b4d 573d 1c61 783c
000001d0: 60af c03d 1f2d 2cbd f59a 453d fc1e 813d
000001e0: 1ac2 01bb ef65 983d 8f98 033d 4470 21bc
000001f0: 5c67 4ebd 4e30 62bd a819 a33c 039f 2cbd
0.018670848 0.031684067 0.015957339 -0.027955076 0.007044849 0.013501185 -0.0647722 -0.05372246
0.0448329 0.05230858 0.016199788 0.06384819 0.05160479 -0.05053721 -0.027313719 -0.015984038
0.044587016 0.03340727 0.08175983 0.06661679 -0.018126354 0.040366676 -0.0052514807 0.057594817
-0.043323066 -0.04674477 -0.077167645 0.058374695 -0.0017759003 0.048061017 -0.010427078 -0.039554883
0.053025424 0.06732031 -0.017698929 -0.082983844 -0.10277158 0.01702868 0.033097763 -0.046394717
-0.0759321 0.025171805 0.015279464 -0.058142964 0.014435024 0.057087462 -0.03738465 -0.06030093
0.026042065 -0.073020734 -0.06457008 0.08291906 -0.046781957 -0.046568874 0.008878292 0.017358035
0.009716132 0.07528242 -0.029587237 -0.014649472 -0.004543734 0.049711768 0.048206873 -0.082301944
0.04374568 0.07012305 -0.08286871 -0.029102072 -0.07547063 0.06274054 0.025505811 -0.042961653
-0.07591709 -0.009319268 -0.0049933377 0.05562131 0.06909528 0.088887714 -0.04744616 0.090315074
0.0031545577 -0.07160087 0.03145117 -0.040577974 0.021370996 -0.0053319545 0.012986837 -0.022027662
0.08591628 -0.020215264 -0.017719403 -0.065367185 0.06580187 -0.08070998 -0.019498173 0.06389242
0.07542197 0.06468948 -0.028901327 0.009918525 0.02670393 0.07257505 -0.045746535 -0.073755816
0.0070356913 -0.032818925 0.07823066 -0.0022432967 0.07742573 0.027229898 -0.03921841 -0.03256008
0.029376043 0.053390417 0.052564126 0.015159871 0.0940845 -0.04203522 0.04824348 0.06304738
-0.0019799531 0.07441317 0.032127913 -0.009853426 -0.05039154 -0.05522185 0.019909695 -0.042143833
