spectral_transformer_encoder/transformer_encoder_model_fold_2.pth (torch, 815522 bytes, 28 tensors)

embedding.weight f4 [128, 12]
0	0xbd4b5269	-0.04963914
1	0x3e6a263e	0.2286615
2	0xbe197eb6	-0.14989743
3	0xbe90f039	-0.28308275
4	0x3e24e1fd	0.16101833
5	0xbd98bc90	-0.074578404
6	0x3e7c739b	0.24653475
7	0xbe79bbc1	-0.24388029
8	0x3e52ca8b	0.20585077
9	0xbe80d33a	-0.25161153
10	0xbd95dbba	-0.073173
11	0xbe3c4c19	-0.18388404
12	0x3e46ab81	0.19401361
13	0x3e6ccf78	0.23126018
14	0xbe8c3bbc	-0.27389324
15	0x3dd8ff13	0.105955265
16	0x3dfd9d12	0.123834744
17	0x3dd3ca79	0.10341353
18	0x3cb4dd89	0.022078292
19	0xbe9a8b96	-0.3018462
20	0x3db26de8	0.08712369
21	0xbe6c3b0c	-0.230694
22	0x3e8651cd	0.26234284
23	0xbe2c27ec	-0.16812104
24	0xbe226039	-0.15857019
25	0xbe287f90	-0.16454911
26	0x3e0922f2	0.13392237
27	0xbe6cf6d8	-0.23141038
28	0x3d5c8ffd	0.053848255
29	0x3ddaab33	0.10677185
30	0xbde6ad21	-0.112634905
31	0xbe971333	-0.29506835
32	0x3de83fd4	0.11340299
33	0xbc9ac132	-0.01889095
34	0x3da006c5	0.07813791
35	0x3dd5b088	0.10434061
36	0x3c906e68	0.01763077
37	0x3e662aec	0.22477311
38	0xbdb2f02a	-0.08737214
39	0x3cf49f74	0.02986119
40	0x3c3f0b24	0.011660371
41	0x3d1a2800	0.037635803
42	0xbe62cb04	-0.22147757
43	0x3db32461	0.08747173
44	0xbe2abf94	-0.16674644
45	0xbe9412c0	-0.28920555
46	0x3e668bb7	0.22514234
47	0xbe107bdc	-0.14109749
48	0x3e00b126	0.12567577
49	0xbe871e4e	-0.26390308
50	0x3e534180	0.20630455
51	0x3e7111d1	0.23541953
52	0x3e8ba4cd	0.2727417
53	0xbe63ceaa	-0.22246805
54	0x3e038353	0.12843065
55	0x3dd3c1f2	0.103397265
56	0xbe7cd864	-0.24691921
57	0xbd6e6e60	-0.05821073
58	0xbd4e566b	-0.050375383
59	0x3e076afe	0.13224408
60	0x3e12b656	0.14327368
61	0x3e8291ad	0.25501767
62	0x3e80ba28	0.25142026
63	0xbe34e05b	-0.1766371
64	0x3e1ea98e	0.15494367
65	0x3dafa63f	0.08576631
66	0xbd1c42ea	-0.03814975
67	0x3ea637f0	0.32464552
68	0xbe89a954	-0.26887
69	0x3dfa383d	0.12217758
70	0xbe5ceb90	-0.21574235
71	0xbd3711f5	-0.04469486
72	0x3e37280f	0.17886375
73	0xbde8e049	-0.11370904
74	0x3e5b599c	0.21420902
75	0xbe003a80	-0.12522316
76	0xbe92f272	-0.28700596
77	0xbe8e8e6d	-0.27843037
78	0xbc8bd53b	-0.01706945
79	0xbe0071f5	-0.12543471
80	0xbe42de3b	-0.19030087
81	0x3e444b2f	0.19169305
82	0xbdecb873	-0.115586184
83	0xbe68bb7d	-0.22727771
84	0x3e838c78	0.25693107
85	0xbe04d6e3	-0.12972598
86	0xbd97bc21	-0.074089296
87	0x3d41bfc6	0.04730203
88	0x3d02ecca	0.0319641
89	0x3c46e0de	0.012138573
90	0x3e2e965e	0.17049548
91	0x3d9b5c04	0.0758591
92	0x3e3ce66f	0.18447278
93	0x3dfc0907	0.12306409
94	0xbe45bb92	-0.19309834
95	0xbe7d22da	-0.24720326
96	0xbe65b6e1	-0.22433044
97	0xbc921113	-0.017830407
98	0x3dc94a9e	0.09828685
99	0x3e82a634	0.25517428
100	0xbe7adecb	-0.24499051
101	0x3dd8ae5a	0.1058013
102	0x3e72af03	0.23699574
103	0x3e72c32d	0.23707266
104	0x3e9bcd23	0.30429944
105	0x3de7fcde	0.113275275
106	0xbe0c1e7f	-0.13683508
107	0x3da72788	0.08161837
108	0xbd6aaa7e	-0.0572915
109	0xbd84eb3d	-0.06490181
110	0xbd3a9877	-0.045555558
111	0x3dd0fcad	0.10204444
112	0x3cc14b9b	0.023595622
113	0xbe385ac0	-0.18003368
114	0x3e550645	0.20803173
115	0x3e8f0a00	0.27937317
116	0x3e856b6d	0.26058522
117	0xbe943620	-0.28947544
118	0x3e34489c	0.17605823
119	0xbe397df3	-0.18114452
120	0x3cb8c654	0.022555508
121	0x3b72aae8	0.0037028138
122	0xbc13c600	-0.009019375
123	0xbdd206a1	-0.102551706
124	0xbddcbd05	-0.1077824
125	0xbd0f5146	-0.034989618
126	0xbe2815eb	-0.16414611
127	0xbe5eb337	-0.21748053
128	0x3e238621	0.15969135
129	0x3dadd74c	0.0848833
130	0xbe027c76	-0.1274279
131	0xbdf2a06c	-0.11847004
132	0x3ea4d1b6	0.32191247
133	0x3dd9865c	0.1062133
134	0xbe900114	-0.28125823
135	0x3d808abb	0.06276461
136	0xbe351db0	-0.17687106
137	0xbd25d16a	-0.040482916
138	0x3d3e13d4	0.04640563
139	0x3e3b0525	0.18263681
140	0xbdbd9abb	-0.09258028
141	0x3d07901b	0.033096414
142	0x3e288ea4	0.16460663
143	0xbe812713	-0.25225124
144	0x3e507cf8	0.20360172
145	0xbe4d35e0	-0.20040083
146	0xbca11f2c	-0.019668184
147	0xbb494938	-0.0030713808
148	0xbe3d9943	-0.18515496
149	0x3e1a1900	0.15048599
150	0xbc7ad8fa	-0.01531052
151	0x3e5d01e2	0.2158275
152	0x3e03e4aa	0.12880197
153	0xbe834714	-0.25640166
154	0x3e11b10e	0.14227697
155	0x3d7d2e5f	0.0618118
156	0x3d19aba4	0.037517205
157	0x3e913788	0.2836268
158	0x3e63b7c7	0.22238074
159	0x3e8e74ee	0.27823585
160	0xbe1a2938	-0.15054786
161	0x3e1361a6	0.14392719
162	0xbd830ac7	-0.0639854
163	0x3d8bbfb2	0.06823672
164	0x3cd630b7	0.026146276
165	0xbce48183	-0.027893787
166	0xbe098c9c	-0.13432544
167	0x3deb4a20	0.114887476
168	0x3e0b8eb9	0.13628663
169	0x3e04738e	0.12934706
170	0xbe7923b0	-0.2433002
171	0x3cee0217	0.02905373
172	0xbe1b350c	-0.15156955
173	0x3df85b25	0.121267594
174	0x3e103b83	0.14085202
175	0xbe98dce1	-0.29856017
176	0xbe6394d8	-0.22224748
177	0xbe8664ce	-0.26248783
178	0xbda1a581	-0.078928955
179	0x3e1120d8	0.14172685
180	0x3e0f9628	0.14022124
181	0xbe2e5e4e	-0.17028162
182	0x3e97b99b	0.29633793
183	0xbe775ab8	-0.241557
184	0xbe16715a	-0.14691678
185	0x3e621eea	0.22082105
186	0xbdb42ff9	-0.087982126
187	0x3e14e262	0.14539483
188	0x3d17b740	0.037039995
189	0xbdc8ccfc	-0.09804723
190	0x3e935a23	0.28779706
191	0x3df6850d	0.12037096
192	0x3e3ad961	0.18246986
193	0x3e86f7a3	0.26360807
194	0xbd165286	-0.036699794
195	0x3e577419	0.21040381
196	0xbe73ee55	-0.23821385
197	0x3df1e9e8	0.11812192
198	0x3e0704cf	0.13185428
199	0xbdfa8927	-0.12233191
200	0xbdb1206e	-0.086487636
201	0xbd8f3516	-0.06992547
202	0x3d1d43f1	0.038394872
203	0xbe41b6b8	-0.18917358
204	0x3e6e894e	0.23294565
205	0xbe33be45	-0.17553051
206	0x3e075cb0	0.13218951
207	0x3b981b17	0.0046419012
208	0x3d8c5a94	0.06853214
209	0x3c305fb4	0.010765005
210	0xbdce5060	-0.10073924
211	0xbb893d22	-0.004188196
212	0xbe363c60	-0.17796469
213	0xbd8c11b9	-0.06839318
214	0xbd8ad046	-0.06778006
215	0x3e6d0fab	0.23150508
216	0xbe1aa78e	-0.1510298
217	0xbe80fac8	-0.2519133
218	0x3e6e06f1	0.23244835
219	0x3e1113dc	0.14167732
220	0xbc16e19d	-0.009209064
221	0xbe19f209	-0.15033735
222	0x3e5dd338	0.21662605
223	0x3e56e263	0.20984797
224	0x3e9a1936	0.3009736
225	0x3e0f5f7b	0.14001267
226	0x3e0be0f7	0.13660036
227	0xbe705be8	-0.2347256
228	0x3e86b24c	0.26307905
229	0xbd024cf8	-0.031811684
230	0x3df739f4	0.120716006
231	0x3e2428ac	0.1603114
232	0x3df3c2d4	0.11902395
233	0x3da88065	0.08227614
234	0xbdcae666	-0.09907226
235	0xbe68f7b1	-0.22750737
236	0xbe1ffe94	-0.15624458
237	0xbe08511b	-0.1331219
238	0x3e00cca4	0.12578064
239	0x3e1d3ed8	0.15356004
240	0xbcc9440f	-0.024568586
241	0xbe34b912	-0.17648724
242	0xbd5d1fd2	-0.053985424
243	0xbdfc1498	-0.123086154
244	0xbe288be4	-0.16459614
245	0xbe83628c	-0.25661123
246	0x3e185c38	0.14878929
247	0xbc5ec0cf	-0.013595774
248	0x3d7db4a1	0.06193984
249	0x3e2851ac	0.16437405
250	0xbd7622b2	-0.06009168
251	0xbe1b0882	-0.15139964
252	0x3e758b57	0.23978935
253	0xbe1556aa	-0.14583841
254	0x3e37469f	0.17898034
255	0xbde4b4bb	-0.11167284

embedding.bias f4 [128]
0	0x3dc9ba60	0.09850001
1	0xbd04da80	-0.03243494
2	0x3e0ff710	0.1405909
3	0x3e846646	0.25859278
4	0x3e13cf4a	0.14434543
5	0xbe59444e	-0.21217462
6	0x3e8512f9	0.25991037
7	0xbe1c6e04	-0.15276343
8	0xbe991ec8	-0.29906297
9	0x3e082038	0.1329354
10	0x3d335f5c	0.043792114
11	0x3e828b2f	0.25496814
12	0x3e0e4782	0.13894466
13	0xbd815805	-0.063156165
14	0x3e8d159d	0.27555552
15	0x3df5bbaf	0.119986884
16	0x3e87ad13	0.26499233
17	0x3db4f48f	0.08835708
18	0xbe254624	-0.16140038
19	0x3e385ee7	0.18004952
20	0x3e4c138a	0.19929329
21	0x3df5b2f2	0.11997022
22	0x3d7541ce	0.05987721
23	0xbe66f0e1	-0.22552826
24	0x3d1d5b48	0.03841713
25	0x3dec5e64	0.11541441
26	0xbe3a2eb7	-0.18181883
27	0x3cd6da4f	0.026227145
28	0x3e8f07aa	0.27935535
29	0x3d828973	0.063738726
30	0xbe570f25	-0.21001871
31	0x3c955e71	0.01823351
32	0x3d85d7fc	0.065353364
33	0xbd955b1b	-0.072927676
34	0x3e2bd2b9	0.16779603
35	0xbda93260	-0.082615614
36	0xbd7f8f03	-0.062392246
37	0x3e109176	0.14117989
38	0x3e084d50	0.13310742
39	0x3e05abdc	0.1305384
40	0x3e530654	0.20607883
41	0x3abc7c9f	0.0014380402
42	0xbe023ede	-0.12719294
43	0x3d9b57f5	0.07585136
44	0x3e3917f0	0.18075538
45	0x3e171393	0.1475356
46	0x3e0539b7	0.13010298
47	0xbcbaf6f3	-0.022822833
48	0x3ceb56ed	0.028727973
49	0x3e32a83b	0.17446987
50	0xbde30c50	-0.11086333
51	0x3dc33160	0.09530902
52	0xbd4b7f13	-0.049681734
53	0x3db09d0a	0.08623703
54	0x3e5010ef	0.2031896
55	0x3d1660bb	0.036713343
56	0xbe7fe655	-0.24990208
57	0x3e0692d2	0.13141945
58	0x3e3c6cf6	0.1840094
59	0xbe7af9df	-0.24509381
60	0x3d66ff96	0.05639609
61	0xbe3b7f09	-0.18310179
62	0xbe6eb025	-0.23309381
63	0xbd1e1c88	-0.03860143
64	0x3dbdb7ea	0.092635944
65	0x3e165253	0.14679842
66	0xbe2ef448	-0.17085373
67	0xbe1f04e6	-0.15529212
68	0x3e83ac57	0.25717422
69	0xbe155b29	-0.14585556
70	0x3de697c7	0.11259418
71	0xbe4ce764	-0.20010144
72	0xbcda7fe5	-0.026672313
73	0x3de74acc	0.11293563
74	0xbe1b46be	-0.15163705
75	0x3e328543	0.17433648
76	0xbe49724f	-0.19672512
77	0xbe10fc94	-0.14158851
78	0x3dafaa09	0.085773535
79	0xbdebfc5d	-0.11522744
80	0x3d05746b	0.032581728
81	0x3e6bc448	0.23024094
82	0x3e37589f	0.179049
83	0x3dd77c37	0.10521739
84	0xbe44b2b9	-0.19208802
85	0xbe38ca82	-0.18046
86	0xbe4bc525	-0.19899423
87	0xbe7f0076	-0.2490252
88	0x3e1b87b5	0.15188487
89	0x3e8da498	0.27664638
90	0x3e88c6eb	0.26714262
91	0xbd0a74ca	-0.033802785
92	0x3dfa43dc	0.122199744
93	0xbca06d41	-0.019583346
94	0x3da6540f	0.08121502
95	0xbe29823f	-0.16553591
96	0xbd2b74bf	-0.041859385
97	0x3dfa5a02	0.12224199
98	0xbe8cef05	-0.27526107
99	0xbdc8c3f3	-0.09802999
100	0xbd5df165	-0.05418529
101	0xbe0e2019	-0.13879432
102	0x3e81f6ef	0.25383708
103	0xbe11b26d	-0.1422822
104	0x3e2616d7	0.1621965
105	0x3e94f89f	0.29095933
106	0x3d1fb7a5	0.038993496
107	0x3d47179e	0.048606507
108	0x3e8319d0	0.2560563
109	0xbdab4881	-0.083634384
110	0xbe742354	-0.23841602
111	0xbb9918cc	-0.0046721455
112	0xbddd8c70	-0.10817802
113	0x3c45bce8	0.012068965
114	0xbe6e8bbf	-0.23295496
115	0xbd6e6492	-0.05820138
116	0xbb1bc67e	-0.0023769434
117	0x3d82c52f	0.06385266
118	0xbe4d6756	-0.20058951
119	0xbe71ba13	-0.23606138
120	0xbdcbe743	-0.09956219
121	0x3e76ac82	0.24089244
122	0xbc8bb6b9	-0.017054902
123	0xbe19487d	-0.14969058
124	0x3e362c62	0.17790368
125	0x3e7c054a	0.24611393
126	0xbe29b304	-0.16572195
127	0x3e3d840a	0.185074

transformer_encoder.layers.0.self_attn.in_proj_weight f4 [384, 128]
0	0x3bfe1d00	0.007754922
1	0x3d241e6a	0.040068068
2	0xbdd608b4	-0.10450879
3	0x3cf696ec	0.030101262
4	0xbdbf346d	-0.09336171
5	0x3da1a109	0.07892043
6	0xbd93496c	-0.071917385
7	0x3d14713e	0.03624081
8	0xbc3ae428	-0.011406936
9	0xbd9398ac	-0.07206854
10	0xbd627baf	-0.055293735
11	0xbd9bb890	-0.07603562
12	0x3d2fcac2	0.042917974
13	0x3dd19225	0.10232953
14	0xbdb3dede	-0.08782743
15	0xbdd29998	-0.10283202
16	0xbd5c10c7	-0.053726938
17	0x3d547396	0.051868044
18	0x3dae368f	0.085065
19	0xbc819a68	-0.015820697
20	0x3db4215f	0.087954275
21	0xbd2a6062	-0.041595824
22	0xbdac0268	-0.083988965
23	0x39efa400	0.00045707822
24	0x3b0d4240	0.002155438
25	0xbd0d4b1c	-0.034495458
26	0xbcb1a568	-0.021685317
27	0x3cbcdc3c	0.023054235
28	0x3da08f71	0.07839859
29	0xbd6ac54f	-0.057317074
30	0x3d62f91a	0.055413343
31	0xbcccb3e8	-0.02498813
32	0xbdb04ffe	-0.08609007
33	0xbd9a36d8	-0.07529992
34	0xbc8f1a34	-0.01746855
35	0xbd0c8d48	-0.034314424
36	0x3c343240	0.010998309
37	0xbcca9fac	-0.02473434
38	0xbdbd6a2a	-0.09248765
39	0x3d5cb59e	0.05388414
40	0xbc987170	-0.018608779
41	0x3bac98a0	0.0052672178
42	0xbd6a6079	-0.05722091
43	0x3d8ce9e1	0.06880546
44	0x3c324cc8	0.010882564
45	0xbd46dcc3	-0.04855038
46	0xbd9d5b12	-0.07683386
47	0x3d7bdb92	0.061488695
48	0x3d88acdd	0.06673596
49	0xbd704208	-0.058656722
50	0xbd17d78a	-0.03707079
51	0xbd9e232f	-0.077215545
52	0x3db3b99d	0.08775637
53	0x3d8e7bc3	0.069571994
54	0x3d9989ef	0.07497012
55	0xbd0b80c4	-0.034058347
56	0x3d993649	0.07481057
57	0xbdccdcc6	-0.10003047
58	0x3bcb38e0	0.0062018484
59	0x3d86d3c1	0.065833576
60	0x3d24ca8e	0.040232234
61	0xbdc4f5a1	-0.096171625
62	0xbc9b9160	-0.018990219
63	0xbcf17784	-0.029475935
64	0xbdb28a54	-0.0871779
65	0x3d6ebd76	0.058286153
66	0xbd878c47	-0.06618553
67	0x3ddc5cdd	0.107599
68	0x3d0a316a	0.03373853
69	0xbdb226a1	-0.08698774
70	0xbc9b44e4	-0.018953748
71	0x3c368ac8	0.0111414865
72	0x3da4cab7	0.08046477
73	0x3dd1846f	0.10230338
74	0x3ca464ec	0.020067655
75	0x3d8cf301	0.06882287
76	0xbdab8c87	-0.08376413
77	0xbdab3a1b	-0.08360692
78	0x3d944c35	0.07241098
79	0x3c3f2168	0.0116656795
80	0x3d8426b7	0.06452697
81	0x3d4ab82e	0.049492054
82	0x3d4788ee	0.04871457
83	0xbdafb40e	-0.085792646
84	0x3d73ec8e	0.059551768
85	0x3c45a098	0.012062214
86	0x3db96e33	0.09054222
87	0x3d880395	0.06641308
88	0x3ce5a214	0.028031386
89	0xbd6ba442	-0.057529695
90	0x3c5274c8	0.012845226
91	0xbcf275b0	-0.029597133
92	0xbd885d8f	-0.0665847
93	0x3dab28a7	0.08357363
94	0xbddc8e95	-0.10769383
95	0x3d0a6f0e	0.033797316
96	0x3dcb80d3	0.09936681
97	0x3c598dd0	0.01327844
98	0x3dc14a39	0.09437985
99	0xbc5e08f8	-0.013551943
100	0x3d8aafab	0.06771787
101	0x3cd08d74	0.025458075
102	0xbd6d501d	-0.05793773
103	0x3d840251	0.06445754
104	0xbd722c8a	-0.059124507
105	0xbb029160	-0.0019923076
106	0x3bcd2ed0	0.006261684
107	0xbd76a142	-0.06021238
108	0x3c68cb60	0.014208645
109	0x3d8ed133	0.06973495
110	0xbdb1d27c	-0.08682725
111	0xbc198b98	-0.009371661
112	0x3d966781	0.073439606
113	0x3c819220	0.015816748
114	0x3d418b3a	0.047251917
115	0xbd51b027	-0.051193383
116	0x3dd23137	0.10263293
117	0x3af39e80	0.0018586665
118	0x3dc270bb	0.09494158
119	0xbda6692b	-0.08125528
120	0x3d15c62a	0.036565937
121	0x3d828f27	0.063749604
122	0x3d9e0bab	0.07717069
123	0xbdad5fa5	-0.08465508
124	0xbc1d9028	-0.009616889
125	0xbb8c9780	-0.004290521
126	0xbdd20000	-0.10253906
127	0x3c660618	0.014039539
128	0x3d2ea9b2	0.042642303
129	0x3daa2e03	0.08309557
130	0x3dda3939	0.106554456
131	0x3d45a742	0.048255213
132	0xbd440696	-0.047857843
133	0x3bb7d440	0.005610019
134	0xbdbe0b61	-0.09279514
135	0x3c247878	0.010038488
136	0xbd87d6f0	-0.06632793
137	0xbd9fe413	-0.078071736
138	0xbdd26ec4	-0.10275033
139	0x3dcbb2a7	0.099461846
140	0x3ada6b40	0.0016664043
141	0x3d95f7df	0.07322668
142	0xbd890558	-0.06690472
143	0x3d6ece3e	0.058302157
144	0xbcc42f2c	-0.023948275
145	0x3d0933c6	0.03349664
146	0xbd562aa9	-0.052286778
147	0xbdcbed98	-0.09957427
148	0xbdb4e5ff	-0.08832931
149	0xbdcc4f9a	-0.0997612
150	0xbd95f684	-0.0732241
151	0x3c4b75e8	0.012418248
152	0x3d51bc22	0.051204808
153	0xbdc3e52a	-0.09565194
154	0x3d1329fa	0.035928704
155	0xbc081fa8	-0.008308329
156	0x3d5bfc76	0.053707562
157	0x3dce8457	0.100838356
158	0x3d0eed6e	0.0348944
159	0xbd889e8d	-0.06670866
160	0xbdabdc06	-0.083915755
161	0x3dc6e2bf	0.09711217
162	0xbd8170e6	-0.06320362
163	0xbd0d0d74	-0.034436658
164	0x3d95236b	0.07282146
165	0xbceb3064	-0.028709598
166	0xbcc6e3c0	-0.024278522
167	0x3d48a322	0.0489837
168	0x3cb19e8c	0.021682046
169	0xbd0854ac	-0.033283874
170	0x3dacfd65	0.08446769
171	0xbd71d69d	-0.05904256
172	0x3b9cfd20	0.004790917
173	0xbdc6fb5d	-0.097159125
174	0xbd2a359e	-0.04155504
175	0xbddd26fa	-0.1079845
176	0xbd3c3352	-0.04594738
177	0x3d005336	0.031329356
178	0x3cc15d9c	0.023604207
179	0x3c392eb8	0.0113026425
180	0xbda91dfc	-0.08257672
181	0x3ce0c214	0.027436294
182	0x3ca8ffd4	0.0206298
183	0xbb226f80	-0.0024785697
184	0xbb411ca0	-0.0029466525
185	0xbdd0542a	-0.10172303
186	0xbd860518	-0.0654394
187	0xbcf85954	-0.030316032
188	0xbdb95d36	-0.09050982
189	0x3d874d3f	0.066065304
190	0xbd8578da	-0.06517191
191	0x3d930d37	0.07180255
192	0x3d832a87	0.06404596
193	0x3cb4e1e4	0.02208037
194	0xbdd7fb64	-0.10545996
195	0x3c17e730	0.009271428
196	0x3c9dba2c	0.019253813
197	0xbdc63ed4	-0.09679952
198	0x3d6de6a6	0.05808129
199	0x3ddd756b	0.10813411
200	0xbdbd9dbb	-0.092586
201	0x3db49f9f	0.08819508
202	0xbd99cd62	-0.07509877
203	0x3d494332	0.049136348
204	0x3dd84b0d	0.1056119
205	0xbd2db5b4	-0.042409614
206	0x3d62af6a	0.05534307
207	0x3d9f86e3	0.077893995
208	0xbd69b6e5	-0.057059187
209	0xbbd97cc0	-0.006637186
210	0xbda65dfa	-0.08123393
211	0x3c46b670	0.012128457
212	0xbb8ae390	-0.0042385533
213	0x3d2c1552	0.04201252
214	0x3d67f18e	0.05662685
215	0x3d16440e	0.036685996
216	0xbcd84ee8	-0.026404813
217	0xbd756bb1	-0.059917156
218	0x3dd850b1	0.10562266
219	0x3d13f64a	0.03612355
220	0x3bcb6140	0.0062066615
221	0x3d94a5d1	0.072581895
222	0xbdb5df58	-0.0888049
223	0x3c18ee68	0.009334184
224	0x3d0a5be6	0.033779047
225	0x3ddce27f	0.10785388
226	0x3d77e696	0.06052264
227	0xbd289dd8	-0.041166157
228	0x3d0c680a	0.034278907
229	0xbccf821c	-0.025330596
230	0x3d547152	0.051865883
231	0x3d947a85	0.07249931
232	0xbd0c45b0	-0.034246147
233	0x3cccd124	0.02500207
234	0x3dbbc06d	0.09167562
235	0x3cae52cc	0.021279715
236	0x3c718e50	0.014743403
237	0x3c5ea038	0.013588004
238	0x3d93290b	0.07185563
239	0xbdc699b3	-0.096972845
240	0x3dc4c687	0.096081786
241	0x3cab339c	0.020898633
242	0xbc97beec	-0.018523656
243	0x3dc900f7	0.09814637
244	0xbdd6d503	-0.104898475
245	0xbd74d107	-0.059769657
246	0x3cfe0b64	0.03101129
247	0x3cdde014	0.027084388
248	0xbd25366c	-0.040335104
249	0x3d003f5e	0.03131043
250	0x3cb5c424	0.022188254
251	0xbdc0daab	-0.094167076
252	0xbd958b94	-0.07302013
253	0xbce63730	-0.028102487
254	0x3ca71d0c	0.020399593
255	0xbd4864f3	-0.048924398

transformer_encoder.layers.0.self_attn.in_proj_bias f4 [384]
0	0x00000000	0.0
1	0x00000000	0.0
2	0x00000000	0.0
3	0x00000000	0.0
4	0x00000000	0.0
5	0x00000000	0.0
6	0x00000000	0.0
7	0x00000000	0.0
8	0x00000000	0.0
9	0x00000000	0.0
10	0x00000000	0.0
11	0x00000000	0.0
12	0x00000000	0.0
13	0x00000000	0.0
14	0x00000000	0.0
15	0x00000000	0.0
16	0x00000000	0.0
17	0x00000000	0.0
18	0x00000000	0.0
19	0x00000000	0.0
20	0x00000000	0.0
21	0x00000000	0.0
22	0x00000000	0.0
23	0x00000000	0.0
24	0x00000000	0.0
25	0x00000000	0.0
26	0x00000000	0.0
27	0x00000000	0.0
28	0x00000000	0.0
29	0x00000000	0.0
30	0x00000000	0.0
31	0x00000000	0.0
32	0x00000000	0.0
33	0x00000000	0.0
34	0x00000000	0.0
35	0x00000000	0.0
36	0x00000000	0.0
37	0x00000000	0.0
38	0x00000000	0.0
39	0x00000000	0.0
40	0x00000000	0.0
41	0x00000000	0.0
42	0x00000000	0.0
43	0x00000000	0.0
44	0x00000000	0.0
45	0x00000000	0.0
46	0x00000000	0.0
47	0x00000000	0.0
48	0x00000000	0.0
49	0x00000000	0.0
50	0x00000000	0.0
51	0x00000000	0.0
52	0x00000000	0.0
53	0x00000000	0.0
54	0x00000000	0.0
55	0x00000000	0.0
56	0x00000000	0.0
57	0x00000000	0.0
58	0x00000000	0.0
59	0x00000000	0.0
60	0x00000000	0.0
61	0x00000000	0.0
62	0x00000000	0.0
63	0x00000000	0.0
64	0x00000000	0.0
65	0x00000000	0.0
66	0x00000000	0.0
67	0x00000000	0.0
68	0x00000000	0.0
69	0x00000000	0.0
70	0x00000000	0.0
71	0x00000000	0.0
72	0x00000000	0.0
73	0x00000000	0.0
74	0x00000000	0.0
75	0x00000000	0.0
76	0x00000000	0.0
77	0x00000000	0.0
78	0x00000000	0.0
79	0x00000000	0.0
80	0x00000000	0.0
81	0x00000000	0.0
82	0x00000000	0.0
83	0x00000000	0.0
84	0x00000000	0.0
85	0x00000000	0.0
86	0x00000000	0.0
87	0x00000000	0.0
88	0x00000000	0.0
89	0x00000000	0.0
90	0x00000000	0.0
91	0x00000000	0.0
92	0x00000000	0.0
93	0x00000000	0.0
94	0x00000000	0.0
95	0x00000000	0.0
96	0x00000000	0.0
97	0x00000000	0.0
98	0x00000000	0.0
99	0x00000000	0.0
100	0x00000000	0.0
101	0x00000000	0.0
102	0x00000000	0.0
103	0x00000000	0.0
104	0x00000000	0.0
105	0x00000000	0.0
106	0x00000000	0.0
107	0x00000000	0.0
108	0x00000000	0.0
109	0x00000000	0.0
110	0x00000000	0.0
111	0x00000000	0.0
112	0x00000000	0.0
113	0x00000000	0.0
114	0x00000000	0.0
115	0x00000000	0.0
116	0x00000000	0.0
117	0x00000000	0.0
118	0x00000000	0.0
119	0x00000000	0.0
120	0x00000000	0.0
121	0x00000000	0.0
122	0x00000000	0.0
123	0x00000000	0.0
124	0x00000000	0.0
125	0x00000000	0.0
126	0x00000000	0.0
127	0x00000000	0.0
128	0x00000000	0.0
129	0x00000000	0.0
130	0x00000000	0.0
131	0x00000000	0.0
132	0x00000000	0.0
133	0x00000000	0.0
134	0x00000000	0.0
135	0x00000000	0.0
136	0x00000000	0.0
137	0x00000000	0.0
138	0x00000000	0.0
139	0x00000000	0.0
140	0x00000000	0.0
141	0x00000000	0.0
142	0x00000000	0.0
143	0x00000000	0.0
144	0x00000000	0.0
145	0x00000000	0.0
146	0x00000000	0.0
147	0x00000000	0.0
148	0x00000000	0.0
149	0x00000000	0.0
150	0x00000000	0.0
151	0x00000000	0.0
152	0x00000000	0.0
153	0x00000000	0.0
154	0x00000000	0.0
155	0x00000000	0.0
156	0x00000000	0.0
157	0x00000000	0.0
158	0x00000000	0.0
159	0x00000000	0.0
160	0x00000000	0.0
161	0x00000000	0.0
162	0x00000000	0.0
163	0x00000000	0.0
164	0x00000000	0.0
165	0x00000000	0.0
166	0x00000000	0.0
167	0x00000000	0.0
168	0x00000000	0.0
169	0x00000000	0.0
170	0x00000000	0.0
171	0x00000000	0.0
172	0x00000000	0.0
173	0x00000000	0.0
174	0x00000000	0.0
175	0x00000000	0.0
176	0x00000000	0.0
177	0x00000000	0.0
178	0x00000000	0.0
179	0x00000000	0.0
180	0x00000000	0.0
181	0x00000000	0.0
182	0x00000000	0.0
183	0x00000000	0.0
184	0x00000000	0.0
185	0x00000000	0.0
186	0x00000000	0.0
187	0x00000000	0.0
188	0x00000000	0.0
189	0x00000000	0.0
190	0x00000000	0.0
191	0x00000000	0.0
192	0x00000000	0.0
193	0x00000000	0.0
194	0x00000000	0.0
195	0x00000000	0.0
196	0x00000000	0.0
197	0x00000000	0.0
198	0x00000000	0.0
199	0x00000000	0.0
200	0x00000000	0.0
201	0x00000000	0.0
202	0x00000000	0.0
203	0x00000000	0.0
204	0x00000000	0.0
205	0x00000000	0.0
206	0x00000000	0.0
207	0x00000000	0.0
208	0x00000000	0.0
209	0x00000000	0.0
210	0x00000000	0.0
211	0x00000000	0.0
212	0x00000000	0.0
213	0x00000000	0.0
214	0x00000000	0.0
215	0x00000000	0.0
216	0x00000000	0.0
217	0x00000000	0.0
218	0x00000000	0.0
219	0x00000000	0.0
220	0x00000000	0.0
221	0x00000000	0.0
222	0x00000000	0.0
223	0x00000000	0.0
224	0x00000000	0.0
225	0x00000000	0.0
226	0x00000000	0.0
227	0x00000000	0.0
228	0x00000000	0.0
229	0x00000000	0.0
230	0x00000000	0.0
231	0x00000000	0.0
232	0x00000000	0.0
233	0x00000000	0.0
234	0x00000000	0.0
235	0x00000000	0.0
236	0x00000000	0.0
237	0x00000000	0.0
238	0x00000000	0.0
239	0x00000000	0.0
240	0x00000000	0.0
241	0x00000000	0.0
242	0x00000000	0.0
243	0x00000000	0.0
244	0x00000000	0.0
245	0x00000000	0.0
246	0x00000000	0.0
247	0x00000000	0.0
248	0x00000000	0.0
249	0x00000000	0.0
250	0x00000000	0.0
251	0x00000000	0.0
252	0x00000000	0.0
253	0x00000000	0.0
254	0x00000000	0.0
255	0x00000000	0.0

transformer_encoder.layers.0.self_attn.out_proj.weight f4 [128, 128]
0	0xbdb825da	-0.089915946
1	0x3b270a40	0.0025488287
2	0x3dd2c344	0.1029115
3	0xbd31d300	-0.043414116
4	0xbd592f78	-0.053023785
5	0x3bded8ce	0.0068007475
6	0x3d97efd8	0.074187934
7	0xbd823135	-0.06357042
8	0xbd822e88	-0.063565314
9	0x3d798227	0.06091514
10	0x3d81e2ec	0.0634211
11	0x3cc592fc	0.02411794
12	0xbd42a8dc	-0.047524318
13	0x3dacbc78	0.08434385
14	0xbd3c45b9	-0.04596493
15	0xbc8d71bf	-0.017266152
16	0x3bb007c2	0.0053720186
17	0x3c2e64dd	0.010644165
18	0xbd1b6443	-0.037937414
19	0xbc1a8bd8	-0.009432755
20	0x3bdd9281	0.0067618494
21	0xbd1f8ea3	-0.03895439
22	0x3d425fe3	0.047454726
23	0x3dc32b9f	0.095298044
24	0xbc3a50ee	-0.011371834
25	0xbd8a14da	-0.06742258
26	0x3d9bddfc	0.076106995
27	0x3cf48b6c	0.029851638
28	0x3d1a127d	0.037615288
29	0x3d57eb86	0.052714847
30	0x3d9359c9	0.071948595
31	0x3d923bc4	0.07140306
32	0xbae163da	-0.0017195896
33	0x3d1f69d5	0.03891929
34	0x3d391f58	0.045195907
35	0x3c65f6a0	0.014035851
36	0xbd91dca5	-0.07122163
37	0xbc05fd79	-0.008178108
38	0x3d9a2d27	0.075281434
39	0xbdb69259	-0.08914632
40	0xbdbe1e99	-0.0928318
41	0xbd61bc89	-0.05511144
42	0xbd9fdacc	-0.07805404
43	0x3da08624	0.07838085
44	0x3bc87c27	0.0061183157
45	0x3d955520	0.07291627
46	0xbd843936	-0.064562246
47	0xbc798948	-0.015230484
48	0xbd89349c	-0.066994876
49	0x3c1e67ba	0.009668285
50	0xbd2f6a54	-0.04282601
51	0x3c864587	0.016390575
52	0xbdb1a6d4	-0.08674398
53	0x3dc3d368	0.09561807
54	0xbd5cac69	-0.05387536
55	0xbdd67594	-0.10471645
56	0x3d77e5a4	0.060521737
57	0xbde872ed	-0.11350045
58	0x3d8f00d0	0.06982577
59	0xbd55b3a0	-0.052173257
60	0x3d8e7b03	0.069570564
61	0x3d68eeb5	0.056868274
62	0x3d92f21b	0.07175084
63	0xbd61d4bf	-0.05513453
64	0x3c745945	0.014913862
65	0x3d4a83e5	0.04944219
66	0xbdb6499f	-0.08900761
67	0x3d9c77e6	0.07640056
68	0xbd35d9c8	-0.044397146
69	0x3d6820a1	0.056671742
70	0x3d8db371	0.06918991
71	0xbd0a795c	-0.033807144
72	0x3b8b31b5	0.004247869
73	0x3d346ba8	0.04404798
74	0xbdada9d5	-0.084796585
75	0x3d81919c	0.06326601
76	0x3d439173	0.047746133
77	0xbd1ed461	-0.03877676
78	0xbd9dd9b1	-0.07707537
79	0xbd119938	-0.03554651
80	0xbd596df6	-0.053083383
81	0x3c7f0cc1	0.015567006
82	0xbd429fe7	-0.047515776
83	0xbd6b5cf4	-0.057461694
84	0x3d39ecd5	0.045391876
85	0xbb939e00	-0.004504919
86	0x3d9d721a	0.07687779
87	0xbd043c2e	-0.032283954
88	0xbd8b6949	-0.06807191
89	0xbbec8e45	-0.0072191083
90	0xbd0cf576	-0.034413777
91	0x3dada73e	0.084791645
92	0xbdaa0348	-0.08301407
93	0x3d0b6490	0.03403145
94	0x3decadaf	0.11556565
95	0xbdf5f6eb	-0.120099865
96	0x3d042c44	0.032268777
97	0x3dd02654	0.101635605
98	0xbc4a751a	-0.012357021
99	0x3d599814	0.05312355
100	0xbdd46dbf	-0.10372495
101	0xbd7faf93	-0.0624233
102	0x3ce5aff5	0.028038004
103	0x3d1e7949	0.038689885
104	0x3ceb3a55	0.028714338
105	0xbc022815	-0.007944127
106	0x3aefc10d	0.0018291787
107	0x3d358734	0.044318393
108	0x3cb4e064	0.022079654
109	0x3d05fb30	0.032710254
110	0xbd85dfd0	-0.065368295
111	0xbd35d1ee	-0.044389658
112	0x3d7d9133	0.06190605
113	0x3cf13b5b	0.029447248
114	0xbd7e6483	-0.062107574
115	0x3d566ac6	0.05234792
116	0xbd205a57	-0.039148655
117	0xbdbb525b	-0.091465674
118	0xbd3cf296	-0.046129785
119	0x3c999b96	0.018750947
120	0x3d2a8892	0.04163415
121	0xbcfe4e54	-0.03104321
122	0x3cff7fa6	0.031188797
123	0xbda4621d	-0.08026526
124	0xbdc9cb71	-0.098532565
125	0xbcd56944	-0.026051171
126	0x3da9ba7d	0.08287523
127	0xbc7a9d2c	-0.015296262
128	0xbd4509dd	-0.04810511
129	0xbcd881b5	-0.026429037
130	0x3d1ddf25	0.038542885
131	0x3da1996b	0.0789059
132	0xbdb21ee6	-0.086973
133	0xbc8b3395	-0.01699237
134	0x3d6d0605	0.05786707
135	0xbd15ae31	-0.036543075
136	0xbd4bd5a8	-0.049764305
137	0xbda4beeb	-0.08044227
138	0xbd5afb1c	-0.053462133
139	0x3c294351	0.010330991
140	0x3c928dce	0.017889883
141	0xbd1c57d3	-0.038169693
142	0xbcaa5305	-0.02079154
143	0x3caa7f02	0.020812515
144	0xbcbf5d6c	-0.023359977
145	0x3c8689db	0.016423156
146	0x3d0f7ed7	0.035033073
147	0xbcf31d4e	-0.02967706
148	0x3dc63ff6	0.09680168
149	0x3d0d4128	0.034485966
150	0xb99b5645	-0.0002962818
151	0x3da80bce	0.082053766
152	0x3d3e8967	0.046517756
153	0x3c8eec17	0.01744656
154	0x3d843b22	0.06456591
155	0xbd1c12ab	-0.03810374
156	0xbda30364	-0.07959631
157	0x3d8ac665	0.06776122
158	0x3c4d15c4	0.012517396
159	0x3da80659	0.08204336
160	0xbd6dd108	-0.058060676
161	0xbd000309	-0.031252895
162	0xbd8d9174	-0.069125086
163	0x3d930ef4	0.071805865
164	0x3d83e141	0.06439448
165	0xbc3c8db1	-0.011508391
166	0x3d2afc8f	0.041744765
167	0x3dab92e3	0.08377626
168	0x3d9343d6	0.07190673
169	0x3d27cef7	0.04096886
170	0x3c9e52af	0.019326536
171	0xbd743651	-0.059622113
172	0x3d1cf179	0.038316224
173	0x3d865666	0.06559448
174	0x3d5b1162	0.053483374
175	0xbd876aca	-0.06612165
176	0x3ca80c15	0.020513574
177	0x3dbd00aa	0.09228642
178	0x3d0411b1	0.032243434
179	0x3cfbf887	0.030758156
180	0xbd4fae44	-0.050703302
181	0xbd412133	-0.047150802
182	0xbd647ce4	-0.055783167
183	0xbcd4091b	-0.025883248
184	0x3d8c6eb1	0.0685705
185	0x3d56c9e8	0.052438647
186	0x3d62e980	0.055398464
187	0x3c62765f	0.013822167
188	0x3b566ec4	0.003271983
189	0x3c7bc895	0.015367647
190	0xbca98c29	-0.020696716
191	0x3d28a7e9	0.041175757
192	0xbdbbf10c	-0.091768354
193	0x3da72349	0.08161027
194	0x3d2059eb	0.039148252
195	0xbd068e2e	-0.032850437
196	0xbcdf72ca	-0.027276415
197	0xbd343308	-0.04399398
198	0x3d18b296	0.037279688
199	0xbda5c2d7	-0.080938034
200	0xbdb6dd84	-0.089289695
201	0x3cf17931	0.029476734
202	0x3bcbc9da	0.006219131
203	0xbd210853	-0.03931458
204	0xbd284cc2	-0.041088827
205	0x3dab7b9c	0.08373186
206	0xbdb839d6	-0.08995406
207	0xbd51ef43	-0.05125357
208	0xbaf84bd6	-0.0018943499
209	0xbb64f2bd	-0.0034934722
210	0x3da685ff	0.081310265
211	0xbd2a69f8	-0.041604966
212	0x3ce41513	0.02784208
213	0x3ce487cb	0.027896782
214	0x3b32cd55	0.0027283032
215	0xbc29bf8c	-0.01036061
216	0x3d7d441e	0.06183254
217	0xbcf95cd7	-0.030439777
218	0xba7b6303	-0.0009589644
219	0xbc7523f9	-0.01496219
220	0x3d5ac0dd	0.053406585
221	0x3d1a0702	0.03760434
222	0xbd071dc5	-0.032987375
223	0x3ce4a853	0.027912294
224	0xbd2b30eb	-0.0417947
225	0x3d1bcbfb	0.038036328
226	0x3d5eb2a5	0.054369587
227	0x3c3fd1f0	0.011707768
228	0x3cce60c6	0.02519263
229	0xbd79857d	-0.06091832
230	0x3d02b68f	0.031912383
231	0xbd16bec0	-0.036803007
232	0xbd569389	-0.052386794
233	0xbdb96ed9	-0.09054346
234	0x3c72638c	0.014794242
235	0x3d95a93d	0.0730767
236	0x39f73db7	0.00047157492
237	0xbd3358d7	-0.043785896
238	0xbd8be46a	-0.06830676
239	0x3d859563	0.06522634
240	0xbaae7c34	-0.0013312162
241	0xbd9b10b9	-0.07571549
242	0xbcc38096	-0.023865025
243	0x3cd7478e	0.026279237
244	0xbcbc531e	-0.022988852
245	0x3cacc5a8	0.021090344
246	0x3cb70033	0.022338962
247	0xbd8272c3	-0.06369545
248	0x3d528135	0.051392753
249	0x3d4ec4b0	0.050480545
250	0x3d8a61db	0.06756946
251	0x3d57df10	0.052702963
252	0xbc6969ee	-0.014246447
253	0xbab38210	-0.0013695378
254	0xbcba6914	-0.022755183
255	0x3b9cba49	0.004782949

transformer_encoder.layers.0.self_attn.out_proj.bias f4 [128]
0	0x3c8aad4a	0.016928334
1	0xbc6789b9	-0.014131957
2	0x3b122923	0.0022302351
3	0x3c8bfcde	0.01708835
4	0x3cbd99d8	0.023144647
5	0xbcdc97c0	-0.026927829
6	0x3cc9ec23	0.024648732
7	0xbcb80598	-0.022463605
8	0xbcd92fdd	-0.02651208
9	0x3cc030cf	0.023460774
10	0x3c86de26	0.01646335
11	0x3cb8136e	0.022470202
12	0x3b991077	0.004671152
13	0xbd07da93	-0.033167433
14	0x3c7e1b73	0.015509474
15	0x3cbeae06	0.02327634
16	0xbccb0996	-0.024784844
17	0xbcad37e3	-0.021144813
18	0xbcfe428e	-0.031037595
19	0xbc195302	-0.0093581695
20	0x3d2a78bc	0.041619048
21	0x3c8ba485	0.017046222
22	0x3c188acb	0.009310435
23	0x3c00a02d	0.007850689
24	0x3c21315d	0.009838429
25	0xbca815e1	-0.020518245
26	0xbc0d8364	-0.008637283
27	0x3d6f6b42	0.0584519
28	0x3cb9effd	0.022697443
29	0x3c34475e	0.011003343
30	0xbcdc1058	-0.026863262
31	0x3cb13e2f	0.021636097
32	0x3b98e2b0	0.004665695
33	0x3c77df58	0.015128933
34	0x3ba3453f	0.00498262
35	0xbd2af7a8	-0.04174009
36	0x3ba2eb5e	0.0049719056
37	0xbca069ab	-0.019581636
38	0xbc43ab6b	-0.011942725
39	0xba94a540	-0.0011340752
40	0xba27843f	-0.00063902506
41	0xbc2e69da	-0.010645354
42	0x3c93c33c	0.018037431
43	0xbcc14bb2	-0.023595665
44	0x3caface2	0.021444742
45	0x3d61077b	0.054938775
46	0xbc500a7b	-0.012697811
47	0xbb5567cc	-0.0032563088
48	0x3bd22a09	0.0064137024
49	0xbc61c083	-0.0137788085
50	0x3c8d3662	0.017237846
51	0x3c8daf74	0.017295577
52	0xbaf9a6dc	-0.001904692
53	0xbcdbf96d	-0.026852334
54	0x3ccbaf82	0.024863962
55	0xbc7178ab	-0.014738242
56	0xbcf17bc9	-0.02947797
57	0x3cb4e6eb	0.022082767
58	0x3d0381f8	0.03210637
59	0xbcd1c739	-0.025607692
60	0xbc8fc843	-0.017551547
61	0x3a869d57	0.001027028
62	0xbd4374f0	-0.047718942
63	0x3c608270	0.013702974
64	0xbc8e5356	-0.017373722
65	0x3cc5f331	0.024163814
66	0xbc0a9d8d	-0.008460415
67	0xbd2413bc	-0.040057883
68	0x3d116410	0.035495818
69	0xbc736d14	-0.014857549
70	0x3a32fd28	0.00068278844
71	0xbd386aac	-0.045023605
72	0x3b141265	0.0022593972
73	0x3cbd064c	0.023074292
74	0x3c5edbe0	0.013602227
75	0x3cb83eeb	0.02249094
76	0xbc824389	-0.015901344
77	0xbb3e04b8	-0.0028994512
78	0x3d09ac2b	0.033611458
79	0xbd174835	-0.036934096
80	0xbc7e6893	-0.015527862
81	0x3c81438b	0.015779277
82	0x3c9f401e	0.019439753
83	0xbc29b2fc	-0.010357615
84	0xbca8aa68	-0.020589069
85	0xbd077ee4	-0.033079997
86	0xbceb1411	-0.028696092
87	0x3bbf55b2	0.005839073
88	0x3d369f07	0.044585254
89	0x3cb724c3	0.022356397
90	0x3ca03ee2	0.019561235
91	0x3ccc2fea	0.024925191
92	0x3c98a2d4	0.01863233
93	0xbc7678bf	-0.015043437
94	0x3c7329a5	0.014841472
95	0xbcffb249	-0.031212943
96	0x3c128f9a	0.00894537
97	0xba01a9bb	-0.0004946251
98	0xbc901a34	-0.01759062
99	0xbc65f6b7	-0.014035872
100	0xbc905145	-0.017616877
101	0xbcd6091a	-0.026127387
102	0x3cae1cbf	0.021253942
103	0xbc597147	-0.013271636
104	0x3cad1e90	0.021132737
105	0x3d1bd5d6	0.038045727
106	0x3bb862b6	0.0056270016
107	0x3c1da6f5	0.009622325
108	0x3c00e7d0	0.007867768
109	0x3c95c1f8	0.018280968
110	0xbca4d480	-0.02012086
111	0xbcd81470	-0.026376933
112	0x3c08b1a0	0.00834313
113	0x3cb61b74	0.022229888
114	0xbd5c0c55	-0.0537227
115	0x3c3cbce2	0.011519643
116	0xb9ad698a	-0.00033075764
117	0x3c0969b3	0.008387017
118	0xbd04e63d	-0.032446135
119	0xbc9cf3cf	-0.019159226
120	0xbcb29f47	-0.021804465
121	0x3cf66502	0.030077461
122	0x3cfb73f9	0.030694949
123	0x3b2cb43b	0.0026352543
124	0x3ccdc272	0.025117133
125	0x3ccb707f	0.024833916
126	0x3c05a4ea	0.008156994
127	0x3c229752	0.009923773

transformer_encoder.layers.0.linear1.weight f4 [128, 128]
0	0x3d4b2b1a	0.04960165
1	0x3d66798a	0.056268252
2	0xbdd8466a	-0.105603054
3	0x3d5560cc	0.052094266
4	0x3d6eb71d	0.0582801
5	0x3c30f505	0.010800605
6	0xbdcae825	-0.09907559
7	0xbd1bed61	-0.03806818
8	0x3cf2f4f0	0.02965781
9	0xbcfc5607	-0.03080274
10	0xbd1d0487	-0.038334396
11	0xbce6d9a6	-0.028179955
12	0x3cda2dfe	0.026633259
13	0x3d5ad8a7	0.053429272
14	0xbd969ad8	-0.07353753
15	0xbbb4758b	-0.0055071763
16	0xbdaed2a8	-0.08536273
17	0x3c0b9969	0.008520463
18	0xbc5f930b	-0.013645898
19	0x38c11038	9.205978e-05
20	0xbe184e34	-0.14873582
21	0xbb90cc2b	-0.00441887
22	0xbe09d1a1	-0.13458873
23	0xbcd3857a	-0.025820483
24	0x3d35d006	0.04438784
25	0xbdabf4a5	-0.083962716
26	0x3d114a1e	0.035471074
27	0xbcfceed9	-0.03087561
28	0xbcd9dfb7	-0.026595933
29	0xbda4b948	-0.08043152
30	0x3d67e45e	0.056614272
31	0x3cb1197d	0.0216186
32	0x3d806f85	0.06271271
33	0xbdd8c461	-0.10584331
34	0xbccad124	-0.02475793
35	0xbd2bccaf	-0.04194325
36	0xbd7cbd90	-0.06170422
37	0xbd734239	-0.059389327
38	0xbc1a1b73	-0.0094059585
39	0x3d6d7530	0.057973087
40	0x3d23cb1b	0.03998862
41	0x3d8c71b6	0.06857626
42	0xbda39834	-0.07988015
43	0xbd9e8c98	-0.0774166
44	0xbd98dd00	-0.074640274
45	0xbcf63f7a	-0.030059565
46	0xbd2242ba	-0.039614417
47	0xbcad8e00	-0.021185875
48	0x3da710cb	0.081575
49	0x3da5d65a	0.08097525
50	0xbd571e5a	-0.05251918
51	0xbcfe5109	-0.0310445
52	0xbd769338	-0.060198992
53	0x3d1fcb43	0.039012205
54	0xbde99c07	-0.11406713
55	0xbdc50228	-0.09619552
56	0xba04498a	-0.00050463586
57	0x3d8e79ff	0.06956863
58	0xbd95f9be	-0.07323025
59	0x3dfa87a6	0.12232904
60	0xbc577a47	-0.013151712
61	0x3c878e56	0.016547363
62	0x3d122bbb	0.035686236
63	0x3d80d731	0.062910445
64	0xbc877905	-0.016537199
65	0xbda2b1a8	-0.079440415
66	0xbd274aae	-0.040842704
67	0xbd03b861	-0.03215826
68	0xbd8708e6	-0.06593494
69	0xb9879f52	-0.0002586791
70	0xbc6b53d0	-0.014363244
71	0x3d60c6d9	0.054877136
72	0x3c919193	0.01776961
73	0x3dd6ec06	0.10494237
74	0x3ce5892c	0.02801951
75	0xbc98547e	-0.018594977
76	0x3da0e743	0.0785661
77	0xbd3c9ccd	-0.046047974
78	0x3cf328d4	0.029682554
79	0x3d9eb960	0.07750201
80	0x3dbc0413	0.091804646
81	0x3d9c29c9	0.076251574
82	0xbb9d8fc9	-0.0048084003
83	0x3c91bd2f	0.017790405
84	0x3c894787	0.01675774
85	0x3da38ce8	0.0798586
86	0x3e1ed341	0.15510274
87	0x3d653d4b	0.055966657
88	0xbdf07e1b	-0.11742803
89	0xbb3f823e	-0.0029221918
90	0xbd3b8d4a	-0.04578904
91	0xbb81f03c	-0.0039654057
92	0x3c441de9	0.011970022
93	0xbc2461aa	-0.010033051
94	0x3cb9f0e1	0.022697868
95	0x3cee5d0e	0.029097106
96	0x3d9812b4	0.07425442
97	0x3d3c935e	0.046038978
98	0x3c9cd99f	0.019146739
99	0xbdad8b04	-0.08473781
100	0xbd852e94	-0.06503025
101	0xbcbcb8b8	-0.0230373
102	0xbd7cec01	-0.06174851
103	0xbd87aabf	-0.06624364
104	0xbd07b06a	-0.033127226
105	0xbde98883	-0.11402991
106	0x3d23425c	0.039858207
107	0x3d5449cb	0.051828187
108	0x3c2289ce	0.0099205505
109	0xbda3237c	-0.079657525
110	0x3d3b0e53	0.045667958
111	0xbd49823b	-0.049196463
112	0xbda67159	-0.08127088
113	0xbda88525	-0.0822852
114	0x3db9e2f0	0.09076488
115	0xbdaf5600	-0.08561325
116	0x3dbd21d2	0.09234966
117	0x3d59aa13	0.05314071
118	0xbc251ee4	-0.010078166
119	0xbd058e5d	-0.03260647
120	0xbd901c11	-0.07036603
121	0x3bac9bac	0.005267581
122	0x3c3523c5	0.011055891
123	0xbd43ee2b	-0.047834557
124	0x3d08de58	0.03341517
125	0x3d5d98aa	0.05410067
126	0x3dca0a34	0.09865227
127	0x3cf5d8b2	0.030010555
128	0xbd164842	-0.036690004
129	0xbd823cd4	-0.06359258
130	0xbafb809b	-0.0019188108
131	0xbda73898	-0.08165091
132	0xbd20c9a9	-0.039254818
133	0x3de0e184	0.10980514
134	0x3cc301fd	0.023804659
135	0xbd32245c	-0.043491706
136	0x3dd820b9	0.10553116
137	0xbc8fb8fb	-0.01754426
138	0x3d98b2cf	0.0745598
139	0xbcbf695e	-0.023365673
140	0x3d0e1224	0.03468527
141	0x3df65c8b	0.1202937
142	0x3d6ba4e5	0.057530303
143	0xbbffcb0c	-0.0078061875
144	0x3b689787	0.0035490708
145	0xbc8de5d1	-0.017321499
146	0x3e0ad1cc	0.13556594
147	0xbbd635da	-0.0065371813
148	0xbd97198f	-0.07377922
149	0xbde0bcba	-0.10973497
150	0x3d8de63c	0.06928679
151	0x3c405a35	0.011740257
152	0xbe1237f7	-0.14279161
153	0x3d094c4e	0.033520035
154	0x3bed31f6	0.007238622
155	0x3d842ae1	0.06453491
156	0xbd0e4f5c	-0.03474365
157	0xbb400504	-0.0029299865
158	0xbdb1c8ed	-0.08680902
159	0xbda7424d	-0.08166943
160	0x3c3710f6	0.011173477
161	0xbe1e8068	-0.1547867
162	0xbd30e9bc	-0.043191656
163	0x3d982de4	0.07430628
164	0xbd9605e7	-0.073253445
165	0xbd20b1e1	-0.03923214
166	0x3cd192e9	0.025582748
167	0xbc3fc894	-0.011705536
168	0xbc95d73c	-0.018291108
169	0xbd136861	-0.035988215
170	0xbd02d6cf	-0.03194314
171	0xbca82fb0	-0.020530552
172	0xbcd72421	-0.026262345
173	0x3dd11a99	0.10210151
174	0x3dc70722	0.09718157
175	0xbbb1256f	-0.0054060738
176	0xbafffbbc	-0.0019529979
177	0xbdd31627	-0.103069596
178	0xbd56cd98	-0.052442163
179	0xbdcb1c7b	-0.099175416
180	0xbd2cc390	-0.04217869
181	0xbdbba3ba	-0.09162088
182	0x3d0ba341	0.034091238
183	0x3d6117e7	0.054954436
184	0xbd0ad046	-0.03389003
185	0x3d62b3fe	0.055347435
186	0x3d39bf46	0.04534843
187	0x3d97cfe4	0.07412699
188	0x3d300f64	0.042983428
189	0xbd587f03	-0.052855503
190	0x3cff65b1	0.03117642
191	0x3c9cf59c	0.019160084
192	0xbda7fdaa	-0.082026795
193	0x3dcb229a	0.09918709
194	0x3d1cea9f	0.03830969
195	0xbdcacd67	-0.09902459
196	0xbdc2c05c	-0.09509346
197	0x3d5d548a	0.0540357
198	0x3d889fed	0.066711284
199	0x3d7ebe5a	0.062193252
200	0x3c1de2f7	0.009636632
201	0x3ceaaafc	0.028645985
202	0xbde21cc4	-0.11040643
203	0xbd973b5d	-0.073843695
204	0xbdc1613e	-0.094423756
205	0x3da5a172	0.08087434
206	0xbdd9b767	-0.10630684
207	0xbd2e1491	-0.042500082
208	0xbd7cb746	-0.06169822
209	0xbc975bcd	-0.018476391
210	0xbd77d72d	-0.060507942
211	0xbce62bb0	-0.028097004
212	0xbd3c433b	-0.045962553
213	0xbcd8c2ad	-0.026460016
214	0xbdb2db30	-0.08733213
215	0x3df43a90	0.119252324
216	0x3d4cd719	0.05000982
217	0x3db8f396	0.09030835
218	0x3dca58db	0.09880229
219	0xbdcdd439	-0.10050244
220	0x3bb7ed68	0.005613018
221	0xbdc38db5	-0.09548513
222	0xbb4fdc1e	-0.0031716893
223	0xbcc8cbbc	-0.02451121
224	0xbd14d716	-0.036337934
225	0xbda8dcbd	-0.082452275
226	0xbc9f15d4	-0.019419588
227	0x3d842419	0.064521976
228	0x3d8d3ded	0.06896577
229	0x3c613c6a	0.013747314
230	0xbb84225b	-0.004032416
231	0x3db3c807	0.087783866
232	0xbd02ec12	-0.031963415
233	0x3d1e4dfc	0.03864859
234	0xbc6a3af9	-0.014296287
235	0xbc97d011	-0.018531831
236	0x3d7a9e9a	0.06118641
237	0xbd844ad8	-0.06459588
238	0x3d09d38d	0.033649016
239	0xbd9797de	-0.07402013
240	0x3d240b1c	0.040049657
241	0x3da1707f	0.07882785
242	0xbd0240f3	-0.03180022
243	0x3d3eaeee	0.046553545
244	0x3d4cedb5	0.050031383
245	0x3d187f0c	0.037230536
246	0x3c5e3411	0.013562218
247	0xbcd11783	-0.025523907
248	0x3d7e593f	0.06209683
249	0x3dc1077b	0.09425255
250	0x3b14c8e7	0.0022702755
251	0x3c2027d7	0.009775124
252	0xbd1b744c	-0.037952706
253	0x3d1755f9	0.036947224
254	0xbc9090f3	-0.017647242
255	0x3dacb0ff	0.08432197

transformer_encoder.layers.0.linear1.bias f4 [128]
0	0x3b0a4ab9	0.0021101667
1	0xbda8d13d	-0.08243034
2	0x3d2cc670	0.042181432
3	0xbd11ead5	-0.035624344
4	0x3d822a39	0.063557096
5	0xbd4e0785	-0.05030014
6	0x3c90810e	0.017639663
7	0xbcd45c31	-0.025922867
8	0x3d61e82b	0.055153053
9	0xbd3986c1	-0.045294527
10	0xbcb7d828	-0.022441939
11	0xbdd64fd8	-0.10464448
12	0x3d0af741	0.033927206
13	0xbd9d66cf	-0.07685625
14	0xbd9501a5	-0.07275704
15	0xbc885590	-0.016642362
16	0xbcd4fd87	-0.025999798
17	0xbdb6f3b9	-0.08933205
18	0x3c6f794d	0.014616323
19	0x3d8b4d62	0.06801869
20	0x3d533df9	0.051572774
21	0x3af7b03a	0.0018897124
22	0xbd154a63	-0.036447894
23	0xbcfb8498	-0.030702874
24	0xbd3befb0	-0.04588288
25	0xbd346401	-0.044040684
26	0xbc643917	-0.013929627
27	0x3af284ec	0.0018502749
28	0x3d79b9b7	0.060968127
29	0x3c4c33c6	0.012463516
30	0xbdf6e700	-0.120557785
31	0xbce81d3e	-0.028334256
32	0xbd0e0d71	-0.034680787
33	0xbd63cff4	-0.05561824
34	0xbdae2cb3	-0.085046194
35	0x3c876f94	0.016532697
36	0x39a52f48	0.0003150648
37	0xbc5a16c8	-0.013311096
38	0xbd88b950	-0.066759706
39	0xbdb49dcd	-0.088191606
40	0xbd89af25	-0.06722859
41	0xbc088090	-0.008331433
42	0x3ca1db86	0.019757997
43	0xbdfbd078	-0.12295622
44	0xbd6e53a1	-0.058185223
45	0xbd209345	-0.039202947
46	0x3d8aae1c	0.0677149
47	0xbd851a58	-0.06499165
48	0xbdd7916d	-0.10525785
49	0xbdbc9684	-0.09208396
50	0x3d5fdc44	0.05465342
51	0xbd63b269	-0.055590067
52	0x3ba47ee8	0.005020011
53	0x3ce3e8a0	0.027820885
54	0xbcf68dca	-0.030096907
55	0xbc4a3242	-0.012341084
56	0x3cb8b299	0.0225461
57	0xbd21c9c3	-0.039499056
58	0xbdbf6cb0	-0.09346902
59	0xbd3a210e	-0.04544168
60	0xbd9ff041	-0.07809497
61	0xbd918f43	-0.07107403
62	0xbba836e9	-0.005133499
63	0x3d2bc604	0.04193689
64	0x3d39bf8e	0.045348696
65	0x3c50276f	0.012704714
66	0xbdea67e2	-0.11445595
67	0xbdae9691	-0.08524812
68	0xbd83acba	-0.06429429
69	0xbcf06419	-0.029344605
70	0xbcaf7610	-0.021418601
71	0xbe10acc3	-0.14128403
72	0xbd93acb4	-0.07210675
73	0xbdceed9f	-0.101039164
74	0xbd53fd07	-0.051754978
75	0x3c5b81c4	0.013397638
76	0xbd36015b	-0.044434886
77	0xbd807752	-0.062727585
78	0xbd5d6222	-0.054048665
79	0xbd44afde	-0.048019283
80	0x3d018e85	0.031630058
81	0xbd8c778c	-0.06858739
82	0xbd7eb861	-0.062187556
83	0xbd2f282a	-0.042762913
84	0x3caa052d	0.020754421
85	0xbca86a02	-0.020558361
86	0xbce44e24	-0.027869292
87	0x3d6a9eb2	0.05728025
88	0xbc8cbd72	-0.017180178
89	0x3abc877d	0.001438364
90	0xbd2266cc	-0.039648816
91	0xbdeafb8e	-0.114737615
92	0xbda8807a	-0.0822763
93	0x3d66e89a	0.05637417
94	0xbdbd1e38	-0.092342794
95	0xbc17ae85	-0.009257917
96	0xbcf230e8	-0.029564336
97	0x3a924c68	0.0011161687
98	0xbdbefd0a	-0.09325607
99	0x3c805926	0.01566751
100	0xbcb91b04	-0.02259589
101	0x3d27509f	0.04084837
102	0x3d4c57e7	0.049888518
103	0x3d10a5b4	0.035314277
104	0xbd9fd81b	-0.07804891
105	0x3d554e67	0.052076723
106	0x3c9efe49	0.019408362
107	0x3d5ac05f	0.053406116
108	0xbd5e5990	-0.054284632
109	0xbc53684a	-0.012903282
110	0x3c7aca87	0.015307075
111	0xbdafac9d	-0.08577845
112	0xbdaeb666	-0.085308835
113	0x3cf60d14	0.030035533
114	0xbc30405c	-0.010757532
115	0xbdd27e00	-0.10277939
116	0xbcde6f7a	-0.027152766
117	0xbbabbb76	-0.005240853
118	0x3d167358	0.036731094
119	0xbd2e7a6a	-0.042597212
120	0xbd98711e	-0.074434504
121	0xbbacf2af	-0.0052779536
122	0x3d591c86	0.053005718
123	0xbd070a77	-0.032968964
124	0xbd916fe0	-0.071014166
125	0xbd8ea9cb	-0.06965979
126	0x3c98040e	0.01855662
127	0xbdc0d88c	-0.09416303

transformer_encoder.layers.0.linear2.weight f4 [128, 128]
0	0xbdbaffc6	-0.09130816
1	0xbe0076fc	-0.12545389
2	0x3d99d19e	0.075106844
3	0x3d80768d	0.06272612
4	0xbd577651	-0.05260307
5	0xbcb020bb	-0.021499982
6	0x3d462ebe	0.04838442
7	0xbb8ef387	-0.004362527
8	0xbb5b3496	-0.0033448092
9	0xbda484ab	-0.08033117
10	0xbc5a3072	-0.013317214
11	0xbb0e43c5	-0.0021707874
12	0x3c9a7807	0.018856062
13	0xbd6c45b0	-0.057683647
14	0xbc8eb132	-0.017418478
15	0xbd1e77a3	-0.038688313
16	0xbde71d4d	-0.112848856
17	0xbd284cfa	-0.041089036
18	0xbd8786cb	-0.066175066
19	0xbd9e22c8	-0.07721478
20	0xbcb28804	-0.021793373
21	0x3cadda23	0.02122218
22	0xbc6c3acd	-0.014418316
23	0x3aa19a0a	0.0012329232
24	0xbd31d67b	-0.043417435
25	0xbda0c1a5	-0.07849435
26	0xbdd55e7f	-0.10418414
27	0xbd3a1d4d	-0.0454381
28	0x3daa30d4	0.083100945
29	0xbca0a17d	-0.019608254
30	0xbd8ff918	-0.07029933
31	0xbce297ad	-0.027660215
32	0x3dbbc429	0.09168274
33	0xbe13a635	-0.14418872
34	0xbc8edf3c	-0.01744043
35	0xbd0503e3	-0.03247441
36	0x3bef31e2	0.0072996477
37	0x3caeb057	0.02132432
38	0x3cf1debb	0.029525151
39	0x3b30da45	0.0026985568
40	0xbd8c7f71	-0.06860245
41	0xbde4311d	-0.1114218
42	0x3d8216e8	0.06352025
43	0xbd5a0910	-0.0532313
44	0x3cfc76e8	0.030818418
45	0xbd91e274	-0.07123271
46	0xbdf0895e	-0.11744951
47	0x3c1ab5b7	0.009442738
48	0xbdd27ae5	-0.102773465
49	0xbcac534e	-0.021035817
50	0xbdd5ddb6	-0.10442679
51	0xbd73c1db	-0.059511047
52	0xbcd02a6e	-0.025410857
53	0xbd2e2925	-0.042519707
54	0x3c34ffc7	0.01104731
55	0x3c9ff80c	0.019527458
56	0xbcbee894	-0.023304261
57	0x3cbc769b	0.023005774
58	0x3cf39527	0.029734207
59	0x3cddb931	0.027065845
60	0x3daa3ebd	0.08312748
61	0xbd059ba6	-0.03261914
62	0x3db976c0	0.09055853
63	0xbc2dd050	-0.010608748
64	0x3d8a303d	0.06747482
65	0xbc359b8e	-0.01108445
66	0x3c393ef0	0.011306509
67	0xbdb74781	-0.08949185
68	0x3d1d1a0c	0.03835492
69	0x3d70d609	0.05879787
70	0xbd2ee6a2	-0.042700417
71	0x3e4052bb	0.18781559
72	0xbd2ad53d	-0.041707266
73	0xbce27044	-0.027641423
74	0x3d258cb6	0.040417396
75	0xbdfc7f94	-0.12329021
76	0xbcfb496d	-0.03067466
77	0x399a9ee4	0.00029491552
78	0xbe240105	-0.16016014
79	0xbc6ae3e1	-0.014336557
80	0x3d9234d1	0.0713898
81	0xbcb44117	-0.022003694
82	0xbb2b74d0	-0.0026162155
83	0xbcb7588d	-0.022381091
84	0x3c130007	0.0089721745
85	0xbc1c9583	-0.009557131
86	0xbccc476e	-0.024936404
87	0xbcbf8b07	-0.023381723
88	0x3d232eaa	0.039839424
89	0xbd853b7d	-0.06505487
90	0xbca85934	-0.020550348
91	0x3d7825cd	0.060582925
92	0x3ce727ef	0.028217284
93	0xbe1696b0	-0.1470592
94	0xbce89183	-0.028389698
95	0xbdc87aad	-0.097890235
96	0x3b20baf3	0.0024525493
97	0xbda1b6bf	-0.07896184
98	0xbccb5fba	-0.02482592
99	0x3b876a69	0.004132558
100	0x3d11c2cd	0.035586167
101	0x3d42b524	0.04753603
102	0xbd90d5d7	-0.07072037
103	0x3ced2882	0.02894998
104	0x3d168964	0.03675212
105	0xbde0ac64	-0.10970381
106	0xbd8c6574	-0.06855288
107	0xbd730e64	-0.059339896
108	0x3d10898a	0.035287417
109	0xbd212c2e	-0.039348774
110	0x3d7fc449	0.06244305
111	0x3cab1d63	0.020888036
112	0x3d7a510f	0.06111246
113	0xbca13765	-0.019679734
114	0xba5269c9	-0.00080266275
115	0xbcb25142	-0.021767262
116	0xbcc0cc99	-0.02353506
117	0x3c29e227	0.01036886
118	0xbd731475	-0.05934568
119	0xbda2b951	-0.079455025
120	0xbd385641	-0.045004133
121	0xbdc2441f	-0.09485649
122	0x3d858b1c	0.06520674
123	0xbd152bc2	-0.036418684
124	0xbb598d42	-0.0033195768
125	0xbdd93326	-0.10605459
126	0xbdc7588e	-0.09733687
127	0x3dcaf0f3	0.09909239
128	0x3cdd49f5	0.027012805
129	0xbcaed27e	-0.021340605
130	0xbd76f833	-0.060295295
131	0xbb8e6c35	-0.0043463954
132	0x3db4865b	0.08814689
133	0xbd915a87	-0.07097345
134	0x3cb9dbb5	0.022687772
135	0x3d94f51d	0.07273314
136	0xbdb578a2	-0.088608995
137	0xbda73a4f	-0.08165418
138	0xbdf73dcd	-0.120723344
139	0x3cdb661a	0.026782084
140	0xbd4c71a3	-0.04991306
141	0x3ba72099	0.0051003215
142	0xbd8ed23b	-0.06973692
143	0x3d21c64b	0.039495748
144	0x3d21d315	0.039507944
145	0xbd868f13	-0.06570258
146	0x3d18c353	0.03729565
147	0x3c148b28	0.009066381
148	0xbc937167	-0.01799841
149	0xbde08b0f	-0.10964023
150	0x3d409f47	0.0470269
151	0x3d1e7c95	0.03869303
152	0x3b7f9db0	0.0039003901
153	0xbdf1a869	-0.117997
154	0x3bf2cc4f	0.0074096094
155	0x3dc2ba3c	0.09508178
156	0xbc0f81ca	-0.0087589715
157	0x3bd3c01b	0.0064621097
158	0x3c13ec5c	0.00902852
159	0xbda230af	-0.07919442
160	0x3d2c1e07	0.042020824
161	0xbd94c0c4	-0.072633296
162	0x3d828bd7	0.063743286
163	0x3d160595	0.036626417
164	0xbd0e4440	-0.034733057
165	0xbde4c6ec	-0.11170754
166	0xbd228dcb	-0.039686006
167	0x3c8e6f44	0.01738704
168	0x3d394f8c	0.045241877
169	0xbc773d27	-0.015090263
170	0x3d9cb3f9	0.076515146
171	0xbd11bcd8	-0.035580486
172	0x3d6d6ac1	0.057963137
173	0xbda542d3	-0.08069386
174	0x3d38214a	0.044953622
175	0x3cfe7139	0.031059848
176	0x3d04ae70	0.03239292
177	0xbd6eeb27	-0.058329728
178	0x3d7111a2	0.058854707
179	0x3c35c4aa	0.011094252
180	0x3cf4680c	0.02983477
181	0x3db16727	0.08662253
182	0xbce6dd06	-0.028181564
183	0x3d9c6ec8	0.07638317
184	0xbdb44d2d	-0.088037826
185	0x3d9a7cd9	0.07543344
186	0x3d87e918	0.06636256
187	0x3da5758e	0.080790624
188	0x3ceaf9cd	0.028683567
189	0xbda913af	-0.082557075
190	0x3b2ed468	0.0026676897
191	0x3ca3bf0b	0.019988557
192	0xbd19d776	-0.037558995
193	0xbd94e07f	-0.07269382
194	0xbce94430	-0.028474897
195	0xbd99616d	-0.074892856
196	0x3d37c235	0.044862945
197	0xbcaa4dc1	-0.02078903
198	0x3dd1d7c3	0.102462314
199	0x3df3c233	0.11902275
200	0x3c461bad	0.012091559
201	0xbbac01fb	-0.0052492595
202	0xb9fb130a	-0.00047888636
203	0x3c98ad50	0.01863733
204	0xbd3844e8	-0.04498759
205	0x3cd93e43	0.026518947
206	0x3c1b669e	0.009484915
207	0xbd317dba	-0.043332793
208	0xbd158584	-0.036504284
209	0x3d8b81d7	0.06811874
210	0xbda12a80	-0.07869434
211	0xb9d4c6b2	-0.0004058383
212	0x3d7f4430	0.062320888
213	0xbdaf8e07	-0.085720114
214	0x3dbc6d4d	0.09200535
215	0x3d0c58c2	0.034264334
216	0xbd2bc8b5	-0.041939456
217	0xbd27c9c2	-0.040963896
218	0x3d934cb2	0.07192363
219	0xbc813826	-0.015773844
220	0x3c8cc224	0.017182417
221	0xbd888b83	-0.06667235
222	0xbc85272f	-0.016254036
223	0x3d8dcb0b	0.06923493
224	0x3d3ce3ba	0.046115614
225	0xbda76972	-0.08174409
226	0xbd7a6616	-0.061132513
227	0xbdb18911	-0.086687215
228	0xbcdcd84d	-0.026958609
229	0x3ce4292f	0.02785167
230	0xba380f4d	-0.0007021323
231	0xbc4d89a8	-0.012545027
232	0x3d10dbc0	0.03536582
233	0xbd909610	-0.07059872
234	0x3d693de8	0.056943804
235	0x3d215245	0.0393851
236	0xbd3cf977	-0.046136346
237	0xbcd7fa8f	-0.026364593
238	0x3d824b64	0.06362036
239	0x3d80472c	0.06263575
240	0x3d066d96	0.032819353
241	0x3d682d6f	0.056683954
242	0x3d2fe74b	0.042945188
243	0xbd67ce10	-0.056593
244	0x3ddbecdc	0.10738537
245	0xbcc47ef4	-0.023986317
246	0x3da5a2f6	0.08087723
247	0x3dc3f013	0.09567275
248	0x3db31df3	0.08745947
249	0xbcfaeba4	-0.03062994
250	0xbdcb10f2	-0.099153414
251	0x3d85c457	0.065315895
252	0xbd9bdd7e	-0.07610606
253	0xbdc55a79	-0.09636397
254	0xbda64408	-0.08118445
255	0xbd1719f4	-0.036889985
