spectral_transformer_encoder/transformer_encoder_model_fold_3.pth (torch, 815522 bytes, 28 tensors)

embedding.weight f4 [128, 12]
00000000: c149 533e 36ef 0dba 588d 88be 9b07 71be
00000010: c978 32be 6cd8 3ebe fd10 9abe a833 8abe
00000020: 2f8e 8bbe 4318 3c3e 16e2 3f3e 6b1c 713e
00000030: b754 af3c 7496 42be 9d36 81bd 08c0 f6bc
00000040: 35ba a9bd 3d17 73be 15e0 b03d 74ad 94be
00000050: cd97 efbc 401e 03bd 8805 28be 445c 22be
00000060: aea6 553e c3c8 1abe 5560 c9bd 714b 19be
00000070: cac3 9fbe 4a11 4dbe aaa4 c0bb 88d8 d1bd
00000080: 6541 5fbe e137 823c 3b8a efbd f200 c8bc
00000090: 26bc 383e dfcf a83d aca5 ebbd 8683 d93d
000000a0: 063c 363e 1148 313d 711f 52bc 6569 a73d
000000b0: 310e 9e3d 21db 45be f97a 8fbc f0d5 953e
000000c0: e902 ad3d c829 013e cd58 2cbd 2361 d8bd
000000d0: 835a 613e 164f 8a3d 2817 22bd 54c0 f63b
000000e0: 3280 05be aa6b bdbd bc70 14be 0395 2ebd
000000f0: a453 9ebd 0c20 1ebe 7d13 843e aef0 043d
00000100: 11e7 a2bd 59dc 69be 2319 98bd 0b91 a5be
00000110: 1a09 46be ca49 3ebd 7ee3 363d b4bc d5bd
00000120: a43c 0fbe e1b5 8d3d 520c 45bc 8c72 19be
00000130: 8d49 24be 87a0 c43d 50e5 3e3e 7511 733e
00000140: 7298 dbbd 48a2 e2bd f389 7b3e a3bf 313e
00000150: b501 f73d 5932 33be 6372 423e 779a cebc
00000160: b943 6f3e cebd 293e 7396 11bd e6c2 463e
00000170: 97c5 b43d c227 53be 61bf 44be cb79 8e3e
00000180: 04c3 2cbd 51f7 b4bd 181a 8cbe e741 77be
00000190: 4567 8f3e 196d 4c3d 237f 28be 37ef 7f3e
000001a0: 7f37 35bd dcb7 76be 544f 16be 6130 4bbe
000001b0: 5d0c 673e dee1 83bd d820 413e 7099 e4bd
000001c0: ce2b 533e 0203 653d 0964 8cbe 193e 9ebe
000001d0: 0c58 793b 988a 003e 2ff6 223d 9ef1 613e
000001e0: ebce a93d 1553 5bbe 3402 733e 4b74 a43d
000001f0: c43a 8f3e 3f3f 433d f78d 6a3e 7f86 a7bc
00000200: b2df 803d eadc f9bd 77a1 483d fa6b 15bd
00000210: 6338 7f3d c378 68be ae52 b5bc f2aa 283e
00000220: a29c 7dbe 5fe0 20bd 7cd5 12be 63c4 9ebe
00000230: 13d0 2a3e aced e9bd 83ec 3b3e ac06 dc3d
00000240: 30bd 793e bd3d 8dbe 60c9 7ebe 8a11 fe3c
00000250: 8032 0fbd 5ba6 cdbd 745d 673d 6321 afbe
00000260: a6f9 763e 3b9e 613e 5517 91bd 57de 5cbe
00000270: 6032 723e 6dce 1abe dffa 8f3e bc14 063e
00000280: cc69 353e c740 26be 3161 f5bd 569b 5b3d
00000290: 3add 773e 03a2 0cbe ca0f 483e cff7 783e
000002a0: 27af 70bc 317a 18be fe50 173e 219e bfbd
000002b0: 3e42 113e 7c12 f3bd be60 99be 5560 80be
000002c0: 1a66 39bd eab1 79be c697 753e 488e 983d
000002d0: 1f00 14be eb46 cebd 7d51 6fbe 6cf1 633d
000002e0: 603b 49be 3fc9 85be 1f76 963d 24b6 6dbe
000002f0: 75a9 9b3d b612 da3d eb3d a2bd 574c 8b3d
00000300: 6ae3 34be 49e1 243e 035a f43d ea5c 3f3c
00000310: ba68 40be bb69 70bc 997e 6f3d bf43 983e
00000320: 22bb 2ebd babe 353e 72f7 82be 0e52 023e
00000330: f555 7bbe 1006 01be 6b22 a1bd 3695 28be
00000340: 3844 c7bc 44f5 48be a957 413d 034e a9bc
00000350: 5326 a73d 4c31 9b3c b53e 073e ab60 2cbd
00000360: d0c0 8ebe 25db ab3d e98c 233d f49c c23d
00000370: bc89 593e 5753 6abe c789 713e 1433 3e3d
00000380: 276e 42be 813a 70be 1a0c 233e 0c73 49be
00000390: 5d29 5fbe 9fad 4dbd 7b39 233e 37f9 3ebe
000003a0: 83b7 2c3e 332e 7c3e a3a2 0cbe 54aa 903e
000003b0: 77ca 5ebe f680 4a3d b3f3 1bbe eb4c 353d
000003c0: f8a2 2fbe cb3d 2fbe 62c6 413e 9793 61bd
000003d0: 73c0 8ebe 2e6c 363d 12f2 19be 8a31 9a3d
000003e0: 2348 c53c 0a33 553d c490 123e 9b52 5bbe
000003f0: fcd1 963e 5c40 22bc 210d a7bd 7095 05be
0.20633604 -0.00054143684 -0.26670337 -0.23538058 -0.17428888 -0.18637246 -0.30091086 -0.26992536
-0.27256915 0.1836863 0.18738589 0.23545997 0.0214027 -0.19002706 -0.06309245 -0.030120865
-0.08287469 -0.23739333 0.0863649 -0.29038584 -0.029247189 -0.03201127 -0.1640836 -0.15855509
0.20864365 -0.15115647 -0.09832827 -0.14970185 -0.31204063 -0.20026127 -0.0058790045 -0.10246378
-0.2180229 0.015895786 -0.11696287 -0.024414513 0.18040523 0.08242773 -0.11506209 0.10620789
0.17796335 0.04328162 -0.012824879 0.08174399 0.077175505 -0.19321872 -0.017514693 0.29264784
0.08447821 0.12613595 -0.042076875 -0.10565402 0.22007184 0.06753366 -0.039572865 0.0075302515
-0.13037184 -0.09249051 -0.1449613 -0.042622577 -0.07730797 -0.15441912 0.25796118 0.032456093
-0.07954229 -0.22837962 -0.074266694 -0.32337222 -0.1933941 -0.04645709 0.044650547 -0.10436383
-0.13987976 0.06919456 -0.012026863 -0.14985102 -0.16043682 0.09600931 0.18642163 0.23737128
-0.10722436 -0.11066109 0.24564342 0.1735826 0.120608725 -0.17499675 0.18988948 -0.025220139
0.23365678 0.16576311 -0.03554387 0.19410285 0.0882675 -0.20620635 -0.1921363 0.27827296
-0.04217817 -0.08836234 -0.27363658 -0.24146233 0.28008476 0.04990873 -0.16454749 0.24993597
-0.04424238 -0.24093574 -0.14678699 -0.19842674 0.2256331 -0.06439565 0.18860185 -0.111620784
0.20622179 0.05591107 -0.2742007 -0.30906752 0.0038046865 0.1255287 0.03978556 0.22064826
0.082914196 -0.21418412 0.23731309 0.080299936 0.27974522 0.047667738 0.22905718 -0.020449875
0.062926665 -0.12200339 0.04898211 -0.036479928 0.062309634 -0.22702317 -0.022134151 0.1647146
-0.24766782 -0.039276477 -0.1433925 -0.31009206 0.16680937 -0.114222854 0.18351941 0.1074346
0.24388576 -0.27586165 -0.24881506 0.031014223 -0.03496027 -0.100414954 0.05648561 -0.3420516
0.24118671 0.22033016 -0.07084528 -0.21569191 0.23652029 -0.15117808 0.28121087 0.13093847
0.1771614 -0.16235648 -0.119814284 0.053614937 0.24205485 -0.13733678 0.19537273 0.24313281
-0.014690197 -0.14890362 0.1477699 -0.093563326 0.14185426 -0.1186876 -0.2995662 -0.25073496
-0.045263387 -0.24384275 0.23983678 0.07449013 -0.14453171 -0.1007212 -0.23370929 0.05565016
-0.19651556 -0.261301 0.073467486 -0.23214012 0.07600681 0.106481 -0.07921966 0.0680167
-0.17664877 0.16101564 0.11931231 0.011679867 -0.1878995 -0.014673646 0.058470342 0.29739186
-0.042658933 0.17748538 -0.2557941 0.12726614 -0.24544509 -0.12599969 -0.07867893 -0.1646317
-0.024324521 -0.19624811 0.04720274 -0.020667082 0.08161607 0.018944405 0.13207515 -0.042084377
-0.2788148 0.08391408 0.039929304 0.09502593 0.21243948 -0.22883354 0.23587714 0.04643543
-0.18987332 -0.23459817 0.15922585 -0.19672793 -0.21793123 -0.050214406 0.15939896 -0.18649755
0.16866879 0.24626999 -0.13733916 0.2825495 -0.21756922 0.049439393 -0.15229683 0.044262808
-0.17152011 -0.17113416 0.18923333 -0.055072393 -0.27881202 0.044536762 -0.15033749 0.0752898
0.024082249 0.052050628 0.14313036 -0.2141823 0.2945708 -0.00990304 -0.08156801 -0.13045287

embedding.bias f4 [128]
00000000: 66f6 173e 5fb1 b43e 82db 423e 146f a03d
00000010: c999 283e adb5 aebd 2b85 093e 5a57 19be
00000020: 7e8d b1be a755 aa3d 74d5 85bd 5430 463e
00000030: ca0a ab3d d043 4f3e 8b6c 3cbe b634 223e
00000040: 2567 373c 6f33 723e 4905 a0be 82d3 273d
00000050: 8c6a f93b 0ec7 c5bd ddb9 8e3b ccfd 2bbd
00000060: 8c1f 633d 55e7 473e 3303 6fbe f359 473c
00000070: 1cf2 1c3e 0b99 023d 9d07 063e 656c 653d
00000080: e0c2 a73e 906a 52bd db6d 6ebe 8825 d93d
00000090: 8f89 62be 7497 24be fdcd 85bd 41cf 8ebe
000000a0: cf28 393d eaef 003e a35b 22be 421d 953e
000000b0: 1b64 b6bd 9b8a 09bb 318a 813c d77d 78be
000000c0: 090e 723e 24b8 86bc 7bb5 94be 8f0a 0ebe
000000d0: aebe 913e 89a0 b9bd a8f1 59be 0ee1 c93b
000000e0: 67f0 5dbd baa1 39be 227b 1d3e 3fb7 2ebe
000000f0: 42d8 923e 86b6 b8bb e058 0cbe e28e 83be
00000100: 12f3 64be 853e 94be c842 423e bde8 043d
00000110: bed2 3b3e e399 82be 20d2 613d a7bb 963d
00000120: d62e 433e fa94 3bbe 6686 4abe 25c1 5f3e
00000130: 72da 1bbe e25d 883e 237b 9dbd 564c 71be
00000140: 3ca7 82be 0712 af3d 761a 66be d78e 1a3d
00000150: 565e 7cbd 1355 563e b023 6abe bb29 2cbc
00000160: 4f12 4a3e c08d 94be 159b 1abe df3f 6fbe
00000170: 1be9 903e 4ffd 113d 569d 243e 1341 b43d
00000180: 2bed 343e 2e89 993e 52aa 56be 18ab 00bd
00000190: 98e6 913e bd2f eb3d 2cd9 0dbe 0e73 a13d
000001a0: e126 e7bd 5d3a f73b bef6 86be ee5d 663c
000001b0: f945 853e ffd5 5d3e efcb 44bd 4f93 07bc
000001c0: fd59 74bd fa1a 033e 2963 86be 4902 9c3e
000001d0: 4e3d 0f3d 2853 67be c803 ec3c 2b1d 3b3e
000001e0: 284d 37bd 8d96 5abe b176 9abe 7cc2 743e
000001f0: 510e 443d 042b ed3b a29b a83e 0131 64bc
0.14840087 0.35291573 0.19029048 0.078336865 0.16464914 -0.08530746 0.13429706 -0.14974728
-0.34678262 0.08317118 -0.065348536 0.19354373 0.08351667 0.20240712 -0.18400781 0.1584042
0.011194025 0.23652433 -0.31254032 0.040973194 0.0076115783 -0.09657107 0.0043556527 -0.041990086
0.055450007 0.1952184 -0.23341064 0.012167442 0.15326732 0.031884234 0.13088842 0.056011576
0.32765865 -0.051371157 -0.23284094 0.10602862 -0.22122787 -0.160734 -0.0653343 -0.27892497
0.045204934 0.1259152 -0.15855269 0.29123884 -0.08905812 -0.0020987156 0.015812965 -0.24266754
0.23638166 -0.016445227 -0.2904471 -0.13871215 0.2846579 -0.09063823 -0.21283591 0.006160862
-0.054184344 -0.181281 0.15379003 -0.1706209 0.28680617 -0.005636993 -0.13705778 -0.25694948
-0.22358349 -0.2895395 0.18970788 0.03244852 0.1834211 -0.2550803 0.05513203 0.073600106
0.19060835 -0.18318549 -0.19777831 0.21851023 -0.15220049 0.26634127 -0.07689502 -0.23564276
-0.25518215 0.0854836 -0.22471032 0.03773388 -0.061613403 0.2093089 -0.22865176 -0.010507996
0.19733547 -0.29014397 -0.15098222 -0.23364209 0.28302845 0.035641965 0.16075644 0.088014744
0.17668597 0.29987472 -0.2096341 -0.031413168 0.28496242 0.11483715 -0.13852376 0.07883273
-0.112867124 0.0075447992 -0.26360124 0.0140604805 0.26029947 0.21663664 -0.04804605 -0.008274867
-0.059656132 0.1280326 -0.26247528 0.30470493 0.034970574 -0.22590315 0.028810397 0.18272845
-0.044751316 -0.21346493 -0.3016868 0.23902315 0.047865216 0.007237794 0.32931238 -0.013927699

transformer_encoder.layers.0.self_attn.in_proj_weight f4 [384, 128]
00000000: 8ef3 8fbd a031 573b 4499 a2bc 67d5 d5bd
00000010: f48c bfbc 8e04 343d 74f2 e8bc 8627 47bd
00000020: c6a1 333d f55b 9a3d 9cc7 e1bc fedf 1cbd
00000030: a560 9d3d fe2c 9ebd 3ec6 183d b0c9 9ebb
00000040: b844 c7bd e88e a7bd 0afb b7bd ee3e 94bd
00000050: bcd0 d2bc 6fc7 8abd 4b53 b4bd 3fc2 7ebd
00000060: 5881 8cbc af60 dc3d 7456 c9bd ccc7 a0bd
00000070: e467 a3bc b78d d53d 4df7 b33d 081f aebc
00000080: c061 b2bd d155 bb3d 5e78 07bd 80f9 893b
00000090: a4cb 04bd 3a36 7abd 755f 8a3d 772f bd3d
000000a0: 8367 dc3d e1a5 d73d 5b7f a1bd 3e1a babd
000000b0: 1774 5fbd 2e63 b5bd 3ba8 813d 482b 123c
000000c0: b89d 193c 921b 333d 6bda ad3d 8309 883d
000000d0: f873 69bc 0edb 4bbd bc26 e33c 740b 10bd
000000e0: b06f 83bb 44ec a5bc 6013 38bc 54bb 94bc
000000f0: b9a4 c43d 12da 1c3d 949a d1bc 8708 903d
00000100: eee1 8ebd 6a4f d1bd 62d9 d5bd cef8 653d
00000110: 066e 023d a4a5 fb3c 5d7c dabd f0f0 c9bd
00000120: 7052 1abd 90f8 c0bd b255 87bd be51 2a3d
00000130: 946c 8cbd 4fc9 903d 0595 d0bd 5c0c 62bd
00000140: 6a6b bebd f3c3 963d c86c b0bd 3aad 423d
00000150: dc54 2bbd 7a8c 343d d432 93bd 0d06 c4bd
00000160: 0409 c83c a294 2f3d ba5d 623d 7082 d1bb
00000170: 6071 99bc ecab fb3c d405 8b3c e090 acbc
00000180: 8b28 aa3d 004c 143c 75f6 a53d 4f80 ac3d
00000190: 859e aabd 0963 aa3d c0be 4d3b ee6b 463d
000001a0: 6ca6 fabc 371e 9bbd d355 ac3d 40d8 e6ba
000001b0: 3d4d d83d 52a6 4b3d 7a85 473d 82da 42bd
000001c0: ce2c 223d 8386 cc3d 5a2a 5e3d 1e58 663d
000001d0: 448f b8bd 603c d4bd 701f 9abb aecf b5bd
000001e0: 8ad0 0e3d 9f93 993d 5a8a 88bd 6dd8 c33d
000001f0: 6c7f b43c a8e7 ecbc c49b aa3c 3989 a33d
00000200: c2a4 153d 2df7 c0bd d7aa 40bd 7b59 c63d
00000210: 5b3a 60bd d410 da3c 91b8 c8bd e1dc 8e3d
00000220: 724f 6b3d 5404 dbbc 4c5f fa3c 30c6 4bbd
00000230: 8066 66bd 6ad7 633d 785b ffbc e247 a1bd
00000240: d159 c73d 6cae cd3c 4ac4 5c3d 105e 8bbb
00000250: 73f4 95bd d499 e1bc a36f c63d 240a fa3c
00000260: 7d88 a5bd 3725 d33d 468a bbbd 3139 9c3d
00000270: 3e4a aebd 7036 acbd 0eed 17bd 0072 2db9
00000280: 5d0d c73d 04c9 83bc 70c2 003c 0664 763d
00000290: fdef c53d 2094 a53b ae88 4cbd 1a74 093d
000002a0: 1019 35bd 40f6 2ebc c06d ff3a 9ea8 dbbd
000002b0: 1054 febc c0b9 b8bb 15ac 79bd 36b0 b3bd
000002c0: 9822 cabc e3fb b93d f892 6ebc 9cf1 91bd
000002d0: 2c52 41bd 0066 373a 2a98 273d 1a10 7f3d
000002e0: e03e 8e3b 2a0a 2e3d ca97 523d 8161 d7bd
000002f0: fbef a9bd ab25 a0bd 8e1b 033d 67b7 a43d
00000300: f2c6 303d a01a a73b a3a2 d63d 9457 ff3c
00000310: 3d78 9d3d d08d 64bc 2271 563d f6a6 49bd
00000320: e393 afbd 40ff 993a f6e4 d9bd 5963 b5bd
00000330: 862b 43bd 0baa 983d 4ce0 da3c 2679 2c3d
00000340: b38d a73d 00b8 3a3b e115 8dbd 7ae1 afbd
00000350: 3bd4 833d e0ea 8dbd 40d1 993a bef9 643d
00000360: 8d49 943d e020 97bc 77d4 53bd 1beb bc3d
00000370: 16aa 97bd 1c0a 923c be77 30bd cb74 d13d
00000380: 4ca3 96bc b0a9 33bd 2aa3 2dbd fe59 563d
00000390: bcb9 883c 1573 893d 437c 8cbd 923b 6a3d
000003a0: 0a38 723d 2743 843d 09f9 d13d f136 a73d
000003b0: 7860 313c 936c b1bd 398d 65bd afe5 8e3d
000003c0: 909d 253c fa17 5cbd cc07 b53c d09e babd
000003d0: 203a 7b3b f06e 6bbc 800a 2f3b 5475 dd3c
000003e0: 634f 973d deb9 adbd 3c25 88bd 0a53 b3bd
000003f0: 8028 90bd 069e d1bd 2221 763d 8461 903c
-0.07028876 0.0032835975 -0.019848473 -0.10441094 -0.023382641 0.043949656 -0.028435923 -0.048621677
0.04385545 0.07537071 -0.027561001 -0.038299553 0.07684449 -0.07723425 0.037298433 -0.0048458204
-0.09729904 -0.08181554 -0.08983429 -0.072385654 -0.025734298 -0.0677632 -0.088049494 -0.062196966
-0.01715152 0.107606284 -0.09830943 -0.07850608 -0.019947 0.104274206 0.08787403 -0.021255031
-0.087100506 0.091472276 -0.033073775 0.004210651 -0.03242077 -0.06108687 0.06756488 0.09237569
0.10761931 0.10529686 -0.07885619 -0.090870366 -0.05455407 -0.08856808 0.063309155 0.008921452
0.009375982 0.043727465 0.084889255 0.06642439 -0.0142488405 -0.049769454 0.02772843 -0.035167173
-0.004011117 -0.020254262 -0.011235088 -0.018155731 0.09601731 0.038293906 -0.025586404 0.070328765
-0.069766864 -0.10220225 -0.10441853 0.05614548 0.031843208 0.030718632 -0.10668252 -0.09860408
-0.037676275 -0.094224095 -0.06608142 0.04158186 -0.06856647 0.070696466 -0.10184673 -0.055187568
-0.09297831 0.07361593 -0.086144984 0.047528483 -0.041828975 0.04407928 -0.07187429 -0.095714666
0.024418361 0.042866357 0.055265166 -0.006393723 -0.01873082 0.030721627 0.016970553 -0.021065176
0.08308514 0.009051323 0.081036486 0.084229104 -0.083310165 0.08319671 0.0031394213 0.048442774
-0.030596934 -0.075741224 0.08414807 -0.0017612055 0.10561607 0.049719162 0.048711278 -0.047571667
0.03959351 0.099865936 0.05423961 0.05623638 -0.09011701 -0.10363078 -0.0047034547 -0.088775024
0.034866847 0.074988596 -0.066670135 0.09562764 0.022033416 -0.028919056 0.020826228 0.079851575
0.03653408 -0.09422145 -0.047037926 0.09685036 -0.054743152 0.026619352 -0.09800828 0.06975723
0.05744881 -0.026735462 0.03056302 -0.049749553 -0.056250095 0.055625357 -0.031171545 -0.07875039
0.09733928 0.025107585 0.053898133 -0.0042531565 -0.073220156 -0.027539171 0.09689262 0.030522414
-0.08082674 0.103098325 -0.09157233 0.07628096 -0.08510254 -0.08408821 -0.037091307 -0.00016541034
0.09719346 -0.016087063 0.0078588575 0.060153984 0.09664915 0.0050530583 -0.049935035 0.03355799
-0.044213355 -0.010678828 0.0019487664 -0.107255206 -0.031045943 -0.0056373775 -0.060955126 -0.08773844
-0.024674699 0.09081247 -0.014561407 -0.071261615 -0.047197506 0.0006996095 0.0409166 0.062271215
0.0043409914 0.042490162 0.05141429 -0.10516644 -0.08297726 -0.078196846 0.0320087 0.08042794
0.04315848 0.0050996095 0.10480239 0.03116969 0.07688949 -0.013949826 0.052353986 -0.049231492
-0.08573129 0.0011749044 -0.10639374 -0.0885684 -0.04764893 0.07454308 0.026718281 0.042107724
0.08181324 0.002849102 -0.06888939 -0.08587928 0.06436964 -0.069295645 0.0011735335 0.055902235
0.07240591 -0.018448293 -0.051716294 0.0922453 -0.07405488 0.017827086 -0.043082945 0.102273546
-0.018388413 -0.043863 -0.042391934 0.052331917 0.016690128 0.06711403 -0.068596385 0.057185717
0.059135474 0.06458121 0.10252578 0.08164776 0.010826223 -0.08663287 -0.056042884 0.069774024
0.010108367 -0.053733803 0.022098444 -0.09112322 0.0038334206 -0.014369711 0.002670914 0.027033485
0.07388189 -0.08482717 -0.06647727 -0.08756073 -0.07038975 -0.10235219 0.06009019 0.017624624

transformer_encoder.layers.0.self_attn.in_proj_bias f4 [384]
00000000: 0000 0000 0000 0000 0000 0000 0000 0000
00000010: 0000 0000 0000 0000 0000 0000 0000 0000
00000020: 0000 0000 0000 0000 0000 0000 0000 0000
00000030: 0000 0000 0000 0000 0000 0000 0000 0000
00000040: 0000 0000 0000 0000 0000 0000 0000 0000
00000050: 0000 0000 0000 0000 0000 0000 0000 0000
00000060: 0000 0000 0000 0000 0000 0000 0000 0000
00000070: 0000 0000 0000 0000 0000 0000 0000 0000
00000080: 0000 0000 0000 0000 0000 0000 0000 0000
00000090: 0000 0000 0000 0000 0000 0000 0000 0000
000000a0: 0000 0000 0000 0000 0000 0000 0000 0000
000000b0: 0000 0000 0000 0000 0000 0000 0000 0000
000000c0: 0000 0000 0000 0000 0000 0000 0000 0000
000000d0: 0000 0000 0000 0000 0000 0000 0000 0000
000000e0: 0000 0000 0000 0000 0000 0000 0000 0000
000000f0: 0000 0000 0000 0000 0000 0000 0000 0000
00000100: 0000 0000 0000 0000 0000 0000 0000 0000
00000110: 0000 0000 0000 0000 0000 0000 0000 0000
00000120: 0000 0000 0000 0000 0000 0000 0000 0000
00000130: 0000 0000 0000 0000 0000 0000 0000 0000
00000140: 0000 0000 0000 0000 0000 0000 0000 0000
00000150: 0000 0000 0000 0000 0000 0000 0000 0000
00000160: 0000 0000 0000 0000 0000 0000 0000 0000
00000170: 0000 0000 0000 0000 0000 0000 0000 0000
00000180: 0000 0000 0000 0000 0000 0000 0000 0000
00000190: 0000 0000 0000 0000 0000 0000 0000 0000
000001a0: 0000 0000 0000 0000 0000 0000 0000 0000
000001b0: 0000 0000 0000 0000 0000 0000 0000 0000
000001c0: 0000 0000 0000 0000 0000 0000 0000 0000
000001d0: 0000 0000 0000 0000 0000 0000 0000 0000
000001e0: 0000 0000 0000 0000 0000 0000 0000 0000
000001f0: 0000 0000 0000 0000 0000 0000 0000 0000
00000200: 0000 0000 0000 0000 0000 0000 0000 0000
00000210: 0000 0000 0000 0000 0000 0000 0000 0000
00000220: 0000 0000 0000 0000 0000 0000 0000 0000
00000230: 0000 0000 0000 0000 0000 0000 0000 0000
00000240: 0000 0000 0000 0000 0000 0000 0000 0000
00000250: 0000 0000 0000 0000 0000 0000 0000 0000
00000260: 0000 0000 0000 0000 0000 0000 0000 0000
00000270: 0000 0000 0000 0000 0000 0000 0000 0000
00000280: 0000 0000 0000 0000 0000 0000 0000 0000
00000290: 0000 0000 0000 0000 0000 0000 0000 0000
000002a0: 0000 0000 0000 0000 0000 0000 0000 0000
000002b0: 0000 0000 0000 0000 0000 0000 0000 0000
000002c0: 0000 0000 0000 0000 0000 0000 0000 0000
000002d0: 0000 0000 0000 0000 0000 0000 0000 0000
000002e0: 0000 0000 0000 0000 0000 0000 0000 0000
000002f0: 0000 0000 0000 0000 0000 0000 0000 0000
00000300: 0000 0000 0000 0000 0000 0000 0000 0000
00000310: 0000 0000 0000 0000 0000 0000 0000 0000
00000320: 0000 0000 0000 0000 0000 0000 0000 0000
00000330: 0000 0000 0000 0000 0000 0000 0000 0000
00000340: 0000 0000 0000 0000 0000 0000 0000 0000
00000350: 0000 0000 0000 0000 0000 0000 0000 0000
00000360: 0000 0000 0000 0000 0000 0000 0000 0000
00000370: 0000 0000 0000 0000 0000 0000 0000 0000
00000380: 0000 0000 0000 0000 0000 0000 0000 0000
00000390: 0000 0000 0000 0000 0000 0000 0000 0000
000003a0: 0000 0000 0000 0000 0000 0000 0000 0000
000003b0: 0000 0000 0000 0000 0000 0000 0000 0000
000003c0: 0000 0000 0000 0000 0000 0000 0000 0000
000003d0: 0000 0000 0000 0000 0000 0000 0000 0000
000003e0: 0000 0000 0000 0000 0000 0000 0000 0000
000003f0: 0000 0000 0000 0000 0000 0000 0000 0000
0.0 0.0 0.0 0.0 0.0 0.0 0.0 0.0
0.0 0.0 0.0 0.0 0.0 0.0 0.0 0.0
0.0 0.0 0.0 0.0 0.0 0.0 0.0 0.0
0.0 0.0 0.0 0.0 0.0 0.0 0.0 0.0
0.0 0.0 0.0 0.0 0.0 0.0 0.0 0.0
0.0 0.0 0.0 0.0 0.0 0.0 0.0 0.0
0.0 0.0 0.0 0.0 0.0 0.0 0.0 0.0
0.0 0.0 0.0 0.0 0.0 0.0 0.0 0.0
0.0 0.0 0.0 0.0 0.0 0.0 0.0 0.0
0.0 0.0 0.0 0.0 0.0 0.0 0.0 0.0
0.0 0.0 0.0 0.0 0.0 0.0 0.0 0.0
0.0 0.0 0.0 0.0 0.0 0.0 0.0 0.0
0.0 0.0 0.0 0.0 0.0 0.0 0.0 0.0
0.0 0.0 0.0 0.0 0.0 0.0 0.0 0.0
0.0 0.0 0.0 0.0 0.0 0.0 0.0 0.0
0.0 0.0 0.0 0.0 0.0 0.0 0.0 0.0
0.0 0.0 0.0 0.0 0.0 0.0 0.0 0.0
0.0 0.0 0.0 0.0 0.0 0.0 0.0 0.0
0.0 0.0 0.0 0.0 0.0 0.0 0.0 0.0
0.0 0.0 0.0 0.0 0.0 0.0 0.0 0.0
0.0 0.0 0.0 0.0 0.0 0.0 0.0 0.0
0.0 0.0 0.0 0.0 0.0 0.0 0.0 0.0
0.0 0.0 0.0 0.0 0.0 0.0 0.0 0.0
0.0 0.0 0.0 0.0 0.0 0.0 0.0 0.0
0.0 0.0 0.0 0.0 0.0 0.0 0.0 0.0
0.0 0.0 0.0 0.0 0.0 0.0 0.0 0.0
0.0 0.0 0.0 0.0 0.0 0.0 0.0 0.0
0.0 0.0 0.0 0.0 0.0 0.0 0.0 0.0
0.0 0.0 0.0 0.0 0.0 0.0 0.0 0.0
0.0 0.0 0.0 0.0 0.0 0.0 0.0 0.0
0.0 0.0 0.0 0.0 0.0 0.0 0.0 0.0
0.0 0.0 0.0 0.0 0.0 0.0 0.0 0.0

transformer_encoder.layers.0.self_attn.out_proj.weight f4 [128, 128]
00000000: b0fe 1f3c ae64 983d c87b 8c3c 5929 20bd
00000010: 1ee7 ffbc a92f 93bc 8983 b6bd 7c37 123d
00000020: 153e 413c afec 903c 6b65 0abd 9cb3 603d
00000030: d9cd 99bd fd87 343d bcd3 bcbc 4f64 143d
00000040: 2c38 09bc cd18 85bd a8a7 a4bd 2bfd 69bd
00000050: 4d93 ed3b 70e9 87bd 3607 b3bd e9be 97bd
00000060: c28e c0bc 7f64 7cbd 4418 93bd 0c3d 483c
00000070: 0221 c13c 827f af3d c879 84bd 3fd7 dfbb
00000080: 58db 7abd e90a 103c 4fa0 0d3d 45b8 0dbd
00000090: 1e51 2dbd da7d 2ebd 2146 96bd 723c 98bc
000000a0: 854e 47bc ad96 9a3d 86e5 533b 425c be3c
000000b0: 8634 243d b15e 08bd 3bd6 113d 0fda 91bd
000000c0: 0e97 54bd a99e 5ebd d48a 6ebd bef4 17bd
000000d0: e5bc df3c a718 663d e1bc 5b3d ff3d e43c
000000e0: 35b8 43bd 5993 fa3c 6216 593d e760 b3bc
000000f0: 46fa 87bc b237 9bbc 2754 343d ccaf cf3d
00000100: 4ac7 733d 6ace a53c 7a27 b9bd 6ad1 973d
00000110: 271f 0bbd e86c 183d 9292 4fbd 97a7 fe3c
00000120: 6f49 adbd 064e 853c 8dad bbbc e168 58bd
00000130: 92c3 99bd 0e69 e5ba be79 68bd 9c5e 023a
00000140: cd26 8f3d f675 893d 5714 ae3d 113b a3bd
00000150: 02bf 873d 129f 993c fe48 55bd 09b1 6e3d
00000160: 0db5 5e3d 8655 06bd ac64 bf3c 39f5 2abd
00000170: 3e21 aebc 864d 6dbd d385 6b3c f2f3 e83c
00000180: 0318 ed3d 4f74 9e3d 92da 443d f795 6cbd
00000190: ba3d 0f3d 5452 503d 6d57 133d 61ac 073d
000001a0: 3997 a2bc 5b7e 223d 9cd3 c93b d16a da3d
000001b0: 34dc 2a3c 8615 cebc c950 1b3d 4eb0 aa3d
000001c0: 9f88 9f3d 6c76 3fbd c21b 503d 5ed4 d0bc
000001d0: 0633 503d b6bc 323d a971 29bd e80e 77bd
000001e0: 8669 46ba 02de 183b 13b0 443d 8715 d3bc
000001f0: 08ac ed3c ba05 113d 0b4f c4bd c7cd 473b
00000200: 35fc 5f3d bf43 cdbc 08e6 bf3d 9037 663d
00000210: d23d ed3a fa2c 20bd 3689 903d ba13 52bd
00000220: 4cb0 b93d fba5 95bd 33d0 cbbd e150 1abd
00000230: 1146 dabc d751 99bd d36f aa3c 2ccc 083d
00000240: b061 813b 6ab8 ffba bee8 be3d 9c8a 54bd
00000250: 186d a6bd 644f b03d eec4 e53d 2df9 97bc
00000260: debe 8f3d 376c 8a3d 824e c03d d42d 383d
00000270: bb01 3b3a ad73 13bd b9d7 763d 8f17 f53d
00000280: b924 c93c 9944 91ba d92b 863d 82c0 283d
00000290: 3f63 e23d 9a0f 41bd 4c88 e3bc b237 b6bc
000002a0: 7367 493c a96b c23c a22c da3d 8b21 95bd
000002b0: 276e 06bd 3042 933c d577 88bd 8e72 85bd
000002c0: 5cdc 213d c0bb 883d 8959 7b3d e53b 613d
000002d0: 546d b1bd 4952 ef3c 51fc a83b 0436 84bd
000002e0: 3c73 8f3d f7c5 8fbc 558b b33d f50a 63bd
000002f0: 98df 8abc 6221 99bd f3ac 9b3c 2536 103e
00000300: 371d 923c 3b2a 853d 0b68 403c 3acd 7fbd
00000310: cf3a b8bc f3bc 20bc 5290 14bd 0e6a 9bbd
00000320: ce46 5c3d 3e68 193d bd82 72bd 0b57 17bd
00000330: e174 c7bc f5d8 6bb9 e0dc 8dbc a9ea 493d
00000340: 9bee 7bbc a939 9bbd 0001 943d 523e 4f3d
00000350: c492 40bd e5e8 c53d 1aed 93bc 4702 56bd
00000360: 1d29 f9bd e1a6 d4bd 22fe 433d 4ff1 21bd
00000370: bf37 1e3d 16d2 3f3d 2c58 a03d 982f ebbc
00000380: 9122 03bd 0e82 233d 9764 c13c f407 a0bd
00000390: 86e5 cdbc 1c0c 31bd 801f 463d 168c 24bd
000003a0: 2884 b8bc 0fa9 563d 9a5b 03bd c131 343d
000003b0: 3a8f 41bd 3da0 963d 59ce 20bd 7933 43bd
000003c0: 9af4 a0bc 3822 04bd 9cfd 653d 2ef9 75bd
000003d0: 8799 4ebd aea7 273c 8c6a c1bd 155a 553d
000003e0: b602 f93c 4d3f 9c3c a4ac b83c 9286 9f3b
000003f0: 615e d13c 44f3 d03d fe5a 9ebc d00e 6abd
0.009765312 0.07441078 0.017148867 -0.039101932 -0.031238135 -0.017967062 -0.08911807 0.035697445
0.011794587 0.017690985 -0.033788126 0.05485879 -0.075099654 0.044075 -0.023050182 0.036228474
-0.008375209 -0.06498871 -0.080397904 -0.057126205 0.0072502256 -0.066363215 -0.0874161 -0.0740946
-0.023505572 -0.061619278 -0.07182363 0.012221586 0.02357531 0.08569242 -0.064685404 -0.0068310793
-0.06124434 0.008791664 0.03457671 -0.03459956 -0.042313688 -0.04260049 -0.07337595 -0.01858351
-0.012164717 0.075482704 0.0032332852 0.023237351 0.040089153 -0.03329343 0.035604697 -0.071216695
-0.05190187 -0.05435053 -0.058237866 -0.03709864 0.027311752 0.056175854 0.053646926 0.027861593
-0.047783095 0.030587839 0.05299986 -0.021896793 -0.016598832 -0.018947456 0.044025566 0.101409525
0.05951623 0.020240027 -0.09040733 0.074129894 -0.033965256 0.037213236 -0.05067689 0.031085772
-0.08461272 0.016272556 -0.022909904 -0.052834395 -0.07508005 -0.0017502622 -0.056756727 0.00049732043
0.069898225 0.067119524 0.08499973 -0.079702504 0.06628229 0.018752608 -0.052071564 0.058274303
0.054371882 -0.032796405 0.023363434 -0.04173777 -0.021256085 -0.05793526 0.014375168 0.028436635
0.115768455 0.07737028 0.048060007 -0.057760205 0.034970976 0.050859764 0.035972048 0.033123378
-0.0198475 0.039671283 0.006159259 0.10664905 0.010428477 -0.025156748 0.03791884 0.08334409
0.0778973 -0.046743795 0.050807722 -0.02549189 0.05082991 0.043637 -0.04136816 -0.06031695
-0.0007568825 0.0023325686 0.04801948 -0.025767101 0.029012695 0.035405852 -0.09585389 0.0030487643
0.054683883 -0.025056718 0.09370047 0.056205332 0.0018100089 -0.039105393 0.07057421 -0.051288344
0.09066829 -0.07307049 -0.0995182 -0.03767479 -0.026644738 -0.07486313 0.020805275 0.03339784
0.003948413 -0.0019509916 0.09321736 -0.05189 -0.08126277 0.086088926 0.11219202 -0.018551433
0.07018827 0.067589216 0.09389974 0.04496558 0.0007133742 -0.03599899 0.060264323 0.11967384
0.024553644 -0.0011083066 0.06551332 0.041199215 0.11054086 -0.04713402 -0.027774952 -0.022243354
0.012292731 0.023732977 0.10653044 -0.072817884 -0.032819893 0.017975897 -0.06663481 -0.0651599
0.03951679 0.066764355 0.061364684 0.05498876 -0.08663431 0.029214041 0.0051570316 -0.06455615
0.07004401 -0.017550452 0.0876681 -0.05543037 -0.016952321 -0.074770704 0.019003367 0.14083154
0.017836196 0.065021954 0.011743556 -0.06245158 -0.02248898 -0.009810674 -0.036270447 -0.07588588
0.053778462 0.03745293 -0.059206713 -0.036948245 -0.024347724 -0.00022492169 -0.017317235 0.049296055
-0.015376712 -0.07579357 0.07226753 0.050596543 -0.047014967 0.09663562 -0.018057395 -0.052248266
-0.12166045 -0.10383392 0.04784978 -0.03953677 0.038627382 0.046831213 0.078293175 -0.028709218
-0.032015387 0.03991895 0.023607535 -0.07814017 -0.02513386 -0.04322444 0.048369884 -0.04017266
-0.022523955 0.05240732 -0.03206978 0.04399276 -0.047255732 0.07354782 -0.03925929 -0.04765651
-0.019647885 -0.032259196 0.056150064 -0.06005209 -0.050439384 0.010232849 -0.0944415 0.052087862
0.0303968 0.019073153 0.022543259 0.004868337 0.025557699 0.10202649 -0.019330498 -0.057143033

transformer_encoder.layers.0.self_attn.out_proj.bias f4 [128]
00000000: d97d 863d 7af1 243e 3dc2 e73d fc61 85bd
00000010: a3d2 7d3d 4a8c 523a 4c2f d9bc bf8c 57bd
00000020: e4e9 f3bd b1bb 9e3d d182 9abd 07dc a03d
00000030: 30e7 283d 9d01 da3d 124b bfbd e5cf 4c3d
00000040: 406f 9ebc 4218 bf3d 984a c0bd 9319 c5bd
00000050: fcdf b03d b398 d43c 41de 583d da74 953b
00000060: fe9c 22bd d76c 503d a65a 09be 83c7 6f3d
00000070: bbe3 083d 35d4 4f3d cdd6 b83c 302d 853d
00000080: 9b39 aa3d ffa4 bd3c 8a17 b4bd cfbc 973d
00000090: 61cb 89bd b663 a7bc ecf4 153b 5be8 56bd
000000a0: 277b fcbc ef63 8a3d f6d0 513a 41aa cc3d
000000b0: 3a7e 4e3c 4f03 bcbc 911b a9bd 386b 98bd
000000c0: b5dc 373d ae7f 05bc 3162 bbbd c51a 85bd
000000d0: dcb3 d63d fce3 4fbd 7de7 89bd ff72 853d
000000e0: bf80 28bd 9cd6 9bbd 7fe1 1a3d 4e37 55bd
000000f0: 73f1 ae3d 4426 5dbd e028 0f3a 4cfe b5bd
00000100: b5f0 d3b9 4238 b7bd 573e 7f3d 8341 a2bd
00000110: 6155 88bc 4899 92bd b789 b9bc 63ff a1bc
00000120: 22bc c93d 091c e2bd 48c9 25bd dd90 583d
00000130: f990 07be b0e1 ca3d d559 50bc 3adb bbbd
00000140: c54e fdbd 085b 883d ca2c 68bd 51c5 8ebd
00000150: 7cae 30bd 690c b43d 77c6 06be 6a21 89bd
00000160: cff2 f1ba 02c5 fbbd 0511 29bd 01cb 93bd
00000170: 16f1 c93d ce70 80ba 9b30 b73d 1bfb f4bb
00000180: 4d12 32bc dc1e db3d 73e2 c2bd 9fcb aa3d
00000190: eed3 903d 5acb a43d dec8 0ebc f8ae 573d
000001a0: a951 883d e328 bebd beef a5bd 24a7 613c
000001b0: 1e89 643d b882 8b3d 2526 79bd 8f1f 9b3b
000001c0: fafe 0e3d e2f8 1f3d e4fd d4bd 0806 c03d
000001d0: ce34 66bd 3b56 e8bc e803 723c be45 d23d
000001e0: 232f 06bd d73f bebd f94f 8fbd 71e4 a93d
000001f0: 8c9f a3bc 572c d63c 4868 a43d 46e7 5ebd
0.06566972 0.16107741 0.11316345 -0.0651283 0.061968457 0.0008031769 -0.02651181 -0.05262446
-0.119098455 0.07750643 -0.075444825 0.07854467 0.041236103 0.10644839 -0.093404904 0.05000295
-0.019340158 0.09330799 -0.09389228 -0.096240185 0.08636472 0.025951719 0.052946333 0.004561049
-0.0397005 0.050885048 -0.13413486 0.05853988 0.033420306 0.050739486 0.022563362 0.065027595
0.083117686 0.023149965 -0.08793552 0.07409059 -0.067282446 -0.020433288 0.002288158 -0.052467685
-0.030820442 0.06757342 0.0008003855 0.09993411 0.012603337 -0.022950796 -0.08257211 -0.07442325
0.044888217 -0.008148117 -0.09149588 -0.064992465 0.10483524 -0.050754532 -0.06733606 0.065160744
-0.041138407 -0.07609293 0.037812706 -0.052054696 0.085421465 -0.05399157 0.0005461108 -0.08886394
-0.00040424397 -0.08946277 0.06231531 -0.079226516 -0.016642274 -0.07158142 -0.022648675 -0.019775098
0.098503366 -0.110405035 -0.04047516 0.052872527 -0.13238896 0.09906328 -0.01271673 -0.091726735
-0.1236854 0.06657988 -0.05668334 -0.06971229 -0.04313515 0.087914295 -0.13161646 -0.06695826
-0.0018459203 -0.12293436 -0.041275997 -0.07216454 0.098604366 -0.0009799243 0.08944818 -0.007476223
-0.010868621 0.10699245 -0.09515848 0.08339619 0.070716724 0.08046599 -0.008714883 0.052657098
0.066562004 -0.09285142 -0.08102368 0.01377276 0.055794828 0.06812042 -0.060827393 0.0047339867
0.034911133 0.039055713 -0.10399988 0.0937615 -0.056202702 -0.02836143 0.014771439 0.102672085
-0.032759797 -0.0928952 -0.069976754 0.08295525 -0.019973539 0.02614419 0.080277026 -0.05441978

transformer_encoder.layers.0.linear1.weight f4 [128, 128]
00000000: f875 92bb 95f1 8cbd ea8f aa3b 1a42 c43c
00000010: 2e17 5cbd 9e8e febb b941 753d a906 dcbd
00000020: 57b7 883d 4094 9dbd 7739 933d 4791 28bd
00000030: 61bb 9b3d 7097 3cbe 2854 ec3c 310c 2a3d
00000040: 219b fc3c f635 4fbc ef2b 91bc 5844 cbbc
00000050: 149c 1abd a86c 0e3e c348 3e3d 6805 fc3c
00000060: cee8 d93d c378 823d 0328 febc 33a6 103d
00000070: c1e9 5b3d 43a4 0b3e 5ebd 383d 4841 b43d
00000080: c5e2 1ebe 702c 9d3d 1baf 903d eb35 d93d
00000090: 635f 2dbd 730f 663c 04f7 5abd 21a8 81bd
000000a0: 3921 39bd 56f1 8cbc b56a 133e 72ee 9bbd
000000b0: 6914 12bd 5a93 e53d e1f0 02bd 4409 5a3d
000000c0: 90d5 e2bb 1ce6 e63d c73e d33d d1f0 b83d
000000d0: d29f e0bd e217 9ebc 4f1d 40bd dd41 e8bc
000000e0: 18ff e63d 77eb 9d3d 943a 18bd 8a57 5bbd
000000f0: 29ee eb3d 7425 68bc b4cb 933c df1f 1a3c
00000100: a3d4 faba 5f58 b43d 2b2e ecbd 7650 8fbd
00000110: 56d5 3bbc 4bea 833d 5cd0 4cbd 052f 53bd
00000120: 0eb6 adbd f819 083d 28ec 793d b2bc 3cbd
00000130: 821a c43c 0a79 c73b da41 12be 76e4 343d
00000140: 8205 433d 02a7 613c f78a 723d 2867 d73c
00000150: 806b 7e3d ecca 223d ff62 c03d aeec 9fbd
00000160: 00c8 cc3c 4b41 c53c 36a3 263d 9f12 11bd
00000170: 0d67 09bd 9ad2 013e e930 d63c b9ee 04be
00000180: f891 cc3d 1e8f 75bd ad1c b03d 635c 913d
00000190: 9928 66bd f816 f3bd 8122 b939 2176 f5bd
000001a0: eb78 55bd 2462 9a3d e98d 813d dac7 0abd
000001b0: 9384 a3bd d1db e2bd 7c6e 243a 4712 cf3d
000001c0: 018f 90bd 52a3 68bd bce6 0abc 7c23 4abd
000001d0: c811 f13c e199 cb3d 44af 10bd d1c3 ad3c
000001e0: b2fe a1bd 9876 a1ba 9b44 013e 6f68 a3bd
000001f0: 30af 7c3d 60d1 50bc 18db 523d 5bfd 0b3d
00000200: 46d9 8b3c 3c93 91bd 5788 c13c b1f0 c9bd
00000210: c1f7 d1bd 2040 a5bb a892 c93d 18e9 f5bd
00000220: eb6e a3bd 70dd 26bd 350f 63bc 73ee 0ebe
00000230: 3856 d63b 0b2d 0cbe 3ab1 90bd c4f4 e0bc
00000240: 2e6b 3cbd 90e2 97bd cdfb c0bc c105 99bd
00000250: 5b11 353d 6d69 273d 5390 3b3d bcc1 633d
00000260: 4f50 2d3d dfe8 2b3d 9c10 8c3d f869 853d
00000270: 6823 983c 1cf7 bb3b 4136 c73c 6452 95bd
00000280: 4ca7 d5bc 51b7 66bc 69df b1bc d4e6 8abd
00000290: 8476 dbbd 7f8c 0c3d ebe9 01be 4fe9 8cbd
000002a0: c4ee e33d 7fb0 bf3c acec 013d fea4 bbbc
000002b0: dfeb 9a3c 6629 443d c11f 823b 3b2b abbd
000002c0: 3ca6 8f3d 61ed 893d 4720 ec3c 713e 883c
000002d0: 26e6 3abe b01f 053e b5a9 513d 7308 9abc
000002e0: 6ef3 4d3d 6cb7 14bc 1147 40bd 42b3 a0bd
000002f0: e049 d03d 9c86 59bd 61b1 cb3d f524 433d
00000300: 9029 b93d 50c2 043e 2092 12be 043d bdbd
00000310: 9bfc 89bd bbd1 05bc ab43 bfbd 7c4b fbbc
00000320: 1c3b 3dbe 0b92 3f3d 5787 9e3d 800c 96bc
00000330: 7f92 b43d fe88 8c3c c693 b6bd 1682 a63b
00000340: dd36 7f3d 85b8 ef3b caab 2c3e e0f1 0c3e
00000350: be77 8d3d 9fc4 1fbc 32f8 483b ef6c 053d
00000360: ada1 893c ca75 403e db4a 3d3d 74a4 073d
00000370: bd85 383d 6ec4 143e 77c6 01bd 167d 5dbd
00000380: baf5 7abd 8898 603d aa6b a13d 336e e2bd
00000390: c8d2 adbd 0306 4fbc d4a6 52bc fd02 0cbc
000003a0: 4cc8 89bc bc17 603c 2f13 073e 9535 43bc
000003b0: 56ec 8dbd ebc0 8dbd 2415 d13d db6c f03c
000003c0: a55b 033c caa6 4ebd fe22 4ebb 42d9 acbc
000003d0: 270e a5bc 4b77 4b3d 974d 473d 3fca ae3d
000003e0: 1601 bfbb 5d5b 8b3d e0b6 193e 2b13 dfbd
000003f0: b8c7 973d c668 a9bd bc03 47bd 51ef 20bd
-0.0044696294 -0.068820156 0.005205144 0.0239573 -0.053733043 -0.007768466 0.05987713 -0.10743458
0.06675594 -0.07694292 0.07188695 -0.041154172 0.07604099 -0.18417144 0.028848723 0.041515533
0.03083569 -0.012647143 -0.017721144 -0.024812862 -0.037746504 0.13908637 0.04645611 0.030764297
0.10640107 0.0637069 -0.031024938 0.03531475 0.053689722 0.1363688 0.04510247 0.08801514
-0.15516193 0.076744914 0.07064649 0.10605987 -0.042327296 0.014041769 -0.05345823 -0.06330896
-0.0451977 -0.017204922 0.14396174 -0.07613839 -0.035663996 0.11209746 -0.031968 0.053231493
-0.0069224313 0.11274359 0.10314708 0.09030307 -0.10967983 -0.019298498 -0.04690295 -0.028351719
0.11279124 0.07710927 -0.03716524 -0.05355028 0.11520035 -0.014169086 0.01804147 0.009407013
-0.0019136857 0.08805918 -0.11532243 -0.069977686 -0.0114644375 0.06441172 -0.050003394 -0.051558513
-0.0848199 0.03322789 0.06101623 -0.04607839 0.023938421 0.006087427 -0.14282933 0.04416319
0.047612675 0.013772728 0.05921456 0.026294306 0.06211424 0.039744303 0.09393882 -0.07808815
0.024997711 0.024078986 0.040682994 -0.03541815 -0.033545543 0.12677994 0.026146369 -0.1298169
0.09988779 -0.05995094 0.085992195 0.070976995 -0.05619106 -0.11869615 0.00035311657 -0.11985422
-0.05211727 0.0753825 0.06325895 -0.033882 -0.07984271 -0.11077083 0.0006272567 0.10110908
-0.07058526 -0.05679638 -0.008477863 -0.049350247 0.029427424 0.099414594 -0.035323396 0.021211537
-0.079099074 -0.0012318669 0.12623827 -0.079789035 0.06169051 -0.012745231 0.051478475 0.034177165
0.017071377 -0.07108161 0.023624582 -0.09860361 -0.102523334 -0.0050430447 0.098424256 -0.1200735
-0.0798014 -0.040738523 -0.013858606 -0.13958149 0.00654104 -0.13689058 -0.07065053 -0.027460463
-0.046000652 -0.0741626 -0.023557568 -0.074718006 0.044206005 0.040872026 0.045791935 0.05560468
0.042312916 0.04197013 0.068391055 0.065143526 0.01857157 0.005736245 0.024317862 -0.072911054
-0.02608075 -0.014081792 -0.021712976 -0.06782308 -0.107159644 0.034313675 -0.12686889 -0.068804376
0.11129525 0.02339959 0.03171985 -0.022905823 0.0189113 0.047891043 0.0039710705 -0.08357855
0.070141286 0.067347296 0.028823985 0.016631337 -0.18251857 0.13000369 0.051187236 -0.018802857
0.05028098 -0.009076934 -0.046942774 -0.07846691 0.101703405 -0.05310689 0.09945942 0.047642667
0.090411305 0.1296475 -0.14313555 -0.092401534 -0.06737634 -0.008167679 -0.093390785 -0.030675642
-0.1847958 0.046770137 0.07740658 -0.018316507 0.088170044 0.017155167 -0.08914904 0.0050814254
0.06230818 0.0073156976 0.16862407 0.13764143 0.06907605 -0.009751468 0.0030665514 0.03257459
0.016800726 0.18794933 0.046213966 0.03311582 0.045049418 0.14528057 -0.03168341 -0.05407437
-0.0612695 0.054832965 0.078818634 -0.11056175 -0.08487469 -0.012635711 -0.012857158 -0.008545634
-0.016819142 0.013677534 0.13190912 -0.01191463 -0.06929843 -0.06921562 0.102091104 0.029348781
0.008017455 -0.05045203 -0.0031453962 -0.02109969 -0.02014835 0.049674314 0.04865798 0.08534669
-0.005828987 0.068045355 0.15011168 -0.10892328 0.0741114 -0.08271937 -0.048587546 -0.03929073

transformer_encoder.layers.0.linear1.bias f4 [128]
00000000: 8caa e13b b6fe 18be 3691 5fbd 063a 8d3d
00000010: 594a 44bd e5f7 6d3d a82c c0bd dc02 54bd
00000020: 29c3 ba3c 7862 dcbd 4d64 79bc 609e 6dbd
00000030: adb4 9e3c c76e d5bb 1f9b 05bc 9bf9 a4bc
00000040: d465 0dbe b7c5 38bc 6c27 efbd f8a2 2abd
00000050: d7ea 21bd 40ea 2ebd 5ecb bc3b 354c d83a
00000060: 467a 40bd 092c fbbc 7864 923d c704 cc3c
00000070: b0c7 93bc bd7b c13c 239a 94bc 039b e5bd
00000080: 5c69 ccba 8701 563d e5d8 a8bd 8110 b4bd
00000090: 153b 8dbd 2bbf 08bd 77b8 373d ea3a 1abd
000000a0: 9481 92bd 8a71 833d 6e9d 79bd f786 033d
000000b0: 934d 023d c545 973c 821e bbbd dab7 cebd
000000c0: ee6a d0bd 4e59 87bd d7f1 98bd 795f 23be
000000d0: a425 b4bd 0781 bdbd 367c a4bd b21d 06bd
000000e0: efb8 74bc 2a87 9a3c 3524 c5bc 0532 81bd
000000f0: 80de d9bd 7f13 aebb b578 8a3c 6483 6ebd
00000100: 96e4 a8bd 6f90 e3bd 62b7 293c e754 c3bd
00000110: b509 17be 91e6 babc a76e 1d3d 62c8 743c
00000120: c620 083d 4fd1 69bd 6f70 f8bc 4b92 873c
00000130: aca1 4f3c c0b8 90bd 0523 d9bd bbd2 b3bc
00000140: 550a 1dbe 8540 99bd 4917 04be ab40 4f3d
00000150: 794d 943c 7535 353d f414 2ebd f8c3 003c
00000160: 8cb1 29bd ff07 063c 6d52 09be df73 b43b
00000170: eff4 133d 8ae3 d6bd b2e7 6fbd 1c7e dbbd
00000180: df26 f9bd 87a2 2ebd e7e0 3b3d c4a3 c7bc
00000190: 0848 f9bc ebaf b23c 9083 52bd de5e d1bd
000001a0: 02ec c9bc 347b 6fbd e278 edbd 68f1 c9bc
000001b0: 2272 323d 0788 a1bc 8dc5 edbc 3a19 f63c
000001c0: 9445 0abe 5305 79bd a1a2 89bc 8c89 fdbd
000001d0: 5ef7 c6bc d79d 8ebd 83fd 0fbe edec 79bd
000001e0: da0c 52bd def8 2c3c 79ee af3c 9476 4e3b
000001f0: e63d a5bc 39a1 b5bd bfd3 d9bc ae9a 72bd
0.006886786 -0.14940915 -0.054581843 0.06895833 -0.047922466 0.05809774 -0.093835175 -0.05176054
0.022798138 -0.10760969 -0.0152216675 -0.058012366 0.019373262 -0.00651345 -0.0081546595 -0.020138552
-0.13808376 -0.011277608 -0.11677441 -0.041659325 -0.0395306 -0.042703867 0.005761548 0.0016502204
-0.04699161 -0.030660646 0.07148069 0.024904622 -0.018039554 0.023618573 -0.018139904 -0.11211207
-0.0015595364 0.05224755 -0.08244494 -0.0879221 -0.06896035 -0.033385437 0.044853654 -0.03765384
-0.07153621 0.0641814 -0.060941152 0.032111134 0.03181226 0.018465886 -0.09136678 -0.10093661
-0.10176645 -0.066088304 -0.07468002 -0.15954389 -0.08796242 -0.09253126 -0.08031504 -0.032743163
-0.01493667 0.01886328 -0.024065116 -0.063083686 -0.10638142 -0.0053123827 0.01690326 -0.058230773
-0.08246724 -0.11111533 0.010358663 -0.09537678 -0.14749797 -0.02281502 0.038435604 0.014940353
0.03323438 -0.057084378 -0.03032705 0.01654925 0.012672823 -0.07066488 -0.106023826 -0.02195107
-0.15335973 -0.07483009 -0.12899508 0.05059878 0.018103348 0.044240434 -0.04250045 0.007859223
-0.041429088 0.008180617 -0.13410349 0.005506977 0.03612226 -0.104926184 -0.05857057 -0.10717413
-0.12165617 -0.042635467 0.04586878 -0.024370082 -0.030429855 0.0218124 -0.051395 -0.102231726
-0.02464867 -0.058467105 -0.11595322 -0.024651244 0.043565877 -0.019718183 -0.029024864 0.030041326
-0.13503104 -0.060796093 -0.01680118 -0.123797506 -0.024287876 -0.06963699 -0.14061551 -0.061016966
-0.051281787 0.010557381 0.021476017 0.0031503784 -0.020171117 -0.088686414 -0.026590226 -0.059229545

transformer_encoder.layers.0.linear2.weight f4 [128, 128]
00000000: a36a f63c 1e14 efbd ac2c 62bd 3842 96bd
00000010: acb6 8d3d d9f5 0abd b4cc 683d b4f1 8dbd
00000020: 4a80 44bd cc19 403d 238d 94bd ebf8 cdbd
00000030: 1c9b d0bc 9bd4 893c 6688 703d 579a acbd
00000040: e173 0dbe d000 7cbc 49f3 5c3d 2565 2cbe
00000050: 6a22 7fbc 0ebb fbbb 9a1c 20bd 321f b6bd
00000060: 49df 07be 6d51 4cbd 78f3 adbc 3b15 9d3c
00000070: 5071 acbd f9d2 9d3b ca51 25bd 0afb a03b
00000080: f676 463d 3684 013d 10d1 debd 56db 08be
00000090: e049 963d 5ed5 9fbd ba0c 293d 277b 0cbd
000000a0: 421d 7e3d b0bd a6bd 5aa5 273c 58dc 833d
000000b0: 4e03 63bc 6654 2fbd 87d2 d9bc 89be f2bd
000000c0: 7bf4 5d3d 780d c2bd d651 afbd b2d1 93bc
000000d0: a6ef 8b3d a227 743c 8767 5ebd a6ca d4bc
000000e0: bab6 b23d 5811 7a3d f75c b3bd 7457 0b3c
000000f0: d05e 07be 1be2 4fbc b046 a2bd b478 32bd
00000100: 5c34 62bd 7b2a 363d 81e2 e3bd f346 9c3d
00000110: 809b 88bd eef6 433d 6dae 22bd 12a6 0fbe
00000120: 4adc f63a 1fce 1e3d 0496 debc f6fd a73d
00000130: e5d9 c73d d6ab 143d b381 42bc 2126 d33b
00000140: 9836 fdbc 51d3 023c 04c8 babd 269e f83c
00000150: 182e 64bd 0d88 2fbb 9a20 d6bd 8f9d 95bd
00000160: d497 1bbd b27c 9c3d 8c93 eb3c a33b 893d
00000170: 1d23 f13a f91e 313a 3e17 78bd 8d1c 88bd
00000180: a3df d2bd 5f0c f03c 0d24 de3c 4177 973c
00000190: 9701 f7bc a9f6 5cbd 7872 7fbd 9f3e 8dbd
000001a0: e551 003d 0582 95bc 6e39 8e3d b5f8 523c
000001b0: 6935 4b3d fcab a03c d19e 993b 3120 a4bd
000001c0: e4f7 9ebd c6d4 e6bc d6e4 7cbd 722f 23bc
000001d0: 4bd3 3fbd a7f3 ec3d ff9e 99bd fb07 b2bd
000001e0: ab1b c43b 6e9f 633c 104b 98bb d43b 71bd
000001f0: a7a4 413d d399 d4bc dbb1 32bd 3719 d1bc
00000200: 0c11 ddbd cff9 f9bd 57e4 5dbc 01d9 eabd
00000210: 1fa2 ed3d 689a 98bc 3296 893d e39e 9dbc
00000220: e059 763c a712 f9bb 9cf8 d83d b29a d7bc
00000230: 5b3a dd3c 2fd4 673d bcaf b53d eb77 d93b
00000240: e3d4 3abd 1e08 e83c 2246 713d 0086 bbbd
00000250: bdde d9bd 83a9 bdbd fdbb 3f3d 3d26 553d
00000260: 9f68 98bc f5fa debc fde4 243d 8929 9abd
00000270: 45da c9bd 0992 91bd e249 773d 2f9d 73bd
00000280: b1d1 9abb 8947 5bbd e786 a1bd 3247 f63c
00000290: 30a8 05be 0a77 c6bd f24a 0ebd 7f45 66bd
000002a0: ff2f 17bd 89b2 d33c f945 b8bc d935 533d
000002b0: 85f3 5cbd 47e9 a9bd 0369 54bd b68e b2bd
000002c0: 49b3 8abd 9563 feba 3b1e adbd 88b9 363d
000002d0: 617c d0bd 909b cbbc 52da 2a3a d0c4 723c
000002e0: ef3d 4dbd 4f1a bdbd 093d c4bd f855 9c3c
000002f0: 16c2 ccbd 7a09 dbbd 679c faba 4ab7 67bd
00000300: d095 5a3d aa31 8fbd 9c5c e6bc e4be d8bd
00000310: baf1 67bd 5db8 423d 2e75 06bd 90e7 04be
00000320: f914 c6bd 3cea 51bc 9d51 86bd 9162 3d3d
00000330: d880 4a3d 4afd 0fbb 7bc0 3f3d 8c7c 51bd
00000340: 8f8f 32be 1f95 babc 0af1 12be bb88 8abd
00000350: 7d4f b5bd 539b fa3c 2014 7c3d e9e8 843d
00000360: 20c7 66bc 0484 ed3b c401 0f3d 3465 6c3d
00000370: 3ac5 973d d351 433d 71d2 c3bd eb0e 5fbc
00000380: 67c7 3ebd c3ce e23c 0310 16bd 1e11 533d
00000390: 2134 ac3c 6815 7fbd 0b48 69b9 9e2a 2dbc
000003a0: 959b 553d 1a27 7e3c ee54 cf3d 9b5c 06bc
000003b0: 377c d6bd 04b6 b6bc d4bd d5bc 5ca2 183d
000003c0: b645 50be 5538 e23d 9fca 9c3c 63ad d4bd
000003d0: 3580 6dbd f353 2ebd ee05 75bd c00e f3bb
000003e0: 2162 81bd 6762 89bc 443d 1b3d ecfc a63c
000003f0: 2c9b cd3d 4a06 d8bd 860e 2e3d 5960 183b
0.030080145 -0.11673759 -0.055218384 -0.07336849 0.069196075 -0.033925865 0.056835845 -0.06930867
-0.04797391 0.0468996 -0.07253482 -0.10057243 -0.025464587 0.016825011 0.05872383 -0.084278755
-0.13813736 -0.015381053 0.053942952 -0.16835459 -0.01557217 -0.0076822108 -0.039089777 -0.08892669
-0.1326877 -0.04988234 -0.021234259 0.019175163 -0.0842005 0.0048164097 -0.040361203 0.0049127387
0.048453294 0.031620227 -0.10879719 -0.1336492 0.07338309 -0.078043684 0.041271903 -0.034297135
0.06203962 -0.08141649 0.010232294 0.064385116 -0.013855768 -0.042805098 -0.026589645 -0.11852748
0.054188233 -0.09475225 -0.08560531 -0.018044326 0.06832819 0.014902027 -0.05429795 -0.025975537
0.087262586 0.061051697 -0.08757966 0.008504737 -0.13219762 -0.012688185 -0.07923639 -0.043572143
-0.055225715 0.044474106 -0.111271866 0.0763072 -0.06670284 0.047842912 -0.039717127 -0.14028195
0.0018833962 0.03877079 -0.027171142 0.08202736 0.09758357 0.036296688 -0.011871743 0.0064437543
-0.030909821 0.007984952 -0.09120181 0.030348849 -0.05570802 -0.0026783973 -0.10455437 -0.073054425
-0.03798659 0.07640971 0.02875688 0.06700828 0.0018397305 0.00067566294 -0.06056904 -0.06646071
-0.102965616 0.029302774 0.0271168 0.018489482 -0.030152125 -0.05394617 -0.062365025 -0.0689671
0.0313281 -0.018250475 0.069445476 0.012876679 0.049611483 0.019613259 0.004688122 -0.080139525
-0.07762125 -0.02817763 -0.061741672 -0.009960042 -0.046832364 0.115699105 -0.07501029 -0.086929284
0.0059847436 0.0138929915 -0.00464762 -0.058894947 0.047276165 -0.025952255 -0.043626647 -0.025524719
-0.10794267 -0.1220585 -0.01354321 -0.114671715 0.11603188 -0.018628314 0.067181006 -0.019240802
0.015036076 -0.0076011005 0.105942935 -0.026318882 0.027005365 0.05659884 0.08871409 0.00663661
-0.04561318 0.028324183 0.058904774 -0.09156418 -0.10638187 -0.092608474 0.04681014 0.05203842
-0.018604575 -0.027219275 0.040257443 -0.075274535 -0.09856085 -0.07107932 0.060373195 -0.059476074
-0.004724704 -0.053535018 -0.07887059 0.030063245 -0.1305244 -0.09690674 -0.034739442 -0.05621862
-0.036911007 0.025841968 -0.022494303 0.051565025 -0.053943176 -0.08296447 -0.05185796 -0.08718626
-0.06772477 -0.001940834 -0.08453032 0.04461053 -0.101799734 -0.024854451 0.00065175176 0.014817432
-0.050107893 -0.092335336 -0.09581954 0.019083962 -0.099979565 -0.10695167 -0.0019120098 -0.056571282
0.05336553 -0.069918945 -0.028120331 -0.105832845 -0.056627013 0.047539104 -0.032826595 -0.12978959
-0.09671969 -0.0128121935 -0.06558535 0.04623658 0.04943928 -0.002197104 0.046814423 -0.051144168
-0.17437576 -0.022776185 -0.14349762 -0.067643605 -0.08853052 0.030591642 0.06154263 0.064897366
-0.014085561 0.0072484035 0.034913793 0.057713702 0.07410665 0.047685456 -0.09561623 -0.013614397
-0.046576884 0.027686482 -0.036636364 0.051529996 0.02102095 -0.062276274 -0.0002224745 -0.010569243
0.052150328 0.015512252 0.10123621 -0.00820079 -0.10472911 -0.022303589 -0.026091494 0.037264213
-0.20339093 0.11045901 0.019139586 -0.103846334 -0.057983596 -0.04256053 -0.059820108 -0.00741753
-0.06317545 -0.016770555 0.037900224 0.020384274 0.10039362 -0.105480745 0.04249432 0.0023250787

transformer_encoder.layers.0.linear2.bias f4 [128]
00000000: 138c c8bc 372e 4abb 9f32 803c ab92 2fbc
00000010: 8d81 243d 2f30 af3d 6fd4 8c3d 3f18 4a3d
00000020: 0723 cb3d 1051 95bc d393 393d c22c 4dbd
00000030: 436c adbd 990c aabc 59d3 ad3d 6f0d aabd
00000040: c77e edbc a4f8 21bd 051a 5f3d 24e6 54bd
00000050: fdf0 753d 560c 423d 3c53 863d 781d 74bd
00000060: a40d fabc 79dd 5ebd 9991 e53c 06fa 243d
00000070: 6718 da3c f376 c4bd d823 46bc 7ef4 5c3d
00000080: 2902 78bc c68c 4fbd 7b76 9d3d 410c 093d
00000090: 5029 163d b546 873b 0751 a93c 7466 fabc
000000a0: e16c 53bd 7c5e e83b cfc0 f3ba a93b a63b
000000b0: 4b2d 013d 7b20 8a3d 2cba 613d 8156 8fbd
000000c0: cc7d 85bd 2e1c 38bb 11c1 a03c b463 903d
000000d0: ed32 8bbc ecec bd3d 787b 6bbd 1214 edbb
000000e0: dfa2 2b3d 4af9 433d 2f6f c7bd d56c 8cbd
000000f0: 6ccf 3c3d 7235 9d3d 55f7 8ebd 1b15 ed3d
00000100: 5bca 0a3d 06f0 7e3d 989e 6eba 9380 813d
00000110: cca7 88bb 1876 41bd 4ca1 4abd ed42 d9bd
00000120: 8be2 263c 95db 8d3d 506a da3d 7315 83bd
00000130: 80ca e4bc 894b c2bd 9fd6 66bb 7058 cb3d
00000140: 8935 acbd 8247 a4bd ed88 68bd 8451 353d
00000150: 367d 6d3d 81bd f1bc fe75 8b3c 8f0e babb
00000160: 78e2 4e3c 8279 46bd fad7 7f3d a512 953d
00000170: f1e8 27bc bfe2 57bd a91b a4bd 57db 6d3d
00000180: 5927 53bd 940c abbd c1d5 0d3d 3022 2dbd
00000190: 2ed2 0fbd 04a1 813d d33f bb3c 2bba 973d
000001a0: bb71 a13b 2f11 e5bc 5bf1 613d 136e 51bd
000001b0: b913 4b3d 0e80 99bc 6a10 43bd 6490 d0bc
000001c0: 4f98 d83a e70e 29bd b036 60bd cca2 6dbd
000001d0: 4c5d 8cbd 2f46 c3bd c276 95bd 1092 213d
000001e0: ea6f 71bd 45ed 3cbd 24fb c83b 6f32 9abd
000001f0: 23a4 8c3d 80d4 afbd 68fa bcbd 012b 843c
-0.024480855 -0.00308503 0.015649138 -0.010716121 0.04016261 0.08554112 0.06876456 0.04933953
0.0991879 -0.01822713 0.04530699 -0.050091513 -0.08467915 -0.02075796 0.08487577 -0.083033435
-0.028991116 -0.039543763 0.054468174 -0.05197729 0.060044277 0.047375046 0.065588444 -0.059598416
-0.030524082 -0.05441043 0.028023528 0.040277503 0.026622964 -0.09593 -0.012093507 0.053944103
-0.015137234 -0.05067136 0.07688614 0.03345895 0.036660492 0.004128302 0.02066852 -0.030566432
-0.051617507 0.0070913415 -0.001859689 0.00507303 0.031537335 0.067444764 0.055109188 -0.06998921
-0.065181345 -0.0028092968 0.019623311 0.07050267 -0.016992057 0.09273705 -0.057490796 -0.0072350586
0.041903373 0.047845162 -0.097380035 -0.068566956 0.04609625 0.076762095 -0.069807686 0.11576291
0.033884387 0.062240623 -0.0009102612 0.06323352 -0.0041703936 -0.047231764 -0.04947023 -0.10608468
0.010185848 0.069266476 0.10664809 -0.064005755 -0.02792859 -0.094870634 -0.003522314 0.099289775
-0.084086485 -0.080214515 -0.056771208 0.044267192 0.05798074 -0.029509308 0.017024036 -0.005678005
0.012627237 -0.048455723 0.06246183 0.07278947 -0.010248409 -0.052706476 -0.08013088 0.058070507
-0.051551197 -0.083520085 0.03462768 -0.042268932 -0.035112552 0.063295394 0.022857582 0.074085556
0.004926888 -0.027962295 0.055161815 -0.051130366 0.049579356 -0.018737819 -0.047623076 -0.025459476
0.0016524884 -0.041273978 -0.054739654 -0.058016583 -0.068537325 -0.09534871 -0.07298042 0.039445937
-0.05894462 -0.046124715 0.006133454 -0.07529151 0.06867244 -0.08585453 -0.09227449 0.016133787
