tuning_spectral_transformer_encoder/transformer_encoder_model_tuning_fold_5.pth (torch, 815746 bytes, 28 tensors)

embedding.weight f4 [128, 12]
00000000: 8709 2f3e 02c7 16bc f11a 3dbe 813c 633e
00000010: e161 1d3e da54 f6bd 0f68 843e 5e5b a9bd
00000020: eff3 ff3d 8fa2 833e a4ad 383e df4a 083e
00000030: b73b 1f3c cb04 c73d 5337 2b3c 9079 b33d
00000040: 3512 64be 8273 bcbd c68b d8bd de7d 8fbe
00000050: 3955 58be 174b 193e 2f61 17be 1181 883d
00000060: 9abd 36be b865 a3be 3e05 633e e1c0 bebd
00000070: 234a 823e 365d 523e f074 693e ad5c a3bd
00000080: 94c3 13be 6a42 78be bbb8 583e 7c00 de3d
00000090: 5ed6 b73c 9ee9 19be a363 86be b4e6 c9bd
000000a0: fc68 3cbe 04db 3e3e d358 82be 36e7 91be
000000b0: a48e 99be d6a0 18be 8a35 863e 3ed7 333e
000000c0: 8043 673c 4559 573e 9a7b cd3d 7489 a7bb
000000d0: 0a6e 53be 9164 8cbe f20c 0b3e 882c c2bd
000000e0: 97d7 573e c7f3 9e3d d488 ecbc 3538 59be
000000f0: d89a 3b3e 8043 79be bd02 c5bd c31e f53d
00000100: f941 5a3d 5953 46be fcdc 923d a18f 00be
00000110: dcf3 803e 152b c13d fc46 e9bd 2550 ab3d
00000120: 9a38 12be d441 573e 8be9 713e dd2d 073d
00000130: e5b3 8abe fa56 4f3e ea04 70be c8c4 693e
00000140: 1b9e 19be ea54 e1bd 4529 4b3e b67f 14be
00000150: 3809 473e 409b 20be 6711 8b3d 8c2f c9bd
00000160: 881c 803e f1af 38be 3eb8 813e a151 9ebe
00000170: 4e21 fd3d 7be0 713d 5013 203e 508d cb3d
00000180: 8386 9cbd 2e12 613e c994 a5be da19 fabd
00000190: 9c47 53be d4cd 8a3b b914 d93d 2ae4 39be
000001a0: a6f3 95be 4646 c6bd 7563 b6bb 2748 fb3d
000001b0: 8aed 403e a49b 1ebc 2969 f4bb e6aa c83d
000001c0: eda9 17bd 9d17 413c 6542 683d 7d5a 4dbe
000001d0: dd8d 27be 2b9d 5c3e 9f25 3a3e 77ca 823e
000001e0: b0af 51be 1dad 83be 14b5 40be ea6c 88be
000001f0: 2587 8b3e 112a 80bd 87ae a33d fccf 363e
00000200: f308 823d 61ca 55be b489 0dbe a3d0 7e3d
00000210: 30a0 8fbb dfba 853e ff65 cb3d 9f68 213e
00000220: c5c3 dd3d e532 be3d 9d6d 803e 229b 8f3e
00000230: 4d39 e83c efb7 69be 978c 863e 0258 d43d
00000240: f1b3 813e 72e8 853d 2159 8fbe dfe4 723d
00000250: 1874 8c3e 4763 313e 1ae0 c7bd aee3 1abe
00000260: 5e21 93be 0131 0b3e 89ee 673c b4a5 c13d
00000270: 9965 51be 7168 adbb 1d17 3abe a652 fd3c
00000280: 17d5 5bbe cff2 f1bd 33b0 c4bd bf5a 1abe
00000290: 6bce 753e b78b ae3d 70f9 c3bd df79 5dbe
000002a0: bf4f b3bd fc86 c4bb 239c 183e 35bb 173b
000002b0: 6e29 e43c a645 dc3d b5d7 89be e94e dc3d
000002c0: face c63d f535 0c3e b5ce e43d 47eb 03be
000002d0: d4f9 713e a09d 7cbe 874e 3a3e f862 62be
000002e0: 83b0 fabc d95d 1d3e 5088 613d cc23 123e
000002f0: 1d79 3a3e 3127 06be dc06 64be cec7 51be
00000300: 708d c33d 8383 d4bd fed1 8dbe 580d d8bd
00000310: ff95 6b3e 5e37 863b 7f10 c5bd e09a 8ebe
00000320: 15b5 1e3e b66b 92bd 443e b83b 7f37 033e
00000330: 2964 9ebe be84 32be 345a d23d 2884 b23d
00000340: 9dc0 11be 9845 35be 42d1 40bd 285b f33d
00000350: 0836 143e c714 4dbe c304 9c3d fae4 eabd
00000360: c35d 843d 0119 ab3d 83a0 68be 2feb 54be
00000370: 511c 3c3e 35b6 24be e483 6a3c ab20 3b3e
00000380: a4b3 88be a64c 9fbe 1c47 a6bd 5ee1 9fbe
00000390: d864 05be 2dd6 a4bd 0956 d9bd b40a e23d
000003a0: 3c46 7abe 4247 1dbe 2100 273e b35b a5bd
000003b0: c2e3 2e3d 964d 2f3e de10 2c3e 1cee a3bd
000003c0: eedf cb3d 88d9 293d 1bae 1b3e 9770 13be
000003d0: c338 00be 276f 7ebe ae0f 7cbe dc5c 473e
000003e0: 8cab 333d dd15 613d e5f4 833e c20c 1dbe
000003f0: 6c80 0c3e fc6d c3bd 2cb9 143e 9bca 4e3e
0.17093478 -0.009202721 -0.18467309 0.22191049 0.15369369 -0.12027903 0.2586064 -0.0826938
0.124976985 0.2570996 0.18034989 0.13309811 0.009718827 0.09717711 0.010450202 0.087634206
-0.2227257 -0.09201719 -0.10573535 -0.28025717 -0.2112626 0.14970051 -0.14783166 0.066652425
-0.17845765 -0.31913543 0.22169968 -0.093141325 0.25447187 0.2054337 0.22798514 -0.07976661
-0.14430076 -0.24244085 0.21164219 0.10839936 0.022441085 -0.15030524 -0.26247892 -0.09858456
-0.18399423 0.18638235 -0.25458393 -0.28496712 -0.2999164 -0.14905104 0.26212722 0.17562577
0.014115214 0.21030147 0.10033341 -0.0051128212 -0.20647445 -0.27420476 0.13579157 -0.0948115
0.21078335 0.077613406 -0.028873838 -0.21212848 0.18320787 -0.24342155 -0.09619663 0.11968758
0.053285573 -0.19367732 0.07171056 -0.1255479 0.2518605 0.09432045 -0.11390492 0.08364896
-0.14279404 0.21021205 0.23624246 0.033002723 -0.27090374 0.20248023 -0.23439375 0.22828972
-0.15001719 -0.11002524 0.19839962 -0.14501843 0.1943711 -0.15684223 0.067904286 -0.09823522
0.25021768 -0.18035866 0.25335878 -0.30921653 0.12359868 0.059051972 0.15632367 0.099390626
-0.076428436 0.21979591 -0.32340077 -0.12211962 -0.20632786 0.0042359624 0.10599656 -0.18153444
-0.29287452 -0.09681372 -0.0055660554 0.12269621 0.18840614 -0.009680662 -0.007458825 0.09798221
-0.03702729 0.011785415 0.056703944 -0.2005405 -0.1636271 0.2154433 0.18178414 0.25545093
-0.20477176 -0.25718012 -0.18819076 -0.26645595 0.27251545 -0.062580235 0.07992273 0.17852777
0.06349363 -0.20877983 -0.13822061 0.06221069 -0.0043831095 0.26119134 0.099315636 0.15762566
0.10828356 0.09287051 0.25083628 0.28048044 0.028347636 -0.22824071 0.26279137 0.10368349
0.25332597 0.06538476 -0.27997687 0.0593003 0.27432323 0.17323028 -0.09759541 -0.15125915
-0.28736395 0.13592912 0.014155992 0.094554335 -0.20448913 -0.0052919914 -0.1817288 0.030923199
-0.21468006 -0.1181389 -0.0960392 -0.1507368 0.24004523 0.08522742 -0.09569061 -0.21628521
-0.08755445 -0.0059975367 0.14903311 0.0023152356 0.027851786 0.10755472 -0.26922384 0.107572384
0.097074464 0.13692458 0.11172239 -0.1288272 0.23630458 -0.24669504 0.18194018 -0.22108066
-0.030601745 0.15367831 0.05506164 0.14271468 0.18210264 -0.13100888 -0.22268242 -0.20486376
0.095484614 -0.10376646 -0.27699274 -0.1054942 0.23006438 0.0040959558 -0.09622287 -0.27852535
0.15498765 -0.071494505 0.005622657 0.12814139 -0.3093579 -0.1743345 0.10271111 0.08716613
-0.14233632 -0.17702329 -0.047074564 0.11882621 0.14473736 -0.20027457 0.07618096 -0.11469455
0.06463196 0.083543785 -0.2271748 -0.2079284 0.18370177 -0.16085131 0.014313672 0.1827418
-0.26699555 -0.31113166 -0.08119032 -0.3122663 -0.1302675 -0.08048663 -0.10612113 0.11037198
-0.24440855 -0.15359214 0.16308643 -0.08074131 0.042697676 0.1711944 0.1680331 -0.080044
0.099548206 0.04146722 0.15203135 -0.14398418 -0.12521653 -0.24847089 -0.24615356 0.19469017
0.04386477 0.05495249 0.25772777 -0.15336898 0.13720864 -0.09542462 0.14523762 0.20194475

embedding.bias f4 [128]
00000000: d7c3 3c3e f919 b03e 3001 f23c f969 a53d
00000010: 116b 8dbd dcd9 803e 7a5e 803d 0e3a 62be
00000020: f7d6 15be 23d3 45be 67a2 703e d171 683e
00000030: 69a6 75be 063e 2b3e 6b71 d93d bbd3 8dbe
00000040: da31 013d a570 0f3e d9dc 503e 76bb f5bd
00000050: d658 c4bd b933 573e ad2b 94be da41 603e
00000060: 2249 2cbe 9763 57be b530 49be 0339 bfbd
00000070: 52ff 563e 9ea0 b8bd bc63 7fbe 8d41 0dbe
00000080: 0479 1c3e fb39 6abe f1f0 90be dd3e 80be
00000090: 76a3 29be 4ec2 9dbb 2f25 55bc 4ffa f43d
000000a0: 54e7 06bd 5ae8 2bbe 24cd b73d 3f4d 2bbe
000000b0: 4abf d43d dd06 cb3d e7c1 af3d 2223 a33e
000000c0: bd07 3abe c9d7 9fbd ae4f 233e 53da de3d
000000d0: 3d1c 0ebe 9bce 853c 26cb 70be 215b c83d
000000e0: 40da 7b3e da15 7a3e 2748 773c b066 80be
000000f0: be31 d13d d611 a2bd 1ff6 01be 3f4f 7ebd
00000100: fe60 68be 0bcb 3c3e afea 513d d9b4 983d
00000110: 325d 8e3e edc1 75bc 18e2 1a3e 7d7b 4fbe
00000120: 6b8e 27bd 5da8 66be 8950 2e3d ddfe 283e
00000130: 4e7f 2f3e 57bf 8bbe d062 45bc 5ef0 96be
00000140: 26ba 073d 7d28 993e cfab 12bd b38b 923e
00000150: a1a2 4dbe 0086 65be b529 28bc 147a 3d3e
00000160: 2434 5a3e 29e1 013e 695b 30be 74cc bfbd
00000170: 2ca0 973e e616 93be b08f 373e 6746 363e
00000180: 590a 823c ae17 8c3e 3fd8 72be 0cb7 eb3d
00000190: 47a4 2cbe 98d1 813e 0b9e 7a3d 9ff9 ab3d
000001a0: 063c dcbd 3dd2 033e c3fc 58be 6ef7 bdbd
000001b0: 258f 55be 9883 6e3e e459 503e cc16 04be
000001c0: 924b ccba e75a 6c3e 072b 2fbe c818 c6bc
000001d0: 8655 393e 184a e5bd 6469 4e3e c01b 87be
000001e0: c8cd 13be 8fa5 2a3e dd3a 63bd 7c78 2b3e
000001f0: 38f3 23bd f496 48be c7b0 49bd 8703 20be
0.18434082 0.34394816 0.029541582 0.08076853 -0.06905187 0.25166214 0.0626802 -0.22092459
-0.14632784 -0.19318824 0.23499452 0.22699668 -0.23989262 0.16722879 0.10617336 -0.277006
0.031541683 0.14007814 0.20396747 -0.11998646 -0.095872566 0.21015824 -0.28939572 0.2190012
-0.16824773 -0.21034084 -0.19647487 -0.09337046 0.20995834 -0.0901501 -0.2494039 -0.13794537
0.15280539 -0.2287368 -0.28308824 -0.2504796 -0.16566262 -0.0048144227 -0.013009354 0.11961805
-0.032935455 -0.16787854 0.08974674 -0.16728686 0.10388048 0.099134184 0.08581906 0.31862742
-0.18167014 -0.078048296 0.15948364 0.10881486 -0.1387796 0.016333869 -0.23514995 0.097830065
0.24594975 0.24422398 0.015092886 -0.25078344 0.10214566 -0.07913558 -0.12691544 -0.062087294
-0.2269325 0.1843683 0.051249202 0.07456369 0.27805477 -0.014999849 0.1512531 -0.20261951
-0.040907305 -0.22525163 0.042557273 0.16503473 0.17138407 -0.27294418 -0.0120474845 -0.2948026
0.03313651 0.29913703 -0.03580838 0.28622207 -0.20081569 -0.22414398 -0.01026385 0.185036
0.21308953 0.12683548 -0.1722237 -0.09365168 0.2961439 -0.28728408 0.17925906 0.17800294
0.015874075 0.27361816 -0.23715304 0.11509523 -0.16859542 0.2535522 0.061185878 0.08397221
-0.10753636 0.12873168 -0.21190171 -0.09275709 -0.20855387 0.23292387 0.2034679 -0.12899321
-0.0015586487 0.23081551 -0.17106257 -0.024181738 0.18099031 -0.11195773 0.20157391 -0.2638836
-0.14433968 0.16664718 -0.05547606 0.1674518 -0.040026873 -0.19588834 -0.049240854 -0.15626346

transformer_encoder.layers.0.self_attn.in_proj_weight f4 [384, 128]
00000000: 14c5 1ebd 80d2 5b3a fec1 33bd c870 6dbd
00000010: 081b 00bc f6d9 c9bd 5dd6 c1bd 9c13 29bd
00000020: ff2b a73d 2443 cc3c a4ce 9ebc 8014 473c
00000030: 605a 28bd 80cc d53b b037 27bd 8b90 8f3d
00000040: ad30 923d c7ff a6bd 4853 dabc 7286 87bd
00000050: d5bc aa3d 4d08 b03d 206b 02bc b230 09bd
00000060: 5963 a03d ac42 c03c 097d 82bd a4cd db3c
00000070: 0876 00bd 60ab af3b 50f7 94bc a72c 8ebd
00000080: 8429 80bd 78dc 28bd f2c4 703d bfd1 8dbd
00000090: 807e d9bb f003 4c3c 04dd 83bd 8ed0 14bd
000000a0: 68b5 b9bc b71a aa3d e1c3 ad3d c747 da3d
000000b0: 2c70 d8bc 7762 b53d 040b bd3c 7a3d 6d3d
000000c0: 5e95 9cbd 6296 b5bd 703f 89bd 6a14 643d
000000d0: 50fb 2ebc 8cb4 9b3c 78b6 91bd 49a7 dc3d
000000e0: 7759 83bd e412 13bd c4da c03c cfa3 a5bd
000000f0: e24b 96bd a8f9 773c 3808 b4bc 4bcb cdbd
00000100: 7db7 c73d 2598 b8bd f918 bb3d d085 8bbd
00000110: 20c0 eabb 7051 21bc c0f6 b93a 1357 8a3d
00000120: d0ab d83b d4bb dfbc a440 e03c 85ce 7bbd
00000130: 515b a33d 54f0 b0bd ae11 0bbd 177e d53d
00000140: 3b0e bfbd 3042 6abc e100 963d 6002 bf3b
00000150: 8845 6cbc 7cb8 933c 9011 043c 6dcc 4dbd
00000160: 814c a4bd 8c2e d4bd bde8 4ebd d50c 983d
00000170: 30c9 8cbc 5436 98bd eab3 0a3d ccfd 19bd
00000180: e9e1 57bd 85fc 963d 9476 923c d99f 8b3d
00000190: 24b1 963c 5a77 263d b7d7 c1bd 58bc 0ebd
000001a0: 8085 a7bb 66f9 373d 7b04 d73d fa95 773d
000001b0: f078 57bc f84f 96bd 0001 ae39 53fe 86bd
000001c0: 7314 af3d 2174 d03d 6c26 0abd c4d1 c1bd
000001d0: 2e33 663d 62e4 ccbd 8c35 de3c e094 cdbb
000001e0: 35ba c33d e7c5 dabd 6a10 40bd c692 44bd
000001f0: 80bd 5d3a a545 ab3d 6aba 4d3d ec24 abbc
00000200: 0eec bcbd 3d53 b0bd 8062 1abd 90b6 7abc
00000210: 7e90 1d3d 92fb 6fbd 5ec7 753d 5457 12bd
00000220: 9e6b 403d a370 8c3d 196d 77bd 4de7 903d
00000230: edf8 b93d 54a1 df3c c0d5 2d3c ca3b 503d
00000240: cef8 c3bd c8b3 62bc b055 673c 5d95 db3d
00000250: dcad 99bc 2043 afbd 2a18 7b3d aa3d 0f3d
00000260: 4dd5 b93d 3456 903c 80c2 f23a da32 07bd
00000270: c0d4 ff3b e8a8 b1bd 67a2 d63d ed94 ba3d
00000280: 6696 25bd 3078 763c 5078 a5bb 2dba bb3d
00000290: 348a d43c 8163 6abd f54f 66bd 8892 81bd
000002a0: 6ace 573d 2051 553b 582a 0fbc a092 2d3c
000002b0: 8fae c0bd 3c64 5dbd 5113 9b3d 7ffa d8bd
000002c0: 38cc debc 5f4a 99bd cd93 a63d 8012 80bc
000002d0: 7029 adbc 4d61 a13d 310c 52bd 49ef 843d
000002e0: 5de5 c03d 76eb 553d 884a 35bc b60b 1b3d
000002f0: d52a 97bd 768b 553d d3e0 933d 8022 003c
00000300: a4ee e8bc cf27 84bd 34db aabc 6fa7 ce3d
00000310: bcee f03c 8dae 923d 130f 69bd 858b 833d
00000320: 49d5 b43d 4618 733d 5500 9e3d 1326 9c3d
00000330: 70ce a3bc 00b2 40bc 461e 633d 024d 02bd
00000340: e3d1 823d 09ff b13d 121e 0b3d 20d7 47bd
00000350: 519f cf3d 67b4 9c3d f874 55bd cb18 6abd
00000360: 90cb b03b 9411 e93c 24ee 91bc 2678 343d
00000370: 68e0 78bc b6dc 8bbd 3c38 aa3c 2e76 1f3d
00000380: d9ad 9fbd 286f 36bd 0988 94bd ea08 113d
00000390: ec0f 78bd fdb7 c2bd a043 1c3b 3157 49bd
000003a0: 0344 893d acec cabc cc6e 89bc c260 9ebd
000003b0: f00f 9dbd 19f9 a83d 9408 fbbc 0dd5 51bd
000003c0: d067 38bd 9be2 cf3d a3e1 9b3d 4f06 db3d
000003d0: dd8a 9a3d 34f1 74bd 3a31 cebd 5655 a4bd
000003e0: 307b 72bc 95c0 873d ce9d 3d3d cd86 9fbd
000003f0: 905b 073c e028 08bb d437 ca3c e0e7 a83b
-0.038762167 0.0008385554 -0.043886177 -0.057968885 -0.007818945 -0.09856026 -0.09464715 -0.041278467
0.081626885 0.024934359 -0.019385643 0.012150884 -0.041101813 0.0065246224 -0.040824592 0.07009991
0.071381904 -0.081542544 -0.02665104 -0.0661744 0.08336798 0.08595333 -0.007960111 -0.033493705
0.07831449 0.023469292 -0.06371505 0.026831456 -0.031362563 0.0053610057 -0.018184334 -0.069421105
-0.062579185 -0.04122588 0.05878157 -0.069247715 -0.0066373944 0.012452111 -0.0643864 -0.036331706
-0.022669509 0.08305877 0.084846266 0.10658222 -0.026420675 0.08856671 0.023076542 0.057919957
-0.07645677 -0.08866574 -0.06701553 0.05568353 -0.010680035 0.01900699 -0.07114881 0.107740946
-0.064135484 -0.035906687 0.023541816 -0.08087885 -0.07338692 0.015135206 -0.021976575 -0.10048541
0.097517945 -0.09013394 0.091356225 -0.06812632 -0.0071640164 -0.009846076 0.0014187917 0.06754889
0.0066122785 -0.027311243 0.027374573 -0.06147625 0.079764016 -0.08639589 -0.033952408 0.1042444
-0.09328886 -0.014298007 0.073243864 0.0058291405 -0.014420874 0.018032305 0.008060828 -0.050243784
-0.080224045 -0.103604406 -0.050514925 0.074243225 -0.017185777 -0.07432237 0.033862986 -0.037595555
-0.05270568 0.07372383 0.017878808 0.06817598 0.018395014 0.040641166 -0.094649725 -0.034847587
-0.00511235 0.04491558 0.104989015 0.060445763 -0.013151392 -0.073394716 0.0003318861 -0.06591477
0.08548822 0.101784 -0.03372805 -0.09463838 0.056201153 -0.10004498 0.027125143 -0.006273851
0.095570005 -0.10682278 -0.046890654 -0.047991537 0.00084587187 0.08362893 0.050226606 -0.02089163
-0.09224711 -0.086096264 -0.037691593 -0.015302315 0.038467877 -0.058589526 0.060004584 -0.035727814
0.04697763 0.06857421 -0.060406778 0.07075367 0.09080682 0.027298607 0.010610044 0.05083827
-0.0956894 -0.0138368085 0.014119551 0.10721848 -0.01875966 -0.08557725 0.06130234 0.034970917
0.09073887 0.01761923 0.00185211 -0.03300748 0.007807344 -0.086747944 0.104801945 0.091104366
-0.040426634 0.015043303 -0.0050497428 0.091663696 0.025944807 -0.0572238 -0.056228597 -0.06326777
0.052687086 0.0032549575 -0.008738123 0.01059404 -0.094082944 -0.05405067 0.07572044 -0.10594653
-0.027196988 -0.07484888 0.081336595 -0.015633821 -0.021137923 0.07879887 -0.051281158 0.064909525
0.094187476 0.052226506 -0.011065133 0.037852965 -0.073812164 0.052134953 0.07220616 0.007820725
-0.028434105 -0.064529054 -0.020856477 0.10090529 0.029410712 0.07162199 -0.05689914 0.064230956
0.088297434 0.05934932 0.07714907 0.076244496 -0.019995898 -0.0117611885 0.055448793 -0.03181172
0.06387689 0.08691222 0.033964224 -0.048789144 0.10137809 0.076515965 -0.052113503 -0.05715255
0.0053953603 0.028450765 -0.01781375 0.044059895 -0.015190221 -0.06829207 0.020778768 0.038931064
-0.07796831 -0.0445396 -0.07252509 0.03540889 -0.06056206 -0.09507749 0.0023844019 -0.049155418
0.06702425 -0.024771057 -0.016776465 -0.07733299 -0.076690555 0.082506366 -0.030643739 -0.05122857
-0.04502088 0.101506434 0.07611396 0.10694563 0.07546017 -0.05980034 -0.10067983 -0.08024089
-0.014799878 0.06628529 0.046293072 -0.07789383 0.008261576 -0.0020776317 0.024684824 0.005154595

transformer_encoder.layers.0.self_attn.in_proj_bias f4 [384]
00000000: 0000 0000 0000 0000 0000 0000 0000 0000
00000010: 0000 0000 0000 0000 0000 0000 0000 0000
00000020: 0000 0000 0000 0000 0000 0000 0000 0000
00000030: 0000 0000 0000 0000 0000 0000 0000 0000
00000040: 0000 0000 0000 0000 0000 0000 0000 0000
00000050: 0000 0000 0000 0000 0000 0000 0000 0000
00000060: 0000 0000 0000 0000 0000 0000 0000 0000
00000070: 0000 0000 0000 0000 0000 0000 0000 0000
00000080: 0000 0000 0000 0000 0000 0000 0000 0000
00000090: 0000 0000 0000 0000 0000 0000 0000 0000
000000a0: 0000 0000 0000 0000 0000 0000 0000 0000
000000b0: 0000 0000 0000 0000 0000 0000 0000 0000
000000c0: 0000 0000 0000 0000 0000 0000 0000 0000
000000d0: 0000 0000 0000 0000 0000 0000 0000 0000
000000e0: 0000 0000 0000 0000 0000 0000 0000 0000
000000f0: 0000 0000 0000 0000 0000 0000 0000 0000
00000100: 0000 0000 0000 0000 0000 0000 0000 0000
00000110: 0000 0000 0000 0000 0000 0000 0000 0000
00000120: 0000 0000 0000 0000 0000 0000 0000 0000
00000130: 0000 0000 0000 0000 0000 0000 0000 0000
00000140: 0000 0000 0000 0000 0000 0000 0000 0000
00000150: 0000 0000 0000 0000 0000 0000 0000 0000
00000160: 0000 0000 0000 0000 0000 0000 0000 0000
00000170: 0000 0000 0000 0000 0000 0000 0000 0000
00000180: 0000 0000 0000 0000 0000 0000 0000 0000
00000190: 0000 0000 0000 0000 0000 0000 0000 0000
000001a0: 0000 0000 0000 0000 0000 0000 0000 0000
000001b0: 0000 0000 0000 0000 0000 0000 0000 0000
000001c0: 0000 0000 0000 0000 0000 0000 0000 0000
000001d0: 0000 0000 0000 0000 0000 0000 0000 0000
000001e0: 0000 0000 0000 0000 0000 0000 0000 0000
000001f0: 0000 0000 0000 0000 0000 0000 0000 0000
00000200: 0000 0000 0000 0000 0000 0000 0000 0000
00000210: 0000 0000 0000 0000 0000 0000 0000 0000
00000220: 0000 0000 0000 0000 0000 0000 0000 0000
00000230: 0000 0000 0000 0000 0000 0000 0000 0000
00000240: 0000 0000 0000 0000 0000 0000 0000 0000
00000250: 0000 0000 0000 0000 0000 0000 0000 0000
00000260: 0000 0000 0000 0000 0000 0000 0000 0000
00000270: 0000 0000 0000 0000 0000 0000 0000 0000
00000280: 0000 0000 0000 0000 0000 0000 0000 0000
00000290: 0000 0000 0000 0000 0000 0000 0000 0000
000002a0: 0000 0000 0000 0000 0000 0000 0000 0000
000002b0: 0000 0000 0000 0000 0000 0000 0000 0000
000002c0: 0000 0000 0000 0000 0000 0000 0000 0000
000002d0: 0000 0000 0000 0000 0000 0000 0000 0000
000002e0: 0000 0000 0000 0000 0000 0000 0000 0000
000002f0: 0000 0000 0000 0000 0000 0000 0000 0000
00000300: 0000 0000 0000 0000 0000 0000 0000 0000
00000310: 0000 0000 0000 0000 0000 0000 0000 0000
00000320: 0000 0000 0000 0000 0000 0000 0000 0000
00000330: 0000 0000 0000 0000 0000 0000 0000 0000
00000340: 0000 0000 0000 0000 0000 0000 0000 0000
00000350: 0000 0000 0000 0000 0000 0000 0000 0000
00000360: 0000 0000 0000 0000 0000 0000 0000 0000
00000370: 0000 0000 0000 0000 0000 0000 0000 0000
00000380: 0000 0000 0000 0000 0000 0000 0000 0000
00000390: 0000 0000 0000 0000 0000 0000 0000 0000
000003a0: 0000 0000 0000 0000 0000 0000 0000 0000
000003b0: 0000 0000 0000 0000 0000 0000 0000 0000
000003c0: 0000 0000 0000 0000 0000 0000 0000 0000
000003d0: 0000 0000 0000 0000 0000 0000 0000 0000
000003e0: 0000 0000 0000 0000 0000 0000 0000 0000
000003f0: 0000 0000 0000 0000 0000 0000 0000 0000
0.0 0.0 0.0 0.0 0.0 0.0 0.0 0.0
0.0 0.0 0.0 0.0 0.0 0.0 0.0 0.0
0.0 0.0 0.0 0.0 0.0 0.0 0.0 0.0
0.0 0.0 0.0 0.0 0.0 0.0 0.0 0.0
0.0 0.0 0.0 0.0 0.0 0.0 0.0 0.0
0.0 0.0 0.0 0.0 0.0 0.0 0.0 0.0
0.0 0.0 0.0 0.0 0.0 0.0 0.0 0.0
0.0 0.0 0.0 0.0 0.0 0.0 0.0 0.0
0.0 0.0 0.0 0.0 0.0 0.0 0.0 0.0
0.0 0.0 0.0 0.0 0.0 0.0 0.0 0.0
0.0 0.0 0.0 0.0 0.0 0.0 0.0 0.0
0.0 0.0 0.0 0.0 0.0 0.0 0.0 0.0
0.0 0.0 0.0 0.0 0.0 0.0 0.0 0.0
0.0 0.0 0.0 0.0 0.0 0.0 0.0 0.0
0.0 0.0 0.0 0.0 0.0 0.0 0.0 0.0
0.0 0.0 0.0 0.0 0.0 0.0 0.0 0.0
0.0 0.0 0.0 0.0 0.0 0.0 0.0 0.0
0.0 0.0 0.0 0.0 0.0 0.0 0.0 0.0
0.0 0.0 0.0 0.0 0.0 0.0 0.0 0.0
0.0 0.0 0.0 0.0 0.0 0.0 0.0 0.0
0.0 0.0 0.0 0.0 0.0 0.0 0.0 0.0
0.0 0.0 0.0 0.0 0.0 0.0 0.0 0.0
0.0 0.0 0.0 0.0 0.0 0.0 0.0 0.0
0.0 0.0 0.0 0.0 0.0 0.0 0.0 0.0
0.0 0.0 0.0 0.0 0.0 0.0 0.0 0.0
0.0 0.0 0.0 0.0 0.0 0.0 0.0 0.0
0.0 0.0 0.0 0.0 0.0 0.0 0.0 0.0
0.0 0.0 0.0 0.0 0.0 0.0 0.0 0.0
0.0 0.0 0.0 0.0 0.0 0.0 0.0 0.0
0.0 0.0 0.0 0.0 0.0 0.0 0.0 0.0
0.0 0.0 0.0 0.0 0.0 0.0 0.0 0.0
0.0 0.0 0.0 0.0 0.0 0.0 0.0 0.0

transformer_encoder.layers.0.self_attn.out_proj.weight f4 [128, 128]
00000000: 523d 533d 7c87 01bd b8d0 a73d 3996 3b3c
00000010: b01b a33a 7262 de3c 7b1c 21bd 7d39 acbb
00000020: a432 8c3d 0107 a9bc 58d5 95bd 605c b53c
00000030: be08 e73c becd 76bc 96c9 ebbd 4025 7fbd
00000040: 4c4d 68bc 0fd4 443d 2668 5dbd 5216 7c3d
00000050: 125f cf3c 24c1 df3d ffbd 6f3b 6fb6 4cbc
00000060: 688b 783a 8773 46bd e9da 5b3b d262 333d
00000070: 2852 253d 52ab 483d 25cb d0bc 59ac 7dbc
00000080: f19a 72bd 23b8 253c 5aa4 963d 1347 c6bd
00000090: 39bf e83b 0b65 59bc c0c3 113d b8e4 fcbc
000000a0: 342c 8b3d 5059 d33c 50cb e7bb 458f d13d
000000b0: 0d6f 9dbd 50b1 81bd 4713 8c3d 024a 383c
000000c0: b357 233c 7628 4dbd de22 33bc 295f d73c
000000d0: f658 de3c 765c 9d3d 3c9d a9bd 5686 ac3d
000000e0: 57ad 4abd be09 43bd 7b82 d93b b9ae 58bd
000000f0: 4473 61bd 8adc 2ebd 0aa0 a1bd 0446 03bd
00000100: e55a 103d 3d0b 04bb 136f febc b6f7 50bd
00000110: dd73 5abd d688 29bc f287 b53d 7f6d 0d3d
00000120: a36b 213d 9ae0 ccbc b622 ba3d c917 643d
00000130: 0723 6abc 069a aebd eebf 8f3d 32c1 983c
00000140: 32a5 853d e5c2 ce3c 9948 90bc b75c 2c3d
00000150: 1b80 d33d 6177 113c 77c9 a8bc 6103 94bd
00000160: 62e1 003d 9658 173d 6278 073d c832 07ba
00000170: edd4 65bd f080 cebb f1f4 3cbc ece6 c9bd
00000180: 7db6 963c 4226 913d 1242 4e3c 9730 7ebc
00000190: f5ea 823d 8d23 1f3d 2e15 4b3d 7e28 cabc
000001a0: 5c9c 973d d118 34bd fde7 ecba e6ab b93d
000001b0: bd91 403d 56bf 0abd 4480 d1bb cd43 e93a
000001c0: d1e7 1dbd 50d4 cd3c e3b4 6f3d b6ee 02bd
000001d0: dc31 763c 719e ed3d a8b2 273d b2b6 6c3d
000001e0: 1e48 8a3d ab15 903d a871 7bbd c656 a3bd
000001f0: fe3f 783d cd33 ab3d 5870 973d 99a6 6dbc
00000200: 741c babb 4b61 153d 072f 93bd 273d 3fbd
00000210: 1125 43bd 2fc1 0cbd 1eff 803d faab b7bb
00000220: f599 c4bc 88d7 4cbc a2c3 82bb 594a c43d
00000230: 5762 30bb 2311 9fbd cdc2 cbbc 4a94 43bd
00000240: fdbd cfbc d5c6 a9bd e481 d4bc 4e2d 43bd
00000250: efc7 833d 2887 f53c f4ac 45bc d524 5ebd
00000260: 57da de3b 2dc3 d0bc 234c ebbc 72cb a0bd
00000270: 1c24 cf3c b9a0 c93a 230a 74bd 3a3a 323c
00000280: f6dc 4f3d 8455 c2b7 1937 b23d 0c0d f3bd
00000290: 64e6 2c3a 7ef5 883d 0f73 2b3c 4972 993d
000002a0: 574e 2cbd ad24 74bd 2c6b ff3c 690b fabc
000002b0: 4515 28bd 3947 b5bd 90d5 67bd e0dd aabd
000002c0: decf 60bd 46dd f2bc d2ed 9a3d d478 423d
000002d0: 0f10 3e3d b0f2 01bc 4b39 d0bd 852b 07bd
000002e0: 24e2 5b3d 9e7a a8bc efd8 acbb b314 72bd
000002f0: be10 423d 9ed5 33bd e2b7 97bd e983 fbbc
00000300: 18bd 79bd c53a 52bd ddac 14bd 7823 753d
00000310: 3916 213d 1d27 28bd 3cf2 4c3d 263f 1fbd
00000320: 2b1c 93bb 17f5 203c 3ab1 593d 44e8 763d
00000330: 1ef6 63bd 1791 4dbd eb3a 293d a377 a2bd
00000340: 331e 35bd 51b8 b3bc 07c5 7d3c 4376 843c
00000350: c230 8b3c 2555 00bd 9659 023d 5d76 493d
00000360: cf2a c7bb 4272 2e3d 018c 09bd 42d2 c63c
00000370: 801b 653d 8355 adbd d543 b9bb f082 d1bc
00000380: 3363 363d 9211 38bc 55d0 20bd 81e9 643d
00000390: 5df2 923d 5c2e 533d 1be3 723b d1ac 223d
000003a0: 6713 72bb 3cd5 64bd 59f2 8b3c 27a8 44bc
000003b0: 91bb 01bd faf9 52bd 5941 c13d bf3c 22bd
000003c0: 00e9 663d 1c66 90bd f461 0f3b 9ec3 a2bd
000003d0: 0953 5a3d 68aa 8fbd 3edd 3dbd 948c 7fbd
000003e0: d652 4abd aa32 e9bd 13d0 7dbc b807 afbd
000003f0: b0b0 09bd 3c41 5cbd dae7 6dbd df2a 1c3d
0.05157215 -0.03162335 0.08194107 0.01144939 0.0012444165 0.027146552 -0.0393338 -0.0052558766
0.068455964 -0.020633223 -0.07316083 0.022138774 0.02820241 -0.015063701 -0.11513059 -0.062291384
-0.014178585 0.048053797 -0.0540544 0.061544724 0.025313888 0.109255105 0.0036581752 -0.012494667
0.00094812224 -0.04845002 0.0033547229 0.043795414 0.040361553 0.04899151 -0.025487492 -0.015482985
-0.059229795 0.010114702 0.07355566 -0.09681525 0.0071028736 -0.013268719 0.035587072 -0.03087078
0.067955405 0.025799423 -0.0070737973 0.102324046 -0.07687197 -0.06332648 0.06839614 0.011248114
0.00996964 -0.050087415 -0.010933606 0.026290493 0.02714203 0.07683651 -0.08281943 0.0842406
-0.049481716 -0.047616713 0.006637869 -0.052901004 -0.055041566 -0.04269079 -0.07891853 -0.032049194
0.035242934 -0.00201483 -0.031058824 -0.051017486 -0.053333152 -0.010347566 0.0886382 0.03452825
0.03940929 -0.025009442 0.09088652 0.055686746 -0.014290578 -0.085254714 0.070190296 0.01864681
0.06525649 0.025239417 -0.017612742 0.042080607 0.103271686 0.00887856 -0.020603878 -0.07227207
0.03146494 0.036949717 0.03307379 -0.00051574083 -0.056111265 -0.0063019916 -0.011533008 -0.09858498
0.018397564 0.07087375 0.012588995 -0.015514514 0.06392471 0.038852263 0.049580745 -0.024677511
0.0740287 -0.04396898 -0.0018074509 0.0906599 0.047013987 -0.03387388 -0.0063934643 0.0017796695
-0.038551155 0.025125653 0.058522116 -0.031965934 0.015026536 0.11602486 0.040941864 0.05779142
0.067520365 0.07035383 -0.061387688 -0.07975535 0.060607903 0.083594896 0.07394475 -0.014505052
-0.0056796614 0.03646974 -0.07186704 -0.04668918 -0.04764277 -0.03436392 0.0629866 -0.005605218
-0.023999194 -0.0125025585 -0.0039906064 0.09584493 -0.0026914084 -0.077669404 -0.024873162 -0.04774884
-0.025359148 -0.08289877 -0.025940843 -0.047650628 0.06434619 0.029971674 -0.012065161 -0.054234345
0.0068009305 -0.025483692 -0.028722828 -0.07851304 0.025285773 0.0015382982 -0.05957998 0.01087814
0.050747834 -2.3166423e-05 0.08701915 -0.11867723 0.000659561 0.06687449 0.010464444 0.07492501
-0.0420669 -0.05960529 0.031179033 -0.030523019 -0.04103591 -0.08851475 -0.056600153 -0.083431005
-0.054885738 -0.029646527 0.07564892 0.047478512 0.046402033 -0.007931396 -0.10167178 -0.033000488
0.05368246 -0.02056628 -0.005274884 -0.05910177 0.047379248 -0.043904893 -0.0740812 -0.030702548
-0.06097135 -0.05132558 -0.036297668 0.05984828 0.039327834 -0.041052926 0.0500357 -0.038878582
-0.004489442 0.009824059 0.053147532 0.0602801 -0.055654638 -0.050187197 0.041315954 -0.07932975
-0.044218253 -0.021938475 0.0154888695 0.016169673 0.016991023 -0.0313312 0.031823717 0.049185146
-0.006078101 0.042589433 -0.033580784 0.02427018 0.05593443 -0.08463576 -0.005653838 -0.025575131
0.044528197 -0.011234658 -0.03926118 0.05588675 0.071751334 0.051557884 0.0037061635 0.03971559
-0.0036937834 -0.05586742 0.017083334 -0.012002981 -0.031673018 -0.051507927 0.09436292 -0.039608713
0.05637455 -0.07050726 0.0021878453 -0.07947467 0.053301845 -0.07014924 -0.04635357 -0.062389925
-0.049395405 -0.113866165 -0.015491503 -0.08546394 -0.033615768 -0.05377315 -0.05808244 0.038126823

transformer_encoder.layers.0.self_attn.out_proj.bias f4 [128]
00000000: a82c 59bc 022e 943d b486 d23c 9348 683d
00000010: a6c7 83bd 8c9f 703d a07a e7bc b812 493b
00000020: e4c1 0bbd 9cc6 e63c 22ba 8d3c 5533 dfbc
00000030: b479 18bc 4214 863d 9f6b 7abc ffb3 62bd
00000040: 2d98 f2bb 08aa 3fbc 102d 7f3d 8e08 05bc
00000050: 4fb9 c8bc d809 4a3d aeff 7cbd 29fd 3e3d
00000060: 491c 34bd a3a6 12bd 5793 f43b dad1 1d3b
00000070: aec3 0f3d 9f30 bbbc 30b3 31bd dfb4 a5bd
00000080: 4ff9 ea3b bc9a 1cbd bf87 5dbd 009c 77bd
00000090: 76c1 c1bd fbe5 eabc 3c98 763c a6d4 253d
000000a0: 8d68 083b 4dc8 81bd 081a d03c 8107 46bd
000000b0: ba91 f3bc 8b49 373d ebc9 263d ceb4 8e3d
000000c0: a3a5 44bd fcd3 f0bc 8aec 3d3d e2f6 47bc
000000d0: 2937 253d 8853 273c 1bf8 8fbd 8b06 863d
000000e0: 7ddb 883d c556 7f3d 043e 7c3d d04e 1dbd
000000f0: e47c cbbc fe84 be3b f0cc cebc 0fb3 233d
00000100: 22ef 56bc ba6a 093d 0f72 833c a3ed eabc
00000110: e510 303d f21e cf3c a011 1bbd e01f 70bc
00000120: 5359 59bb 490a 4fbd f35d dbba 2b56 893d
00000130: b241 713c 540f 07bd b5d5 313d e399 84bd
00000140: 6e32 4ebd ec62 243d 7999 093d e1ba 013d
00000150: 3fd5 11bd 9091 26bd 43e8 513d 6ee5 9e3c
00000160: e900 043c fcf7 873d af50 eabc 29f0 4dbd
00000170: 89c6 453d 0968 41bd f5c0 103d 8a0c c73c
00000180: 7eda 623b 8618 543d c0ff 103d ce80 5e3d
00000190: 80fe 2938 e394 9e3c dec9 a3bc 3f6c 433d
000001a0: 1188 17bd c195 3e3c af2f 863c 9be3 b3bc
000001b0: 7036 24bd 3fa7 113d 1822 8cbc 05f7 8abc
000001c0: 3477 37bd 2c7a 143d 8b51 19bc fafc 013c
000001d0: 6369 7d3d f1d4 94bb 7d14 543d 59e4 77bd
000001e0: 7747 35bd d824 a23c e0fe 08bd 70ac 033d
000001f0: 7ce8 1fbc dd09 44bd ef82 4b3d 738d 3abd
-0.013255276 0.07235338 0.025698997 0.056709837 -0.06434564 0.058745906 -0.028256714 0.0030681323
-0.034120455 0.028170876 0.01730067 -0.027246157 -0.00930636 0.065468326 -0.015284448 -0.05534744
-0.0074033947 -0.011698253 0.062298834 -0.008119715 -0.024502425 0.049325794 -0.061767273 0.04662815
-0.043972287 -0.03580345 0.0074638533 0.002408138 0.035098724 -0.022850333 -0.043383777 -0.08091139
0.007170833 -0.038233504 -0.054084536 -0.060451508 -0.09460728 -0.028674116 0.015050944 0.040486
0.002081427 -0.063370325 0.025403038 -0.048347 -0.029732574 0.04474787 0.040719908 0.069680795
-0.048009526 -0.029397957 0.04636816 -0.012204858 0.040335808 0.0102127865 -0.07029744 0.06544217
0.06682489 0.06233861 0.06158258 -0.03840524 -0.024839826 0.0058141937 -0.025244206 0.039965685
-0.013118537 0.033549048 0.016045598 -0.028677767 0.042984862 0.02528331 -0.037858605 -0.014656037
-0.0033164814 -0.050546918 -0.0016736373 0.06705888 0.014725136 -0.032973602 0.043416698 -0.06474664
-0.050341062 0.0401334 0.03359363 0.031672362 -0.035603758 -0.040666163 0.051246893 0.01939651
0.008056858 0.06639096 -0.028602926 -0.050277863 0.04828504 -0.047218356 0.03534027 0.024297971
0.0034615095 0.0517812 0.035400152 0.054322056 4.052976e-05 0.019358104 -0.019993719 0.047710653
-0.036994997 0.011632384 0.01638016 -0.021959117 -0.04009098 0.03555989 -0.0171061 -0.016963491
-0.044791415 0.036249325 -0.00935782 0.0079338495 0.061868083 -0.004541986 0.05177735 -0.060520504
-0.044257607 0.01979296 -0.033446193 0.03214687 -0.009760018 -0.04786097 0.049685415 -0.045545053

transformer_encoder.layers.0.linear1.weight f4 [128, 128]
00000000: f902 983d d5fa 933d 399f 75bd d2e5 983c
00000010: 7749 90bd 0076 d43d 1afe 36bd 35d0 4bbd
00000020: b0e9 a9bd bb19 d53d a804 40bd 87b4 c6bd
00000030: d748 4dbd 2e10 c63c 00af b339 4a7a 893d
00000040: 3bb7 783d ed7f ec3c 5d2b 27bc 5c3c 613d
00000050: c0f0 a73d fc70 1ebd 89ea 533e 5fd2 1bbe
00000060: ebf2 99bd 31a9 c5bb 24cd ad3b 7129 36bd
00000070: 0f3a 4ebd 4dce 8ebd a3d3 5f3d fcdd 933d
00000080: e143 85bb df0e e7bc 3c5d 68bd 2418 593d
00000090: 286c 0bbd a887 07be 81f8 ca3d dda3 773d
000000a0: 1ead d3bd 9e21 243c 7591 99bd 5087 febb
000000b0: 530f 23bd a1cc 4abd 65c3 0dbd c272 99bb
000000c0: 00af 3e3e 887e 413d 9d37 ef3c 20ee 41bc
000000d0: 4869 8a3d 80e8 0cbe 1617 213d 8c62 b53d
000000e0: ead6 0fbd d3cf 9ebd 83fe 4bbd 608d 283e
000000f0: f582 f93c 19be 31bd 359b 643c 7763 133d
00000100: 09ff 72bd 455d 8eba a46a 07be cea9 cb3c
00000110: e452 d2bc c956 b0bd 2cfc 6ebd eab8 fc3d
00000120: d3bd 13bd a7f4 4f3d 422c 0b3e 72c3 8fbd
00000130: d0a2 52bd fcb1 3b3d 2d1e 5abb 4739 203c
00000140: aa40 92bd 08f7 08be a1fd 80bc c818 22bd
00000150: a5de dd3d ed28 c83d 10a6 123d b9c4 8bba
00000160: b004 213d 910b d13c 62b4 cebd 4a7f 4dbd
00000170: d7f6 25be 6ac9 2b3e ad06 ddbd 1a8c 2d3d
00000180: 7339 7ebd c828 92bc da8b 5abd e6a0 f5bd
00000190: 5e6f df3d fd32 2e3c 674c 90bc e089 873d
000001a0: 8176 643d 4ef5 aa3c abb8 cb3d d4e1 a4bd
000001b0: ead5 3f3d c2ec 813d 5767 c63d 6c01 c13d
000001c0: 24a4 91bd 0435 62bc 54be 86bc 9cc0 83bb
000001d0: d96d 30bc c368 dbbc 6a4e 46bd 9ac3 f13d
000001e0: 03d6 033e f8cb c239 f5fd b43b a3ba 3ebd
000001f0: 5843 5dbc 51b3 8abd 4f18 09be a15b 95bd
00000200: 0645 353d 673c 02be 7295 d13d 2957 283c
00000210: af6f 7d3d e9fe c6bd 2621 b63c 1f81 fc3d
00000220: 370e ba3d 1a29 303c 303e 6cbc 8e5c 0b3d
00000230: 01b5 3d3d 931f 7c3d cff0 6ebd fe2b fc3d
00000240: 3885 48bd 7075 a1bc 5a56 d6bc ae40 02bd
00000250: 1013 66bd 10b3 1ebd abc0 6cbd d45b 273c
00000260: ec36 a43d 9cf3 a53d 172c ff3c f6b0 6ebc
00000270: 6208 56bd 96f4 09bd 3ebc af3c 40e4 223e
00000280: 1171 383d 4694 da3d 0da2 21ba 1d27 bdbb
00000290: a131 9abd 679a 083e 9401 a4bc be2c a6bd
000002a0: a458 323c 4250 fd3d c70f 583d 3bd7 743d
000002b0: 73f0 213e 0fa0 9c3d 3353 49bc b45e 7f3d
000002c0: 783f f2bd 3b3d ecbc a705 2d3d 3f29 0e3e
000002d0: 358c 563c 485b 703d 3803 96bd fc39 4b3c
000002e0: 0cfd d8bd 1dfd 83bd 8a85 a6bd f41d 85bd
000002f0: 1755 82bd 95f5 bebd de1b 813d 25ad 6c3d
00000300: 9eaa ed3d e305 af3c 68b6 9ebd edf3 27bd
00000310: 9a66 81bc d7ca ebbc c66c 7dbd 222e 9cbd
00000320: 7b6b e53c 155b 9a3c 1c89 dbbc 2964 08be
00000330: b244 7dbd 3519 52bd 0af0 f0bd 9b74 b03d
00000340: a3a7 7b3c 96bf 27bd 742f 26bd d71c 97bd
00000350: 09dc adbc c7e7 3e3c 17ef c1bd 918d 05bd
00000360: 7bdc ee3d 63cf 9ebd f088 863c 3753 073e
00000370: b8a7 ecbd 74f5 2cbb 76a0 d93d 7fb5 003d
00000380: f076 0ebc 961e 26bc a499 dfbc d613 6f3c
00000390: 2be3 13be 14fa 82bd c8d4 a73d 1584 40bd
000003a0: 8e17 19bd e871 1abe d9ee 55bd 4a8c 063d
000003b0: d40b 803e 7fd4 d9bd cb44 e3bd 687f 8cbd
000003c0: 5ba4 7e3d 7941 563d 378f b83c 407b c93d
000003d0: 022b f0bd 0476 8cbd 73f4 1abd 8e76 abbd
000003e0: 15fd 9fbd d0a2 833d 7cfe 5e3b 7939 29bc
000003f0: f475 eb3d 0e00 0c3d 8e75 ba3c b858 483d
0.07422442 0.07225577 -0.0599663 0.018664274 -0.07045262 0.10374069 -0.044675924 -0.04975911
-0.082965255 0.10405298 -0.04687944 -0.097024016 -0.050118294 0.024177637 0.00034271926 0.06712778
0.060721617 0.028869594 -0.01020321 0.054989204 0.08200216 -0.03868197 0.20694937 -0.15216969
-0.07517036 -0.006032132 0.0053039957 -0.044473115 -0.050348338 -0.069729425 0.054645192 0.072200745
-0.0040669297 -0.028205333 -0.05672954 0.053001538 -0.034038693 -0.13235343 0.099106796 0.060459007
-0.10335754 0.010017781 -0.07498447 -0.0077675954 -0.039809536 -0.049511556 -0.03461017 -0.0046828697
0.18621445 0.04723981 0.029201323 -0.011836559 0.06758362 -0.13760567 0.039328657 0.08856687
-0.035117067 -0.07754483 -0.04980327 0.1646018 0.030457953 -0.043394182 0.01395302 0.03598353
-0.05932525 -0.0010861537 -0.13224274 0.024861243 -0.025674291 -0.08610303 -0.05834596 0.12339957
-0.036069702 0.050770428 0.13591102 -0.070197 -0.0514248 0.045824036 -0.0033282146 0.009779281
-0.0714124 -0.13375485 -0.01574594 -0.039574414 0.10833482 0.09773431 0.0358029 -0.0010663486
0.03931111 0.02551821 -0.10092999 -0.05017022 -0.16207443 0.16776052 -0.10792289 0.04236994
-0.062066507 -0.017841712 -0.05335603 -0.119935796 0.109099135 0.010632274 -0.017614556 0.066180944
0.055777077 0.020868924 0.09947332 -0.08050886 0.046834864 0.06343986 0.09687679 0.09424099
-0.071113855 -0.013806585 -0.016448177 -0.0040207636 -0.010768377 -0.026783353 -0.048414625 0.11804886
0.12874608 0.00037154532 0.005523438 -0.04656471 -0.0135048255 -0.06772483 -0.13388179 -0.072928675
0.04425528 -0.12718354 0.102335826 0.010274687 0.061874088 -0.09716589 0.022232603 0.123293154
0.090847425 0.010751987 -0.0144191235 0.034023814 0.046315197 0.06155355 -0.05833512 0.12313078
-0.048955172 -0.019709319 -0.026164223 -0.031799965 -0.056170523 -0.038744986 -0.05780093 0.010214765
0.08018288 0.081031054 0.031148953 -0.014568558 -0.05225409 -0.03368052 0.021452066 0.15907383
0.045029704 0.10672812 -0.000616581 -0.005772485 -0.07528997 0.1334015 -0.020020284 -0.08114003
0.010885391 0.123688236 0.05274942 0.059775572 0.1581438 0.07647716 -0.012287903 0.062346175
-0.11828512 -0.02883779 0.04224172 0.13882922 0.013094951 0.058680803 -0.07324833 0.012403961
-0.1059514 -0.06444762 -0.08130939 -0.06499854 -0.06363886 -0.09324185 0.06304143 0.05778231
0.11604808 0.021365112 -0.07749635 -0.04100411 -0.015795995 -0.028783245 -0.061871313 -0.07625987
0.028005352 0.01884226 -0.026798777 -0.13319458 -0.06183309 -0.05129357 -0.11764534 0.08615991
0.015359792 -0.040954195 -0.0405726 -0.07378548 -0.021223085 0.01165194 -0.09469431 -0.03260571
0.11663147 -0.077543996 0.016422719 0.13215338 -0.11555427 -0.0026391419 0.106263086 0.03142309
-0.008695349 -0.010139128 -0.027294941 0.014592132 -0.14442126 -0.06395355 0.08194882 -0.047000963
-0.03737598 -0.15082514 -0.052229736 0.032848634 0.25009024 -0.106362335 -0.110971056 -0.06860238
0.06216846 0.052308533 0.022529228 0.09837961 -0.11726953 -0.06858447 -0.03783078 -0.08372222
-0.078119434 0.064275384 0.0034026196 -0.010328644 0.11497107 0.03417974 0.022761133 0.048912734

transformer_encoder.layers.0.linear1.bias f4 [128]
00000000: 7027 3cbb 99bd c43c 5a80 b5bc 89e7 5a3c
00000010: babc 53bd f855 6b3d 6fab 6dbd cd86 64bd
00000020: 6bc1 4cbc d05c e63c e7b5 d5bd a9d4 f3bd
00000030: f7cc 5bbd 24bf e2bd bcf7 99bd 760e c3bb
00000040: a7d9 d8bd 5da3 d3bd 930a 03be a0fb 71bd
00000050: 132a 7f3c bba5 febd 91c6 00be 26c1 03bd
00000060: 6c23 e0bc 8dee 81bc 6398 81bd b1d6 c33c
00000070: 6fb5 99bc 11c0 b2bd 799c 0bbe dcd7 02be
00000080: f214 0e3d cda3 003d a4a2 583d 4ffc 16bd
00000090: b345 d7bd cd00 85bc 2d78 77bc 2358 aebd
000000a0: 1814 173d 506a 04be 8fba cb3c 1b6a 68bd
000000b0: 64de ecbc 30d5 92bd 085e 47bd 1429 b5bb
000000c0: aee5 d8bd 95c9 98bd e18a 7dbc b318 96bd
000000d0: 37e8 1f3d 57f6 65bd 104e 60bd d13f f3bc
000000e0: cf01 16bd e231 8fbc 0d54 80bd ddba debd
000000f0: 536b f5bd cc83 1a3d 9c8f b2bd f814 a23d
00000100: 3c5e b93d 64f0 adbd 4645 adbd 5546 333d
00000110: 236f 473d b20c 9c3b 535f d7bc df3f fbbd
00000120: 31eb 9d3c d85f 003d 9e4a abbd 58c0 93bd
00000130: 174e e3bd be82 10bd f088 b4bd 970b ebbd
00000140: 61df 7e3d a55c ccbd 3904 95bd 8155 aa3c
00000150: 010b 2cbd 69f7 b1bd 8d87 93bc 0515 a03c
00000160: ef49 2a3c cab4 8fbd 149a b0bc c31b 153b
00000170: e6fd 11be ff52 303d f3ba f2b9 a005 04bd
00000180: 2cec 853d 84cd 99bc 43f8 d8bb 96b5 cabd
00000190: d4f6 8abd ff50 d9bd 712d fd3c ef02 99bd
000001a0: 2f6f bebd 9e4d 8bbd 0e35 1fbe de83 2cbd
000001b0: 371d eebd 76b9 63bd 5087 c0bd 0c51 aebd
000001c0: e6ed 00bd 9efd 1bba e2dc 76bd be00 ef3a
000001d0: 2c3d cebd 7319 18bd 1c7f b63d 0bc0 b5bc
000001e0: 24ea 87bd fd79 99bd 26ae 89bd 0aa0 96bd
000001f0: 77b9 efbd 247d cfbd 6e5d 213d 7f87 60bd
-0.002871003 0.024016188 -0.02215593 0.013360866 -0.051693656 0.057455033 -0.05802482 -0.05579262
-0.012497286 0.028120428 -0.10435086 -0.11905796 -0.053662267 -0.110716134 -0.07517955 -0.0059526516
-0.10588389 -0.103338934 -0.12797002 -0.05907786 0.015573996 -0.12433954 -0.12575747 -0.032166623
-0.02736064 -0.01586082 -0.063278936 0.023906084 -0.018763272 -0.0872804 -0.13633908 -0.12777656
0.034687944 0.031406213 0.05288948 -0.036861714 -0.10511341 -0.016235733 -0.015104336 -0.085129045
0.036884397 -0.1293118 0.024869232 -0.056741815 -0.028914638 -0.071695685 -0.04867366 -0.0055285785
-0.10590683 -0.07460324 -0.015475006 -0.0732893 0.039039817 -0.05614313 -0.054761946 -0.029693516
-0.03662282 -0.01747984 -0.062660314 -0.10875485 -0.11983361 0.037723348 -0.087187976 0.07914156
0.09051177 -0.084931165 -0.084604785 0.043768246 0.048689973 0.0047622556 -0.026290571 -0.12268042
0.019277187 0.031341404 -0.083638415 -0.07214421 -0.11098879 -0.035280935 -0.08815181 -0.1147682
0.06222475 -0.09978608 -0.07276196 0.020792725 -0.04200268 -0.08689768 -0.018008972 0.019541273
0.010393604 -0.07016905 -0.021557845 0.0022752143 -0.14257011 0.0430479 -0.00046297125 -0.032231927
0.06539187 -0.018774755 -0.006621392 -0.09897916 -0.0678536 -0.10611152 0.030905457 -0.07471263
-0.0929855 -0.06801914 -0.15547583 -0.042117946 -0.11626666 -0.05559679 -0.09400809 -0.08511552
-0.031476878 -0.00059505727 -0.060269244 0.0018234474 -0.10070261 -0.037133645 0.08910963 -0.0221863
-0.06636456 -0.074939705 -0.06722669 -0.07354744 -0.117052965 -0.101312906 0.039395742 -0.05481672

transformer_encoder.layers.0.linear2.weight f4 [128, 128]
00000000: c523 a0bc 23bc 16bd a2bf eebc 138a 4ebe
00000010: 9529 d0bd 6526 97bd c50c 33bd ce35 a13c
00000020: 53be 4ebd a936 de3c 0e8b 1fbe c0ca 62bc
00000030: 700c 77bd 50c1 4ebd 90f3 76bd cb43 8eb9
00000040: db28 fcbc 538e ae3c 7f1f 1f3c a812 a2bd
00000050: c51c b53d 5551 913d 9d9a b7bd fb5b cc3c
00000060: 7166 a13a 127f 21bc 59c2 10bd 4331 43bd
00000070: 7f10 753d 2991 38bd e8c1 f83d 391a cd3d
00000080: cd99 2abd 2a78 c6bd 1526 683b bbd5 f2bd
00000090: db7e 203c 9242 be3c 64f6 3ebe 1ae2 503a
000000a0: 1c03 18bb b771 d13c ae28 34bc 0e2e fbbd
000000b0: 696b 61bb 6ef2 863d 754b a83d a46f 4abc
000000c0: ca37 043d 0948 dcbc 4841 0abd fd77 92bd
000000d0: ab6c 3b3d 7632 02be 0d49 e33d 3d7f febd
000000e0: b03f 0d3d 544f 1bbe f563 e7bc 777e a9bd
000000f0: 231e bdbd a2f9 8e3c be5c 87bd c231 99bc
00000100: 5895 14be ca64 babd b06e 61be 62da 573c
00000110: 69b2 5e3c 48fa c9bd a0d0 86bd ed46 363e
00000120: 540f 76bc 838b 84bd 1062 b6bc cb63 36be
00000130: 9501 513c ccbe 403d f160 f23c 0218 e73c
00000140: 1ef4 663d 8a9b 843d 2c05 633d 9692 323d
00000150: 9878 4cbd 5703 15bd e135 02be edac 9fbd
00000160: 91ad 41be 088c d7bc 1915 e8bd 0c85 4cbd
00000170: d4c6 a63c f431 553d 02a5 083e 8c9a be3d
00000180: bd4a 073d a5c4 2dbd 38ce b23c 8aa9 fb3c
00000190: 6a90 e03c e175 dabb 5ffb 4f3b ca86 9d3d
000001a0: 7bac 2fbd ccdc 4fbd e578 483d 775f 17bc
000001b0: 9d44 56bd e729 1fbe 8ddd 22bd 350e ff3c
000001c0: 2f4f 2fbd 224d 513d ebda 113c 2a4e d0bd
000001d0: fd78 f4bc af0d 89bd ef66 c9bd 1e3e 1c3d
000001e0: 7073 60bd 5c51 913d bfa3 a43d c2d4 bcbb
000001f0: cb11 333d 57d6 cebc d4d3 bf3d 5cb6 703c
00000200: cabb a33d bcf8 a33d 9ac2 613d 3bfc 0cbd
00000210: 5880 acbd 7801 bd3d b505 babd 8654 ee3c
00000220: 6c31 2fbd 65cc ddbd 1e1a 3abe e7de 173d
00000230: 97e8 d9bd 64f8 81bd 73ee 74bd 5689 143d
00000240: 8cdf f3bb 1bca fa3c fc06 8f3d 3247 b3bd
00000250: 98b2 193d d833 74bd f441 283d c648 9bbd
00000260: 01b5 54bd ade6 01bd ad98 90bc df92 9eb9
00000270: 6517 b2bd dd68 3dbd 071a 453d af91 24bd
00000280: 6b64 0abd 1b95 89bd 66f1 12bd 7d39 9c3c
00000290: 8787 e93c 0fa1 953b e433 dfbd 5166 df3d
000002a0: e364 133d 6440 d3bd 8c2e 47bc a93f 76bd
000002b0: 8563 d3bd 0cba bc3d 4f20 b7bd c68d 8cbd
000002c0: 0556 8ebd 1317 dc3c a17c b33d 9079 8f3d
000002d0: a4b9 123d 2dd3 f4bd 30c6 723d d6e9 27bd
000002e0: 01f7 2cbd 4839 c8bd 27f3 183d e032 a1bd
000002f0: 4f02 7ebd 8434 58b9 e47b 533d 2084 debd
00000300: 558b 4bbd d1aa 11bd bc0c 12be 43f4 b3bd
00000310: 181e 1c3c 67b5 fdbc bb77 2abd 783e 09bc
00000320: e517 c5bd 213b 3b3d 6e90 4fbd 7846 213d
00000330: a535 2cbd d1ad 483c 775f 6d3d 0680 323d
00000340: feb1 6abc 3f99 bdbc 30b6 713c f42d e83c
00000350: ab93 0fbd a926 41bc fd64 303b 8f60 933b
00000360: e359 c7bd 8acd 3c3d 85ed 5bbd ca0b 7e3c
00000370: 5769 33bd a977 613d bdc1 443c 1604 6e3c
00000380: 2fbe 253d b835 183c 60fc e53d 3df1 853d
00000390: 1d09 9a3c 0e1c 71bd deeb 63bc 1b19 e93d
000003a0: 7802 cb3d c2a6 2fbd 038e 2b3d cfb7 a83d
000003b0: cfe2 8b3d afe3 01bc eb7b 25bd 9fd8 573d
000003c0: bfa3 5c3d efb3 09be 648e 9c3d b3ca 213d
000003d0: f422 c6bd a2ce 3ebd fb2a b7bc 5543 fabc
000003e0: 9dfa 903d cce2 bc3d 8921 bcbd 0c50 2e3d
000003f0: f04c 933d ab77 2ebd 6899 c93c d363 acbd
-0.019548306 -0.036800515 -0.029144112 -0.20169859 -0.10164181 -0.0738037 -0.04371335 0.019678976
-0.050474476 0.027125673 -0.15580389 -0.013842285 -0.060314596 -0.050477326 -0.060290873 -0.0002713486
-0.0307812 0.0213081 0.009712099 -0.07913715 0.08843378 0.07095591 -0.08965037 0.024946203
0.0012313855 -0.009856956 -0.035341594 -0.0476544 0.059830185 -0.04506031 0.1214636 0.10014767
-0.041650582 -0.09690888 0.003542309 -0.11857172 0.00979587 0.023225103 -0.18648678 0.0007968262
-0.0023195213 0.025566919 -0.010996027 -0.122646436 -0.0034396297 0.065892085 0.08217517 -0.012355719
0.032279767 -0.026889818 -0.033753663 -0.07151792 0.04575793 -0.12714562 0.11097918 -0.124266125
0.034484565 -0.1516698 -0.028245905 -0.082760744 -0.09234264 0.017453019 -0.06609486 -0.018700484
-0.14510095 -0.09101255 -0.2201488 0.013174625 0.013592341 -0.098621905 -0.06582761 0.17800494
-0.015018303 -0.06471922 -0.022263557 -0.17811505 0.012756725 0.047056958 0.02958724 0.02820969
0.056385152 0.06474979 0.055424854 0.043596826 -0.049919695 -0.03638014 -0.12715866 -0.07796655
-0.18913867 -0.02631189 -0.11332149 -0.04993157 0.02035848 0.052049592 0.13344195 0.09306821
0.03303026 -0.042423863 0.021826848 0.030720491 0.027412612 -0.0066668843 0.0031735522 0.076917246
-0.0428891 -0.050747678 0.04894342 -0.009239069 -0.05231153 -0.15543328 -0.03976207 0.031134704
-0.042800125 0.05109895 0.008902292 -0.101711586 -0.029842848 -0.06692063 -0.09834086 0.038145177
-0.05479759 0.07095596 0.080390446 -0.0057626674 0.04371814 -0.02524869 0.09366575 0.014691915
0.07994802 0.08006427 0.055117227 -0.034420233 -0.08422917 0.09228796 -0.0908312 0.029093038
-0.04277174 -0.10830001 -0.18174025 0.03707781 -0.10640066 -0.06346205 -0.059797715 0.036263786
-0.0074424203 0.03061395 0.06983754 -0.08753814 0.037523836 -0.059619755 0.041078523 -0.0758224
-0.05193043 -0.03171413 -0.017650926 -0.00030245536 -0.086958684 -0.046242584 0.048120525 -0.040177997
-0.033787172 -0.06717893 -0.035874747 0.019070381 0.028507007 0.004566319 -0.10898569 0.10908187
0.035984885 -0.10315016 -0.012157094 -0.060119305 -0.10321716 0.09215173 -0.08941709 -0.06862979
-0.06950001 0.026866471 0.087640055 0.07005608 0.035821572 -0.11954341 0.059271038 -0.040994488
-0.04222775 -0.097765505 0.037341263 -0.07871032 -0.06201392 -0.00020618929 0.051631823 -0.108650446
-0.049693424 -0.035563294 -0.1426267 -0.087868236 0.009528659 -0.030970288 -0.04161809 -0.00837671
-0.09623698 0.045710687 -0.05067485 0.039373845 -0.042043347 0.012248472 0.05795237 0.043579124
-0.014324663 -0.023144362 0.01475291 0.028342225 -0.035052937 -0.011789002 0.0026915662 0.0044975947
-0.097339414 0.046094455 -0.053693313 0.01550574 -0.04380163 0.055045757 0.012009081 0.014527341
0.040464576 0.009290151 0.11229777 0.06540153 0.018803174 -0.058864646 -0.013911216 0.113817416
0.0991258 -0.042883642 0.04188348 0.08238184 0.0683037 -0.007927819 -0.04040138 0.05269682
0.053867098 -0.13447545 0.07644346 0.03949995 -0.096746355 -0.04658378 -0.022359362 -0.030549685
0.07079051 0.092229456 -0.09186084 0.042556807 0.07192409 -0.042594593 0.024609283 -0.084174775

transformer_encoder.layers.0.linear2.bias f4 [128]
00000000: 3218 573d f0ef b4bc 8051 40bd bd64 aa3d
00000010: 9340 163d 0a22 a2bc a111 a2bd f919 8a3d
00000020: a554 e33c ec22 28bc 2d20 c9bd c646 0bbd
00000030: a6c4 0dbd bdd1 43bd e0ce 2fbd 3331 d1bc
00000040: 5b73 9fbd 71f3 40bd 2463 b8ba 277a 50bd
00000050: c5f3 0abd 6917 bebc e0b0 1fbc 29d5 9dbd
00000060: c7b9 83bb 159d 17bd 5aac 69bd a243 35bd
00000070: 12f6 65bd 4476 65bd 84e0 71bd 6447 bfbd
00000080: 33fd 923d 3d7b 1a3d 773d 683d 3b62 23bd
00000090: ef11 bb3d fea2 37bc 0704 b2bc d211 98bd
000000a0: 5c00 463d 8ef6 ca3c b632 bcbd 47ea a93d
000000b0: eff7 b6bd 07e9 033c 5e2a 8ebd 44a6 493d
000000c0: eeef 803c 5202 323d dfdf a4bd 22f2 6abc
000000d0: abd5 bcbc bdce ad3d 1d6f 803c a5f3 32bd
000000e0: 81ea 8dbc cf31 c83b d8da a43d 3af6 a93d
000000f0: 390d 00bd b5e7 703c 05e8 9d3d 31f3 123d
00000100: 4b8c 86bd 69bc f9bc 5f26 c13c 578d 41bd
00000110: 8a9d 93bd 615d fcbc d43c 3dbd 2d3f 32bd
00000120: 8050 0a3d 4583 18bd 4dc4 60bd bc59 31bc
00000130: bfc5 5a3d 8dcc dbbc f9db 4fbd a93e 923d
00000140: 9a55 3e3c 2e01 8fbc 259b 0a3d 2976 d6bc
00000150: 08bc d4bc 9117 cb3c 7198 d9bc f810 113d
00000160: c36a bebd 7f6a 33bd 33e2 2bbb 1bf8 8cbd
00000170: 1810 683d 501b 61bd 3a9f 65bd c943 6c3c
00000180: c3b8 a3bd 3f69 6cbd 999e 20bd 90b9 45bd
00000190: 3fe9 2b3d 8f86 7abd 3f05 ac3d d9fa 54bb
000001a0: ade3 7c3d c8ec 5a3d a09f 1dbd 7375 423d
000001b0: feac b0b9 fb04 f43c 00f9 943c 9e78 69bd
000001c0: 8e6d 17bd 0a5e 2c3d c2e3 11bd b34c 053d
000001d0: 3ba0 a83d 39af 8b3c e129 ee3c ae0d c43d
000001e0: b237 a63c 409d 833d 73b4 e63c 261a 37bd
000001f0: 8cb6 2a3d cec7 d6bc 628c 20bc c898 a1bc
0.05251331 -0.022087067 -0.046952724 0.083199956 0.036682677 -0.019791622 -0.07913519 0.06743235
0.027750323 -0.010262232 -0.0982059 -0.03400304 -0.034611367 -0.047807444 -0.0429219 -0.025536155
-0.07785674 -0.047107164 -0.0014067632 -0.050897744 -0.033923883 -0.023204522 -0.00974676 -0.07706673
-0.004019949 -0.03701504 -0.057049133 -0.044253953 -0.056142874 -0.05602099 -0.059052005 -0.093397886
0.071772 0.037715185 0.056699242 -0.0398886 0.0913428 -0.011208294 -0.021730436 -0.07425274
0.048340186 0.02477577 -0.0918936 0.08296638 -0.08934008 0.0080511635 -0.06941675 0.04923083
0.015739407 0.043459244 -0.080505125 -0.0143399555 -0.023051104 0.08486698 0.015677983 -0.04368939
-0.017323734 0.0061094533 0.08049554 0.08298917 -0.03126261 0.014703681 0.0771027 0.035876457
-0.065697275 -0.030485349 0.023577867 -0.047253933 -0.072077826 -0.030806245 -0.04620059 -0.04351728
0.033768177 -0.037234563 -0.054874707 -0.010824617 0.05341124 -0.026830936 -0.05074689 0.07140858
0.011617089 -0.017456617 0.033839364 -0.02617939 -0.025968567 0.02479151 -0.026561948 0.035416573
-0.09297707 -0.043802734 -0.0026227355 -0.0688326 0.056655973 -0.054957688 -0.056060053 0.014420458
-0.07994225 -0.057717558 -0.03921375 -0.04827267 0.041970488 -0.06116348 0.08399438 -0.003249815
0.061740566 0.05344847 -0.03848231 0.04747529 -0.00033698225 0.029787531 0.018185139 -0.056999795
-0.036969714 0.04208187 -0.035617597 0.03254385 0.082336865 0.017051326 0.029072704 0.09572922
0.02029023 0.064264774 0.028162217 -0.04470267 0.041677997 -0.026218321 -0.009799095 -0.019726172
