tuning_multi_scale_transformer_encoder/transformer_encoder_model_fold_3.pth (torch, 822178 bytes, 28 tensors)

embedding.weight f4 [128, 25]
0	0xbd8493f5	-0.06473533
1	0xbdfed358	-0.12442654
2	0x3d41592e	0.04720419
3	0x3b26bf06	0.0025443449
4	0x3dbdb509	0.09263045
5	0x3da4994d	0.08037052
6	0xbd80c78a	-0.06288059
7	0x3d32e6d4	0.043677166
8	0xbdc5eadb	-0.09663936
9	0xbd3c84f9	-0.04602525
10	0x3cbab102	0.022789482
11	0xbe4b06cb	-0.1982681
12	0xbe17f1e2	-0.14838365
13	0xbd9b937f	-0.07596492
14	0x3d523799	0.051322553
15	0xbdfa454a	-0.12220247
16	0xbbc05fdd	-0.005870803
17	0x3d9f4148	0.07776123
18	0xbe110987	-0.1416379
19	0x3cbaffd4	0.022827066
20	0xbc662c80	-0.014048696
21	0x3df29298	0.11844367
22	0xbca482f6	-0.020081978
23	0xbe5c18e8	-0.21493876
24	0xbc9fd92d	-0.019512737
25	0xbd11a7d6	-0.03556045
26	0xbd7d8aae	-0.061899833
27	0xbe1ea9d3	-0.1549447
28	0x3e256ddc	0.1615519
29	0x3ddde520	0.10834718
30	0xbe3202a5	-0.17383821
31	0x3cf9b942	0.030483846
32	0x3cf5bbf1	0.029996844
33	0x3e4b2025	0.19836481
34	0xbb1fc410	-0.0024378337
35	0x3e0637c6	0.13107213
36	0xbd9a5118	-0.07534999
37	0xbe74deaf	-0.23913072
38	0x3e143fc2	0.14477447
39	0xbcce4d09	-0.025183218
40	0xbe19c0e5	-0.1501499
41	0xbe67c992	-0.22635487
42	0x3e1b2194	0.15149528
43	0xbe95eea8	-0.29283643
44	0xbdc27655	-0.09495226
45	0xbc9052a3	-0.01761753
46	0xbe5b3caa	-0.2140986
47	0xbe14eb5a	-0.14542904
48	0xbdc8ac6d	-0.097985126
49	0x3db9d6fb	0.090742074
50	0xbcb31d1a	-0.021864463
51	0x3dd2af00	0.10287285
52	0x3e136a3e	0.14395997
53	0xbe254cd1	-0.16142584
54	0x3d0d450b	0.034489673
55	0xbe21644c	-0.15760916
56	0x3cd04cbe	0.025427219
57	0x3e3e590a	0.18588653
58	0xbdf0c45d	-0.11756203
59	0xbd907f69	-0.070555516
60	0xbd412287	-0.04715207
61	0x3dcaf45d	0.0990989
62	0x3e3b4254	0.18287021
63	0x3d11a140	0.03555417
64	0xbe4f2280	-0.20228004
65	0x3dcaa7ac	0.09895262
66	0x3c104252	0.0088048745
67	0xbe135bec	-0.14390534
68	0x3dd06113	0.101747654
69	0x3ceef24d	0.029168272
70	0x3dd9a9fe	0.106281266
71	0x3e001b6f	0.12510465
72	0xbbe59c60	-0.0070071667
73	0x3e004273	0.12525348
74	0xbe3b5b14	-0.18296462
75	0xba4a4998	-0.0007716655
76	0xbd518962	-0.05115641
77	0x3e290996	0.16507563
78	0xbc7f3238	-0.015575938
79	0xbe6dce8e	-0.23223326
80	0xbdc09a5b	-0.09404441
81	0xbbbb5eea	-0.0057181017
82	0x3c33fd29	0.010985651
83	0xbe46ae1b	-0.19402353
84	0xbe1a7950	-0.1508534
85	0xbda67d65	-0.08129386
86	0x396d552b	0.00022633809
87	0x3e22e9e2	0.15909532
88	0xbda21cc1	-0.079156406
89	0xbe128db8	-0.14311874
90	0xbe18114b	-0.14850347
91	0x3daab82e	0.08335911
92	0xbe20f067	-0.15716706
93	0xbcaece44	-0.02133859
94	0x3e26b15f	0.16278599
95	0xbda81cb3	-0.08208599
96	0xbcc53c28	-0.024076536
97	0x3e1926bb	0.14956181
98	0xbe8363f8	-0.25662208
99	0xbe24893e	-0.16067979
100	0xbd4261db	-0.047456603
101	0x3c15800a	0.009124765
102	0xbdc4ba44	-0.0960584
103	0x3d8c9cf0	0.06865871
104	0x3d0c2e26	0.034223698
105	0xbccd7587	-0.025080455
106	0xbdd2f62b	-0.10300859
107	0x3d905f2a	0.07049401
108	0x3db890cd	0.090119936
109	0xbde03800	-0.10948181
110	0x3e3c1390	0.18366838
111	0x3e03b0fc	0.12860483
112	0x3d3c82d7	0.046023216
113	0xbd2a6915	-0.04160412
114	0xbe48f2d3	-0.1962388
115	0x3dafca84	0.08583549
116	0x3d9519eb	0.07280334
117	0x3d499c85	0.049221534
118	0xbe1624c6	-0.14662465
119	0xbdc295d4	-0.09501234
120	0xbe45423f	-0.19263552
121	0x3e266543	0.16249566
122	0x3d10c83e	0.035347216
123	0xbe368035	-0.17822345
124	0xbd9b9ee9	-0.07598669
125	0xbe0239f6	-0.12717423
126	0x3c6ea6f1	0.014566169
127	0x3cb582ea	0.022157151
128	0x3d401ba5	0.046901364
129	0x3d3db373	0.046313714
130	0xbe2b60ea	-0.16736189
131	0xbc0c02f7	-0.008545629
132	0x3d631cf0	0.05544752
133	0x3e051394	0.1299575
134	0x3e18ba88	0.14914906
135	0xbe01ad86	-0.1266385
136	0x3d9aaf8e	0.07553016
137	0xbd4e46b7	-0.050360408
138	0x3d025c42	0.031826265
139	0x3dfca88a	0.12336834
140	0x3d4de613	0.050268244
141	0xbdf8364e	-0.12119733
142	0xbd071b59	-0.032985065
143	0x3e1ab663	0.15108638
144	0x3dc42b28	0.09578544
145	0x3e50a775	0.2037638
146	0x3e08c003	0.13354497
147	0xbbd47c1e	-0.0064845225
148	0x3dbdf747	0.0927568
149	0xbd84010c	-0.06445512
150	0x3d6d850e	0.05798822
151	0x3d058786	0.03259995
152	0xbd752fc1	-0.059859995
153	0x3c7d0bc8	0.015444703
154	0x3e309999	0.17246093
155	0xbdaa4c52	-0.08315338
156	0x3c196aee	0.009363873
157	0xbe8f68fc	-0.28009784
158	0x3e673e0a	0.2258226
159	0xbe0af7cc	-0.1357109
160	0x3c339aa9	0.010962167
161	0xbcbee542	-0.023302678
162	0xbe3a86da	-0.18215504
163	0x3dd0957d	0.101847626
164	0x3da773eb	0.081764065
165	0xbd080b1b	-0.033213716
166	0x3ba3fbca	0.005004381
167	0x3e1f1a69	0.15537418
168	0x3dbb9e82	0.09161092
169	0xbe124ae3	-0.1428638
170	0xbe1fd203	-0.15607457
171	0xbd8a866f	-0.067639224
172	0x3dd5a967	0.104327016
173	0x3ea11653	0.31462345
174	0xbe0e5915	-0.1390117
175	0x3dec62bc	0.115422696
176	0xbe018268	-0.12647402
177	0xbda6b08b	-0.08139142
178	0x3e0f5022	0.13995412
179	0x3b42479d	0.0029644736
180	0x3e0c7536	0.13716587
181	0x3d873ceb	0.06603416
182	0xbe850de1	-0.2598715
183	0x3e6fb299	0.23407973
184	0x3db01d2f	0.08599316
185	0xbb02395c	-0.0019870615
186	0x3c2d734b	0.01058657
187	0x3e0922ee	0.13392231
188	0x3e3e8d96	0.18608698
189	0xbe0ac7e2	-0.13552812
190	0x3d9a62e0	0.0753839
191	0xbe4afab6	-0.19822201
192	0x3e28ef41	0.16497518
193	0x3d9314de	0.071817145
194	0x3db1f3b2	0.08689059
195	0x3d2a413f	0.04156613
196	0x3dc1059e	0.094248995
197	0x3dd2da6f	0.10295569
198	0xbd97e287	-0.074162535
199	0xbd0df2e3	-0.034655463
200	0x3d99ad97	0.07503813
201	0x3d414f19	0.047194574
202	0xbe0b947d	-0.13630863
203	0xbe28791b	-0.16452448
204	0x3e3d69a5	0.18497331
205	0x3dc49d0b	0.09600266
206	0xbd757003	-0.059921276
207	0xbd8d3486	-0.06894784
208	0x3d8fd286	0.07022576
209	0xbdb5ac92	-0.08870806
210	0xbd776551	-0.060399357
211	0xbe42c505	-0.1902047
212	0xbdabfbe1	-0.083976515
213	0xbe4e0c6f	-0.2012193
214	0x3e28fc30	0.16502452
215	0x3dbb62f9	0.09149737
216	0x3e51548f	0.20442413
217	0xbda8c710	-0.08241093
218	0xbe166cd7	-0.14689957
219	0x3ca99d06	0.020704757
220	0xbde7ee31	-0.11324728
221	0x3d910e54	0.07082811
222	0x3df9b56e	0.12192808
223	0xbd89518b	-0.06705006
224	0xbdee7095	-0.11642567
225	0x3b74d46c	0.0037358059
226	0xbd996556	-0.074900314
227	0xbbd2b9f3	-0.0064308583
228	0x3daccdd3	0.08437695
229	0xbe342c66	-0.17595062
230	0xbd315fbd	-0.043304194
231	0x3e1a3204	0.15058142
232	0x3e39a45b	0.18129103
233	0x3e0b7f95	0.13622887
234	0xbd70b71e	-0.058768384
235	0xbd6390ec	-0.05555813
236	0xbde9eee0	-0.11422515
237	0xbddc3292	-0.10751833
238	0xbdfabba2	-0.12242819
239	0x3dfdcb42	0.12392284
240	0x3e4cd860	0.20004416
241	0xbb56dd25	-0.003278562
242	0x3c186937	0.009302429
243	0xbe27628d	-0.16346188
244	0x3e03d36d	0.12873621
245	0x3d55471a	0.05206976
246	0xbb4b641d	-0.0031035014
247	0x3da8414f	0.082155816
248	0xbe6078db	-0.21921103
249	0x3d6b938b	0.057513755
250	0xbdf2a23d	-0.11847351
251	0xbe206cba	-0.15666476
252	0x3d9830ae	0.0743116
253	0x3cd2d796	0.025737565
254	0xbd50f155	-0.051011402
255	0xbe4f26ec	-0.20229691

embedding.bias f4 [128]
0	0x3e1adec2	0.15124038
1	0xbd415f23	-0.04720987
2	0x3d46f845	0.048576612
3	0x3d2af2ad	0.04173534
4	0x3d9e530c	0.07730684
5	0xbdad4cec	-0.08461937
6	0x3e140933	0.14456634
7	0xbde1d136	-0.11026232
8	0xbdf4846a	-0.119393185
9	0xbd2c543e	-0.042072527
10	0x3da89d74	0.08233157
11	0xbdbb65d0	-0.091502786
12	0x3d3fc75b	0.04682098
13	0x3e2296e3	0.15877871
14	0x3dda6d51	0.10665382
15	0x3e109c9c	0.14122242
16	0x3dd37512	0.10325064
17	0xbc78c542	-0.015183749
18	0xbd51e102	-0.051239975
19	0x3e322e59	0.17400493
20	0xbcb99435	-0.022653678
21	0xbd2d657d	-0.042333115
22	0x3e1271df	0.14301251
23	0x3de30c06	0.11086278
24	0xbe009a7b	-0.1255893
25	0x3da5fe61	0.081051596
26	0x3e0e56b8	0.13900268
27	0xbdd3337d	-0.10312555
28	0x3d36a0ab	0.04458682
29	0x3d8a700d	0.06759653
30	0xbca14eb7	-0.019690854
31	0xbd780312	-0.060549803
32	0xbe34bf45	-0.17651089
33	0x3d5422b0	0.051790893
34	0xbe0c3fc5	-0.13696201
35	0x3df716e1	0.12064911
36	0xbdc15e08	-0.09441763
37	0xbde346ec	-0.11097512
38	0x3c438996	0.0119346585
39	0x3e03d054	0.1287244
40	0x3c6d9e59	0.014503085
41	0x3da63228	0.08115035
42	0xbc152f9e	-0.009105591
43	0xbe15a79e	-0.14614722
44	0x3d055891	0.032555167
45	0xbe2a8bdc	-0.16654915
46	0x3e1ba2a1	0.15198757
47	0xbdec93d6	-0.11551635
48	0xbd25b987	-0.040460136
49	0x3dffdc22	0.12493159
50	0x3dd5be5a	0.10436697
51	0xbe3a2346	-0.18177518
52	0xbdd8db40	-0.105886936
53	0xbdcb6410	-0.09931195
54	0x3e1303db	0.1435694
55	0xbc823742	-0.01589549
56	0xbd0ecd62	-0.034863837
57	0x3de3b30d	0.111181356
58	0x3d8b15b5	0.0679125
59	0x3e00eaf8	0.12589633
60	0x3b18bee8	0.0023307148
61	0x3e359519	0.17732657
62	0x3d9067c4	0.07051042
63	0xbdc5d9d3	-0.09660687
64	0xbe4f0d55	-0.2021993
65	0x3d4da97b	0.050210457
66	0xbdb52a2e	-0.08845936
67	0x3d972568	0.073801816
68	0x3d30c894	0.043160036
69	0x3ab6feb4	0.0013961405
70	0xbdfc6d06	-0.12325482
71	0x3e037d55	0.12840779
72	0xbdd50b45	-0.1040254
73	0x3e22be88	0.15892994
74	0xbdc33ac5	-0.09532694
75	0xbc6d9f09	-0.014503249
76	0xbcb3b899	-0.021938609
77	0xbcb41b0d	-0.021985555
78	0x3de961c2	0.11395599
79	0x3d9699c8	0.0735355
80	0xbdcb4cbf	-0.099267475
81	0x3e21ee73	0.15813617
82	0xbe42b2c5	-0.19013508
83	0x3e246497	0.16053997
84	0x3d8e5aa6	0.069508836
85	0xbe293348	-0.16523468
86	0x3bf07b49	0.0073389155
87	0x3d47e739	0.048804495
88	0xbc673b9f	-0.014113336
89	0x3e00bdca	0.12572399
90	0x3ca74c4f	0.020422129
91	0x3e03cfbd	0.12872215
92	0xbdd0d359	-0.10196561
93	0x3e0a2afb	0.13492958
94	0xbde8b175	-0.11361972
95	0x3dbf2941	0.093340404
96	0xbc853c02	-0.016263966
97	0x3def9d55	0.116999306
98	0xbc57b720	-0.013166219
99	0x3df7d055	0.12100283
100	0x3dd722b9	0.1050467
101	0xbe0bc416	-0.1364902
102	0x3d3ff6bb	0.04686616
103	0x3b18cf40	0.002331689
104	0xbcad5f9e	-0.021163758
105	0x3de6f6fb	0.112775765
106	0xbd847058	-0.0646674
107	0xbe3edf13	-0.18639784
108	0xbc7fa82e	-0.015604062
109	0xbd975190	-0.07388604
110	0x3e0296fc	0.12752908
111	0x3cc731dd	0.024315769
112	0x3d880b40	0.06642771
113	0x3dfbe4af	0.12299477
114	0x3d9d4ffe	0.07681273
115	0x3ddd0781	0.10792447
116	0xbc6bf5ef	-0.014401897
117	0x3e021719	0.12704124
118	0x3d47c2ad	0.04876964
119	0xbad8aafb	-0.0016530448
120	0x3dbb21e2	0.09137322
121	0xbbb39995	-0.005480955
122	0x3dc5ea03	0.09663775
123	0xbd2081a5	-0.03918614
124	0xbe1dfa85	-0.15427597
125	0x3d80f3e5	0.06296519
126	0x3c4e4114	0.012588758
127	0xbd8df45b	-0.06931373

transformer_encoder.layers.0.self_attn.in_proj_weight f4 [384, 128]
0	0xbd137d2a	-0.036008038
1	0xbd0d1554	-0.03444417
2	0xbd0ddade	-0.034632556
3	0x3dd41307	0.10355192
4	0x3d9a95cb	0.07548102
5	0x3d912597	0.07087248
6	0xbc7de3b0	-0.015496179
7	0xbd4f8e76	-0.05067297
8	0x3d66fc8e	0.0563932
9	0xbd46a522	-0.048497327
10	0xbc6b6078	-0.014366262
11	0xbd409fda	-0.047027446
12	0x3b09cba0	0.002102591
13	0x3dd21e7d	0.102597214
14	0xbdcc1168	-0.099642575
15	0x3d4f5e4a	0.05062703
16	0x3cc90134	0.024536707
17	0x3db6fd13	0.08934989
18	0xbddd0846	-0.10792594
19	0x3d14250e	0.03616815
20	0x3d54c24e	0.051943116
21	0xbd6e0d19	-0.05811796
22	0x3cfa95cc	0.030589007
23	0xbc4e8530	-0.012604997
24	0xbdd24920	-0.10267854
25	0xbccf6c68	-0.025320247
26	0x3db5ca43	0.08876469
27	0x3d03cd4e	0.032178216
28	0x3dc4c609	0.09608085
29	0x3d91ce19	0.07119388
30	0x3dcae9c7	0.09907871
31	0xbd09f2ee	-0.03367894
32	0xbd4bba80	-0.049738407
33	0xbc597638	-0.013272814
34	0x3d2e6e5a	0.04258571
35	0xbcad6050	-0.02116409
36	0xbdac0884	-0.08400062
37	0x3d1c31be	0.038133375
38	0x3d7227e6	0.05912008
39	0xbd629de1	-0.055326346
40	0x3dd362b5	0.10321561
41	0xbccf88ec	-0.025333844
42	0x3d367546	0.044545434
43	0x3db19e67	0.08672791
44	0xbb609a80	-0.0034271777
45	0x3d854749	0.06507737
46	0x3d258daa	0.040418305
47	0x3d1375ba	0.036000945
48	0x3b9b69c0	0.004742831
49	0x3be5a6e0	0.0070084184
50	0x3d68ced6	0.05683788
51	0xbcf3fc0c	-0.029783271
52	0x3c1c4808	0.009538658
53	0x3d59c82a	0.053169407
54	0x3c2e01d0	0.010620549
55	0xbd9291ca	-0.07156713
56	0x3cdc7f84	0.026916273
57	0x3d9abc6d	0.075554706
58	0x3c5d46a0	0.013505608
59	0xbce0ca24	-0.027440138
60	0x3cfcf684	0.030879267
61	0xbcb803d4	-0.022462763
62	0xbd9351ec	-0.0719336
63	0x3dce8f29	0.100858994
64	0xbd2c4e80	-0.04206705
65	0x3d6ed306	0.058306716
66	0x3c9b027c	0.018922083
67	0x3d78bf02	0.060729034
68	0xbdba3826	-0.09092741
69	0x3cbd857c	0.02313494
70	0xbca92f64	-0.02065248
71	0x3d80acbd	0.06282947
72	0x3d8b3225	0.06796674
73	0xbd043b10	-0.03228289
74	0xbcd5e188	-0.026108518
75	0xbdc3bcc0	-0.095574856
76	0xbcc69c1c	-0.02424436
77	0x3d827cad	0.06371436
78	0x3c00a850	0.007852629
79	0xbdc3b0f0	-0.095552325
80	0xbd323278	-0.043505162
81	0x3d45d5fa	0.048299767
82	0x3d32b4d2	0.043629475
83	0x3d77ccb6	0.060497962
84	0xbd627158	-0.055283874
85	0xbd7b8326	-0.06140437
86	0xbd8cc74d	-0.06873951
87	0xbd205450	-0.039142907
88	0x3c29ea58	0.010370813
89	0xbd387f98	-0.045043558
90	0xbd3c12f7	-0.045916524
91	0x3dbded17	0.09273737
92	0x3cf2a21c	0.029618315
93	0x3d33b442	0.04387308
94	0x3d1412e6	0.036150835
95	0xbc3573f0	-0.011075005
96	0x3d439a92	0.04775483
97	0x3dbc23d1	0.09186519
98	0x3d2af7c6	0.0417402
99	0x3d3db47e	0.04631471
100	0xbd83d541	-0.06437159
101	0xbd4fa635	-0.050695617
102	0xbddcd3a7	-0.10782557
103	0x3dc76b41	0.09737254
104	0xbdac9ac4	-0.08427957
105	0x3d7129a2	0.058877595
106	0xbd8f4156	-0.06994884
107	0xbceaf9c4	-0.02868355
108	0x3bd8bfa0	0.0066146404
109	0xbd8160da	-0.06317301
110	0x3d84a289	0.064763136
111	0xbdcdeff4	-0.10055533
112	0xbdd6da03	-0.10490801
113	0x3c34c438	0.01103311
114	0x3cbf84fc	0.023378842
115	0x3d51df5e	0.05123841
116	0x3c04f440	0.008114874
117	0xbd9eaed4	-0.077481896
118	0x3d9b8941	0.075945385
119	0xbcbd764c	-0.023127697
120	0xbd281e00	-0.041044235
121	0xbd9cc076	-0.076538965
122	0xbdc23eb4	-0.09484616
123	0xbdd44296	-0.10364263
124	0xbc8c4620	-0.017123282
125	0x3db97ea3	0.09057357
126	0xbcae26c4	-0.02125872
127	0x3c0605f0	0.008180127
128	0xbd6a7c44	-0.057247415
129	0xbdac36f8	-0.08408922
130	0x3ccdba7c	0.025113337
131	0xbd98d5eb	-0.074626766
132	0xbc8f65e0	-0.017504632
133	0xbdae1041	-0.08499194
134	0x3ccd4654	0.02505795
135	0xbda1b3dc	-0.078956336
136	0xbc8bf86c	-0.01708623
137	0xbaccd180	-0.0015626401
138	0x3d4520c2	0.048126943
139	0xbb8928e0	-0.004185781
140	0xbd4f80d5	-0.050659973
141	0xbda01a11	-0.07817472
142	0xbd5670d9	-0.052353714
143	0xbd48245d	-0.048862804
144	0x3d9c7665	0.076397695
145	0x3db6760f	0.08909237
146	0xbdc56252	-0.09637894
147	0xbcd5d2c4	-0.026101477
148	0xbcc51d44	-0.024061806
149	0xbda7ed24	-0.08199528
150	0x3cf9508c	0.030433916
151	0x3c1b94f0	0.009495959
152	0xbd5f30f2	-0.054490037
153	0x3d969da5	0.07354287
154	0xbd838e04	-0.06423572
155	0xbc914fd8	-0.017738268
156	0xbda54c5e	-0.080712065
157	0xbdbb3859	-0.09141607
158	0x3ae2d580	0.001730606
159	0x3c7938d8	0.0152113065
160	0xbd557e6e	-0.052122526
161	0xbd1b821a	-0.03796587
162	0xbcee26f0	-0.029071301
163	0xbbf64c60	-0.007516429
164	0x3d1733c2	0.036914594
165	0xbdd58e19	-0.104274936
166	0xbdac6260	-0.08417201
167	0x3d95aa07	0.07307821
168	0xbdbbfca4	-0.09179047
169	0xbd39d798	-0.04537162
170	0xbda583e9	-0.080818005
171	0xbcff09ec	-0.03113266
172	0xbdbe9a9e	-0.09306835
173	0x3cdaa194	0.026688375
174	0x3db81af3	0.08989515
175	0xbda90d28	-0.082544625
176	0x3d2306aa	0.039801277
177	0xbcfd6c30	-0.030935377
178	0xbca16cc0	-0.019705176
179	0xbc0c49d0	-0.00856252
180	0xbcde92d8	-0.02716963
181	0xbb91cdf0	-0.0044495985
182	0x3d808187	0.062747054
183	0xbdb8ce58	-0.09023732
184	0xbd3fdbed	-0.046840597
185	0x3d6f26da	0.05838666
186	0xbd1f1474	-0.038837865
187	0x3b8fc4e0	0.004387483
188	0xbd3968ba	-0.04526589
189	0xbda0986c	-0.07841572
190	0x3dafe4a1	0.085885294
191	0x3da2012d	0.079103805
192	0xbda91bf0	-0.08257282
193	0x3dca26f3	0.0987071
194	0xbdaceb92	-0.08443369
195	0xbd890dd2	-0.06692089
196	0xbc8a6958	-0.016895935
197	0x3b9e5250	0.0048315898
198	0x3d6125c2	0.05496765
199	0xbd0dac32	-0.034588046
200	0x3d1fc826	0.039009236
201	0x3d801119	0.06253261
202	0x3d8f26a1	0.0698979
203	0x3dc870f1	0.09787167
204	0x3d02fac2	0.031977423
205	0x3d27fc9e	0.0410124
206	0xbcc0eebc	-0.023551337
207	0x3d51d06a	0.05122415
208	0x3d456ec2	0.04820133
209	0xbdab1df7	-0.08355325
210	0xbdd0c41e	-0.101936564
211	0x3b562e00	0.0032681227
212	0xbc327e28	-0.010894336
213	0xbd04ab0a	-0.032389678
214	0x3d272f82	0.04081679
215	0x3dbd36a9	0.09238941
216	0x3db8fea9	0.090329476
217	0x3dc5bd5f	0.0965526
218	0xbbbf5b30	-0.005839728
219	0xbdb2889e	-0.08717464
220	0xbca5db98	-0.020246312
221	0xbd8bf742	-0.0683427
222	0xbdaeeed4	-0.085416466
223	0xbd499ef7	-0.049223866
224	0x3d1c98be	0.038231604
225	0xbd222d6e	-0.039594106
226	0x3da28507	0.07935529
227	0x3aea4000	0.0017871857
228	0x3c4e3d10	0.012587801
229	0xbd805ab7	-0.062673025
230	0xbb80aba0	-0.0039267093
231	0xbd573674	-0.052542165
232	0x3d4e46ea	0.050360598
233	0x3d00e4c2	0.03146816
234	0x3d275696	0.04085406
235	0x3d5df5be	0.054189436
236	0xbc89753c	-0.016779535
237	0xbdc640e0	-0.09680343
238	0xbd9a868f	-0.07545196
239	0x3db81905	0.08989147
240	0x3cb3316c	0.021874152
241	0x3bd1ddc0	0.0064046085
242	0x3c3b4bf8	0.011431687
243	0xbd72aca1	-0.059246663
244	0xbdc1bc06	-0.09459691
245	0xbdd8e8d6	-0.10591285
246	0xbcab0388	-0.020875707
247	0x3cb8d9fc	0.02256488
248	0xbdd644fe	-0.10462378
249	0x3cfcf1d4	0.030877031
250	0xbc0e6360	-0.008690685
251	0xbd6c0b5e	-0.057628028
252	0xbdd074cd	-0.10178528
253	0xbb376b00	-0.002798736
254	0x3dcc46df	0.09974455
255	0xbddd2110	-0.10797322

transformer_encoder.layers.0.self_attn.in_proj_bias f4 [384]
0	0x00000000	0.0
1	0x00000000	0.0
2	0x00000000	0.0
3	0x00000000	0.0
4	0x00000000	0.0
5	0x00000000	0.0
6	0x00000000	0.0
7	0x00000000	0.0
8	0x00000000	0.0
9	0x00000000	0.0
10	0x00000000	0.0
11	0x00000000	0.0
12	0x00000000	0.0
13	0x00000000	0.0
14	0x00000000	0.0
15	0x00000000	0.0
16	0x00000000	0.0
17	0x00000000	0.0
18	0x00000000	0.0
19	0x00000000	0.0
20	0x00000000	0.0
21	0x00000000	0.0
22	0x00000000	0.0
23	0x00000000	0.0
24	0x00000000	0.0
25	0x00000000	0.0
26	0x00000000	0.0
27	0x00000000	0.0
28	0x00000000	0.0
29	0x00000000	0.0
30	0x00000000	0.0
31	0x00000000	0.0
32	0x00000000	0.0
33	0x00000000	0.0
34	0x00000000	0.0
35	0x00000000	0.0
36	0x00000000	0.0
37	0x00000000	0.0
38	0x00000000	0.0
39	0x00000000	0.0
40	0x00000000	0.0
41	0x00000000	0.0
42	0x00000000	0.0
43	0x00000000	0.0
44	0x00000000	0.0
45	0x00000000	0.0
46	0x00000000	0.0
47	0x00000000	0.0
48	0x00000000	0.0
49	0x00000000	0.0
50	0x00000000	0.0
51	0x00000000	0.0
52	0x00000000	0.0
53	0x00000000	0.0
54	0x00000000	0.0
55	0x00000000	0.0
56	0x00000000	0.0
57	0x00000000	0.0
58	0x00000000	0.0
59	0x00000000	0.0
60	0x00000000	0.0
61	0x00000000	0.0
62	0x00000000	0.0
63	0x00000000	0.0
64	0x00000000	0.0
65	0x00000000	0.0
66	0x00000000	0.0
67	0x00000000	0.0
68	0x00000000	0.0
69	0x00000000	0.0
70	0x00000000	0.0
71	0x00000000	0.0
72	0x00000000	0.0
73	0x00000000	0.0
74	0x00000000	0.0
75	0x00000000	0.0
76	0x00000000	0.0
77	0x00000000	0.0
78	0x00000000	0.0
79	0x00000000	0.0
80	0x00000000	0.0
81	0x00000000	0.0
82	0x00000000	0.0
83	0x00000000	0.0
84	0x00000000	0.0
85	0x00000000	0.0
86	0x00000000	0.0
87	0x00000000	0.0
88	0x00000000	0.0
89	0x00000000	0.0
90	0x00000000	0.0
91	0x00000000	0.0
92	0x00000000	0.0
93	0x00000000	0.0
94	0x00000000	0.0
95	0x00000000	0.0
96	0x00000000	0.0
97	0x00000000	0.0
98	0x00000000	0.0
99	0x00000000	0.0
100	0x00000000	0.0
101	0x00000000	0.0
102	0x00000000	0.0
103	0x00000000	0.0
104	0x00000000	0.0
105	0x00000000	0.0
106	0x00000000	0.0
107	0x00000000	0.0
108	0x00000000	0.0
109	0x00000000	0.0
110	0x00000000	0.0
111	0x00000000	0.0
112	0x00000000	0.0
113	0x00000000	0.0
114	0x00000000	0.0
115	0x00000000	0.0
116	0x00000000	0.0
117	0x00000000	0.0
118	0x00000000	0.0
119	0x00000000	0.0
120	0x00000000	0.0
121	0x00000000	0.0
122	0x00000000	0.0
123	0x00000000	0.0
124	0x00000000	0.0
125	0x00000000	0.0
126	0x00000000	0.0
127	0x00000000	0.0
128	0x00000000	0.0
129	0x00000000	0.0
130	0x00000000	0.0
131	0x00000000	0.0
132	0x00000000	0.0
133	0x00000000	0.0
134	0x00000000	0.0
135	0x00000000	0.0
136	0x00000000	0.0
137	0x00000000	0.0
138	0x00000000	0.0
139	0x00000000	0.0
140	0x00000000	0.0
141	0x00000000	0.0
142	0x00000000	0.0
143	0x00000000	0.0
144	0x00000000	0.0
145	0x00000000	0.0
146	0x00000000	0.0
147	0x00000000	0.0
148	0x00000000	0.0
149	0x00000000	0.0
150	0x00000000	0.0
151	0x00000000	0.0
152	0x00000000	0.0
153	0x00000000	0.0
154	0x00000000	0.0
155	0x00000000	0.0
156	0x00000000	0.0
157	0x00000000	0.0
158	0x00000000	0.0
159	0x00000000	0.0
160	0x00000000	0.0
161	0x00000000	0.0
162	0x00000000	0.0
163	0x00000000	0.0
164	0x00000000	0.0
165	0x00000000	0.0
166	0x00000000	0.0
167	0x00000000	0.0
168	0x00000000	0.0
169	0x00000000	0.0
170	0x00000000	0.0
171	0x00000000	0.0
172	0x00000000	0.0
173	0x00000000	0.0
174	0x00000000	0.0
175	0x00000000	0.0
176	0x00000000	0.0
177	0x00000000	0.0
178	0x00000000	0.0
179	0x00000000	0.0
180	0x00000000	0.0
181	0x00000000	0.0
182	0x00000000	0.0
183	0x00000000	0.0
184	0x00000000	0.0
185	0x00000000	0.0
186	0x00000000	0.0
187	0x00000000	0.0
188	0x00000000	0.0
189	0x00000000	0.0
190	0x00000000	0.0
191	0x00000000	0.0
192	0x00000000	0.0
193	0x00000000	0.0
194	0x00000000	0.0
195	0x00000000	0.0
196	0x00000000	0.0
197	0x00000000	0.0
198	0x00000000	0.0
199	0x00000000	0.0
200	0x00000000	0.0
201	0x00000000	0.0
202	0x00000000	0.0
203	0x00000000	0.0
204	0x00000000	0.0
205	0x00000000	0.0
206	0x00000000	0.0
207	0x00000000	0.0
208	0x00000000	0.0
209	0x00000000	0.0
210	0x00000000	0.0
211	0x00000000	0.0
212	0x00000000	0.0
213	0x00000000	0.0
214	0x00000000	0.0
215	0x00000000	0.0
216	0x00000000	0.0
217	0x00000000	0.0
218	0x00000000	0.0
219	0x00000000	0.0
220	0x00000000	0.0
221	0x00000000	0.0
222	0x00000000	0.0
223	0x00000000	0.0
224	0x00000000	0.0
225	0x00000000	0.0
226	0x00000000	0.0
227	0x00000000	0.0
228	0x00000000	0.0
229	0x00000000	0.0
230	0x00000000	0.0
231	0x00000000	0.0
232	0x00000000	0.0
233	0x00000000	0.0
234	0x00000000	0.0
235	0x00000000	0.0
236	0x00000000	0.0
237	0x00000000	0.0
238	0x00000000	0.0
239	0x00000000	0.0
240	0x00000000	0.0
241	0x00000000	0.0
242	0x00000000	0.0
243	0x00000000	0.0
244	0x00000000	0.0
245	0x00000000	0.0
246	0x00000000	0.0
247	0x00000000	0.0
248	0x00000000	0.0
249	0x00000000	0.0
250	0x00000000	0.0
251	0x00000000	0.0
252	0x00000000	0.0
253	0x00000000	0.0
254	0x00000000	0.0
255	0x00000000	0.0

transformer_encoder.layers.0.self_attn.out_proj.weight f4 [128, 128]
0	0xbd81fea5	-0.06347398
1	0x3d9219e5	0.07133845
2	0xbd584ef0	-0.052809656
3	0x3d9922c1	0.07477332
4	0x38da062c	0.000103962
5	0xbd24cd4c	-0.04023485
6	0x3cf77fc3	0.030212289
7	0xbd4ee9e4	-0.050516024
8	0xbd766030	-0.060150325
9	0x3d73604c	0.059418008
10	0xbd8ab545	-0.06772856
11	0x3d49046c	0.049076483
12	0xbd738740	-0.059455156
13	0x3d3559cd	0.044275094
14	0x3d414412	0.047184058
15	0x3c862470	0.016374797
16	0xbd58ea19	-0.052957628
17	0xbd278a4f	-0.040903386
18	0xbd63a676	-0.05557867
19	0x3bcd3152	0.006261983
20	0x3d0ad048	0.03389004
21	0xbd82ef1f	-0.06393265
22	0xbcecbacf	-0.028897671
23	0xbc07ff0a	-0.008300552
24	0xbdb85a44	-0.09001592
25	0xbd8235ac	-0.06357893
26	0x3cf8b863	0.03036136
27	0x3becd850	0.007227935
28	0xbd938589	-0.07203204
29	0xbc2af1a0	-0.010433584
30	0xbd01b814	-0.03166969
31	0xbcebbe4c	-0.028777264
32	0x3d71e107	0.059052493
33	0xbdec5087	-0.11538797
34	0xbd828f30	-0.06374967
35	0xbdacd3d9	-0.08438844
36	0x3dafa6a3	0.08576705
37	0x3c2980c1	0.010345639
38	0x3dbb5e34	0.09148827
39	0xbd765f36	-0.060149394
40	0xbd95d945	-0.073168315
41	0xbb773c27	-0.0037725063
42	0x3d957916	0.07298486
43	0x3cc7b4e3	0.024378246
44	0xbd9f1561	-0.077677496
45	0x3cfcd17a	0.030861605
46	0x3d554768	0.05207005
47	0x3a411c4d	0.0007366583
48	0x3d996817	0.07490557
49	0x3d68d128	0.056840092
50	0x3cf26f18	0.02959399
51	0xbc9688c8	-0.01837577
52	0xbd22d483	-0.03975345
53	0x3d6ffa15	0.058588106
54	0xbd5e79ac	-0.054315254
55	0xbd662c99	-0.056194875
56	0xbd3a2276	-0.04544302
57	0x3c015450	0.007893637
58	0xbd4f6ddc	-0.05064188
59	0x3d5deb5c	0.054179534
60	0xbd411ea9	-0.04714838
61	0xbcd720a5	-0.026260683
62	0xbc576017	-0.013145468
63	0xbd6621a0	-0.05618441
64	0x3d0b2ee9	0.033980284
65	0x3cb55bf9	0.022138583
66	0x3cf7f2fb	0.03026723
67	0xbdc3bc79	-0.09557433
68	0xbd7d74ad	-0.06187885
69	0x3d2a449f	0.04156935
70	0xbd76b32d	-0.06022947
71	0x3d3d9d88	0.04629281
72	0xbc3398b0	-0.0109616965
73	0x3b4f8068	0.003166223
74	0x3c43f795	0.011960884
75	0xbcd6b914	-0.026211299
76	0xbd2b4a2b	-0.04181878
77	0xbd0a9f92	-0.033843584
78	0xbd7d7a73	-0.061884355
79	0xbd541029	-0.051773224
80	0xbd744cbe	-0.0596435
81	0xbd72518f	-0.05915981
82	0xbc67ff62	-0.014160009
83	0xbd3eecc9	-0.046612535
84	0xbd92ec23	-0.07173946
85	0xbd62cbbe	-0.055370085
86	0xbda52aff	-0.080648415
87	0x3bedfd35	0.0072628506
88	0x3c715c7b	0.014731522
89	0xbcc83495	-0.024439136
90	0xbd062dbd	-0.032758463
91	0xbd72e860	-0.05930364
92	0x3d325526	0.043538235
93	0x3b899249	0.0041983468
94	0x3cb9e1e2	0.022690717
95	0x3d77f964	0.06054057
96	0x3d427bca	0.047481336
97	0xbb77add8	-0.0037792828
98	0xbdaa10e1	-0.08304001
99	0x3c16d4bc	0.009205993
100	0xbdb35cb9	-0.0875792
101	0xbccfdb65	-0.02537317
102	0xbd379c8d	-0.044827033
103	0xbd01d136	-0.03169366
104	0xbcf1b05d	-0.029503042
105	0xbd745dcc	-0.059659764
106	0xbdb10653	-0.086437844
107	0x3c3d89e3	0.011568519
108	0xbccc2649	-0.0249206
109	0x3d3ed5c9	0.0465906
110	0x3d67d91b	0.056603532
111	0xbd23b664	-0.039968863
112	0x3d5fcb71	0.054637376
113	0xbd1f4c75	-0.038891274
114	0xbb5283bf	-0.0032121984
115	0x3c91e3f4	0.017808892
116	0xbda7dc09	-0.08196265
117	0xbc99161b	-0.018687299
118	0x3d9ed642	0.0775571
119	0x3d9ae828	0.075638115
120	0x3d8cbc82	0.068718925
121	0x3c69b5e6	0.014264559
122	0xbd1ab168	-0.037766844
123	0xbd227577	-0.039662804
124	0x3d937363	0.07199743
125	0xbd8cd181	-0.06875897
126	0x3d4d49d7	0.050119247
127	0xb92d1c5c	-0.0001650913
128	0xbd2c1ae6	-0.04201784
129	0x3d324b00	0.043528557
130	0xbd89a265	-0.067204274
131	0x3caa1ac7	0.020764722
132	0x3d5d3033	0.054001044
133	0xbd73ffba	-0.05957005
134	0x3b876b1b	0.004132641
135	0xbc2a8468	-0.010407545
136	0x3cc2a898	0.023762032
137	0x3d99b9ae	0.07506119
138	0xba8ecd11	-0.0010894855
139	0x3b526958	0.0032106247
140	0x3d7448af	0.05963963
141	0x3d3e332a	0.046435513
142	0xbbbce088	-0.005764071
143	0xbd4fdfa9	-0.05075041
144	0xbdd69701	-0.104780205
145	0xbd1e0f55	-0.03858884
146	0x3cb6abf2	0.022298787
147	0x3d83b6f0	0.06431377
148	0xbcfba721	-0.030719342
149	0xbc2ad619	-0.010427021
150	0x3d054a52	0.03254158
151	0xbcadf147	-0.021233214
152	0xbd11bed6	-0.035582386
153	0x3d4194c6	0.047261022
154	0xbd36c138	-0.04461786
155	0xbc86d94a	-0.016461033
156	0x3b64a057	0.003488561
157	0x3d16a1b0	0.03677529
158	0x3ca49f5f	0.020095525
159	0xbdb4f980	-0.08836651
160	0x3be696b0	0.0070370063
161	0x3d3b735f	0.045764323
162	0xbdaf0e8d	-0.08547697
163	0x3d39648c	0.045261905
164	0x3d006446	0.03134563
165	0xbd1f6b71	-0.038920823
166	0xbd793129	-0.0608379
167	0xbd3fb6dc	-0.046805248
168	0x3d2dd667	0.042440798
169	0x3d5313c9	0.05153254
170	0x3d8305ca	0.063975886
171	0xbcb02e2d	-0.021506393
172	0x3d3c89dc	0.04602991
173	0xbdb71e78	-0.08941358
174	0x3d41c1d7	0.047304
175	0x3de56a7a	0.112019494
176	0xbd4004a7	-0.046879437
177	0xbd80f792	-0.0629722
178	0x3d2b92e4	0.041888133
179	0xbcfc5fec	-0.030807458
180	0x39b71b35	0.0003492475
181	0x3d143fb0	0.03619355
182	0x3d06fbf8	0.03295514
183	0xbda0caec	-0.07851204
184	0xbd03bb78	-0.032161206
185	0xbca74295	-0.020417491
186	0x3a7bca74	0.0009605058
187	0x3d32a6fc	0.04361628
188	0xbc897116	-0.016777556
189	0xbc4e5e80	-0.012595773
190	0xbd8932e8	-0.06699163
191	0x3d0c05cb	0.034185212
192	0xbd7e1d66	-0.062039755
193	0xbc80e5eb	-0.015734633
194	0x3d283610	0.041067183
195	0xbca179f9	-0.019711481
196	0x3d0c38ad	0.034233738
197	0xbddeb32b	-0.10874017
198	0x3bd2fd40	0.006438881
199	0xbd3ebaf4	-0.04656501
200	0xbcab82d3	-0.020936405
201	0xbd837b9d	-0.06420062
202	0xbc227cd2	-0.009917455
203	0x3df3cdca	0.119044855
204	0x3c242970	0.010019645
205	0xbb31acbf	-0.0027111021
206	0xbd80ad1e	-0.062830195
207	0xbd17d77d	-0.03707074
208	0xbd88475b	-0.06654235
209	0x3abe246b	0.0014506703
210	0xbdd7158b	-0.10502156
211	0xbd6729ff	-0.056436535
212	0x3c7b8348	0.015351124
213	0xbd1c10e5	-0.03810205
214	0xbd99a078	-0.0750131
215	0xbd863071	-0.06552208
216	0x3d57a40d	0.052646685
217	0x3d52effd	0.051498402
218	0xbca5aa0e	-0.02022269
219	0x3d26ded4	0.04073985
220	0x3dc66e4b	0.096890055
221	0xbda8ad62	-0.08236195
222	0xbd77e939	-0.060525153
223	0x3d135474	0.035969213
224	0xbd6f54a8	-0.058430344
225	0xbc92f7e8	-0.017940477
226	0xbc0b586e	-0.00850497
227	0x3dd33e8b	0.103146635
228	0xbc21187a	-0.009832496
229	0xbc17a773	-0.009256232
230	0xbda34224	-0.079716
231	0xbcdd514e	-0.027016308
232	0x3b9f3b64	0.004859375
233	0xbc731c14	-0.014838237
234	0xbc140cde	-0.009036271
235	0xbc38b1ee	-0.0112728905
236	0xbd3e7ef0	-0.046507776
237	0xbd5546c3	-0.052069437
238	0x3d9d3715	0.07676522
239	0xba763173	-0.0009391524
240	0xbd304371	-0.043033067
241	0xbcc1a565	-0.023638437
242	0xbc24fe68	-0.010070421
243	0x3c65b0a3	0.014019164
244	0xbd9d6db4	-0.0768694
245	0x3c4f665c	0.012658682
246	0x3d36a144	0.04458739
247	0xbb57ca8c	-0.0032927124
248	0x3cc690cc	0.024238966
249	0x3d4a519d	0.04939424
250	0x3d90972b	0.07060083
251	0x3d24054b	0.04004411
252	0xbce74d5f	-0.028235136
253	0x3d88bcd1	0.06676639
254	0xbbf45523	-0.007456438
255	0xbdb2675a	-0.08711119

transformer_encoder.layers.0.self_attn.out_proj.bias f4 [128]
0	0x3c9dd890	0.019268304
1	0xbc510567	-0.012757636
2	0xbc8d27f4	-0.017230965
3	0xbc225d23	-0.009909901
4	0xbd03eb54	-0.03220685
5	0x3ca0ce6b	0.019629678
6	0xbcebd81b	-0.02878957
7	0xbc5d379e	-0.01350203
8	0xbd152396	-0.03641089
9	0x3c9f9e2e	0.019484606
10	0x3b2095aa	0.002450327
11	0x3c49b2c6	0.012310689
12	0x3cfbcc79	0.030737149
13	0xbba89d68	-0.0051457174
14	0xb9af2800	-0.00033408403
15	0xbc2d8589	-0.010590919
16	0x3ad09934	0.0015914799
17	0x3a85b243	0.0010200221
18	0x3c1bcf05	0.0095098065
19	0x3d068eae	0.032850914
20	0x3c22fd77	0.009948126
21	0x3cbebf63	0.02328462
22	0xbab90af6	-0.0014117646
23	0x3bd629e4	0.0065357555
24	0xbc2ab977	-0.010420195
25	0xbc8c49dd	-0.017125065
26	0xbb03138d	-0.0020000667
27	0x3b6c34a7	0.0036042125
28	0x3d00ede4	0.03147687
29	0xbd022a59	-0.031778667
30	0xbbb7c136	-0.0056077493
31	0x386c2e90	5.631015e-05
32	0xbcf9583f	-0.030437587
33	0xbc84342e	-0.016138162
34	0xbcc6bed2	-0.024260912
35	0xbc311167	-0.010807372
36	0x3b7f2954	0.0038934546
37	0x3cb6c8a1	0.022312464
38	0x3b11c83a	0.0022244588
39	0xbcd3a920	-0.025837481
40	0xbbda9f3b	-0.006671814
41	0x3b82e5ab	0.0039946637
42	0x3ce7ded3	0.028304493
43	0xbc5305ca	-0.012879798
44	0x3bca6264	0.00617628
45	0x3c772ba4	0.015086088
46	0xbb6c4c9e	-0.003605641
47	0x3a6708bc	0.0008813252
48	0x3c3420e7	0.010994173
49	0xbc8a5836	-0.016887765
50	0xbb90fff5	-0.0044250437
51	0xbbcf9462	-0.0063348273
52	0x3b92a4a2	0.004475192
53	0x3c006c15	0.007838269
54	0x3d28b6e3	0.04119004
55	0x3cf4bb91	0.029874595
56	0xbc298200	-0.010345936
57	0xbd0538fb	-0.032525044
58	0x3bd05746	0.00635806
59	0x3c14f462	0.0090914685
60	0x3d053f9c	0.032531366
61	0xbc3687d4	-0.011140782
62	0xbc357f7d	-0.011077759
63	0xbbe16db2	-0.006879532
64	0xbd4a64ca	-0.049412526
65	0x3ce1ffcd	0.027587796
66	0x3d2fa8f7	0.042885747
67	0xbc34323d	-0.010998306
68	0x3b2dda21	0.002652772
69	0x3b1b13c7	0.0023662911
70	0xbcd3ba3a	-0.025845636
71	0x3c485d97	0.012229345
72	0xbd0804d2	-0.033207722
73	0xbab4af3e	-0.0013785136
74	0xbbb6e1ac	-0.0055811014
75	0x3c429372	0.011875974
76	0x3d13e616	0.0361081
77	0xbd753da1	-0.059873227
78	0x39c9c882	0.00038487097
79	0xbbe9ba58	-0.0071328096
80	0xbbe4cf12	-0.0069826925
81	0x3c76d008	0.015064247
82	0xbcb775a9	-0.022394972
83	0x3cabfe62	0.020995323
84	0xbd1a92cd	-0.037737656
85	0xbc81a825	-0.015827248
86	0x3c81a5e6	0.015826177
87	0xba0936f5	-0.00052343245
88	0xbc9b38cf	-0.018947987
89	0xbcde4404	-0.027132042
90	0x3cf92504	0.030413158
91	0x3ccbe3f1	0.024888964
92	0xbd30ed2a	-0.043194927
93	0x3ccd55a4	0.02506525
94	0x3c5e84ea	0.013581494
95	0xbb286899	-0.002569711
96	0xbca80aec	-0.02051302
97	0x3c1817d9	0.0092830295
98	0x3c56c79d	0.013109115
99	0x3d3e5ee9	0.046477232
100	0xbcf764b2	-0.030199382
101	0xbd0d1952	-0.034447975
102	0xb993acb8	-0.0002816671
103	0x3a3fec43	0.00073212775
104	0x3c2aa046	0.010414189
105	0x3c885b35	0.016645053
106	0x3bf74d77	0.0075470763
107	0xbc8964e7	-0.016771747
108	0xbbf3cb24	-0.0074399877
109	0x3c0d3a3e	0.008619843
110	0x3b9143a7	0.0044331136
111	0x3aa09b87	0.0012253382
112	0xbc688c00	-0.014193535
113	0xbbe313ac	-0.0069298353
114	0xbc383d78	-0.011245124
115	0x3c7e3452	0.015515404
116	0x3c96f39b	0.018426707
117	0x3a4ce140	0.0007815547
118	0x3ca73efd	0.020415777
119	0x3bfe60f4	0.0077630226
120	0x3c56fe39	0.013122135
121	0xbd1cfc1c	-0.038326368
122	0xbb36aae7	-0.0027872862
123	0x3d046ed0	0.03233224
124	0xbc146ad9	-0.009058678
125	0x3c56b353	0.013104278
126	0xbcf36a32	-0.029713724
127	0xbd44ea27	-0.048074868

transformer_encoder.layers.0.linear1.weight f4 [128, 128]
0	0xbd897d6a	-0.06713374
1	0x3d5102e0	0.051028132
2	0x3dd69e8e	0.10479461
3	0xbd46d037	-0.048538413
4	0xbdd3d4ab	-0.103432976
5	0xbd9913b6	-0.07474463
6	0xbde42e9a	-0.11141701
7	0xbd59befa	-0.053160645
8	0xbc53ee5c	-0.012935247
9	0xbd7500a4	-0.059815064
10	0xbd336020	-0.043792844
11	0x3aa8e26e	0.0012884864
12	0x3dae0403	0.08496859
13	0xbcda5fd3	-0.02665702
14	0x3ddcea9e	0.10786937
15	0x3d30bc13	0.04314811
16	0xbd01ff6a	-0.031737722
17	0xbe09811a	-0.13428155
18	0xbd1d8e90	-0.038466036
19	0x3cf0f0fc	0.029411785
20	0xbd5ecf3b	-0.05439685
21	0x3c4b598b	0.012411485
22	0xbd824a9b	-0.06361886
23	0xbd26622c	-0.040620968
24	0x3c9fbd06	0.019499313
25	0xbbf1f797	-0.0073842513
26	0xbd5df7b7	-0.054191317
27	0x3d0b6228	0.034029156
28	0xbd8862e1	-0.06659485
29	0xbd9628ac	-0.07331976
30	0xbde09893	-0.10966601
31	0xbb33aed3	-0.0027417436
32	0xbcfe33c3	-0.031030541
33	0xbd717d85	-0.058957595
34	0x3c281cf6	0.010260811
35	0xbd0713a0	-0.0329777
36	0x3d7860c7	0.06063917
37	0x3d168851	0.036751095
38	0x3d0fb6f7	0.0350866
39	0x3d686194	0.056733683
40	0xbd28f523	-0.041249406
41	0xbd7e3408	-0.06206134
42	0x3e130a8b	0.1435949
43	0x3d100cd9	0.035168502
44	0x3dda7d65	0.10668448
45	0xbc8d5f79	-0.017257439
46	0x3d16f29b	0.03685246
47	0x3cce3b56	0.025174778
48	0x3cc47b91	0.023984702
49	0x3cdfe53d	0.027330989
50	0xbd92c7c3	-0.07167008
51	0x3c934df6	0.01798151
52	0xbd122b34	-0.035685733
53	0x3d792e40	0.060835123
54	0x3e0d010b	0.13769929
55	0x3d5ceccb	0.05393676
56	0xbd4f197a	-0.050561406
57	0xbd25e56f	-0.040502008
58	0xbb252563	-0.0025199286
59	0xbced5868	-0.02897282
60	0x3d1e798a	0.038690127
61	0x39f3b182	0.00046480825
62	0x3da69250	0.08133376
63	0x3c6d122e	0.014469666
64	0xbcada8d1	-0.021198662
65	0xbdace075	-0.08441249
66	0x3d444a19	0.047922228
67	0x3ddf0c02	0.10890962
68	0x3da60cd3	0.08107915
69	0x3d0c4089	0.034241233
70	0x3d4a20be	0.04934763
71	0x3d914c4e	0.07094632
72	0xbe07ee3b	-0.13274471
73	0xbd9b5773	-0.07585039
74	0x3d884a57	0.06654804
75	0xbd9154fa	-0.07096286
76	0xbd276e24	-0.040876523
77	0x3dbc911a	0.092073634
78	0xbb2a87c1	-0.0026020857
79	0x3dbaf346	0.09128432
80	0x3e16809c	0.14697498
81	0xbd9aeb4a	-0.07564409
82	0x3d94d9c6	0.072680995
83	0x3bfbd114	0.007684836
84	0xbdc5a7c2	-0.09651138
85	0xbdaf3a34	-0.08556023
86	0xbcb63b6f	-0.022245137
87	0xbd38ae69	-0.045088205
88	0xbda4c5ec	-0.08045563
89	0xbdb1c58b	-0.086802565
90	0xbdc40a1b	-0.0957224
91	0xbd322c45	-0.04349925
92	0x3d66f10a	0.056382217
93	0x3dcc8a23	0.09987285
94	0x3d737d92	0.059445925
95	0x3ca32fa2	0.019920174
96	0xbcd6dbdc	-0.026227884
97	0xbde83b95	-0.11339489
98	0x3e00e151	0.12585951
99	0xbd9d1c3c	-0.07671401
100	0xbd6cf127	-0.05784717
101	0x3c8e2ac3	0.017354375
102	0xbd2d05ce	-0.042241864
103	0xbdb22cba	-0.08699937
104	0xbd09a2b3	-0.033602428
105	0x3de9721c	0.11398718
106	0xbd74fa34	-0.059808925
107	0x3cc44e77	0.023963196
108	0x3c97bb06	0.018521797
109	0x3d8f92a9	0.07010395
110	0xbc080d60	-0.00830397
111	0x3d86cb6b	0.06581768
112	0x3daac0ed	0.08337579
113	0x3d93e1ab	0.07220777
114	0xbd9a8751	-0.07545341
115	0xbcdee553	-0.02720896
116	0x3da57af2	0.080800906
117	0xbd5de004	-0.054168716
118	0xbd1af69c	-0.03783284
119	0xbd46ab9b	-0.0485035
120	0x3dbb280b	0.09138497
121	0xbc228b16	-0.009920856
122	0xbce95865	-0.028484533
123	0xbd4e2aad	-0.050333668
124	0x3cd8ff95	0.026489059
125	0xbdc667fe	-0.09687804
126	0xbe0a332e	-0.13496086
127	0x3c924583	0.017855411
128	0xbceaeb1c	-0.028676562
129	0x3daeacee	0.085290775
130	0x3d61eb58	0.055156082
131	0xbd050ac6	-0.032480977
132	0xbd7d5ef6	-0.06185814
133	0xbd806e49	-0.06271035
134	0x3d9c275e	0.07624696
135	0xbe05abba	-0.1305379
136	0xbd919780	-0.071089745
137	0xbdab7857	-0.083725624
138	0x3d46c297	0.04852542
139	0xbdd9b035	-0.10629312
140	0x3bfb6a1f	0.0076725627
141	0x3d26ae95	0.04069384
142	0x3c7e8f5e	0.015537111
143	0x3c65832e	0.014008326
144	0x3d11afac	0.035567924
145	0xbd5eaf3e	-0.054366343
146	0x3da7a092	0.08184923
147	0xbd3fd8d8	-0.046837658
148	0x3d5ad21a	0.053423025
149	0xbd9369c1	-0.07197905
150	0x3d780da7	0.060559895
151	0x3cff33cb	0.031152626
152	0x3d580d5f	0.052747127
153	0x3bb436fd	0.005499719
154	0x3d8917ea	0.06694014
155	0xbdb59435	-0.08866159
156	0xbdec02d1	-0.11523975
157	0xbc7225bf	-0.014779507
158	0x3d9655a6	0.07340555
159	0x3ce714cb	0.028208157
160	0xbe03c09d	-0.12866445
161	0x3da8c9bc	0.08241603
162	0xbda8c920	-0.082414865
163	0x3d7d9dce	0.061918072
164	0x3d723689	0.05913404
165	0xb8d1ec80	-0.00010009948
166	0x3d01d556	0.031697594
167	0xbd71e34a	-0.05905465
168	0x3bbc6b0a	0.0057500647
169	0x3bd7a6f5	0.006581182
170	0x3cbc890e	0.023014572
171	0x3d639cdd	0.05556952
172	0x3d10ffe3	0.035400283
173	0x3df78912	0.12086691
174	0xbdb03941	-0.0860467
175	0xbda9b5fb	-0.08286663
176	0x3d645703	0.055747043
177	0x3c1c7320	0.009548932
178	0xbcef8e4b	-0.029242655
179	0x3db9d4c2	0.090737835
180	0xbd9ae03f	-0.07562303
181	0x3d90ab18	0.070638835
182	0xbda706be	-0.08155583
183	0x3ba3c67d	0.004998027
184	0x3d05c0e8	0.032654673
185	0xbd9caa93	-0.07649722
186	0xbda5b4d1	-0.080911286
187	0xb90e55a8	-0.00013574085
188	0x3bff9ea5	0.0078008943
189	0xbc101cb9	-0.0087959105
190	0xbdc2a868	-0.09504777
191	0x3d1616b8	0.03664276
192	0xbc862306	-0.016374122
193	0xbc837c8a	-0.016050596
194	0x3d5c940b	0.053852122
195	0xbd70f19a	-0.05882416
196	0x3d92cf52	0.071684495
197	0xbd60f342	-0.05491949
198	0xbd618a99	-0.055063818
199	0x3c8fce49	0.01755442
200	0xbd6c8ab9	-0.057749484
201	0xbc847098	-0.01616697
202	0x3dd22cb9	0.102624364
203	0xbdd9ffff	-0.106445305
204	0x3d5a5cec	0.053311273
205	0x3d9192f7	0.071081094
206	0xbc6772d0	-0.0141264945
207	0x3d6023b0	0.054721534
208	0x3d525489	0.05135015
209	0xbd13444b	-0.0359538
210	0x3d660d4a	0.056165017
211	0x3d1fa184	0.038972393
212	0xbd58e742	-0.05295492
213	0xbc4df61d	-0.012570885
214	0x3cee0fd4	0.029060282
215	0xbb9c9f67	-0.0047797444
216	0x3d586617	0.052831735
217	0x3d83ce69	0.06435854
218	0x3c93a08e	0.018020894
219	0x3d7f9032	0.062393375
220	0x3d083815	0.03325661
221	0x3ca77190	0.020439893
222	0x3cb11264	0.021615215
223	0x3dbe8e8f	0.09304535
224	0x3cb7a94a	0.02241959
225	0x3dbf1bc9	0.093314715
226	0xbd4bcc14	-0.04975517
227	0xbda0889e	-0.07838558
228	0x3d038d1e	0.032117
229	0x3e0c313d	0.13690658
230	0xbcbbc8d4	-0.02292291
231	0x3d8b1570	0.06791198
232	0xbdc482bd	-0.09595249
233	0x3c43bff5	0.011947622
234	0x3b3e193d	0.0029006742
235	0x3cccba7d	0.024991268
236	0xbd70ca19	-0.058786485
237	0x3daedd5d	0.085383154
238	0xbd0cc641	-0.034368757
239	0x3c0dd234	0.008656073
240	0x3cc91ce8	0.024549916
241	0x3d8143d4	0.06311765
242	0x3bb2751c	0.0054460894
243	0x3ce6f40f	0.028192548
244	0x3d99f3d9	0.075172134
245	0x3d2f199d	0.042749036
246	0xbce110c6	-0.027473819
247	0x3d1a9723	0.03774179
248	0xbd8f306e	-0.06991659
249	0x3d836801	0.064163215
250	0xbd5a3c63	-0.053280246
251	0xbd6e8733	-0.058234405
252	0xbd039459	-0.032123897
253	0xbcc32c8a	-0.023824949
254	0x3d2f138c	0.04274325
255	0xbcb4a31b	-0.022050431

transformer_encoder.layers.0.linear1.bias f4 [128]
0	0xbcc8bd34	-0.024504282
1	0xbd286905	-0.04111578
2	0xbd050cd5	-0.03248294
3	0xbdcea203	-0.10089495
4	0xbd5c7c08	-0.053829223
5	0xbda59948	-0.08085877
6	0x3d305279	0.043047402
7	0xbd904f96	-0.0704643
8	0xbcc6eb04	-0.024281986
9	0xbd7e5094	-0.062088564
10	0xbccc2ab6	-0.02492271
11	0xbdc0cda5	-0.094142236
12	0xbdb111e7	-0.08645993
13	0xbd97e16f	-0.07416045
14	0xbe061328	-0.13093245
15	0x3c16b547	0.009198493
16	0xbda96dcd	-0.08272896
17	0xbdb3b635	-0.087749876
18	0xbd412a82	-0.04715968
19	0x3d3ac15e	0.045594566
20	0xbc223d0c	-0.00990225
21	0xbbc680de	-0.0060578426
22	0xbdcf7452	-0.10129608
23	0xbc79e83d	-0.015253124
24	0xbd8df68d	-0.069317915
25	0xbd696824	-0.056984082
26	0xbd36d9b2	-0.044641204
27	0x3ca94907	0.020664705
28	0x3d15f63d	0.036611784
29	0x3cebb506	0.028772842
30	0xbca0268f	-0.019549636
31	0xbc609f13	-0.013709801
32	0x3d81e6fc	0.06342885
33	0x3b9d9b32	0.0048097605
34	0xbd28fa91	-0.041254584
35	0xbda11c3d	-0.07866714
36	0x3c920706	0.017825615
37	0xbd8f4d0f	-0.0699712
38	0xbcecd38f	-0.028909473
39	0xbd5f0249	-0.05444554
40	0xbc203ffb	-0.009780879
41	0xbda2971d	-0.07938979
42	0x3d4876b3	0.048941325
43	0x3d0c6333	0.03427429
44	0xbdca4d85	-0.09878067
45	0x3d626884	0.055275455
46	0x3d8b7d9f	0.0681107
47	0xbda9b824	-0.08287075
48	0xbdb602b0	-0.08887231
49	0xbe2659e7	-0.16245233
50	0xbce7c97b	-0.028294316
51	0x3c5429b0	0.012949392
52	0xbda49caa	-0.08037694
53	0xbde204bc	-0.11036059
54	0xbd547584	-0.051869884
55	0xbdd2c0a5	-0.1029065
56	0xbd989772	-0.07450761
57	0xbd943271	-0.072361834
58	0xbd7173c8	-0.05894831
59	0xbdbb38aa	-0.09141667
60	0x3d53cf21	0.051711205
61	0xbd6813e3	-0.05665959
62	0x3cf579ad	0.029965246
63	0xbb9c1c9f	-0.004764154
64	0xbd9f0161	-0.07763935
65	0xbdcc09e8	-0.09962827
66	0xbdddb521	-0.10825563
67	0xbc6834d8	-0.014172755
68	0x3d2daa84	0.042398944
69	0x3cf48068	0.029846385
70	0xbd8a6b62	-0.06758763
71	0xbca9836e	-0.020692553
72	0xbca04788	-0.019565359
73	0xbd80547b	-0.06266113
74	0xbd433579	-0.047658417
75	0x3cc0f311	0.023553403
76	0xbd2b039d	-0.041751493
77	0xbdb5455d	-0.088511206
78	0x3d93bcbe	0.07213734
79	0xbd99b326	-0.07504873
80	0xbbb2bad0	-0.0054543987
81	0xbd8c6db0	-0.06856859
82	0x3d302670	0.043005407
83	0xbd1d0bed	-0.03834145
84	0x3ce88005	0.028381357
85	0xbcc5f670	-0.024165362
86	0xbd191025	-0.037368912
87	0x3d9e51a5	0.07730416
88	0x3c8df983	0.01733089
89	0xbd855f84	-0.06512359
90	0xbc8213b1	-0.01587853
91	0xbd56b4a4	-0.052418366
92	0xbc8d1457	-0.017221613
93	0xbd489bfc	-0.048976883
94	0xbd43b03e	-0.0477755
95	0xbd08fc70	-0.03344387
96	0xbd84e3e5	-0.0648878
97	0xbd2a8273	-0.041628312
98	0x3bc38b76	0.005967553
99	0x3d0a8614	0.033819273
100	0xbd9fa7e4	-0.077956945
101	0x3d513a31	0.051080886
102	0x3caa4fdf	0.020790039
103	0x3ce902ec	0.028443776
104	0x3cd2c3a4	0.025728054
105	0x3d3adbf6	0.045619927
106	0xbd32d8b5	-0.0436637
107	0xbdc190ff	-0.09451484
108	0x3c823d16	0.015898269
109	0x3cdf2cb8	0.027243003
110	0x3c88be47	0.016692294
111	0xbd79d128	-0.060990483
112	0xbe060ee3	-0.13091616
113	0xbd8fc940	-0.07020807
114	0x3c9db04f	0.01924911
115	0x3cd19fdb	0.02558892
116	0x3d5bb0d7	0.053635444
117	0x3cb6e6c8	0.022326842
118	0xbdd0728e	-0.101780996
119	0xbb89bc48	-0.004203353
120	0xbd3814a2	-0.044941552
121	0xbdcacb83	-0.09902098
122	0xbcf4fd44	-0.029905923
123	0x3d7d2caa	0.061810173
124	0xbdafdfe5	-0.08587626
125	0x3cebc5ef	0.028780906
126	0xbdeae56f	-0.11469542
127	0x3d3ad281	0.04561091

transformer_encoder.layers.0.linear2.weight f4 [128, 128]
0	0xbd4dd38b	-0.05025057
1	0xbdd1dc84	-0.10247138
2	0x3d3b701d	0.045761216
3	0x3d526ee4	0.051375285
4	0x3d6f16cb	0.058371346
5	0x3d267595	0.04063948
6	0xbdbf8fc9	-0.09353597
7	0x3bcae221	0.0061915074
8	0x3dfa18ca	0.122117594
9	0xbe00b842	-0.12570289
10	0xbde9178c	-0.11381444
11	0xbd347571	-0.044057313
12	0xbdd1258d	-0.1021224
13	0xbca3a079	-0.01997398
14	0xbb82966b	-0.0039852164
15	0x3d5e78ea	0.05431453
16	0xbd9c85d4	-0.07642713
17	0x3db19126	0.08670263
18	0xbd84f4d4	-0.0649201
19	0x3cc0937d	0.023507828
20	0xbd88f036	-0.066864416
21	0xbdc19363	-0.0945194
22	0xbd503b7b	-0.050837975
23	0xbbbc2d28	-0.0057426877
24	0xbd6662ec	-0.056246683
25	0x3dbe5cee	0.09295069
26	0xbd4c7b1e	-0.0499221
27	0xbcbe20c6	-0.023208987
28	0x3bf4a9c3	0.0074665262
29	0x3d9e5faa	0.0773309
30	0xbd9e4d0f	-0.077295415
31	0x3c741896	0.01489844
32	0x3c541133	0.012943554
33	0xbddd3ef9	-0.10803027
34	0xbd200501	-0.039067272
35	0x3d33b546	0.043874048
36	0x3dd8d310	0.10587132
37	0x3cff67bb	0.031177392
38	0x3da55651	0.08073104
39	0xbc40473d	-0.0117357345
40	0x3b85d3e6	0.004084098
41	0xbd565db8	-0.05233547
42	0x3d641251	0.05568153
43	0xb9393a78	-0.00017664756
44	0xbdd8c97e	-0.105853066
45	0xbd206db6	-0.03916713
46	0xbbbee6fe	-0.0058258763
47	0x3db64bb0	0.08901155
48	0xbdb9391e	-0.09044097
49	0xbd978da2	-0.07400061
50	0xbca8d753	-0.020610487
51	0xbce09a1e	-0.027417239
52	0x3c9caf67	0.019126607
53	0x3d652968	0.05594769
54	0xbd8177d2	-0.06321682
55	0x3d0eadd1	0.034833733
56	0x3da4f324	0.08054188
57	0xbd02e983	-0.031960975
58	0xbd9aefce	-0.0756527
59	0xbd49b2e2	-0.04924286
60	0x3dcab59d	0.09897921
61	0x3d085d9c	0.033292398
62	0x3bbda204	0.005787136
63	0x3e0cd563	0.13753276
64	0x3ce5bdb1	0.028044553
65	0xbd123f8b	-0.03570513
66	0xbca3af0c	-0.01998093
67	0x3d878d27	0.066187195
68	0xbd158766	-0.03650608
69	0xbdc649eb	-0.096820675
70	0xbcc8046f	-0.024416177
71	0x3d415aa5	0.047205586
72	0x3cee4e7c	0.029090159
73	0xbdaf6e67	-0.085659795
74	0xbdf69c51	-0.12041534
75	0xbc2a91cc	-0.010410737
76	0xbdf8a28b	-0.121403776
77	0x3e0077aa	0.12545648
78	0xbc71dc25	-0.014761959
79	0xbe00bd48	-0.12572205
80	0x3d520f87	0.05128434
81	0x3c053dab	0.008132379
82	0x3d41b61d	0.047292817
83	0xbdd983fd	-0.10620878
84	0xbdef30d6	-0.116792366
85	0x3a93c45b	0.0011273728
86	0x3da9fe98	0.08300513
87	0xbd86d761	-0.06584049
88	0x3d9f8bdf	0.0779035
89	0xbd87ab4c	-0.06624469
90	0x3d593b30	0.05303496
91	0xbcd60221	-0.026124062
92	0x3c0828bb	0.008310492
93	0xb9c612b4	-0.00037779438
94	0x3d4ba7b2	0.049720474
95	0x3d0d2399	0.034457777
96	0x3d3099d7	0.043115463
97	0xbd9ee2ce	-0.07758103
98	0xbca1bf68	-0.01974459
99	0x3c9b6eff	0.018973825
100	0x3cecf934	0.028927423
101	0xbd9de731	-0.07710112
102	0xba8c2b92	-0.0010694137
103	0x3d291619	0.04128084
104	0x3c999f97	0.018752856
105	0xbd33a960	-0.0438627
106	0xba834239	-0.0010014243
107	0x3cd69dc5	0.026198277
108	0x3d123ce7	0.035702612
109	0xbdcc013d	-0.09961174
110	0x3d93446c	0.07190785
111	0xbd06bcb5	-0.03289481
112	0x3d736159	0.05941901
113	0x3b905928	0.0044051595
114	0x3c788c9c	0.015170243
115	0xbc38d74d	-0.0112818
116	0xbe193746	-0.14962491
117	0xbdc9a352	-0.09845604
118	0x3d9074b4	0.07053509
119	0x3d75bec4	0.05999638
120	0xbcdbf9c0	-0.026852489
121	0x3bff851e	0.007797851
122	0xbd41c701	-0.047308926
123	0xbdc7b5a1	-0.0975144
124	0x3cc668ec	0.024219953
125	0xbd1cf07f	-0.038315292
126	0xbd1eb8f5	-0.038750608
127	0x3c96f696	0.018428128
128	0xbdebc1b8	-0.11511558
129	0x3c9cd3ba	0.019143928
130	0xbd9a6611	-0.07538999
131	0x3da4862e	0.08033405
132	0x3da30855	0.079605736
133	0x3d040200	0.03222847
134	0xbd4514d8	-0.04811558
135	0x3c4e074f	0.012574985
136	0xbd84aa24	-0.06477764
137	0x3cfe405f	0.031036554
138	0x3ab9dc72	0.0014180078
139	0x3d1bb09a	0.038010217
140	0x3dc7df07	0.09759336
141	0x3d9de835	0.077103056
142	0x3d21aee7	0.03947344
143	0xbc073874	-0.008253206
144	0xbcc61ddb	-0.024184158
145	0x3d9c7408	0.07639319
146	0x3da16023	0.07879665
147	0xbe12b163	-0.1432548
148	0x3d2ecfe5	0.042678732
149	0xbd716faa	-0.05894438
150	0x3cf0c034	0.029388525
151	0xbc569669	-0.013097384
152	0xbbb74c83	-0.0055938377
153	0x3d1d2f5a	0.038375236
154	0xbd95436e	-0.07288252
155	0xbac14c14	-0.0014747404
156	0x3dfe1578	0.124064386
157	0xbdbf73f1	-0.09348286
158	0xbe025422	-0.12727407
159	0x3d9847ac	0.07435545
160	0x3e029f55	0.12756093
161	0xbc07b1e0	-0.008282155
162	0xbbda9bf0	-0.006671421
163	0x3db4f237	0.08835261
164	0xbd73966e	-0.059469633
165	0x3ce53710	0.027980357
166	0x3cf72c3f	0.030172465
167	0xbd9f4d5e	-0.077784285
168	0x3d1660e5	0.0367135
169	0x3bbef2e4	0.0058272947
170	0xbd491575	-0.04909273
171	0xbd6502db	-0.055910926
172	0xbd18b033	-0.03727741
173	0x3add6740	0.0016891733
174	0xbb4e44ed	-0.0031474188
175	0x3da69a7d	0.08134935
176	0x3d8fe2df	0.07025694
177	0x3d5b109f	0.053482648
178	0x3de35319	0.11099834
179	0x3d8c2a6b	0.06844028
180	0xbd1f0df9	-0.038831685
181	0xbd3df301	-0.046374325
182	0xbd868aa4	-0.06569412
183	0x3ce556de	0.027995523
184	0x3d8988c7	0.06715541
185	0xbdd4912f	-0.10379254
186	0xbd3271e8	-0.04356566
187	0x3d68b726	0.05681529
188	0xbc127195	-0.008938213
189	0x3cdbd22c	0.026833616
190	0xbd7d0167	-0.061768916
191	0x3cae06a0	0.021243393
192	0xbd2c0c64	-0.042004004
193	0x3dadb29c	0.08481333
194	0xbc5ed6a9	-0.013600984
195	0x3cdaa050	0.026687771
196	0xbd251784	-0.04030563
197	0x3d9a483c	0.07533309
198	0xbc381625	-0.011235748
199	0x3d7afa98	0.06127414
200	0x3c9500be	0.01818883
201	0xbddd3045	-0.10800222
202	0x3d01ebe6	0.03171911
203	0xbdc14f43	-0.09438946
204	0xbcf27e2e	-0.029601183
205	0x3ddaf2c0	0.10690832
206	0xbcc8f4d6	-0.02453081
207	0xbd59f072	-0.053207822
208	0x3cd41337	0.025888069
209	0xbd8c58f9	-0.06852908
210	0xbdfe1dab	-0.124080025
211	0xbdbb3983	-0.09141829
212	0x3ce7ab1d	0.028279835
213	0x3c28210b	0.010261784
214	0x3db76595	0.08954922
215	0x3bf7cf13	0.007562527
216	0x3ae4b75f	0.0017449668
217	0xbbf7d884	-0.0075636525
218	0x3d07a4a5	0.033116
219	0x3c2f7cb3	0.010710883
220	0x3d4b59a3	0.04964603
221	0xbaa0febe	-0.001228295
222	0xbe26c4e2	-0.16286042
223	0xbd979cc6	-0.07402949
224	0xbbf05ada	-0.007335049
225	0xbdb06fec	-0.086150974
226	0x3cb93f1b	0.022613099
227	0xbc4c29a2	-0.012461098
228	0xbd807f62	-0.06274296
229	0xbdaf870a	-0.085706785
230	0xbdb0acf2	-0.08626737
231	0xbd3794bb	-0.044819575
232	0x3cf99dc8	0.030470744
233	0x3d4556ad	0.048178364
234	0xbc7f8b96	-0.015597245
235	0xbbe7c5d4	-0.0070731435
236	0xbd55b494	-0.052174166
237	0xbda7a6ae	-0.081860885
238	0x3dbde8e8	0.09272939
239	0xbcd9e310	-0.02659753
240	0xbcdab40b	-0.02669718
241	0xbe19d90b	-0.15024202
242	0xbdb8291f	-0.08992218
243	0xbdf0ea53	-0.11763444
244	0xbd9cd531	-0.076578505
245	0x3c91a317	0.017777963
246	0xbcd5042b	-0.026002964
247	0x3d737ca1	0.059445027
248	0xbd05dafa	-0.032679535
249	0x3de9fafd	0.11424825
250	0x3bc2d5c1	0.0059458916
251	0xbcf5bbbc	-0.029996745
252	0x3cb1a1a0	0.021683514
253	0x3d796e51	0.06089622
254	0x3c148e4c	0.009067129
255	0xbbc38038	-0.0059662126
