tuning_multi_scale_transformer_encoder/transformer_encoder_model_fold_2.pth (torch, 822178 bytes, 28 tensors)

embedding.weight f4 [128, 25]
000000 fc 59 e3 bd cf 85 b1 bd 5d d5 0d be 07 81 45 3e
       -0.111011475 -0.086681 -0.13850923 0.19287501
000010 22 00 d7 3d 54 79 46 3d 60 42 2f be cd 7f 94 be
       0.10498072 0.04845555 -0.17115164 -0.29003754
000020 f7 14 1f 3e 50 90 9f 3c a7 ca 39 3d d2 a1 b3 bc
       0.15535341 0.019477993 0.04535928 -0.021927748
000030 f2 b1 d9 bd 8f 01 43 3e 4a a4 0c be 9d 1c b3 bc
       -0.106296435 0.19043563 -0.13734546 -0.02186423
000040 61 cd 32 be 70 fb b0 3d 98 0a f0 3d 96 7d 0e 3e
       -0.17461158 0.08641708 0.117207706 0.13915095
000050 91 56 f5 bd 48 5e 05 be c9 23 7f bc 5a 41 4e 3e
       -0.11979402 -0.13024247 -0.015572497 0.20142117
000060 86 17 05 3e 7c e3 d1 bd f9 88 f8 3d 95 ee 77 3c
       0.12997255 -0.10248467 0.121355005 0.015132566
000070 51 6c 1d 3e 1a fa 86 bc 72 36 bb 3c 65 c7 58 be
       0.1537335 -0.01647668 0.02285311 -0.21169813
000080 b4 dc 54 3e 14 2d ac bd 2f 5b 3e 3e 94 10 ac bd
       0.20787317 -0.084070355 0.18589471 -0.084015995
000090 db d0 1b be 25 11 07 3e 03 23 58 3c 90 74 6a 3d
       -0.15216391 0.13190134 0.013191941 0.05724007
0000a0 d6 84 85 3c 17 71 d6 3d 33 71 de bc 77 e7 05 be
       0.016298693 0.10470789 -0.027153587 -0.13076578
0000b0 23 63 ba bd 88 bb ab bd bc 70 0b 3e 9c 0e 1f be
       -0.0910094 -0.08385378 0.13617224 -0.15532917
0000c0 67 d5 d9 bd 19 a0 d9 3d f8 6c 16 3e 0c df 91 bd
       -0.106364064 0.10626239 0.14690006 -0.07122621
0000d0 16 45 2c be fd ee ca 3d be bf 15 be 89 e4 1f 3e
       -0.16823229 0.09908865 -0.14623925 0.15614523
0000e0 63 0d de bc 4f 8c 13 3d 0c c5 9d bd f3 91 c8 3d
       -0.027105993 0.03602248 -0.07703599 0.097934626
0000f0 d4 9c 84 3c d0 67 e9 bc 4a 2e 16 3b 37 be 09 be
       0.016188063 -0.028491884 0.0022915774 -0.13451467
000100 ab d8 8b 3d 98 cd e3 3d 81 01 0a be bc b1 f3 3d
       0.068284355 0.11123198 -0.13477136 0.118991345
000110 ee f7 56 ba 78 4f 45 ba df db 27 be bf 36 d0 3d
       -0.00082003966 -0.00075267954 -0.16392468 0.10166692
000120 86 f7 5d be 1e 9c 8c bc 7f af 5c 3b 35 2b df bd
       -0.21676454 -0.017164286 0.003367394 -0.10896913
000130 58 c7 8c 3d 08 3f ac bb e6 7b 1d 3e 28 51 50 3d
       0.06873959 -0.0052565373 0.15379295 0.050858647
000140 06 63 aa 3d 91 cb 82 3e 87 7c a4 3d 0f af aa 3d
       0.083196685 0.25545934 0.08031564 0.08334171
000150 af 76 e6 bd a3 64 8c 3d 74 12 1f be 44 9d c0 bc
       -0.11253106 0.068551324 -0.15534383 -0.02351249
000160 86 b4 13 be bc 54 21 3d 87 5a e3 bc 97 90 f8 bd
       -0.14424333 0.03938745 -0.027753128 -0.12136953
000170 24 6f 98 bd c2 ea 93 be 02 8a 34 3d 14 bd e7 3d
       -0.074430734 -0.28890043 0.044076927 0.11315361
000180 97 1b 9f bd 0d 39 e3 3d c7 5c 70 be 4d 76 2e 3d
       -0.07768934 0.11094866 -0.23472892 0.04259329
000190 70 f4 04 3e 3a 0b 1b be e7 a4 27 be 74 ec cc 3d
       0.1298387 -0.15141001 -0.16371499 0.10006037
0001a0 f3 99 a6 3d d1 9d 71 bd b8 7e 81 be 18 b6 26 be
       0.08134832 -0.058988396 -0.2529199 -0.16280401
0001b0 00 a1 23 3e 5d 43 c2 bd c9 b5 9f 3c cb 57 ad bb
       0.15979385 -0.09485505 0.019495862 -0.0052900068
0001c0 c2 73 9f 3d 01 bf 1c 3e a8 8e 40 be 75 c4 9e 3d
       0.07785751 0.15307237 -0.18804419 0.07752315
0001d0 e0 b9 8d bd 83 61 89 bd 76 e9 c1 3d af 03 ca 3d
       -0.069202185 -0.06708052 0.09468357 0.09863984
0001e0 67 3e 42 bd b5 0f 48 bd 91 3c 9c bd 78 82 db 3c
       -0.047422793 -0.048843104 -0.076287396 0.02679561
0001f0 f8 30 b7 3b 82 3d 2b 3e e2 df 15 be 90 7c 45 3e
       0.0055905543 0.16722682 -0.14636186 0.19285798
000200 90 d6 9a bd ca b1 ac 3d 2a 49 04 3a 06 4c dd bc
       -0.07560456 0.08432348 0.00050463027 -0.02701379
000210 7c 2b 24 3e 2f c3 de 3c 2f bb 27 be 46 e5 34 3e
       0.16032213 0.02719268 -0.16379999 0.17665586
000220 bb 4a 40 be 5a bd b8 bd 6f 96 24 3e 12 e0 21 be
       -0.18778507 -0.09020491 0.16073011 -0.15808132
000230 61 2a 24 be ff b7 c4 3c c8 74 0c be b3 cd 23 be
       -0.16031791 0.024013517 -0.13716424 -0.15996437
000240 91 33 b8 bd 74 ab 3e 3e cb 57 14 be 6d 58 94 3d
       -0.089942105 0.18620092 -0.14486615 0.072434284
000250 b0 83 52 be 66 50 c6 bd 3f 2a ee 3d d2 24 5d 3e
       -0.20558047 -0.096833035 0.116291516 0.21596077
000260 8f f2 cd 3d f3 19 00 3e 28 85 9d bc 21 b4 2a 3e
       0.1005603 0.12509899 -0.019228533 0.16670276
000270 03 91 42 be 72 8b 33 be 6f 55 c1 bd 78 27 49 be
       -0.1900063 -0.17533663 -0.09440123 -0.19643962
000280 e3 ce 6b 3e ec 91 08 3e 88 65 8b 3e d0 4a e5 bd
       0.2302814 0.13336915 0.272259 -0.1119591
000290 39 cc f0 3d 7f 92 78 bb ef 5d c2 bd ae 32 ff bb
       0.117577024 -0.0037929115 -0.09490573 -0.007788024
0002a0 66 7a 34 3e 16 ff bc 3d 8a 72 03 be 08 4a fb 3d
       0.17624816 0.09228341 -0.12836662 0.1226998
0002b0 95 73 a0 3c e2 06 80 bd e7 0a 99 bd aa 0d 35 bd
       0.019586364 -0.06251313 -0.074727826 -0.044202484
0002c0 7d 8d 21 be 01 29 01 3d e8 0f f8 bd 41 8a 24 3e
       -0.1577663 0.031533245 -0.12112409 0.16068365
0002d0 26 24 42 3e 36 f9 5d 3e 3c 82 73 be 74 75 79 3e
       0.18959102 0.21677098 -0.23780149 0.24361211
0002e0 23 6d 6e bd 73 bc 40 3d 7c e6 0e be 07 66 9c bd
       -0.05820955 0.04705472 -0.1395511 -0.07636648
0002f0 f8 db 13 be 51 ca 68 bd 07 0a 06 3e 5a 5a 08 be
       -0.1443938 -0.05683357 0.13089763 -0.13315716
000300 18 20 9e 3d 81 96 17 3d 82 65 0f be f3 89 1b 3d
       0.07720965 0.037008766 -0.14003566 0.037973356
000310 2d 9d 23 be 2a eb 30 3e 3c 7b 32 3e fc f5 11 be
       -0.15977927 0.17277208 0.17429823 -0.14253992
000320 4a d5 1f be 37 73 74 3d 7d e9 23 3e ad 70 4b 3d
       -0.15608707 0.05968019 0.16007037 0.049668003
000330 c2 55 59 bc 70 0b 0e 3e 18 82 b9 bd 44 a4 a0 3e
       -0.013265075 0.1387155 -0.090580165 0.31375325
000340 74 52 c3 bd 61 b6 a0 bd c4 a0 d2 bd 22 30 2a 3e
       -0.09537211 -0.07847286 -0.1028457 0.16619924
000350 31 73 60 3e cc a9 f7 bd f9 5d 11 be 38 73 e3 bd
       0.21918942 -0.12092933 -0.14196004 -0.111059606
000360 36 c0 3b 3e 10 c7 cb bd 62 83 4c 3d 9c 43 95 bd
       0.18335041 -0.099500775 0.049929984 -0.07288286
000370 9f 28 6e 3d 9f f8 1d 3e 24 f1 fb 3c a1 10 da bd
       0.058144208 0.15426873 0.030754633 -0.10647703
000380 05 6f 2c be 55 9d ff 3d ab 88 21 3e 06 10 31 3e
       -0.16839226 0.124811806 0.15774791 0.17291269
000390 6b 8b 21 be ed 2d 23 be 14 d1 d0 bc e3 b1 8e 3d
       -0.1577584 -0.15935488 -0.025490321 0.06967523
0003a0 63 5f 67 3e 0b e8 86 be 9c 84 02 3d 8c 04 e0 3d
       0.22594981 -0.2634891 0.031864747 0.10938367
0003b0 9a 45 8b bd 53 13 1d 3e 52 45 e3 bd 7d b8 80 3d
       -0.06800385 0.15339403 -0.11097206 0.06285188
0003c0 11 ad b0 bd 59 79 12 3d 85 0b d1 3d 87 b9 dd bd
       -0.0862676 0.035760257 0.10207275 -0.10826402
0003d0 2e 54 ee bb 8c 0d 2a be 5b d3 28 3e 38 09 84 bc
       -0.0072732186 -0.1660673 0.16486876 -0.016117677
0003e0 0f f7 63 3d cf 43 c2 3d de c0 0f be 8e 0a 4b 3e
       0.055655535 0.0948559 -0.14038417 0.19828245
0003f0 79 f7 b3 3d 4b ee 87 bd 8f 7e b3 3c 52 5a 13 be
       0.08787436 -0.06637248 0.021910934 -0.14389923

embedding.bias f4 [128]
000000 77 f5 2b bd 74 6c b4 bd 4c 75 ea 3d ea 10 9c 3d
       -0.04198214 -0.08809748 0.11448154 0.076204136
000010 b5 bb 31 be 67 b7 8a 3d 85 db 09 3e e0 50 8e 3d
       -0.17356761 0.067732625 0.13462646 0.069490194
000020 f9 09 ac bd 76 fb bf bd f8 73 f5 bc d6 2c 38 be
       -0.0840034 -0.09374134 -0.029962525 -0.17985854
000030 03 ae 15 3e 3b ed 25 be 71 71 33 be e6 59 df 3d
       0.14617161 -0.16203777 -0.17523743 0.10905819
000040 23 14 ac 3d 71 c9 06 3e a5 79 ef bd d2 9c 00 3e
       0.08402278 0.13162781 -0.11693124 0.12559822
000050 3e d6 80 3d a1 c3 f9 3c 4f a2 98 bd 00 a1 1b bd
       0.062908635 0.030488791 -0.07452833 -0.03799534
000060 4e 46 eb bd 0a 37 2a be cb e8 88 3d 52 ad 20 be
       -0.11488019 -0.16622558 0.06685027 -0.15691116
000070 77 46 3a bd 43 27 42 be 6e cf 02 3e 11 7a 89 bd
       -0.045477357 -0.1896029 0.1277444 -0.067127354
000080 ef 7e 8a 3c b2 36 38 be ad 43 5a 3d 6e 19 29 be
       0.01690623 -0.17989615 0.053287197 -0.16513607
000090 d6 3d 81 bd dd b8 46 bd 3c 44 a3 3c d5 9c 04 3c
       -0.063106224 -0.048516143 0.019929998 0.008094032
0000a0 c8 1f e9 3c 18 41 28 be 45 d2 0d be a2 c9 a0 3d
       0.028457537 -0.16431081 -0.13849743 0.078509584
0000b0 fe 2c 20 3e 77 75 09 bd b6 5f 38 be 1e 3e 55 bd
       0.15642163 -0.03355929 -0.18005261 -0.052061193
0000c0 8d 7e be bc 67 ed d1 3d 7d 64 1a 3c dd 0b 62 bc
       -0.023253703 0.10250359 0.009423372 -0.013796774
0000d0 8a 89 1b 3e 21 2d 28 be b9 5a 99 3d f5 36 6d 3d
       0.15189186 -0.16423465 0.07488007 0.05791374
0000e0 f7 6f 3e 3e c5 53 f9 3d 67 a6 c8 3d 65 9c 09 be
       0.18597399 0.12174181 0.09797364 -0.13438566
0000f0 cb 69 45 be 41 e7 1a be 7e 35 30 3d d7 ae 0a be
       -0.19278638 -0.15127279 0.043019764 -0.13543259
000100 0e bc 08 3e 03 c7 0e 3b 0b b6 83 bd 7f e3 08 bd
       0.13352987 0.00217861 -0.06431206 -0.033420082
000110 1a ee 21 3e d3 b8 47 3e 33 3a 42 3e d9 6c 6a bd
       0.15813485 0.19504099 0.18967514 -0.05723271
000120 c4 97 2e 3e e4 a7 95 3d da a3 34 3e ec 3f 95 3c
       0.17050081 0.07307413 0.1764063 0.018218957
000130 33 d8 68 3d 04 28 ab bd 72 d9 4d be 5b b2 26 3e
       0.05684681 -0.08357242 -0.2010248 0.16278975
000140 6e 81 7d bd 88 08 ac bd 1a d5 19 be 83 dc 09 3e
       -0.061891012 -0.08400065 -0.15022698 0.13463025
000150 b7 3b bb 3d 8a c3 18 3e 69 f7 29 be f7 9b 36 3e
       0.09142249 0.14918342 -0.16598286 0.17832933
000160 fb 91 d4 3d 86 92 9a 3d 2e ef c1 bd ed c8 32 3e
       0.10379406 0.075474784 -0.09469448 0.1745946
000170 9b fa 04 3e 6a 32 41 bd 50 fc 4a 3e 1d 0f c8 3c
       0.12986223 -0.04716722 0.19822812 0.02442127
000180 b7 68 51 bb 91 6d 38 be c3 65 f1 3d 95 bc 00 3e
       -0.0031953284 -0.18010546 0.11786988 0.12571938
000190 c4 ba 40 be 63 a1 d5 bc bd 53 ce bd 66 93 68 bd
       -0.18821245 -0.026077932 -0.100745656 -0.056781195
0001a0 9e 07 e5 3d c5 c0 73 3d d4 3b 05 3b bc 49 b8 3c
       0.111830935 0.05951001 0.002032985 0.022496097
0001b0 2f 12 f2 bd c4 af d0 bc 3e af a8 3b 9e 73 b3 bd
       -0.118198745 -0.025474437 0.0051478436 -0.087622866
0001c0 7b 0c f9 bd d3 86 32 be 18 3b 15 bd 4e f2 0f bd
       -0.121605836 -0.17434244 -0.03643331 -0.03514319
0001d0 17 55 23 be 97 91 af bd 67 11 cc 3d e4 89 bb 3d
       -0.15950428 -0.08572691 0.09964257 0.0915716
0001e0 40 40 4b 3e b2 c1 2f bd 3d ed b3 3d 66 ae 25 3a
       0.19848728 -0.04290933 0.08785484 0.0006320238
0001f0 b3 b5 f4 bb 29 bf 16 be af 9d 9f 3d da 8e 02 bd
       -0.0074679493 -0.1472136 0.07793748 -0.031874515

transformer_encoder.layers.0.self_attn.in_proj_weight f4 [384, 128]
000000 90 21 bf bc e9 7a 89 3d 0c 08 ed 3c 8b 70 93 3d
       -0.023331434 0.067128964 0.028934501 0.071992
000010 61 21 9e 3d 55 fd 9f 3d ef 94 bd 3d ff 51 81 3d
       0.0772121 0.07811991 0.092569225 0.06314468
000020 ff 11 9a 3d de 3d 94 bd b6 69 1a 3d 50 33 10 3c
       0.07522964 -0.07238363 0.03769847 0.008801296
000030 80 e3 69 3a 04 ab b6 bd 93 e5 97 bd 6f 7d c9 bd
       0.0008922145 -0.089193374 -0.07416835 -0.09838378
000040 2c 77 91 3c 88 79 87 3c c2 7a 20 bd 4c ec a7 3c
       0.01775702 0.016537443 -0.03917957 0.020498417
000050 d5 b5 af 3d 67 48 ce 3d 61 e1 a3 3d 36 d6 07 3d
       0.085796036 0.100724034 0.08001972 0.03316327
000060 f2 f6 4f 3d 30 3a 24 bd b8 93 27 bd 15 1b 81 3d
       0.050772615 -0.040094554 -0.04091236 0.063039936
000070 93 23 c4 3d 81 7c 8d bd 86 df b8 bd 03 73 72 bd
       0.09577098 -0.06908513 -0.09027009 -0.059191715
000080 e0 93 cd bc d0 5c a0 bd 88 7a 6f 3c e4 58 d6 3c
       -0.025094926 -0.078302026 0.014616616 0.026165433
000090 c0 58 e3 ba 05 0f cc 3d cb 55 bb 3d 00 44 f4 3b
       -0.0017345175 0.09963802 0.09147223 0.0074543953
0000a0 94 f0 b6 bd d7 f1 d9 bd a2 87 d7 bd fe 95 27 3d
       -0.089326054 -0.106418304 -0.10523917 0.040914528
0000b0 a4 c3 64 bd 86 d0 94 bd 64 e9 f2 bc 34 9e ac 3c
       -0.05585064 -0.07266335 -0.029652305 0.02107153
0000c0 db 42 b8 3d 00 74 10 b9 a0 19 7d bc 28 56 52 3c
       0.08997127 -0.00013776124 -0.015448004 0.012837924
0000d0 7e 8c 12 3d 01 1e a1 3d 8e 31 a9 bd ac 52 05 bd
       0.035778515 0.07867051 -0.08261405 -0.032549545
0000e0 4f a6 ad bd c0 46 7b 3c 86 69 0a 3d e3 1a 84 bd
       -0.084789865 0.015336692 0.03379204 -0.06450441
0000f0 d0 c2 c7 bb ed b1 76 bd 00 f3 ca bd 56 84 17 3d
       -0.0060962215 -0.060228277 -0.0990963 0.03699144
000100 dc 8f f4 3c fc 94 0c bd d0 85 1f bc 33 18 b9 bd
       0.029853754 -0.03432177 -0.009736493 -0.09037819
000110 ad 10 6d bd d2 24 09 bd 72 26 a9 bd c0 0f 7e 3c
       -0.05787723 -0.03348238 -0.08259286 0.015506685
000120 73 4b a2 3d db 28 b1 3d 30 42 f5 3b fc e3 8f bc
       0.07924547 0.08650371 0.007484697 -0.017564766
000130 84 42 9a bd f5 ba d1 3d 5e 17 ad bd d6 ce 07 3d
       -0.07532218 0.10240737 -0.084517226 0.03315624
000140 94 3e d7 3c f7 90 a3 bd 7c e9 9d bd 4f cc cb 3d
       0.026274957 -0.07986634 -0.07710549 0.09951078
000150 84 e4 e5 3c 40 94 86 3c 30 80 6e bc 0e 71 dc bd
       0.028063066 0.016428113 -0.0145569295 -0.10763751
000160 ce 8d 77 bd fa 78 05 bd 23 a3 c1 3d 75 67 a2 bd
       -0.06043797 -0.032586075 0.09454944 -0.07929889
000170 bb 03 8b bd c9 9f a5 3d a2 6a 70 3d d1 da 9e 3d
       -0.06787821 0.08087117 0.058695443 0.0775658
000180 5f 74 83 3d 00 82 97 39 66 72 61 3d e0 29 0c 3b
       0.064186804 0.00028897822 0.05504074 0.0021387264
000190 b4 bb 84 3c 51 91 95 bd f7 d4 d4 bd c0 78 4e 3b
       0.016202785 -0.073031075 -0.10392182 0.0031505078
0001a0 44 92 52 bd 35 11 81 3d 02 6c 61 3d 92 5c 41 3d
       -0.05140902 0.0630211 0.055034645 0.047207423
0001b0 a0 76 4f 3c 04 31 46 bd e8 e4 1a bc 50 04 0d bd
       0.01266256 -0.04838659 -0.00945399 -0.03442794
0001c0 b7 c6 6a bd c8 76 49 bc e1 c4 c9 3d 80 ed 5b 3c
       -0.057318415 -0.012296386 0.09852005 0.013423324
0001d0 f0 d4 92 bb 5a 61 9c bd d3 c8 d2 3d d0 9c bc 3b
       -0.0044809505 -0.07635756 0.102922104 0.005755998
0001e0 49 74 a4 3d 09 b3 95 3d 7a c2 9f bd 31 46 bd 3d
       0.08029992 0.07309539 -0.07800765 0.092419036
0001f0 f4 d6 05 bd 45 2b bc bd c4 39 a9 3c c0 21 99 3b
       -0.0326757 -0.091879405 0.020657428 0.0046732128
000200 f6 a0 45 3d 55 7d ba 3d 40 16 38 bd a3 97 52 bd
       0.048249207 0.091059364 -0.044943094 -0.051414143
000210 12 ff 77 3d c8 19 cd bd 04 22 c7 bc e4 bf ff 3c
       0.06054599 -0.10014683 -0.024308212 0.03121943
000220 f9 17 9b 3d ea 5b 45 3d 90 dd c3 bd 9e 45 57 3d
       0.07572932 0.04818336 -0.09563744 0.052556626
000230 9b 72 a4 3d fe fa 06 3d 3c 48 cc 3c 83 22 c8 3d
       0.08029672 0.03295421 0.024936788 0.097722076
000240 c0 62 8c bb e0 51 91 bd 38 d1 26 3c 52 26 66 3d
       -0.004284233 -0.070956945 0.010181718 0.05618889
000250 50 d0 cc bb d8 23 11 bc fb 61 ac 3d 45 ab 96 3d
       -0.0062504187 -0.0088586435 0.08417126 0.07356886
000260 40 13 b6 3a 36 d2 57 3d 6b 85 93 bd e4 a1 8e 3c
       0.0013891235 0.052690707 -0.07203182 0.01741118
000270 8e 5b 04 3d 2f 2d 5a bd 7e ad d4 bd 51 ef b3 bd
       0.032313876 -0.053265747 -0.103846535 -0.0878588
000280 e0 7a 78 3b 93 1a 73 bd 4e 95 c3 bd 16 64 6d bd
       0.0037915036 -0.059351515 -0.09549962 -0.057956778
000290 a8 50 05 3c 27 3c c2 bd 78 74 58 bc 13 df c2 3d
       0.008136906 -0.094841294 -0.013211362 0.09515204
0002a0 01 8d 4b bd ff 80 90 3d 64 c3 98 3c 34 58 fe 3c
       -0.04969502 0.07055854 0.018647857 0.031047918
0002b0 b0 f3 48 bc 86 df 23 3d d4 33 b7 3c ba 22 a0 bd
       -0.012265131 0.04000809 0.02236358 -0.078191236
0002c0 c6 3b 17 bd 90 d6 ee 3b 3c 39 bd bc 43 4f ab bd
       -0.03692224 0.0072887614 -0.02309858 -0.08364727
0002d0 fc de 94 3c 00 ae 2d 3c d3 f1 bc bd c8 54 17 bc
       0.018172733 0.010600567 -0.09225812 -0.009236522
0002e0 a0 77 dd 3b 84 5e f2 3c ba 89 0b 3d 14 f8 d1 bc
       0.006758645 0.029586084 0.034066893 -0.025630988
0002f0 38 35 4b 3c e0 22 be bc dc 66 f5 bc 85 fc bf 3d
       0.012402825 -0.02320999 -0.029956274 0.09374336
000300 7c 38 b9 3c e2 f7 8f bd b0 9f be bc f4 98 f3 bc
       0.022609942 -0.07029702 -0.023269504 -0.02973602
000310 c8 66 94 bc cb d9 88 3d 99 b0 9e 3d 92 82 5a 3d
       -0.018115416 0.06682166 0.07748527 0.053347178
000320 a8 98 06 3c 08 a3 da bc 80 31 a4 3b a2 03 37 3d
       0.008215107 -0.026689067 0.0050107837 0.0446812
000330 0e 90 73 bd 00 d2 e1 bb 70 fb 37 3c b6 04 02 3d
       -0.059463553 -0.006891489 0.011229381 0.031742774
000340 a2 9b 86 bd d3 b6 96 bd bf 1d d1 3d e8 e2 dd bc
       -0.06572653 -0.0735909 0.10210752 -0.027085736
000350 82 0c dc bd cd 45 55 bd 04 fa 21 bd 95 cd c0 3d
       -0.10744573 -0.05206852 -0.039545074 0.09414212
000360 dd 14 66 bd 60 19 19 bc 03 41 b4 3d d6 e3 10 3d
       -0.05617224 -0.009344429 0.088014625 0.03537353
000370 00 da f0 3b b0 5e 9f 3b 50 7f dd bb 67 38 d5 3d
       0.0073502064 0.0048635826 -0.0067595616 0.104111485
000380 70 c7 6c 3c 56 70 07 3d c3 06 ca 3d 00 24 cd b8
       0.0144518465 0.033066116 0.09864571 -9.781867e-05
000390 09 00 c8 bd 38 0f c9 bc 20 ec da bc 3b 1e a0 3d
       -0.09765632 -0.02454339 -0.026723921 0.07818266
0003a0 77 32 cd 3d 73 7e 8a 3d 8f fc 9c bd f1 0c a8 3d
       0.10019391 0.067623995 -0.07665359 0.082055934
0003b0 61 aa a2 3d 30 6f c3 bc 65 b2 a7 bd e7 2f a2 3d
       0.079426534 -0.02385673 -0.08188323 0.07919293
0003c0 c0 2b a4 3b 0d 05 83 3d 1e ed 5f bd c8 6c 0e bd
       0.005010098 0.06397448 -0.054669492 -0.03477171
0003d0 c6 c1 a5 bd 68 b3 57 3c d7 75 b5 bd 30 6e 27 bc
       -0.080936 0.013165332 -0.08860367 -0.010219142
0003e0 b4 02 96 bc 32 41 04 bd e4 47 92 3c 3f 20 ab bd
       -0.018311836 -0.032288738 0.017856546 -0.0835576
0003f0 d3 9e b7 bd f4 cc f0 3c 80 41 65 3a 2f 4f a9 bd
       -0.0896584 0.029394604 0.0008745417 -0.08267056

transformer_encoder.layers.0.self_attn.in_proj_bias f4 [384]
000000 00 00 00 00 00 00 00 00 00 00 00 00 00 00 00 00
       0.0 0.0 0.0 0.0
000010 00 00 00 00 00 00 00 00 00 00 00 00 00 00 00 00
       0.0 0.0 0.0 0.0
000020 00 00 00 00 00 00 00 00 00 00 00 00 00 00 00 00
       0.0 0.0 0.0 0.0
000030 00 00 00 00 00 00 00 00 00 00 00 00 00 00 00 00
       0.0 0.0 0.0 0.0
000040 00 00 00 00 00 00 00 00 00 00 00 00 00 00 00 00
       0.0 0.0 0.0 0.0
000050 00 00 00 00 00 00 00 00 00 00 00 00 00 00 00 00
       0.0 0.0 0.0 0.0
000060 00 00 00 00 00 00 00 00 00 00 00 00 00 00 00 00
       0.0 0.0 0.0 0.0
000070 00 00 00 00 00 00 00 00 00 00 00 00 00 00 00 00
       0.0 0.0 0.0 0.0
000080 00 00 00 00 00 00 00 00 00 00 00 00 00 00 00 00
       0.0 0.0 0.0 0.0
000090 00 00 00 00 00 00 00 00 00 00 00 00 00 00 00 00
       0.0 0.0 0.0 0.0
0000a0 00 00 00 00 00 00 00 00 00 00 00 00 00 00 00 00
       0.0 0.0 0.0 0.0
0000b0 00 00 00 00 00 00 00 00 00 00 00 00 00 00 00 00
       0.0 0.0 0.0 0.0
0000c0 00 00 00 00 00 00 00 00 00 00 00 00 00 00 00 00
       0.0 0.0 0.0 0.0
0000d0 00 00 00 00 00 00 00 00 00 00 00 00 00 00 00 00
       0.0 0.0 0.0 0.0
0000e0 00 00 00 00 00 00 00 00 00 00 00 00 00 00 00 00
       0.0 0.0 0.0 0.0
0000f0 00 00 00 00 00 00 00 00 00 00 00 00 00 00 00 00
       0.0 0.0 0.0 0.0
000100 00 00 00 00 00 00 00 00 00 00 00 00 00 00 00 00
       0.0 0.0 0.0 0.0
000110 00 00 00 00 00 00 00 00 00 00 00 00 00 00 00 00
       0.0 0.0 0.0 0.0
000120 00 00 00 00 00 00 00 00 00 00 00 00 00 00 00 00
       0.0 0.0 0.0 0.0
000130 00 00 00 00 00 00 00 00 00 00 00 00 00 00 00 00
       0.0 0.0 0.0 0.0
000140 00 00 00 00 00 00 00 00 00 00 00 00 00 00 00 00
       0.0 0.0 0.0 0.0
000150 00 00 00 00 00 00 00 00 00 00 00 00 00 00 00 00
       0.0 0.0 0.0 0.0
000160 00 00 00 00 00 00 00 00 00 00 00 00 00 00 00 00
       0.0 0.0 0.0 0.0
000170 00 00 00 00 00 00 00 00 00 00 00 00 00 00 00 00
       0.0 0.0 0.0 0.0
000180 00 00 00 00 00 00 00 00 00 00 00 00 00 00 00 00
       0.0 0.0 0.0 0.0
000190 00 00 00 00 00 00 00 00 00 00 00 00 00 00 00 00
       0.0 0.0 0.0 0.0
0001a0 00 00 00 00 00 00 00 00 00 00 00 00 00 00 00 00
       0.0 0.0 0.0 0.0
0001b0 00 00 00 00 00 00 00 00 00 00 00 00 00 00 00 00
       0.0 0.0 0.0 0.0
0001c0 00 00 00 00 00 00 00 00 00 00 00 00 00 00 00 00
       0.0 0.0 0.0 0.0
0001d0 00 00 00 00 00 00 00 00 00 00 00 00 00 00 00 00
       0.0 0.0 0.0 0.0
0001e0 00 00 00 00 00 00 00 00 00 00 00 00 00 00 00 00
       0.0 0.0 0.0 0.0
0001f0 00 00 00 00 00 00 00 00 00 00 00 00 00 00 00 00
       0.0 0.0 0.0 0.0
000200 00 00 00 00 00 00 00 00 00 00 00 00 00 00 00 00
       0.0 0.0 0.0 0.0
000210 00 00 00 00 00 00 00 00 00 00 00 00 00 00 00 00
       0.0 0.0 0.0 0.0
000220 00 00 00 00 00 00 00 00 00 00 00 00 00 00 00 00
       0.0 0.0 0.0 0.0
000230 00 00 00 00 00 00 00 00 00 00 00 00 00 00 00 00
       0.0 0.0 0.0 0.0
000240 00 00 00 00 00 00 00 00 00 00 00 00 00 00 00 00
       0.0 0.0 0.0 0.0
000250 00 00 00 00 00 00 00 00 00 00 00 00 00 00 00 00
       0.0 0.0 0.0 0.0
000260 00 00 00 00 00 00 00 00 00 00 00 00 00 00 00 00
       0.0 0.0 0.0 0.0
000270 00 00 00 00 00 00 00 00 00 00 00 00 00 00 00 00
       0.0 0.0 0.0 0.0
000280 00 00 00 00 00 00 00 00 00 00 00 00 00 00 00 00
       0.0 0.0 0.0 0.0
000290 00 00 00 00 00 00 00 00 00 00 00 00 00 00 00 00
       0.0 0.0 0.0 0.0
0002a0 00 00 00 00 00 00 00 00 00 00 00 00 00 00 00 00
       0.0 0.0 0.0 0.0
0002b0 00 00 00 00 00 00 00 00 00 00 00 00 00 00 00 00
       0.0 0.0 0.0 0.0
0002c0 00 00 00 00 00 00 00 00 00 00 00 00 00 00 00 00
       0.0 0.0 0.0 0.0
0002d0 00 00 00 00 00 00 00 00 00 00 00 00 00 00 00 00
       0.0 0.0 0.0 0.0
0002e0 00 00 00 00 00 00 00 00 00 00 00 00 00 00 00 00
       0.0 0.0 0.0 0.0
0002f0 00 00 00 00 00 00 00 00 00 00 00 00 00 00 00 00
       0.0 0.0 0.0 0.0
000300 00 00 00 00 00 00 00 00 00 00 00 00 00 00 00 00
       0.0 0.0 0.0 0.0
000310 00 00 00 00 00 00 00 00 00 00 00 00 00 00 00 00
       0.0 0.0 0.0 0.0
000320 00 00 00 00 00 00 00 00 00 00 00 00 00 00 00 00
       0.0 0.0 0.0 0.0
000330 00 00 00 00 00 00 00 00 00 00 00 00 00 00 00 00
       0.0 0.0 0.0 0.0
000340 00 00 00 00 00 00 00 00 00 00 00 00 00 00 00 00
       0.0 0.0 0.0 0.0
000350 00 00 00 00 00 00 00 00 00 00 00 00 00 00 00 00
       0.0 0.0 0.0 0.0
000360 00 00 00 00 00 00 00 00 00 00 00 00 00 00 00 00
       0.0 0.0 0.0 0.0
000370 00 00 00 00 00 00 00 00 00 00 00 00 00 00 00 00
       0.0 0.0 0.0 0.0
000380 00 00 00 00 00 00 00 00 00 00 00 00 00 00 00 00
       0.0 0.0 0.0 0.0
000390 00 00 00 00 00 00 00 00 00 00 00 00 00 00 00 00
       0.0 0.0 0.0 0.0
0003a0 00 00 00 00 00 00 00 00 00 00 00 00 00 00 00 00
       0.0 0.0 0.0 0.0
0003b0 00 00 00 00 00 00 00 00 00 00 00 00 00 00 00 00
       0.0 0.0 0.0 0.0
0003c0 00 00 00 00 00 00 00 00 00 00 00 00 00 00 00 00
       0.0 0.0 0.0 0.0
0003d0 00 00 00 00 00 00 00 00 00 00 00 00 00 00 00 00
       0.0 0.0 0.0 0.0
0003e0 00 00 00 00 00 00 00 00 00 00 00 00 00 00 00 00
       0.0 0.0 0.0 0.0
0003f0 00 00 00 00 00 00 00 00 00 00 00 00 00 00 00 00
       0.0 0.0 0.0 0.0

transformer_encoder.layers.0.self_attn.out_proj.weight f4 [128, 128]
000000 37 19 58 3c 60 29 32 3d 2c e2 5e bd 18 13 3c 3d
       0.013189605 0.04349649 -0.054414913 0.045916647
000010 55 3f ca bc 8c 00 42 3d 56 66 3d bc fc ac 88 bd
       -0.024688402 0.047363803 -0.011560043 -0.06673619
000020 90 66 b5 bc 42 7f 68 3b 7f 8f 53 3d 4c 60 00 3e
       -0.022143632 0.0035476242 0.05165052 0.12536734
000030 be 91 1d bd 94 e2 79 3d 4d bd cb 3b 7f 73 e9 3d
       -0.03846907 0.061007097 0.006217635 0.11398982
000040 90 63 57 bd f5 0d 9e bd 0a a9 4b bc 5a 14 15 3b
       -0.052585185 -0.07717506 -0.012430439 0.0022747726
000050 65 47 84 3c ec 5a c3 3c 7f 59 e6 3c ce c8 c1 3d
       0.016147325 0.023847066 0.028118847 0.094621286
000060 5f c5 c5 bc be d5 0d bb f8 d6 01 3d c2 0d 86 bd
       -0.024141965 -0.0021642293 0.03169915 -0.06545593
000070 6a 72 b1 bd 0f 9f e2 bc ba e7 59 bd 42 9f 89 bb
       -0.08664401 -0.027663736 -0.053199507 -0.004199893
000080 18 30 2e bd 1b 5f 89 bd 26 bc 1f bd 04 63 13 3d
       -0.042526335 -0.06707593 -0.03899779 0.0359831
000090 7c a6 9e 3d 55 a1 da bc a5 e0 2d bd ea 6d 0c bc
       0.07746598 -0.026688257 -0.042450566 -0.008571127
0000a0 84 7c 53 bd c2 a8 ea 3c 0d 87 a8 3c c7 1c 95 3d
       -0.05163242 0.028644923 0.02057221 0.072808795
0000b0 97 1d 8c 3d 57 4f 81 3d 54 8a d9 3c 60 52 d9 3d
       0.06841581 0.06313961 0.026555218 0.10611415
0000c0 b9 8d 4e bd bd b8 c3 3c ff cc 35 bd e1 50 f1 bb
       -0.050428126 0.023891801 -0.044384953 -0.007364378
0000d0 54 04 7c 3c db 1a f8 bc f5 b5 b8 3d 14 f7 a2 bd
       0.015381891 -0.030286243 0.090190805 -0.07957283
0000e0 1e c2 a3 3d ad ce fd bb ca 42 3b 3d 67 e7 1f 3c
       0.07996009 -0.007745585 0.045717992 0.00975976
0000f0 d8 cf 89 3c af ec 58 3d 73 97 9c bd 19 aa 31 bb
       0.01682274 0.052960094 -0.07646074 -0.0027109443
000100 db 1e 01 3d 0e b4 1e bd fd 9b 2a 3d e8 47 f5 3c
       0.031523567 -0.038745932 0.04165267 0.029941514
000110 42 c7 a3 bd a8 fb 44 bc 48 65 e9 bc 52 e1 dc 3d
       -0.0799699 -0.01202289 -0.028490677 0.10785164
000120 55 8c c1 bc 2b 20 25 3c ad 8d ae bc 87 73 11 3d
       -0.023626486 0.01007847 -0.02130779 0.035510566
000130 f7 92 14 3b 23 33 85 bc 38 11 21 3d 30 3c f7 3c
       0.0022670606 -0.016259735 0.03932306 0.030180067
000140 fc 3c 8c 3d 58 e6 5f 3d 56 ef e9 3c 82 40 8c bd
       0.06847569 0.054663032 0.028556507 -0.068482414
000150 86 53 95 bd 5a 19 c6 bd 3e 81 bc 3d 2f 1a 92 bc
       -0.072913215 -0.09672804 0.092043385 -0.017834751
000160 a6 25 62 3d b8 97 16 bd 3e 8b ef 3c 10 a3 16 bd
       0.055211686 -0.036765784 0.0292412 -0.036776602
000170 90 c6 53 3d 6e b6 66 3d 1e 42 a5 bd 68 0a ca 3d
       0.051703036 0.056326322 -0.080692515 0.09865266
000180 c7 5e 88 bd c8 e3 d3 3c 31 8f b6 3c a9 af 55 bd
       -0.06658702 0.02586545 0.022285076 -0.052169476
000190 34 1c 10 3d ba 3c bb 3c 95 db bb 3c 6c b0 6d bd
       0.035183147 0.022856105 0.022931853 -0.058029577
0001a0 e1 ca a3 bd 04 49 29 bd 41 43 31 3d 3f 05 47 3d
       -0.079976805 -0.0413294 0.04327703 0.048588987
0001b0 72 38 4f bd be e9 a6 bd c0 31 16 3d 2d 2b ab bc
       -0.05059094 -0.081500515 0.03666854 -0.020894611
0001c0 61 aa 0d 3d e4 c9 eb 3c dc 2a 05 3c b6 b7 2d 3d
       0.034586314 0.028782792 0.008127894 0.04241153
0001d0 12 1c f9 3c 87 f8 8e bd 42 3b 20 bc fa c0 3f 3d
       0.030408893 -0.069809966 -0.009779753 0.046814896
0001e0 ac 15 7c 3d d1 df 2e bc e3 9c 52 3b a3 93 24 bb
       0.061544105 -0.010673479 0.0032136969 -0.0025112412
0001f0 ea 38 86 bd f8 f7 ca bc 7b f8 4c 3d 0c df 84 bd
       -0.06553824 -0.024776444 0.050041657 -0.06487855
000200 22 29 68 3d 7e 0e a0 bd 94 c9 55 3d 0a 8a 89 3d
       0.056679852 -0.07815264 0.052194193 0.06715782
000210 ff df b9 3b 3b e5 04 bd e6 bc 03 3d 9e 05 7b bc
       0.0056724544 -0.032445174 0.03216257 -0.015321163
000220 b7 bb 09 3d 5e 22 83 bc 3a 24 ae bd 34 3c e4 bd
       0.033626284 -0.016007598 -0.085030034 -0.11144295
000230 03 dd 66 3d 77 15 d6 bb 49 5e 98 bd 70 28 86 bd
       0.056363117 -0.0065333205 -0.074398585 -0.065506816
000240 3f be 08 bd 62 27 d2 bc 2c ee 7d 3d 2b e8 82 bd
       -0.033384558 -0.025653545 0.061994717 -0.06391939
000250 2e 26 28 3d 80 db 66 bd ff 39 bd 3c 06 64 b0 bc
       0.041052036 -0.056361675 0.023098944 -0.02153207
000260 ec e0 9d bd b2 8e ab 3b 8b 73 75 3d 6c 83 b9 bd
       -0.07708916 0.0052355165 0.059924643 -0.0905827
000270 99 ac 16 3d 7d be ca 3c a8 49 82 bd 8a fd a6 3d
       0.036785696 0.024749035 -0.06361705 0.081538275
000280 9a b3 49 3d 23 8b 8d 3d d2 59 30 3d 46 18 99 3d
       0.049243547 0.06911304 0.04305441 0.07475333
000290 b7 36 3f 3d 26 79 85 3d e8 5b 0f ba 89 b4 8d 3c
       0.04668304 0.06517248 -0.0005468712 0.017298
0002a0 c9 b7 1e bd 66 1d 05 3d 66 82 34 3d c4 3b 09 bc
       -0.03874949 0.03249874 0.04406967 -0.008376066
0002b0 88 a7 07 3d 98 df 5e 3c 64 7d 69 bd 60 75 08 3d
       0.033118755 0.013603114 -0.057004347 0.033315063
0002c0 26 f3 c7 3b 7d 5d 9f bd 2d a5 6a 3d bc 2d 42 bd
       0.0061019836 -0.07781503 0.05728643 -0.047406897
0002d0 4e 10 4d 3d 37 44 52 bc 6c 80 58 3d 38 42 12 bd
       0.050064377 -0.0128336465 0.052856848 -0.035707682
0002e0 9a 5b 52 3c 25 7d 95 3c e3 f1 59 3d a5 eb 06 3d
       0.012839222 0.01824815 0.053209197 0.032939572
0002f0 b2 61 7d bd 7c 01 fd 3b d7 09 84 3d 60 58 c7 3d
       -0.061860748 0.007721124 0.06447189 0.09733653
000300 6f f1 40 3d 07 72 94 3d dd 26 cf 3b 7f eb ea bc
       0.04710525 0.072483115 0.0063217715 -0.028676746
000310 cd 44 2d 3d 4b ca 2c 3d 10 29 d2 3c 99 81 57 bd
       0.04230194 0.04218511 0.025654346 -0.05261383
000320 2d 21 45 bd 59 27 57 3d bf 8b b3 3d e6 bf b8 3d
       -0.048127342 0.05252776 0.08766889 0.09020977
000330 a7 04 12 bd d3 02 4f bd bb 9d 69 3d 34 58 5f bd
       -0.035648968 -0.050539803 0.05703519 -0.054527476
000340 45 b1 73 bd 5b 99 c9 bd 4a f6 8d 3c 97 9b b9 bb
       -0.05949523 -0.09843703 0.017329354 -0.0056642997
000350 80 f9 3c 3d 36 9c 9a 3c f3 f5 90 3d 2f ac 11 3d
       0.04613638 0.018873315 0.07078161 0.035564598
000360 5c c0 c9 bc 42 37 d8 bc 55 a7 ec 3c f2 aa 7d 3d
       -0.024627857 -0.026393536 0.028888384 0.061930604
000370 2a da cd bb bf 1e 02 bd 24 4a ab 3d 14 d0 8c 3d
       -0.0062821107 -0.031767603 0.083637506 0.06875625
000380 a4 a1 6f bd 6a 72 67 bd f7 d9 8c 3d 72 9e 3e bd
       -0.058503762 -0.056505598 0.06877511 -0.046537824
000390 dc fd 81 bd cd 23 a2 bd d2 5c 80 bd 02 58 b2 bd
       -0.06347248 -0.07916985 -0.06267704 -0.087081924
0003a0 25 0e c4 3a c5 f7 52 bd 51 13 93 bd b7 64 f9 bc
       0.0014957829 -0.051505823 -0.07181419 -0.030443532
0003b0 10 1b 7d 3c 8f e0 69 bd fc ca d8 3b 43 a4 9f bc
       0.015448347 -0.05709892 0.0066159945 -0.019487506
0003c0 ac 45 87 bc 32 8e 47 3c bf dd 22 3d 83 91 5e bc
       -0.016512714 0.012179898 0.039762255 -0.013584497
0003d0 be 8c 90 3d ad 2e 9f bd bc c7 b0 bd 03 c6 3f bd
       0.070580944 -0.077725746 -0.08631846 -0.046819698
0003e0 60 1c 22 3d f7 a2 5b 3d 19 5c 28 bd b9 5c 92 bd
       0.03957784 0.053622212 -0.041103456 -0.07146592
0003f0 7f 2c c0 3d cb 72 68 3d 28 23 82 3d 1b e5 51 3d
       0.09383487 0.0567501 0.06354362 0.051243883

transformer_encoder.layers.0.self_attn.out_proj.bias f4 [128]
000000 a6 ec 82 3b f6 fd ad 3b 8b e6 f0 38 5d f8 83 3b
       0.003995496 0.0053098155 0.00011487034 0.00402741
000010 a0 7e 06 bc 34 cd 90 3c a9 e5 13 3c b6 10 65 3c
       -0.008208901 0.017675973 0.009026923 0.013981035
000020 56 a5 b6 bc 80 22 60 bb 86 af 53 bc 08 91 08 bc
       -0.022295635 -0.003420025 -0.012920266 -0.008335359
000030 43 96 06 bc 13 da 2b bd 88 5b 57 bc bc 73 70 ba
       -0.008214536 -0.04195602 -0.013144381 -0.0009172519
000040 7d 23 80 3c 2b 7c fa 3c 4f f3 f1 3c a4 7e 14 3c
       0.015641922 0.030576786 0.029534964 0.009063397
000050 d1 69 10 3c c6 54 e8 3b 25 03 ff 3c 01 c8 4d bc
       0.008814291 0.007090184 0.03112943 -0.012559892
000060 d8 4f 8b 3b 84 91 38 bc b3 dc 82 3a 5a a6 3c bd
       0.0042514615 -0.011265162 0.0009983986 -0.046057083
000070 1b 6f e5 ba 28 2a e4 3b 32 0f 2b 3d dd 02 e4 bc
       -0.0017504425 0.006963033 0.04176254 -0.027833397
000080 da 64 cb 3c e3 00 d3 bc a2 17 7b bb 89 2d 58 bd
       0.024828363 -0.025757259 -0.0038313647 -0.0527778
000090 76 5f ab ba 30 4e 91 bb 70 40 10 bb c4 36 d4 bc
       -0.0013074714 -0.0044343695 -0.0022011064 -0.02590502
0000a0 39 6f 95 bc dc 64 e3 ba 33 24 c2 bc 40 17 ee 3c
       -0.018241512 -0.0017348784 -0.023698902 0.02906382
0000b0 3c c4 82 3c bf 43 60 bc 6a 12 a7 3b 6a 05 00 3d
       0.015962712 -0.013688027 0.0050986307 0.031255163
0000c0 f5 50 20 ba a0 5c 50 bd 6d 33 42 bb a2 b9 19 bc
       -0.0006115579 -0.050869584 -0.0029632703 -0.009382637
0000d0 45 a7 ab 3c 2d 21 3e bc 82 3c 6d bb 52 4c 0f bc
       0.020953784 -0.011604589 -0.0036199396 -0.0087462235
0000e0 86 0c 64 3b 80 d3 92 3b 8d 4e 13 3c b8 4f ab 3c
       0.0034797504 0.004480779 0.008990896 0.020912036
0000f0 72 de 01 bc e3 ff 04 bd f1 5a e4 3c 64 a8 87 bb
       -0.00792657 -0.032470595 0.027875395 -0.004139947
000100 3f 73 96 3b 67 d2 9f 3c 03 6d c7 b9 57 a5 c0 bc
       0.004591375 0.019509507 -0.00038037458 -0.02351634
000110 ef 97 cd 3c c8 2a ac 3b 76 98 be 3c 6a 62 ea bc
       0.025096862 0.0052541234 0.023266058 -0.02861138
000120 3f 7f 26 3d 80 11 8f bc 81 a4 7f 3c b7 62 e8 3b
       0.040648695 -0.0174644 0.015603186 0.007091846
000130 1f 97 37 bb 74 e6 13 bd 28 02 10 bd 25 9d 12 3c
       -0.002801366 -0.03610845 -0.035158306 0.008948599
000140 d4 c9 d6 b9 ea 5a c9 bc 5f 90 eb 3b 9b 12 18 3d
       -0.00040967634 -0.024579484 0.0071888412 0.03712712
000150 01 6e fc 3c 7f f8 1b bb 5a 59 23 bc fe cd 1a 3c
       0.030814173 -0.0023799238 -0.009970034 0.009448526
000160 91 65 86 3c 40 fc 4b bb 0c ff 69 bb a1 71 87 3c
       0.016405853 -0.0031125695 -0.0035704998 0.016533675
000170 a2 87 f7 3b 11 76 6e bb bc cb a0 3c 9e 54 48 3d
       0.0075540105 -0.003638629 0.019628398 0.048908822
000180 da fe 58 bc 98 76 86 bd a0 d7 6c 3c 58 ec 53 bc
       -0.013244355 -0.06565589 0.014455706 -0.012934767
000190 47 ed 1a bd bd 4d 1b bc 85 9d a8 3b 99 08 d7 3b
       -0.03782394 -0.0094789835 0.005145731 0.006562304
0001a0 c8 60 7b bb fe 84 0e 3c 81 9f 5a bb 4a fb 68 3c
       -0.0038357247 0.0086987 -0.0033359232 0.014220068
0001b0 f5 3d 91 bb cf 2b 12 3c 92 87 5d 3b 3e a5 3e bd
       -0.0044324347 0.008921578 0.003380273 -0.046544306
0001c0 75 27 d7 bc f8 c8 e5 3c 84 9e 57 bc e7 b5 d0 3b
       -0.026263932 0.02804993 -0.013160352 0.0063693407
0001d0 72 0b 62 bc ab ee c4 3c e9 75 26 b9 8b 67 6c 3c
       -0.013796674 0.024039587 -0.00015874919 0.014428983
0001e0 5c a9 3b 3c 17 87 c4 bc 30 67 4c 3c 3c 35 df 3c
       0.011453953 -0.023990197 0.012475774 0.027247064
0001f0 6c 0e 9e 3b e8 9a 0a bd d2 23 17 bc 00 37 02 bd
       0.0048234966 -0.033839136 -0.009224849 -0.031790733

transformer_encoder.layers.0.linear1.weight f4 [128, 128]
000000 ad 7c 3d 3d a4 28 54 bd 28 94 17 3d d5 b8 9a 3d
       0.04626148 -0.05179657 0.037006527 0.07554785
000010 f0 a9 d7 3d 49 21 ff 3c 1c 0d 69 3c 1f 7d e4 bd
       0.1053046 0.031143801 0.014224317 -0.111566775
000020 91 ec 2a 3d 62 03 a8 3d 30 6b 89 3d dc 2a 92 3d
       0.041729514 0.0820377 0.067098975 0.07137081
000030 a4 29 ec bc b8 ab d8 bc a7 76 3c 3d fd 41 bd 3d
       -0.02882845 -0.02644907 0.046011593 0.09241102
000040 03 d1 8f 3d dd e8 98 3d 02 39 d2 bd 82 27 55 3c
       0.07022288 0.0746629 -0.102647796 0.013009908
000050 12 7e 57 3d 8f 5f b9 bc d8 0e c5 3d 24 95 36 3c
       0.052610464 -0.022628574 0.09621972 0.011143956
000060 45 c1 e7 3d 7d 36 ca 3b 43 0b e5 bc 52 d8 1a bd
       0.1131616 0.0061710463 -0.027959472 -0.037803955
000070 2c 76 92 3d 22 31 ac bc 53 17 7d 3d 5b 97 e9 3c
       0.07151446 -0.021019522 0.06178982 0.028514555
000080 23 5b b3 bd 11 b4 84 3d 5b 59 68 bd fc 31 c3 bb
       -0.08757617 0.064796574 -0.05672584 -0.0059568863
000090 dc 6d 44 3c 71 52 5e bd 19 0e 1b bd 57 b9 64 bc
       0.011989083 -0.05427784 -0.03785524 -0.013960204
0000a0 dc 78 b5 3a dc 5a d9 3a eb a7 77 3d 25 d0 9c 3d
       0.0013845223 0.0016582864 0.060462873 0.07656888
0000b0 ec d7 21 3c 77 fd a0 bd a1 4d 44 3d 49 f0 8b 3d
       0.00987814 -0.078608446 0.047925595 0.0683294
0000c0 c8 f5 06 be 48 3d d0 bd a6 bd 52 bd be be ae bc
       -0.13179696 -0.101679385 -0.051450394 -0.021331187
0000d0 cc 41 e9 bc 98 73 6f bc b1 6e f5 3c 25 c2 d5 3c
       -0.028473757 -0.014614962 0.029960008 0.026093552
0000e0 ec 29 66 3d 63 ae ba bd 0a 6d 9a bd 99 6c 70 3d
       0.056192324 -0.09115293 -0.07540329 0.058697317
0000f0 6d 80 5d 3d d8 a4 c8 bd 58 5a 8d 3c 8e 1f 9b 3d
       0.054077554 -0.097970665 0.017254993 0.07574378
000100 4d e0 e0 3c 31 4d d5 bc f1 08 a2 3d f1 c7 0b 3d
       0.027450705 -0.026037784 0.07911862 0.034126226
000110 52 75 8b 3c 39 49 fd bc f9 fa b5 bb b9 d9 4b bd
       0.017023716 -0.030918704 -0.0055536 -0.049768183
000120 60 4a 2d 3d b0 64 c7 3d 6f 70 ab bc 9b 4a 99 3d
       0.042307258 0.097360015 -0.020927636 0.07484933
000130 57 82 ab 3d c8 9b 77 bc 25 38 e9 3c 3c da e2 3b
       0.0837447 -0.015112825 0.028469155 0.006922988
000140 fb af 09 3d e6 82 8c 3d c3 60 a0 bc 92 23 0b bd
       0.033615094 0.068609044 -0.01957739 -0.03396947
000150 73 d5 80 3d dc 1d ae bd f0 b6 e9 bd ef 5f e8 3d
       0.06290712 -0.08501789 -0.11411846 0.11346423
000160 e9 bb 8f 3c aa fa 71 bd 55 d8 ad 3a db 6c 87 bd
       0.017545657 -0.059076943 0.0013263325 -0.066125594
000170 6a cd 3a bc ad d0 a9 3c 31 56 78 3d 39 77 62 bd
       -0.011401514 0.020729387 0.060629074 -0.05528948
000180 47 60 4c bd dd 63 bf 3c af 06 21 bc 10 61 f3 3c
       -0.049896505 0.023363048 -0.009828254 0.029709369
000190 7f 75 79 bc 3d db b3 bd f5 b5 bc bd 18 e3 53 3d
       -0.015225767 -0.08782051 -0.09214393 0.051730245
0001a0 fc fb 36 bc dd cb be bb fc 33 9c bd 16 66 e2 3c
       -0.011168476 -0.0058226422 -0.07627103 0.027636569
0001b0 11 55 28 bd 96 51 f7 bc 68 43 48 bc 14 63 d6 3c
       -0.04109675 -0.03019027 -0.012223102 0.026170291
0001c0 8a fc 43 3d 2b ab 93 bd 85 ee 14 3c 75 d1 79 3c
       0.047848262 -0.07210382 0.009090071 0.015247692
0001d0 ed c3 aa 3d b9 e5 40 3d 93 9f 64 3d 01 3c 1f bc
       0.08338151 0.04709408 0.055816244 -0.009718896
0001e0 19 f3 9d 3d 7b 71 12 3d 28 52 a4 bd 8c fe e7 bd
       0.07712383 0.035752755 -0.080234826 -0.11327848
0001f0 e0 66 f4 bc 31 76 4c 3d 80 75 42 bc cd 67 b9 bd
       -0.02983421 0.049917404 -0.0118688345 -0.090530016
000200 c1 1b 21 3d ea 40 93 3c 39 f4 9d 3d 81 ee 36 bc
       0.03933311 0.01797529 0.077125974 -0.011165262
000210 93 72 3a 3d c9 07 30 3d 2f c2 b3 3c 77 39 09 3d
       0.045519423 0.042976175 0.02194318 0.03350207
000220 d5 29 92 bb 54 45 e9 3d 8f 7b 0b 3d 48 02 36 bc
       -0.004460553 0.113901764 0.03405338 -0.011108942
000230 79 eb 52 3d cd b6 c7 3d 54 87 3d 3d 16 68 c2 3d
       0.051494095 0.09751663 0.046271637 0.09492509
000240 f9 1b 74 3d 24 3e 8b bc eb 8d 0a bd 16 ae ba 3c
       0.05959699 -0.016997404 -0.03382675 0.022788089
000250 28 90 a1 bc 15 6c 62 bd 31 75 83 bd 3c 1f 99 3d
       -0.01972206 -0.055278856 -0.06418837 0.074766606
000260 d5 10 62 3d 4d 56 95 3c 42 f8 8a 3d bc 64 c2 bd
       0.055191834 0.018229628 0.06785633 -0.0949187
000270 f2 49 b3 3d 56 ca 44 3d 0d b1 61 3c a5 dc 9c bd
       0.08754338 0.048044525 0.013775122 -0.07659272
000280 74 96 50 3c 1c 20 db 3d 0d 04 89 bd 8c 36 41 bd
       0.012731183 0.10699484 -0.06690226 -0.04717116
000290 9f 6c c5 3d 5e e6 75 bd c7 3f df 3c 75 dd 46 3b
       0.096398585 -0.06003415 0.027252091 0.00303444
0002a0 0f 0b 27 3d eb 91 a8 3d 37 e4 81 bd 24 28 b3 3d
       0.04078203 0.08230957 -0.06342357 0.087478906
0002b0 9b fc 27 bc 48 65 cb bd 65 49 dc bd 17 cf 89 bc
       -0.010253097 -0.09931427 -0.107561864 -0.016822381
0002c0 af 67 85 3d dd 4c f1 3d 37 8e 1b bd f4 31 d6 3d
       0.06513917 0.11782239 -0.037977424 0.104587466
0002d0 22 b8 06 be aa f5 f9 bc 2e c1 da bd 8d 6c e2 bc
       -0.13156179 -0.03051265 -0.10681377 -0.027639652
0002e0 b7 d0 31 3d c9 bf cf bb 0e 4b d4 bc 0c f5 6c ba
       0.043411937 -0.0063400012 -0.025914695 -0.00090392004
0002f0 78 1f 13 bd 26 7a 1a 3e 65 6c 24 be ea 0a c7 bd
       -0.035918683 0.15085658 -0.16056974 -0.097188786
000300 c8 10 ee 3c 41 41 81 bd 07 b4 0f 3c 3b d0 3e bc
       0.029060736 -0.06311274 0.008770949 -0.011646326
000310 3b 71 6b bd a0 2a 21 3d 45 56 8f bd 1b 10 9b 3d
       -0.057481032 0.03934729 -0.069988765 0.07571431
000320 ba 35 8c 3d 6d 2b e5 3d 89 d3 89 bd 70 01 56 3c
       0.06846185 0.111899234 -0.067298 0.013061866
000330 2c d1 f4 3c c8 88 d4 3d 11 de 53 3d 33 62 a8 bd
       0.029884897 0.103776515 0.05172545 -0.08221855
000340 b1 48 8e bd bc 52 c7 bd 98 3b 33 bd 29 fe 1b be
       -0.069474585 -0.09732577 -0.043758005 -0.15233673
000350 d0 98 81 3c 43 0c d1 3c 54 a2 2e bd 4b dc 87 bd
       0.015819937 0.025518542 -0.042635277 -0.066338144
000360 04 91 93 ba 29 b9 ba bd d5 42 93 bd 5f 7e 31 bd
       -0.0011258428 -0.09117348 -0.071904816 -0.043333407
000370 54 a8 cd 3c 87 b5 94 3d ae 51 61 bd 96 1e 16 3d
       0.02510468 0.07261186 -0.055009536 0.036650263
000380 22 1b 48 bd fb ae cf 3d 15 6c a1 3d 37 51 eb bc
       -0.048854 0.10140797 0.07881943 -0.02872525
000390 b7 b0 9d 3b 34 54 f7 3c 38 ae 83 bd ab 52 46 3d
       0.004812326 0.030191518 -0.06429714 0.048418682
0003a0 34 42 77 bc 15 3a e1 bb a0 97 2c 3d c4 91 7f bd
       -0.015091468 -0.006873379 0.04213679 -0.062394872
0003b0 34 ab b4 3c af 7d 22 3e 14 64 c9 bd 51 fa bb 3d
       0.022054292 0.15868257 -0.098335415 0.091786034
0003c0 f9 4f ee 3d a2 3f e2 bd 93 0f 65 3d 80 08 89 3c
       0.11636347 -0.11047293 0.055923056 0.016727686
0003d0 08 39 d7 3d db 67 dc 3c 9b 2d 9b 3d c4 d1 a2 bd
       0.10508925 0.02690499 0.07577058 -0.07950166
0003e0 d7 c3 e1 bd 4b 62 cb bd df 7d 10 bc 57 86 31 bd
       -0.110236816 -0.09930857 -0.0088190725 -0.043341007
0003f0 2c 12 e6 3d a7 ec 91 3d 06 89 76 3d 79 65 64 bd
       0.11233935 0.07125216 0.06018927 -0.055760834

transformer_encoder.layers.0.linear1.bias f4 [128]
000000 61 09 a7 bd f9 99 b6 3b f8 04 98 bd bf 56 a7 bd
       -0.08156086 0.005572554 -0.07422823 -0.081708424
000010 4a 3c 12 be 0d 90 d6 3c 52 86 c2 bd 58 5d 68 3d
       -0.14280811 0.026191736 -0.09498276 0.056729645
000020 c3 b2 b9 bd ce 67 32 bd 8b ca 66 bd 94 4a 7e 3b
       -0.09067299 -0.043556027 -0.056345504 0.0038801776
000030 a7 5f b9 bd 53 26 8a bd 84 eb 64 3d d3 1d d6 bd
       -0.09051447 -0.06745591 0.055888668 -0.10454907
000040 1e 95 19 3d 05 fe 33 bc d8 9d 11 3d 0a ad 27 3c
       0.037495725 -0.010985856 0.035550922 0.010234127
000050 09 a0 5a bd fe 41 50 bd ac 4a 47 3d 08 c1 85 bd
       -0.053375278 -0.050844185 0.048655197 -0.065309584
000060 61 0c ae bc 8b 86 2c bd 46 db a4 bd 64 08 0b bc
       -0.021246137 -0.042120498 -0.080496356 -0.008485887
000070 73 b4 d6 bd 17 cc 65 3d 14 cf ad bd d1 8f d7 bd
       -0.10483637 0.05610284 -0.08486763 -0.10525478
000080 7f 39 56 bb fd 40 21 3d b1 20 70 bd c8 d2 10 3c
       -0.003268808 0.03936862 -0.058624927 0.008839317
000090 c4 a2 38 3d 4d 38 07 3d 21 82 2c 3c 84 8b 96 3b
       0.0450771 0.033012677 0.010529072 0.0045942683
0000a0 a9 0c e1 bd 67 35 9a bd ec e5 4b 3d 49 17 38 bd
       -0.10988743 -0.07529717 0.049779817 -0.04494408
0000b0 4e 0e e4 bb ab 39 3c 3c 1e cb e7 ba c7 dc c8 bc
       -0.006959713 0.0114883585 -0.0017684435 -0.024519337
0000c0 b1 94 a4 bd 35 45 28 3d 60 94 29 be 06 65 b9 bd
       -0.08036173 0.041081626 -0.16560507 -0.09052472
0000d0 e7 de 04 be 61 f8 0b bd 39 98 60 3d 99 97 cb bc
       -0.12975655 -0.03417242 0.05483267 -0.02485256
0000e0 dc f1 c3 bb f5 e4 a8 bd 87 0c db bd be ad db 3c
       -0.0059797596 -0.08246795 -0.10695749 0.026816245
0000f0 c7 a9 4e bd 19 4c 8a 3c ea 13 0b 3c c3 52 03 be
       -0.05045488 0.01688199 0.008488635 -0.1282454
000100 34 fb 26 bd cc 79 cd bd b3 94 11 bd 37 2e 64 bc
       -0.04076691 -0.100329965 -0.0355422 -0.013927034
000110 f9 ad 96 bd 9e b2 d6 bd e7 10 d1 bd bf 27 68 3d
       -0.073574014 -0.10483287 -0.10208302 0.05667853
000120 b1 3b 85 3d f6 58 c1 3c 33 1e 2a 3d 8c e3 9c bd
       0.06505526 0.02360199 0.041532706 -0.076605886
000130 aa 8d 5b bd 0b 79 d9 bc 8b 46 d9 bd ae e4 b2 bd
       -0.0536019 -0.026546976 -0.10609158 -0.087350234
000140 2f 3d 78 bd 71 8d b4 3c 2a 47 cd bc 15 51 d3 bd
       -0.060605224 0.0220401 -0.025058348 -0.103181995
000150 7e e9 c6 bd 8b d4 c0 bd c7 64 f5 bb b0 37 aa bd
       -0.09712504 -0.09415539 -0.0074888202 -0.08311403
000160 eb 07 22 bd 2c 31 38 bd 5d 3c 1a 3d 6e 70 ca bd
       -0.039558332 -0.04496877 0.037655223 -0.098847255
000170 d7 d2 be bd 2d e8 8c 3b 2a 53 dc bc 48 ef 8e bd
       -0.09317558 0.0043001384 -0.026895124 -0.06979233
000180 70 71 1a bd cd 20 9e 3d 49 0a 82 3d 43 0b 98 bd
       -0.03770584 0.077211 0.06349618 -0.07424023
000190 90 ea 92 3c a6 83 4c bd 0f 8f 8e bd 62 3d d9 bd
       0.017934114 -0.049930237 -0.0696088 -0.10607411
0001a0 a4 93 e1 3c f1 aa ed bc 18 ae 6f 3c b3 a2 c9 bd
       0.02753622 -0.029012175 0.0146289095 -0.098454855
0001b0 10 41 d8 bd a5 04 d1 bd c5 b2 e9 bd 26 41 ee bc
       -0.10559285 -0.10205964 -0.11411051 -0.0290838
0001c0 8d 01 42 3c 7b aa 28 bd 65 dc 95 bd 5a 81 a9 bd
       0.01184119 -0.041178208 -0.073174275 -0.08276625
0001d0 7b 15 12 be 01 49 ad bd a4 f7 ce 3c 62 3e 5d bd
       -0.14266007 -0.0846119 0.025264569 -0.05401457
0001e0 8b 60 59 bc 1f 0b a8 ba 2d cf 83 bc 26 d8 0c bd
       -0.013267647 -0.0012820697 -0.01609 -0.034385823
0001f0 8a 99 d6 3c 97 d9 f5 bd 6e b2 db bd 1f 23 d0 bd
       0.02619626 -0.120043926 -0.10727392 -0.10162949
