tuning_multi_scale_transformer_encoder/transformer_encoder_model_fold_5.pth (torch, 822178 bytes, 28 tensors)

embedding.weight f4 [128, 25]
0.15645997 -0.022430114 0.17463125 -0.19230792 0.05010476 -0.07928731 -0.18096529 -0.11820812
0.12440284 0.1465727 -0.17939709 0.09399012 0.03054996 -0.196752 -0.11484942 0.06959724
0.04092774 0.15340567 -0.106780104 -0.08735478 -0.058288816 0.16194102 0.10786758 0.19466177
-0.022594621 0.025589164 0.084697485 -0.16599907 0.020923905 -0.14756829 0.0078363195 -0.18248539
0.005512529 0.2303922 0.054619003 -0.18213794 0.10386014 0.06612475 0.1014978 0.008322409
-0.06494622 -0.06359926 -0.081670664 0.08584964 0.046575293 -0.15514511 0.10882223 -0.032394554
0.02221857 -0.15147227 -0.046211597 -0.13110764 -0.0921167 0.0016024789 0.06624343 -0.1289553
0.0031619524 0.12249282 0.069855936 0.095284805 0.09585306 -0.07361897 0.22526433 -0.15291503
0.04337718 0.12789641 0.18666537 0.1214334 0.27207702 -0.123230904 0.023790801 -0.07960727
-0.093084775 0.08045396 0.04385969 -0.20247021 -0.043804575 -0.009825401 0.060041342 0.07140683
-0.023052663 -0.016333744 0.29666862 -0.19144945 0.109871104 -0.164522 0.00934226 -0.051980235
0.11137171 -0.15834856 0.00062162103 0.16944842 -0.08357801 0.019996574 0.017209062 0.039274443
0.21669649 -0.061232653 -0.24532935 -0.12232894 0.20783861 -0.064752586 -0.00052918016 -0.15737341
-0.035292692 0.14165062 -0.14071347 -0.12180054 -0.19133957 -0.101323135 0.036974017 0.19039665
-0.1090265 0.116181284 -0.13395552 -0.0032421814 -0.06794837 0.09001233 -0.25357372 -0.14718904
-0.03375062 -0.11562681 -0.187539 -0.30508846 0.11742596 -0.0396712 0.13790062 0.14264184
-0.018205388 0.15747201 0.001205713 -0.14907701 -0.04566472 0.18677498 0.0057645035 0.13154812
-0.14136106 0.14545187 0.12230569 -0.027534397 -0.17574796 0.027560819 -0.07802493 0.2859187
0.11164855 0.026579786 0.040161677 -0.09518662 0.29827684 0.026332088 0.10408267 -0.0418958
0.07669356 0.14381146 -0.08000925 -0.16689603 -0.17669408 0.14295723 -0.08743939 -0.08754663
-0.03645149 0.071850196 0.14356911 0.0909303 0.15970586 0.02299082 -0.07276659 0.06757913
0.17188738 0.13318448 0.041043773 -0.19709386 -0.14924814 -0.07656509 0.14082578 0.043439653
-0.059073653 0.17191042 0.005833233 -0.10033269 -0.01302891 0.050456304 -0.02242983 -0.21643044
0.08337469 0.025731996 -0.11772341 0.103824444 -0.03373822 0.09338283 -0.12704414 -0.21531074
-0.147279 -0.19469255 0.07356278 0.019631485 -0.10394069 0.028558077 -0.20408204 0.1977482
-0.17016408 0.030118752 0.1637673 0.17871255 0.07920043 -0.026275879 -0.095131285 -0.08502909
0.21224155 -0.13653612 -0.1659867 0.058669124 0.008323678 -0.040087014 0.17377591 -0.1293089
-0.04601525 -0.008384992 0.06129314 -0.117565006 -0.096015856 -0.1286251 -0.022621643 0.054239366
-0.0709815 -0.009797631 -0.098296285 0.041610852 -0.08297567 0.15257443 -0.018891938 -0.13416898
-0.07138169 0.0624208 0.04764451 -0.161777 0.0021043767 0.040579993 -0.099992774 0.12609272
0.1334223 -0.1656189 -0.080966346 0.076663345 -0.08372294 0.04068914 0.0971097 0.04056922
0.02140182 0.03618572 0.00808489 0.069241606 0.1334965 0.059883613 0.09669761 0.022333741
00000000: 0b37 203e 5cbf b7bc 89d2 323e 5eec 44be
00000010: a63a 4d3d 6361 a2bd f74e 39be 1917 f2bd
00000020: ebc6 fe3d 2717 163e dfb3 37be e47d c03d
00000030: e943 fa3c 5b79 49be 2c36 ebbd ff88 8e3d
00000040: d9a3 273d 6016 1d3e 87af dabd 10e7 b2bd
00000050: 41c0 6ebd ded3 253e aee9 dc3d 6a55 473e
00000060: 5b18 b9bc 5ea0 d13c e075 ad3d a9fb 29be
00000070: 9c68 ab3c 241c 17be e863 003c 73dd 3abe
00000080: 72a2 b43b efeb 6b3e 2db8 5f3d 5e82 3abe
00000090: a0b4 d43d 6a6c 873d 14de cf3d b75a 083c
000000a0: 8602 85bd 5440 82bd f342 a7bd f0d1 af3d
000000b0: bcc5 3e3d 5cde 1ebe 30de de3d 27b0 04bd
000000c0: b803 b63c 8c1b 1bbe 5f48 3dbd 1541 06be
000000d0: aea7 bcbd 450a d23a a3aa 873d dc0c 04be
000000e0: c238 4f3b 84dd fa3d a110 8f3d ae24 c33d
000000f0: 9c4e c43d 8bc5 96bd b1ab 663e c295 1cbe
00000100: 45ac 313d 47f7 023e 3525 3f3e 13b2 f83d
00000110: ae4d 8b3e 7c60 fcbd ede4 c23c 2309 a3bd
00000120: 3ba3 bebd 0cc5 a43d 38a6 333d 5a54 4fbe
00000130: 6d6c 33bd b8fa 20bc e9ed 753d be3d 923d
00000140: f0d8 bcbc 58ce 85bc f3e4 973e 530b 44be
00000150: 1a04 e13d 7578 28be 4710 193c 3ae9 54bd
00000160: da16 e43d 2026 22be 48f4 223a e383 2d3e
00000170: f32a abbd dbcf a33c 05fa 8c3c 3dde 203d
00000180: afe5 5d3e 17cf 7abd 9e37 7bbe 9887 fabd
00000190: a5d3 543e 019d 84bd aeb8 0aba 7f26 21be
000001a0: 128f 10bd dc0c 113e 3117 10be 9072 f9bd
000001b0: 85ee 43be 8182 cfbd 1172 173d 57f7 423e
000001c0: 4949 dfbd 74f0 ed3d a32b 09be c77a 54bb
000001d0: 8428 8bbd 6258 b83d 6ad4 81be b9b8 16be
000001e0: 173e 0abd c0cd ecbd 390a 40be 8e34 9cbe
000001f0: 067d f03d 457e 22bd d235 0d3e b410 123e
00000200: 7723 95bc 5840 213e 0409 9e3a a5a7 18be
00000210: ee0a 3bbd f141 3f3e 29e4 bc3b 8db4 063e
00000220: f4c0 10be 56f1 143e 687b fa3d d18f e1bc
00000230: 46f7 33be 3ac7 e13c 89cb 9fbd f063 923e
00000240: ffa7 e43d dabd d93c 9280 243d 34f1 c2bd
00000250: beb7 983e 64b6 d73c 4b29 d53d ee9a 2bbd
00000260: 8311 9d3d 5043 133e e4db a3bd cbe6 2abe
00000270: 4bef 34be 6163 123e 6c13 b3bd a64b b3bd
00000280: 284e 15bd 3226 933d c803 133e aa39 ba3d
00000290: ef89 233e 3f57 bc3c a606 95bd ed66 8a3d
000002a0: 3f03 303e 8361 083e 841d 283d f9d2 49be
000002b0: 81d4 18be 28ce 9cbd a234 103e c7ed 313d
000002c0: 37f7 71bd 4909 303e b424 bf3b 3a7b cdbd
000002d0: 3677 55bc 45ab 4e3d c3be b7bc f19f 5dbe
000002e0: 59c0 aa3d e8cb d23c f918 f1bd e9a1 d43d
000002f0: 1631 0abd 7f3f bf3d dc17 02be 6b7a 5cbe
00000300: 4ed0 16be 7c5d 47be 15a8 963d 35d2 a03c
00000310: dbde d4bd a1f2 e93c e2fa 50be 817e 4a3e
00000320: 7e3f 2ebe 9abb f63c 9db2 273e 6c00 373e
00000330: d633 a23d 8340 d7bc 31d4 c2bd bb23 aebd
00000340: d955 593e 20d0 0bbe 6bf8 29be 094f 703d
00000350: 0960 083c 4832 24bd 50f2 313e 8d69 04be
00000360: 7d7a 3cbd 3561 09bc 840e 7b3d ecc5 f0bd
00000370: f6a3 c4bd 4cb6 03be 0651 b9bc 192a 5e3d
00000380: c05e 91bd 3e86 20bc 904f c9bd 2470 2a3d
00000390: 26ef a9bd 793c 1c3e 44c3 9abc 9863 09be
000003a0: 9030 92bd f4ac 7f3d e426 433d dfa8 25be
000003b0: 95e9 093b 3537 263d 03c9 ccbd 731e 013e
000003c0: db9f 083e 0098 29be afd1 a5bd ac01 9d3d
000003d0: ef76 abbd a8a9 263d 73e1 c63d e92b 263d
000003e0: df52 af3c 7a37 143d 7d76 043c 8bce 8d3d
000003f0: 4eb3 083e 8548 753d 6609 c63d 40f5 b63c

embedding.bias f4 [128]
0.07063141 -0.14970587 0.027485607 -0.17635114 -0.13044254 -0.11417131 0.0886881 0.04073013
-0.11428932 0.078453414 -0.054623257 0.16484438 0.1307485 0.14441386 -0.154824 -0.043959387
0.02289844 0.058589023 -0.13285077 0.14920661 0.1399048 0.17193626 0.07117707 0.031064402
0.18752563 0.20670886 -0.13885337 0.005521608 0.11036168 0.051960684 0.053566363 -0.115674555
0.18209235 0.045783613 -0.16286975 -0.026299262 0.22322088 -0.03710886 -0.21515843 -0.06371625
-0.156308 0.022833237 -0.1027464 -0.048897326 -0.122921586 -0.103610545 0.15563762 0.04894284
0.16524583 -0.11889987 0.16188861 -0.12031429 0.06037901 -0.15496889 -0.048389714 0.09239418
0.1525324 0.0993209 -0.010281695 -0.06974384 0.014332027 0.057009704 0.1027485 0.13071571
0.08627812 -0.18370828 -0.07797916 -0.13238084 -0.12022767 0.1902293 -0.11627691 -0.18054084
-8.058944e-05 -0.14732847 0.20669839 0.21587141 0.1187271 0.09350516 0.074286 0.16169974
-0.07973588 0.036840476 -0.18653707 -0.18002094 0.115372814 0.1650328 -0.07429871 0.039505225
0.082196146 -0.093037404 -0.085994706 0.14901046 -0.14153197 0.07420644 -0.20597689 0.03932747
-0.008243906 0.21103224 0.12276553 -0.050225183 0.09060112 0.054977026 -0.20022362 -0.18249226
0.009134807 0.121890746 0.043432735 -0.10111289 -0.057289746 -0.052917477 -0.01483889 -0.19462517
0.15124635 0.15162073 0.11877437 -0.07095979 0.10809352 -0.10214757 -0.050084732 0.120672464
0.0025945085 -0.12611076 -0.009199924 -0.06427087 0.052887365 -0.1018014 0.033627007 -0.024268473
00000000: 33a7 903d 7f4c 19be 7f29 e13c 6595 34be
00000010: bb92 05be a6d2 e9bd 1ba2 b53d a3d4 263d
00000020: 8510 eabd 2fac a03d a3bc 5fbd f7cc 283e
00000030: efe2 053e 3ae1 133e 2f8a 1ebe c20e 34bd
00000040: 8295 bb3c 0bfb 6f3d 080a 08be 9ec9 183e
00000050: 3443 0f3e 0f10 303e 49c5 913d c67a fe3c
00000060: b806 403e 7dab 533e 942f 0ebe 9bee b43b
00000070: 4e05 e23d bad4 543d 6768 5b3d c8e6 ecbd
00000080: 6b76 3a3e 9987 3b3d 54c7 26be 8d71 d7bc
00000090: 0494 643e 76ff 17bd 7e52 5cbe aa7d 82bd
000000a0: 340f 20be c50c bb3c b46c d2bd 9048 48bd
000000b0: 50be fbbd c431 d4bd 785f 1f3e 4a78 483d
000000c0: 3436 293e c681 f3bd 21c6 253e 5767 f6bd
000000d0: fb4f 773d 2ab0 1ebe 4b34 46bd 2939 bd3d
000000e0: 7431 1c3e c268 cb3d 8e74 28bc dcd5 8ebd
000000f0: e1d0 6a3c 0283 693d ce6d d23d 57da 053e
00000100: 95b2 b03d 061e 3cbe 8ab3 9fbd d88e 07be
00000110: ed39 f6bd 78cb 423e 9722 eebd b3df 38be
00000120: 2002 a9b8 46dd 16be bea8 533e 650d 5d3e
00000130: 3227 f33d a27f bf3d 4223 983d 9e94 253e
00000140: 914c a3bd 0ae6 163d 9303 3fbe 6957 38be
00000150: 9548 ec3d 5cfe 283e ec29 98bd 3bd0 213d
00000160: 7456 a83d 658a bebd fe1d b0bd 3396 183e
00000170: c2ed 10be 8cf9 973d 9beb 52be d715 213d
00000180: 7311 07bc d618 583e 7f6c fb3d ecb8 4dbd
00000190: 148d b93d 972f 613d 6c07 4dbe 40df 3abe
000001a0: 28aa 153c dba1 f93d 86e6 313d 4614 cfbd
000001b0: a7a8 6abd ffbf 58bd d11e 73bc d24b 47be
000001c0: 53e0 1a3e 7742 1b3e fa3f f33d 5e53 91bd
000001d0: 2360 dd3d bf32 d1bd a625 4dbd 2023 f73d
000001e0: a108 2a3b 2e23 01be 47bb 16bc 72a0 83bd
000001f0: 6ca0 583d 417d d0bd 79bc 093d adce c6bc

transformer_encoder.layers.0.self_attn.in_proj_weight f4 [384, 128]
-0.047652345 0.07380431 0.010002546 -0.0061251 -0.08715424 -0.09265933 0.028782032 0.07601134
0.0003644079 0.042833246 0.053868555 0.041223668 0.044173457 0.0042120963 0.08206775 -0.07129668
0.0965186 0.06201572 0.048064493 0.0052852705 0.09062209 0.053423397 -0.0135652125 -0.044886015
0.058548354 -0.021590255 -0.10508093 0.012019642 -0.07307433 0.056244604 -0.02810596 0.012266941
-0.07240726 -0.06618345 0.012575969 0.015243739 -0.035939306 -0.045062616 -0.08039896 0.06977626
-0.08994092 -0.037087753 -0.004952468 0.017904468 -0.081205666 -0.08759592 0.044541873 -0.026824042
0.030843504 0.082493864 -0.07669689 0.019842423 -0.055608496 0.067978375 0.042390548 0.10756902
0.013585784 0.06711719 -0.052448694 0.019995414 -0.063797474 0.0867716 0.040655084 0.028023832
0.07086285 0.10431259 -0.04550667 0.0057181343 0.103353344 0.101651646 0.095980994 0.063476436
0.051296346 0.041275047 -0.056331847 0.017023347 -0.06542173 0.102897875 0.088193364 -0.0007279217
0.06694447 0.033101358 -0.054899428 -0.026697002 0.018266045 0.0019425303 -0.06503151 0.07447905
-0.07625429 -0.011103444 -0.04430838 -0.06014494 -0.10338252 -0.04380147 -0.10135231 -0.10247794
0.105850495 -0.09985119 -0.01736109 -0.0687056 -0.064864144 0.024378307 0.0016292036 0.032781236
0.039428703 0.07923929 0.09355471 -0.10735482 -0.049351238 0.018046029 0.09691665 -0.034973204
0.06603245 -0.06395372 0.02979859 -0.012002833 -0.08517697 0.040641867 -0.039825857 0.005617127
0.09569941 0.07966059 0.036560677 0.046111457 0.081921704 0.09175923 0.005416937 -0.04759528
0.027995907 0.038742207 0.065465964 -0.03006886 0.06843365 0.023311622 -0.036636665 -0.093274176
0.06366018 0.096405186 -0.015451752 0.10614861 0.086422555 0.07303389 -0.024825811 -0.038642585
-0.0014722794 0.053214543 0.093276404 0.08988305 0.09453113 0.048083685 -0.07880657 0.08810154
-0.047201093 0.094581984 -0.033699475 0.076131545 -0.07586528 0.021167554 0.042144395 -0.060586903
-0.10545742 -0.06704095 0.027528234 0.020629115 -0.04708286 0.0016903207 0.051285796 0.05612854
-0.06767349 0.04497365 0.0012193099 -0.027961083 0.068433456 -0.04294268 -0.04646419 -0.1026174
-0.04781522 0.048256956 -0.09621226 0.048448406 0.0804354 0.068564765 0.0999637 0.021431006
0.080055274 0.09253896 0.015021287 0.077496566 0.08247831 0.084061734 -0.050810445 0.033400737
0.092506014 -0.052400276 -0.06661564 0.004200481 0.01537957 -0.08445054 -0.014976986 0.014973551
-0.029057428 0.04946942 -0.021460928 0.07120191 0.00034909695 0.08638164 -0.09239936 0.006484367
-0.091529734 0.05694265 -0.04279717 0.016583644 -0.05948113 0.034529947 0.06796264 -0.010749169
0.0469872 0.098183565 -0.009939641 0.021038942 -0.070039734 -0.02474463 -0.028746799 0.023567952
0.017974563 -0.08484636 -0.08723661 0.025071152 -0.09917169 0.045364328 0.024740435 0.047279082
-0.08017987 -0.046386685 -0.008058757 0.007252902 0.015096173 0.08796599 0.045854114 0.08049349
0.033596955 0.0797896 -0.04892668 -0.06346659 -0.030607514 -0.07376219 -0.10579863 -0.044648476
-0.012157857 0.09679072 -0.037340403 0.09083075 0.011680879 0.024588607 0.04004363 0.048984714
00000000: 1b2f 43bd b726 973d b8e1 233c 10b5 c8bb
00000010: ec7d b2bd 2dc4 bdbd 4cc8 eb3c d5ab 9b3d
00000020: 000e bf39 ea71 2f3d 46a5 5c3d 26da 283d
00000030: 3aef 343d a005 8a3b 2313 a83d fe03 92bd
00000040: 8bab c53d 3204 7e3d 46df 443d 1030 ad3b
00000050: 1398 b93d 7ed2 5a3d a040 5ebc 66da 37bd
00000060: 66d0 6f3d 0cde b0bc ac34 d7bd 08ee 443c
00000070: ffa7 95bd be60 663d 783e e6bc 48fb 483c
00000080: 424a 94bd 308b 87bd 700b 4e3c e0c0 793c
00000090: 1835 13bd 9493 38bd 36a8 a4bd dbe6 8e3d
000000a0: f232 b8bd 54e9 17bd 5048 a2bb 64ac 923c
000000b0: 284f a6bd 7d65 b3bd 8a71 363d 18be dbbc
000000c0: 84ab fc3c 8bf2 a83d 4213 9dbd 948c a23c
000000d0: bcc5 63bd 3f38 8b3d b6a1 2d3d 254d dc3d
000000e0: e896 5e3c bd74 893d 71d4 56bd 6ccd a33c
000000f0: 40a8 82bd 4fb5 b13d f285 263d 3c92 e53c
00000100: 8b20 913d d7a1 d53d 3465 3abd 305f bb3b
00000110: ebaa d33d bd2e d03d af91 c43d efff 813d
00000120: 1e1c 523d 0610 293d 39bc 66bd 8c74 8b3c
00000130: d4fb 85bd 1fbc d23d b99e b43d 00d2 3eba
00000140: 2f1a 893d 4a95 073d 39de 60bd acb3 dabc
00000150: aca2 953c 809c fe3a 3e2f 85bd 7988 983d
00000160: 362b 9cbd 38eb 35bc b47c 35bd 8a5a 76bd
00000170: 37ba d3bd 2c69 33bd cd91 cfbd f4df d1bd
00000180: 25c8 d83d c87e ccbd d838 8ebc 86b5 8cbd
00000190: 7ed7 84bd 04b5 c73c 008b d53a 9e45 063d
000001a0: fe7f 213d 3548 a23d 9d99 bf3d d8dc dbbd
000001b0: 8624 4abd 44d5 933c 3d7c c63d 1040 0fbd
000001c0: 053c 873d 2bfa 82bd 2c1c f43c 88a7 44bc
000001d0: 4371 aebd 1678 263d 7020 23bd e00f b83b
000001e0: 0dfe c33d 1725 a33d a6c0 153d 5edf 3c3d
000001f0: 91c6 a73d 43ec bb3d 9080 b13b 45f3 42bd
00000200: ac57 e53c 26b0 1e3d 0513 863d f852 f6bc
00000210: f126 8c3d 04f8 be3c 5410 16bd 8806 bfbd
00000220: 4560 823d 1570 c53d 5829 7dbc 7164 d93d
00000230: 4ffe b03d cb92 953d 805f cbbc b047 1ebd
00000240: 80f9 c0ba 7ef7 593d b307 bf3d 9b14 b83d
00000250: 8999 c13d 66f3 443d 5765 a1bd 956e b43d
00000260: ef55 41bd 33b4 c13d 7608 0abd dbea 9b3d
00000270: 425f 9bbd 9467 ad3c 9a9f 2c3d f929 78bd
00000280: 0ffa d7bd c44c 89bd e482 e13c 64fe a83c
00000290: f5d9 40bd c08d dd3a 0e11 523d 0ae7 653d
000002a0: 6698 8abd 4a36 383d 40d1 9f3a a40e e5bc
000002b0: d726 8c3d aae4 2fbd 3c51 3ebd 1229 d2bd
000002c0: e4d9 43bd 16a9 453d ef0a c5bd d671 463d
000002d0: 51bb a43d af6b 8c3d c5b9 cc3d 1490 af3c
000002e0: 05f4 a33d 1185 bd3d d81b 763c 85b6 9e3d
000002f0: 63ea a83d 8f28 ac3d 9d1e 50bd 36cf 083d
00000300: cb73 bd3d aca1 56bd c86d 88bd 30a4 893b
00000310: 98fa 7b3c 68f4 acbd 0862 75bc a053 753c
00000320: d809 eebc 72a0 4a3d d4ce afbc 4fd2 913d
00000330: 0007 b739 dbe8 b03d e03b bdbd d07a d43b
00000340: f173 bbbd b23c 693d 164c 2fbd 6cda 873c
00000350: 7ca2 73bd 466f 0d3d ff2f 8b3d 481d 30bc
00000360: a675 403d 7714 c93d e0d9 22bc dc59 ac3c
00000370: fe70 8fbd 40b5 cabc 687e ebbc 9411 c13c
00000380: 643f 933c eec3 adbd 1ca9 b2bd 0462 cd3c
00000390: 871a cbbd f2cf 393d 74ac ca3c b6a7 413d
000003a0: 5835 a4bd f7ff 3dbd e008 04bc c0a9 ed3b
000003b0: f055 773c 8327 b43d 86d1 3b3d c5d9 a43d
000003c0: f69c 093d bb68 a33d 5867 48bd c6fa 81bd
000003d0: 9cbc fabc a210 97bd f4ac d8bd 52e1 36bd
000003e0: c031 47bc 373a c63d 40f2 18bd 7905 ba3d
000003f0: 2861 3f3c 0c6e c93c ca04 243d 32a4 483d

transformer_encoder.layers.0.self_attn.in_proj_bias f4 [384]
0.0 0.0 0.0 0.0 0.0 0.0 0.0 0.0
0.0 0.0 0.0 0.0 0.0 0.0 0.0 0.0
0.0 0.0 0.0 0.0 0.0 0.0 0.0 0.0
0.0 0.0 0.0 0.0 0.0 0.0 0.0 0.0
0.0 0.0 0.0 0.0 0.0 0.0 0.0 0.0
0.0 0.0 0.0 0.0 0.0 0.0 0.0 0.0
0.0 0.0 0.0 0.0 0.0 0.0 0.0 0.0
0.0 0.0 0.0 0.0 0.0 0.0 0.0 0.0
0.0 0.0 0.0 0.0 0.0 0.0 0.0 0.0
0.0 0.0 0.0 0.0 0.0 0.0 0.0 0.0
0.0 0.0 0.0 0.0 0.0 0.0 0.0 0.0
0.0 0.0 0.0 0.0 0.0 0.0 0.0 0.0
0.0 0.0 0.0 0.0 0.0 0.0 0.0 0.0
0.0 0.0 0.0 0.0 0.0 0.0 0.0 0.0
0.0 0.0 0.0 0.0 0.0 0.0 0.0 0.0
0.0 0.0 0.0 0.0 0.0 0.0 0.0 0.0
0.0 0.0 0.0 0.0 0.0 0.0 0.0 0.0
0.0 0.0 0.0 0.0 0.0 0.0 0.0 0.0
0.0 0.0 0.0 0.0 0.0 0.0 0.0 0.0
0.0 0.0 0.0 0.0 0.0 0.0 0.0 0.0
0.0 0.0 0.0 0.0 0.0 0.0 0.0 0.0
0.0 0.0 0.0 0.0 0.0 0.0 0.0 0.0
0.0 0.0 0.0 0.0 0.0 0.0 0.0 0.0
0.0 0.0 0.0 0.0 0.0 0.0 0.0 0.0
0.0 0.0 0.0 0.0 0.0 0.0 0.0 0.0
0.0 0.0 0.0 0.0 0.0 0.0 0.0 0.0
0.0 0.0 0.0 0.0 0.0 0.0 0.0 0.0
0.0 0.0 0.0 0.0 0.0 0.0 0.0 0.0
0.0 0.0 0.0 0.0 0.0 0.0 0.0 0.0
0.0 0.0 0.0 0.0 0.0 0.0 0.0 0.0
0.0 0.0 0.0 0.0 0.0 0.0 0.0 0.0
0.0 0.0 0.0 0.0 0.0 0.0 0.0 0.0
00000000: 0000 0000 0000 0000 0000 0000 0000 0000
00000010: 0000 0000 0000 0000 0000 0000 0000 0000
00000020: 0000 0000 0000 0000 0000 0000 0000 0000
00000030: 0000 0000 0000 0000 0000 0000 0000 0000
00000040: 0000 0000 0000 0000 0000 0000 0000 0000
00000050: 0000 0000 0000 0000 0000 0000 0000 0000
00000060: 0000 0000 0000 0000 0000 0000 0000 0000
00000070: 0000 0000 0000 0000 0000 0000 0000 0000
00000080: 0000 0000 0000 0000 0000 0000 0000 0000
00000090: 0000 0000 0000 0000 0000 0000 0000 0000
000000a0: 0000 0000 0000 0000 0000 0000 0000 0000
000000b0: 0000 0000 0000 0000 0000 0000 0000 0000
000000c0: 0000 0000 0000 0000 0000 0000 0000 0000
000000d0: 0000 0000 0000 0000 0000 0000 0000 0000
000000e0: 0000 0000 0000 0000 0000 0000 0000 0000
000000f0: 0000 0000 0000 0000 0000 0000 0000 0000
00000100: 0000 0000 0000 0000 0000 0000 0000 0000
00000110: 0000 0000 0000 0000 0000 0000 0000 0000
00000120: 0000 0000 0000 0000 0000 0000 0000 0000
00000130: 0000 0000 0000 0000 0000 0000 0000 0000
00000140: 0000 0000 0000 0000 0000 0000 0000 0000
00000150: 0000 0000 0000 0000 0000 0000 0000 0000
00000160: 0000 0000 0000 0000 0000 0000 0000 0000
00000170: 0000 0000 0000 0000 0000 0000 0000 0000
00000180: 0000 0000 0000 0000 0000 0000 0000 0000
00000190: 0000 0000 0000 0000 0000 0000 0000 0000
000001a0: 0000 0000 0000 0000 0000 0000 0000 0000
000001b0: 0000 0000 0000 0000 0000 0000 0000 0000
000001c0: 0000 0000 0000 0000 0000 0000 0000 0000
000001d0: 0000 0000 0000 0000 0000 0000 0000 0000
000001e0: 0000 0000 0000 0000 0000 0000 0000 0000
000001f0: 0000 0000 0000 0000 0000 0000 0000 0000
00000200: 0000 0000 0000 0000 0000 0000 0000 0000
00000210: 0000 0000 0000 0000 0000 0000 0000 0000
00000220: 0000 0000 0000 0000 0000 0000 0000 0000
00000230: 0000 0000 0000 0000 0000 0000 0000 0000
00000240: 0000 0000 0000 0000 0000 0000 0000 0000
00000250: 0000 0000 0000 0000 0000 0000 0000 0000
00000260: 0000 0000 0000 0000 0000 0000 0000 0000
00000270: 0000 0000 0000 0000 0000 0000 0000 0000
00000280: 0000 0000 0000 0000 0000 0000 0000 0000
00000290: 0000 0000 0000 0000 0000 0000 0000 0000
000002a0: 0000 0000 0000 0000 0000 0000 0000 0000
000002b0: 0000 0000 0000 0000 0000 0000 0000 0000
000002c0: 0000 0000 0000 0000 0000 0000 0000 0000
000002d0: 0000 0000 0000 0000 0000 0000 0000 0000
000002e0: 0000 0000 0000 0000 0000 0000 0000 0000
000002f0: 0000 0000 0000 0000 0000 0000 0000 0000
00000300: 0000 0000 0000 0000 0000 0000 0000 0000
00000310: 0000 0000 0000 0000 0000 0000 0000 0000
00000320: 0000 0000 0000 0000 0000 0000 0000 0000
00000330: 0000 0000 0000 0000 0000 0000 0000 0000
00000340: 0000 0000 0000 0000 0000 0000 0000 0000
00000350: 0000 0000 0000 0000 0000 0000 0000 0000
00000360: 0000 0000 0000 0000 0000 0000 0000 0000
00000370: 0000 0000 0000 0000 0000 0000 0000 0000
00000380: 0000 0000 0000 0000 0000 0000 0000 0000
00000390: 0000 0000 0000 0000 0000 0000 0000 0000
000003a0: 0000 0000 0000 0000 0000 0000 0000 0000
000003b0: 0000 0000 0000 0000 0000 0000 0000 0000
000003c0: 0000 0000 0000 0000 0000 0000 0000 0000
000003d0: 0000 0000 0000 0000 0000 0000 0000 0000
000003e0: 0000 0000 0000 0000 0000 0000 0000 0000
000003f0: 0000 0000 0000 0000 0000 0000 0000 0000

transformer_encoder.layers.0.self_attn.out_proj.weight f4 [128, 128]
0.10995667 -0.09424072 -0.015087278 -0.04320539 0.05235757 -0.036267072 0.052807566 0.04008454
-0.08732868 0.03801439 -0.09628959 -0.024718294 -0.04764337 0.043317236 0.0057924856 -0.077834114
0.055559296 -0.0016861482 0.029974276 -0.025882725 -0.020030342 0.02371082 0.071114905 0.107486665
-0.0700836 -0.00408321 0.06286139 -0.0049727308 -0.0977685 0.07446571 -0.03771458 -0.1133747
-0.022761235 -0.046853095 -0.045450997 0.0022933288 -0.033861026 0.01435126 -0.031937744 -0.008573428
0.07129934 0.05346005 0.103617504 -0.03866695 0.058702286 -0.007445489 -0.058738336 -0.042747337
0.056407902 -0.04464572 -4.7434005e-05 -0.070635475 -0.04475276 0.03659834 0.08874743 -0.07465855
0.05797151 -0.05160102 0.063891426 -0.06484484 -0.055930518 -0.07552834 -0.053874973 0.06710162
-0.014723899 0.028795961 0.005633269 0.044464495 -0.08675433 0.06853028 0.043597903 0.008092007
-0.009786213 0.0874574 -0.020399468 0.026948005 0.10434499 -0.002146157 -0.015372646 -0.0032635634
-0.050054956 -0.0053733718 0.024979582 0.013095177 -0.0035082225 -0.021758707 0.03505334 0.003956411
-0.023220813 -0.026429541 0.04196547 -0.05453273 -0.013000475 -0.018544799 -0.060523886 -0.06617839
0.07026115 -0.046955854 0.045573246 0.07778574 0.006890877 -0.052895267 0.060676213 0.05078106
-0.022857437 -0.09296316 -0.034924924 -0.031362463 -0.07442339 -0.088243864 0.05830085 0.038021892
0.051661644 -0.00034413295 -0.044930354 0.0505327 -0.01324694 -0.013051793 0.05158818 0.007907601
-0.020947738 0.10636876 0.021515237 -0.019315075 0.00010625355 -0.05616111 -0.055107385 0.052640907
-0.015444289 0.012927339 0.010628616 0.030484693 -0.0149272075 0.07776938 -0.039044626 -0.07090547
-0.0544046 -0.071783565 -0.016390448 -0.061225735 0.07328195 0.0430922 -0.08503851 -0.005429796
-0.040532976 0.02723859 0.05151013 -0.091887236 0.041822854 -0.03384968 -0.04620462 0.093391635
0.055704486 0.08038042 0.016215133 0.092039146 0.042191602 -0.020036565 -0.0034975286 0.08234306
-0.04580482 -0.07217811 -0.055564925 -0.060830396 -0.059349574 -0.073853545 -0.0012960588 0.053616013
-0.04363366 -0.003047598 -0.017217815 -0.06780677 0.026837662 -0.0042491495 0.07269221 0.02034546
0.045918953 0.027124438 -0.015563564 -0.057547312 -0.038320564 -0.0076258546 -0.023391666 0.10049091
-0.02734091 -0.07063621 0.014024087 -0.09959213 0.03891458 -0.0012806744 -0.07242774 0.03364681
0.09141606 -0.013558092 -0.08655213 -0.020916807 0.037338067 -0.052634515 0.028357312 -0.038805224
-0.01686334 -0.036200915 -0.03529701 0.021420458 -0.099038646 -0.04199773 -0.06683711 0.008932693
0.058031924 0.05609415 0.02317501 -0.046669472 -0.0031805197 -0.046590257 -0.0090531 -0.06404957
0.06764521 -0.044238176 0.1169782 0.042650647 0.038305677 -0.05186173 0.064553685 -0.0012089665
-0.0032392659 -0.035398215 0.018695155 0.04670992 -0.035092335 0.03042536 0.092700526 0.0026461934
0.08250687 -0.04039275 -0.07094919 -0.06182509 -0.008740572 0.028025854 -0.049403008 -0.007695646
0.03170487 -0.004901472 0.040022906 -0.07163496 0.0018448706 -0.021317175 0.0738586 0.050845645
-0.08578874 0.020995993 -0.07669719 -0.027734693 -0.008974844 0.08472656 0.032111175 0.031025594
00000000: f630 e13d 4701 c1bd a130 77bc 23f8 30bd
00000010: e474 563d c88c 14bd bf4c 583d b02f 243d
00000020: 61d9 b2bd fab4 1b3d 7a33 c5bd 057e cabc
00000030: b225 43bd 6a6d 313d e4ce bd3b 7e67 9fbd
00000040: 2592 633d bf01 ddba 9d8c f53c 0208 d4bc
00000050: ac16 a4bc 323d c23c b1a4 913d f821 dc3d
00000060: fe87 8fbd 73cc 85bb 79bd 803d 4af2 a2bb
00000070: da3a c8bd 7a81 983d 9a7a 1abd ff30 e8bd
00000080: c575 babc 08e9 3fbd d32a 3abd ac4b 163b
00000090: dcb1 0abd 8c21 6b3c 27d1 02bd 9077 0cbc
000000a0: 6305 923d edf8 5a3d 6a35 d43d 3c61 1ebd
000000b0: cf71 703d 4af9 f3bb 9c97 70bd d517 2fbd
000000c0: f90b 673d 6ede 36bd e0f3 46b8 55a9 90bd
000000d0: ac4e 37bd 24e8 153d 36c1 b53d 95e6 98bd
000000e0: 8973 6d3d 975b 53bd 82d9 823d 5fcd 84bd
000000f0: 6617 65bd 9aae 9abd 01ac 5cbd 936c 893d
00000100: 823c 71bc 82e5 eb3c 4997 b83b 6720 363d
00000110: 41ac b1bd 9a59 8c3d b793 323d 5694 043c
00000120: 5a56 20bc de1c b33d c91c a7bc 10c2 dc3c
00000130: d3b2 d53d 8aa6 0cbb 8ddd 7bbc 82e1 55bb
00000140: 6d06 4dbd 1c13 b0bb fba1 cc3c 278d 563c
00000150: 35ea 65bb 513f b2bc 1794 0f3d c8a4 813b
00000160: 9339 bebc c482 d8bc fce3 2b3d b65d 5fbd
00000170: f2ff 54bc 43eb 97bc e5e7 77bd 8988 87bd
00000180: 14e5 8f3d c854 40bd 03ab 3a3d 214e 9f3d
00000190: decc e13b b5a8 58bd 9f87 783d cdff 4f3d
000001a0: 853f bbbc 7863 bebd 700d 0fbd ed75 00bd
000001b0: 4a6b 98bd 33b9 b4bd dfcc 6e3d d8bc 1b3d
000001c0: 299b 533d be6c b4b9 e408 38bd 60fb 4e3d
000001d0: b209 59bc 30d7 55bc 214e 533d e28e 013c
000001e0: 979a abbc ddd7 d93d b940 b03c a63a 9ebc
000001f0: 71d4 de38 3109 66bd 48b8 61bd fe9d 573d
00000200: 0b0a 7dbc 31cd 533c a623 2e3c 09bb f93c
00000210: 3f91 74bc 8d45 9f3d 42ed 1fbd e336 91bd
00000220: 5cd7 5ebd 4303 93bd 4345 86bc d6c7 7abd
00000230: d914 963d 7281 303d ac28 aebd 6eec b1bb
00000240: e805 26bd 7723 df3c 49fc 523d 602f bcbd
00000250: 714e 2b3d f6a5 0abd 0e41 3dbd 1d44 bf3d
00000260: 632a 643d 7d9e a43d 99d5 843c 057f bc3d
00000270: 1ad1 2c3d b923 a4bc cb36 65bb 7aa3 a83d
00000280: d69d 3bbd 1ed2 93bd 0c98 63bd 4b29 79bd
00000290: 8a18 73bd 8740 97bd 84e0 a9ba 779c 5b3d
000002a0: 35b9 32bd 36ba 47bb 600c 8dbc 47de 8abd
000002b0: a8da db3c 733c 8bbb a7df 943d 86ab a63c
000002c0: 8315 3c3d 1234 de3c 52fe 7ebc bbb6 6bbd
000002d0: 06f6 1cbd 4ee2 f9bb e19f bfbc 2ece cd3d
000002e0: 0bfa dfbc b8a9 90bd 49c5 653c f5f6 cbbd
000002f0: e564 1f3d 4ddc a7ba ff54 94bd 3dd1 093d
00000300: 5838 bb3d c222 5ebc 3e42 b1bd b959 abbc
00000310: cdef 183d 4a97 57bd 984d e83c 3af2 1ebd
00000320: fd24 8abc 6947 14bd 9993 10bd f579 af3c
00000330: c6d4 cabd d005 2cbd e5e1 88bd 6e5a 123c
00000340: e2b2 6d3d fbc2 653d 85d9 bd3c 7d28 3fbd
00000350: 4470 50bb 6dd5 3ebd 7453 14bc 6c2c 83bd
00000360: 9289 8a3d 1733 35bd 4492 ef3d 72b2 2e3d
00000370: 6ae6 1c3d f76c 54bd b934 843d 2f76 9eba
00000380: dd49 54bb b8fd 10bd 9526 993c e752 3f3d
00000390: fbbc 0fbd 9b3e f93c c6d9 bd3d c26b 2d3b
000003a0: 5df9 a83d de72 25bd cf4d 91bd 4e3c 7dbd
000003b0: 9e34 0fbc 7a96 e53c cf5a 4abd c22b fcbb
000003c0: f7dc 013d 879c a0bb 0fef 233d 5ab5 92bd
000003d0: 96cf f13a 5ba1 aebc 2d43 973d 8643 503d
000003e0: 02b2 afbd caff ab3c 6b13 9dbd de33 e3bc
000003f0: 390b 13bc 1e85 ad3d 0287 033d 6329 fe3c

transformer_encoder.layers.0.self_attn.out_proj.bias f4 [128]
-0.03356835 -0.0032973804 -0.008282423 -0.018205928 0.014890753 0.0015377947 0.033090997 -0.038706675
-0.030700462 0.001034994 -0.028567303 0.011291972 0.02131895 -0.04152149 -0.020339295 0.009744284
-0.03876637 -0.028884979 0.00733254 -0.0061280145 0.015787987 0.00017347178 -0.010973753 0.032264583
0.025258522 0.034734763 0.02063403 0.050920196 0.03602517 0.020306187 -0.0006375244 -0.011726089
0.028802695 0.011529301 -0.013809225 -0.016593402 0.026162256 -0.0067714695 -0.049900044 0.023442492
-0.01270112 -0.008057088 -0.025015587 -0.0083051175 -0.016801883 0.020002985 0.020752547 -0.022698812
0.0037406671 -0.009935512 0.009002696 -0.014104754 -0.010811496 0.009139061 0.028098978 -0.025429973
-0.046272315 -0.0055668987 0.014335422 0.012444682 -0.015841963 -0.07648043 0.03554983 -0.0090498235
-0.019301644 -0.0038357014 0.026087543 0.0012558986 -0.0014255131 0.019876624 -0.01749141 -0.016240943
0.066988915 0.010843397 0.023645278 0.052468583 0.042033482 -0.011046693 -0.019680457 -0.017529001
-0.005406487 -0.034936298 0.012760265 -0.05335196 -0.0045187077 0.024390772 -0.025709981 -0.030094165
0.043060336 -0.0015920069 0.0129075125 0.022034734 -0.05384514 -0.0053141415 -0.080156945 -0.0076205214
-0.0060225846 0.020016711 0.005732452 0.015534532 -0.012867908 0.033845525 0.00013130106 -0.031908978
0.019196576 0.018092379 -0.026257167 -0.041739754 -0.016601458 -0.01530886 -0.021862403 -0.015489518
-0.0024322302 -0.026206817 -0.00049999903 0.008732138 0.01743383 0.0008735884 -0.0041052406 0.03261401
0.015922535 -0.012861514 -0.005952062 0.016315088 0.022868335 0.0066403686 0.029280951 0.0008936791
00000000: f77e 09bd dd18 58bb 00b3 07bc 9924 95bc
00000010: 58f8 733c d48f c93a 6d8a 073d e48a 1ebd
00000020: 897f fbbc a3a8 873a fa05 eabc f701 393c
00000030: 14a5 ae3c 7012 2abd 989e a6bc 7da6 1f3c
00000040: 7cc9 1ebd 31a0 ecbc ce45 f03b 83cd c8bb
00000050: cf55 813c fae5 3539 42cb 33bc de27 043d
00000060: f6ea ce3c 0a46 0e3d b308 a93c b291 503d
00000070: 218f 133d 2959 a63c 8a1f 27ba c81e 40bc
00000080: a1f3 eb3c 65e5 3c3c 1640 62bc e3ee 87bc
00000090: 3a52 d63c 34e3 ddbb fd63 4cbd 780a c03c
000000a0: 5c18 50bc e001 04bc 7ded ccbc 3012 08bc
000000b0: 1aa4 89bc 4ddd a33c 3f01 aa3c dcf2 b9bc
000000c0: fb25 753b 8fc8 22bc 0b80 133c a017 67bc
000000d0: b322 31bc 00bc 153c d42f e63c 8552 d0bc
000000e0: 0a88 3dbd 886a b6bb 1edf 6a3c c8e4 4b3c
000000f0: 01c7 81bc c6a1 9cbd b39c 113d b645 14bc
00000100: 7b1e 9ebc 6460 7bbb 8bb5 d53c f79c a43a
00000110: 48d8 baba 4dd4 a23c 254a 8fbc ba0b 85bc
00000120: 7c31 893d 81a8 313c beb3 c13c 4ce9 563d
00000130: 4d2b 2c3d 30fd 34bc e938 a1bc fb98 8fbc
00000140: e628 b1bb 5d19 0fbd 6e10 513c 9687 5abd
00000150: ab11 94bb 28cf c73c bd9d d2bc 0a88 f6bc
00000160: 0960 303d e3aa d0ba 087a 533c 3082 b43c
00000170: b98c 5cbd 4022 aebb 5329 a4bd 91b5 f9bb
00000180: 1a59 c5bb 16fa a33c 4bd7 bb3b 8d84 7e3c
00000190: ebd3 52bc 9ba1 0a3d dcad 0939 fdb2 02bd
000001a0: 2342 9d3c 7836 943c 4519 d7bc 4ef7 2abd
000001b0: c8ff 87bc 03d2 7abc c818 b3bc bfc7 7dbc
000001c0: 0d66 1fbb aeaf d6bc 5e12 03ba 3e11 0f3c
000001d0: 64d1 8e3c 8601 653a 4185 86bb 4596 053d
000001e0: fa6f 823c 1ab9 52bc 8409 c3bb 38a7 853c
000001f0: 6056 bb3c 7397 d93b 9bde ef3c ca45 6a3a

transformer_encoder.layers.0.linear1.weight f4 [128, 128]
-9.67324e-07 -0.042965814 -0.009069127 0.056305666 0.025629874 -0.030401692 -0.03537003 0.114321515
-0.01767791 0.005547397 -0.007206667 -0.02126123 0.07567578 0.054688267 0.052235253 -0.07660806
0.036276557 0.046001982 -0.054498494 0.05579442 0.003644682 -0.043353666 -0.01599748 0.027606992
0.021136116 -0.13460213 0.07994604 -0.047734953 0.005297731 0.012038409 -0.024970546 0.0016798488
0.041186593 -0.027235875 -0.0066322056 0.08332189 0.0110139325 0.01819908 -0.09723159 -0.0054020653
-0.005648095 -0.070418835 0.084359534 -0.015971225 -0.0031986407 -0.06521647 0.024173925 -0.042624857
-0.036685087 -0.07174284 -0.008191047 5.6960023e-05 -0.057765484 0.019979503 -0.017514585 0.12526017
0.036679074 -0.048029304 -0.003643955 -0.06586804 0.04497319 0.049954057 0.006171687 0.008560207
0.07300453 0.020381035 0.02476767 0.062134903 0.11204152 0.0071375803 0.0011927312 0.038354464
-0.04868501 -0.059420176 0.07697595 -0.09102015 0.038434073 0.106620185 0.08461153 0.0018147759
-0.00883401 0.015334205 -0.008526717 0.05141191 0.0843629 -0.051590987 -0.04136301 -0.036616217
-0.029933216 -0.06657184 0.027486274 -0.044934753 0.010943569 -0.016094897 -0.06187926 -0.054788902
-0.023851696 -0.1006771 -0.06272494 0.016890595 -0.03910487 0.0051991497 -0.057431646 0.100912094
-0.10981849 -0.05589446 -0.060802426 0.08356029 0.026995674 0.094804935 -0.0054767514 0.04411666
-0.025371447 0.08065147 -0.008015822 0.062136382 -0.009750852 -0.08311114 -0.004680994 0.03337568
0.05767298 -0.07793763 0.058763284 -0.09418397 0.012872546 -0.07168201 0.026334083 -0.012772745
-0.02778201 -0.018961966 -0.002574449 0.025484012 0.024127582 0.0062137237 -0.022697482 0.0017289984
-0.017827123 0.0063622226 -0.0003741368 -0.06964676 0.107121356 -0.09098788 -0.06376008 0.04333769
0.008879173 0.0577967 0.112257265 -0.06500917 -0.033622295 0.051897734 0.017715896 -0.050391164
-0.10147249 -0.02151578 -0.0140815 -0.10625029 -0.007849047 0.048822127 -0.087564 -0.026305825
-0.0002628371 0.040112354 0.037961546 -0.04381384 0.007043605 -0.049047362 0.02701977 0.06961099
0.02435468 0.017445808 0.12077602 -0.09146877 0.014197203 0.019315468 -0.054814253 -0.096560545
-0.035212774 -0.07095986 -0.15958211 0.081370115 -0.09858472 -0.077148184 -0.008441252 -0.09925607
-0.028797956 -0.091357194 -0.05264987 0.055211596 -0.063392565 0.021028804 0.072244234 -0.022612609
-0.0871407 -0.001302062 -0.03280799 0.05336423 -0.033481713 -0.02920297 0.033731658 0.09851249
0.02340916 0.02477664 -0.04573544 0.03008839 -0.010738516 -0.093758605 -0.04839169 0.06679647
-0.00034240287 0.07290219 0.067259714 -0.028500915 -0.02653826 -0.0018318958 0.0965094 0.020697221
-0.028940871 -0.008777911 0.06830408 -0.13940936 0.03778923 -0.097191244 0.002154598 0.026577327
0.04895421 -0.0071154987 0.07170435 -0.04108746 0.006837511 -0.040371314 0.04191257 0.071122095
0.082749665 -0.06048563 0.0071446686 0.050213005 -0.010450687 -0.00019155396 -0.007165242 -0.042005632
-0.0014763232 -0.0658731 -0.056762815 0.0798644 0.067379184 0.08532736 0.046325598 0.10388511
-0.061703075 -0.010559677 -0.05570502 -0.10529425 -0.08216166 -0.09737572 -0.089249454 0.088046715
00000000: 00d5 81b5 ecfc 2fbd ad96 14bc c5a0 663d
00000010: bef5 d13c f80c f9bc 2ae0 10bd 6621 ea3d
00000020: 44d1 90bc f0c6 b53b e825 ecbb 082c aebc
00000030: e7fb 9a3d ce00 603d a2f4 553d b0e4 9cbd
00000040: ba96 143d 936c 3c3d d039 5fbd b188 643d
00000050: 9edb 6e3b 9d93 31bd 260d 83bc 0f28 e23c
00000060: a625 ad3c 24d5 09be c0ba a33d ba85 43bd
00000070: 9798 ad3b bf3c 453c 088f ccbc 5f2e dc3a
00000080: 46b3 283d c51d dfbc f952 d9bb aba4 aa3d
00000090: c873 343c 3d16 953c 5b21 c7bd cf03 b1bb
000000a0: a813 b9bb c037 90bd b1c4 ac3d 16d6 82bc
000000b0: 49a0 51bb 3690 85bd 6508 c63c 6797 2ebd
000000c0: 1a43 16bd e9ed 92bd be33 06bc 5ce8 6e38
000000d0: 809b 6cbd 0eac a33c bf7a 8fbc 3444 003e
000000e0: cc3c 163d 60ba 44bd 6ccf 6ebb d3e5 86bd
000000f0: cf35 383d a09c 4c3d dd3b ca3b 1c40 0c3c
00000100: 6683 953d 21f6 a63c 92e5 ca3c 2b81 7e3d
00000110: 0676 e53d 5de2 e93b 6b55 9c3a 9219 1d3d
00000120: ef69 47bd 9262 73bd 91a5 9d3d c668 babd
00000130: 0c6d 1d3d af5b da3d cf48 ad3d c6dd ed3a
00000140: 86bc 10bc 513c 7b3c a5b3 0bbc 4c95 523d
00000150: 75c6 ac3d 1251 53bd 426c 29bd e3fa 15bd
00000160: 8136 f5bc d156 88bd e52a e13c 810d 38bd
00000170: a84c 333c 72d9 83bc 1b75 7dbd 546a 60bd
00000180: a264 c3bc cc2f cebd ef75 80bd 255e 8a3c
00000190: 6e2c 20bd a15d aa3b 723d 6bbd 00ab ce3d
000001a0: 84e8 e0bd 97f1 64bd f70b 79bd a821 ab3d
000001b0: 0826 dd3c 1729 c23d 5276 b3bb acb3 343d
000001c0: c8d7 cfbc 992c a53d cb54 03bc b882 7e3d
000001d0: 0ac2 1fbc 2c36 aabd 0663 99bb f0b4 083d
000001e0: 813a 6c3d c49d 9fbd c5b1 703d 86e3 c0bd
000001f0: 5fe7 523c 05ce 92bd 93ba d73c c744 51bc
00000200: 1997 e3bc 2056 9bbc 16b8 28bb d9c3 d03c
00000210: 35a7 c53c 7e9c cb3b 12f0 b9bc 8f9f e23a
00000220: 300a 92bc 317a d03b cb27 c4b9 f6a2 8ebd
00000230: 7162 db3d db57 babd a594 82bd dd82 313d
00000240: f379 113c 3cbc 6c3d 23e7 e53d 8723 85bd
00000250: 88b7 09bd b892 543d ed20 913c f766 4ebd
00000260: cfd0 cfbd dc41 b0bc 17b6 66bc c199 d9bd
00000270: 4a99 00bc b6f9 473d c154 b3bd 507f d7bc
00000280: 66cd 89b9 da4c 243d 917d 1b3d 2476 33bd
00000290: 0bce e63b e3e5 48bd 9158 dd3c 3590 8e3d
000002a0: 7783 c73c 83ea 8e3c 6b59 f73d fa53 bbbd
000002b0: 639b 683c 793b 9e3c e984 60bd 89c1 c5bd
000002c0: 453b 10bd 6753 91bd 7e69 23be 60a5 a63d
000002d0: c9e6 c9bd deff 9dbd 2d4d 0abc c446 cbbd
000002e0: b1e9 ebbc 7b19 bbbd 64a7 57bd 8e25 623d
000002f0: f6d3 81bd 9944 ac3c c9f4 933d 143e b9bc
00000300: d376 b2bd f3a9 aaba ac61 06bd 7394 5a3d
00000310: 1f24 09bd 113b efbc 352a 0a3d ebc0 c93d
00000320: 91c4 bf3c 61f8 ca3c 1655 3bbd ed7b f63c
00000330: 9af0 2fbc 8304 c0bd 5d36 46bd 96cc 883d
00000340: 8984 b3b9 be4d 953d 76bf 893d c07a e9bc
00000350: c466 d9bc 391c f0ba b8a6 c53d 388d a93c
00000360: 6815 edbc 3ad1 0fbc 02e3 8b3d 54c1 0ebe
00000370: e1c8 1a3d 340c c7bd 2834 0d3b b2b8 d93c
00000380: 3684 483d 2129 e9bb bbd9 923d 534b 28bd
00000390: 330d e03b 645c 25bd 84ac 2b3d 76a8 913d
000003a0: a878 a93d c8bf 77bd d31d ea3b 27ac 4d3d
000003b0: 5c39 2bbc e0db 48b9 68ca eabb 190e 2cbd
000003c0: 3081 c1ba 7ae8 86bd 2080 68bd f28f a33d
000003d0: 19fe 893d 1cc0 ae3d e9bf 3d3d b7c1 d43d
000003e0: 5dbc 7cbd 7f02 2dbc f22a 64bd 83a4 d7bd
000003f0: 5f44 a8bd ec6c c7bd 6bc8 b6bd d651 b43d

transformer_encoder.layers.0.linear1.bias f4 [128]
-0.040607728 -0.027289871 -0.01694651 -0.08762943 0.00040871493 0.022095392 -0.1327652 -0.122610345
0.02920166 0.017984571 0.027914153 0.063499406 -0.0834817 -0.0020401787 -0.0009497461 -0.027052375
-0.14917278 -0.020600466 -0.08212895 -0.03955314 -0.015163436 -0.06974253 -0.033465534 -0.0654321
-0.031706523 -0.10489784 -0.034835666 -0.053416897 0.016672472 -0.0018931837 0.01157787 -0.024349729
-0.07227715 -0.12836656 -0.052654013 -0.002567361 -0.005688068 0.045013066 0.00507632 -0.15775937
-0.055638548 0.0344452 -0.015493598 0.00184897 -0.090451576 -0.039662752 -0.0822172 -0.012433518
0.025073448 -0.057228968 -0.024610627 0.0028281421 -0.13528864 -0.040453084 -0.010949775 -0.11126435
-0.112018965 -0.06372552 0.0411255 -0.04629127 -0.061836172 0.034543883 -0.121031895 -0.08900352
0.011257669 -0.13876054 -0.088269666 -0.07960225 0.066264994 0.05743525 0.09287629 0.07881581
0.030260816 -0.048076607 -0.10834124 -0.031266958 -0.003068419 -0.041348528 0.04131314 -0.06227567
-0.16506118 0.035553344 -0.03464262 -0.118712746 0.038219836 -0.014928234 -0.03918177 -0.1127859
-0.0024229228 -0.042209253 -0.030138627 -0.10107038 -0.11322396 0.0014950419 -0.023325937 -0.0635296
-0.008963832 -0.036558595 -0.07960144 -0.026406879 -0.12317602 0.027521783 -0.006260194 -0.10044569
-0.06096415 0.011838713 -0.10877595 -0.107341155 -0.09568678 -0.044548567 -0.02807468 0.0816819
-0.07706148 0.013708992 0.004979712 -0.06251039 -0.08326877 0.048704322 -0.03654022 -0.05889422
-0.005883919 -0.0039087427 -0.12181979 -0.01869612 -0.09543606 0.0075827357 0.03914476 -0.14734013
00000000: 4a54 26bd 028f dfbc 68d3 8abc 0f77 b3bd
00000010: ca48 d639 6501 b53c 9af3 07be 221b fbbd
00000020: 5238 ef3c 6154 933c 39ac e43c fa0b 823d
00000030: 74f8 aabd 85b4 05bb 62f8 78ba f19c ddbc
00000040: c0c0 18be 4fc2 a8bc 3933 a8bd 7902 22bd
00000050: 0f70 78bc 2cd5 8ebd 2813 09bd 4401 86bd
00000060: b3de 01bd aed4 d6bd d8af 0ebd adcb 5abd
00000070: b594 883c b424 f8ba 1bb1 3d3c 1579 c7bc
00000080: 0b06 94bd 8672 03be bcab 57bd 2c41 28bb
00000090: f962 babb 9f5f 383d 4257 a63b ac8b 21be
000000a0: 3fe5 63bd 6916 0d3d dcd8 7dbc 2359 f23a
000000b0: ad3e b9bd 6975 22bd 7e61 a8bd f4b5 4bbc
000000c0: d566 cd3c ec68 6abd 3a9c c9bc 5a58 393b
000000d0: 1b89 0abe 22b2 25bd af66 33bc 90de e3bd
000000e0: 336a e5bd 8782 82bd 3673 283d ea9b 3dbd
000000f0: ed47 7dbd e37d 0d3d 92df f7bd 7a47 b6bd
00000100: 1672 383c 3e17 0ebe bac6 b4bd 8106 a3bd
00000110: f1b5 873d 3a41 6b3d ed35 be3d 2f6a a13d
00000120: 88e5 f73c faeb 44bd 03e2 ddbd c811 00bd
00000130: 8717 49bb 135d 29bd f837 293d c614 7fbd
00000140: cc05 29be 62a0 113d 6be5 0dbd ab1f f3bd
00000150: 678c 1c3d 8d95 74bc 107d 20bd 4bfc e6bd
00000160: e6c9 1ebb 9ce3 2cbd 48e5 f6bc fdfd cebd
00000170: f7e1 e7bd 48f5 c33a 0916 bfbc cf1b 82bd
00000180: 09dd 12bc 77be 15bd 1406 a3bd 3d53 d8bc
00000190: b643 fcbd 5d75 e13c 5022 cdbb 78b6 cdbd
000001a0: 8bb5 79bd 29f7 413c edc5 debd aed5 dbbd
000001b0: 6ef7 c3bd 8f78 36bd dffc e5bc d748 a73d
000001c0: 69d2 9dbd ae9b 603c da2c a33b 7305 80bd
000001d0: d188 aabd 2f7e 473d 33ab 15bd 113b 71bd
000001e0: e4cd c0bb e914 80bb a77c f9bd 9b28 99bc
000001f0: fb73 c3bd 9978 f83b 4256 203d 55e0 16be

transformer_encoder.layers.0.linear2.weight f4 [128, 128]
-0.06034632 0.075541325 -0.07236301 -0.014960141 0.052211743 -0.00092146534 -0.03172362 0.0016256282
0.062739365 -0.06319533 -0.056423236 -0.059057157 -0.03250959 0.040624782 -0.052563176 0.00854343
0.055892415 0.069954865 0.008785734 -0.00047058018 0.0024616786 0.010045308 -0.091485634 -0.013497341
-0.016279656 0.012647133 0.02205019 -0.055553224 0.03029563 0.06921945 -0.06299502 0.054934092
-0.029584127 -0.005222221 -0.04785905 0.0560512 -0.05511637 0.057438325 -0.06449412 0.032260273
-0.092871085 -0.080230325 0.043090437 0.0329099 -0.072434045 0.008130617 0.0010224169 0.043077603
-0.034949955 -0.14012004 -0.08453273 0.04666214 0.05306965 -0.10068681 -0.092283994 -0.07544407
0.025063366 -0.0071644094 0.050934833 -0.08784855 -0.103146255 -0.092881344 0.030378286 -0.066542886
0.008962225 -0.073598914 -0.028380655 -0.05619606 0.07758707 -0.042866778 -0.0027049338 -0.10037038
0.040349297 0.07407571 -0.051014423 -0.0121080335 -0.033226196 0.055083595 -0.058066837 -0.07876494
0.029926665 -0.13033494 0.03154536 0.031984113 -0.079135135 -0.076376565 -0.026700424 -0.050978947
-0.039007623 0.119288206 0.05894122 -0.07971797 -0.034475647 -0.06580547 -0.034666914 -0.034849644
0.09033668 0.048633605 0.06888212 -0.02728933 -0.021611683 -0.0943998 0.058368094 -0.014160544
0.049658887 -0.04775182 0.025112996 -0.037214525 0.089933135 -0.022241388 0.066903815 -0.002638543
-0.09479217 0.058222916 0.025621448 -0.0030190896 0.05096659 -0.026614634 0.016749559 0.07640833
-0.08388688 -0.05434025 0.015654575 0.03283882 0.06699547 0.003786056 0.027649174 0.041331157
-0.08683947 0.061374553 -0.10165441 -0.020171683 0.036702998 0.020497378 0.021630611 -0.06339567
-0.04718903 -0.072795026 -0.008868083 -0.10734099 -0.104902126 0.022417467 0.053796075 0.048687983
0.010366575 0.021586545 0.03656997 0.0061725243 0.12860644 0.01765329 -0.067019664 0.06241242
-0.030540183 -0.01304277 -0.047327228 -0.028188584 -0.031240843 0.04494819 0.0683127 0.07349829
0.030291107 0.031906586 -0.00957927 0.053222958 0.06466553 0.05787544 -0.054436322 0.042429112
0.021132471 -0.0009847434 -0.051496454 0.050314087 0.0787818 0.12660496 -0.000995114 0.0648597
-0.046214893 0.02334264 0.006504816 -0.038804237 -0.03982922 -0.023140067 -0.015035071 0.10641326
0.027035514 0.017197974 0.034996174 -0.0038607144 -0.07492985 -0.02365785 0.08067872 -0.021916127
-0.07074741 -0.03157934 0.056466952 0.096528225 -0.08753858 -0.049190246 0.017971866 0.040402282
-0.0036345234 0.052973934 0.045481514 -0.0319681 -0.04451838 -0.093446426 -0.09626649 0.011127022
0.103083834 0.11503358 -0.006751556 -0.04393693 0.04528986 -0.067970455 0.08954014 0.0024733488
0.04181552 0.059481036 0.102086656 -0.051870413 -0.082857825 -0.044716652 0.015121052 -0.0077828728
0.065039694 -0.014402363 -0.00042793923 0.024367692 -0.084463276 0.07417138 -0.03957777 -0.022991788
-0.07412283 0.058292467 0.049527157 0.06587682 0.0862297 0.05406907 0.10643413 0.04598054
-0.032814693 -0.03522921 0.0026486146 -0.007697747 0.088012606 -0.06726978 0.02129386 0.048774734
0.067733236 -0.07945499 0.0756714 0.013893168 -0.085429184 -0.047239263 0.06789574 0.087836996
00000000: b42d 77bd 69b5 9a3d 0f33 94bd 611b 75bc
00000010: fbdb 553d 7e8e 71ba a0f0 01bd 0813 d53a
00000020: 7f7d 803d 8e6c 81bd 0d1c 67bd ebe5 71bd
00000030: c728 05bd 2c66 263d 7c4c 57bd bef9 0b3c
00000040: 72ef 643d 7f44 8f3d 0af2 0f3c 34b8 f6b9
00000050: 1d54 213b 1395 243c d25c bbbd f423 5dbc
00000060: ea5c 85bc ec35 4f3c 9aa2 b43c c78b 63bd
00000070: 8b2e f83c edc2 8d3d 8803 81bd 9202 613d
00000080: 695a f2bc 2a1f abbb da07 44bd f195 653d
00000090: b4c1 61bd 7344 6b3d 7e15 84bd 5923 043d
000000a0: 3233 bebd cc4f a4bd 997f 303d 88cc 063d
000000b0: 4d58 94bd 4836 053c 9e02 863a 2472 303d
000000c0: af27 0fbd a17b 0fbe 7f1f adbd cd20 3f3d
000000d0: 905f 593d e334 cebd 64ff bcbd 6c82 9abd
000000e0: b051 cd3c 6cc3 eabb 0ba1 503d f1e9 b3bd
000000f0: 583e d3bd 9338 bebd e2db f83c a347 88bd
00000100: 4cd6 123c 07bb 96bd 8c7e e8bc d72d 66bd
00000110: f8e5 9e3d 1395 2fbd 4245 31bb fc8e cdbd
00000120: 4e45 253d 01b5 973d 80f4 50bd c660 46bc
00000130: 3118 08bd 569f 613d 7ed7 6dbd 834f a1bd
00000140: c428 f53c 8676 05be b535 013d c601 033d
00000150: 9a11 a2bd 516b 9cbd d9ba dabc 4dcf 50bd
00000160: 75c6 1fbd 604d f43d 596c 713d 2d43 a3bd
00000170: 5636 0dbd 05c5 86bd e5fe 0dbd 80be 0ebd
00000180: 7002 b93d 0834 473d 1212 8d3d df8d dfbc
00000190: fc0a b1bc af54 c1bd 6213 6f3d a001 68bc
000001a0: 1e67 4b3d 6a97 43bd c5b9 cd3c 426e 18bd
000001b0: dd2e b83d 9233 b6bc de04 893d 68eb 2cbb
000001c0: 6622 c2bd 277b 6e3d 12e4 d13c ebdb 45bb
000001d0: 58c2 503d ef06 dabc 5f36 893c f87b 9c3d
000001e0: e2cc abbd e293 5ebd 063e 803c 0082 063d
000001f0: ec34 893d 7b1f 783b 8580 e23c dc4a 293d
00000200: e4d8 b1bd e263 7b3d 3030 d0bd 163f a5bc
00000210: e255 163d 1eea a73c ae32 b13c 97d5 81bd
00000220: 4949 41bd 8f15 95bd 704b 11bc 98d5 dbbd
00000230: edd6 d6bd d6a4 b73c 4659 5c3d 0d6d 473d
00000240: 91d8 293c 44d6 b03c 65ca 153d e342 ca3b
00000250: 68b1 033e a29d 903c 9b41 89bd 2aa4 7f3d
00000260: 682f fabc 58b1 55bc 32da 41bd bfeb e6bc
00000270: ccec ffbc 981b 383d 87e7 8b3d 4586 963d
00000280: 0e25 f83c 7bb0 023d 5ff2 1cbc 5100 5a3d
00000290: 5d6f 843d cc0e 6d3d 9ff8 5ebd 26ca 2d3d
000002a0: 011e ad3c 8112 81ba f2ed 52bd 2516 4e3d
000002b0: 5a58 a13d bba4 013e 7c6e 82ba 2ad5 843d
000002c0: d44b 3dbd 1039 bf3c 5a26 d53b 31f1 1ebd
000002d0: f723 23bd 3d90 bdbc a955 76bc 32ef d93d
000002e0: 9579 dd3c c4e2 8c3c 2658 0f3d 0a04 7dbb
000002f0: d274 99bd 1cce c1bc e23a a53d 7389 b3bc
00000300: 05e4 90bd 5759 01bd e449 673d 97b0 c53d
00000310: 6d47 b3bd b67b 49bd bc39 933c dd7c 253d
00000320: 2f31 6ebb 32fb 583d d34a 3a3d fcf0 02bd
00000330: e858 36bd d760 bfbd 5e27 c5bd 1d4e 363c
00000340: 9e1d d33d ba96 eb3d 283c ddbb 36f7 33bd
00000350: dc81 393d 1834 8bbd d260 b73d e817 223b
00000360: c046 2b3d 63a2 733d cf12 d13d 1276 54bd
00000370: 5db1 a9bd cf28 37bd 4abe 773c 7807 ffbb
00000380: 8833 853d e4f7 6bbc 085d e0b9 c19e c73c
00000390: 15fb acbd 2ae7 973d 4d1c 22bd 4659 bcbc
000003a0: b6cd 97bd 15c4 6e3d fddc 4a3d 6dea 863d
000003b0: 3299 b03d 8777 5d3d 23fa d93d 1756 3c3d
000003c0: b368 06bd 814c 10bd 6194 2d3b 623d fcbb
000003d0: f43f b43d bdc4 89bd 7670 ae3c 04c8 473d
000003e0: b9b7 8a3d 4cb9 a2bd 9bf9 9a3d 2ca0 633c
000003f0: 7ff5 aebd f57d 41bd ec0c 8b3d e2e3 b33d

transformer_encoder.layers.0.linear2.bias f4 [128]
0.00832037 0.06413177 0.039823502 0.045583513 0.028421525 0.076009 0.053421427 0.024998337
0.017170958 0.011079838 -0.044424884 0.05961223 -0.058567394 -0.011777987 -0.03119509 0.010018589
0.09080369 -0.00023540415 -0.06330867 -0.01075152 0.030495713 -0.010759766 0.027409656 0.012605421
0.059956368 0.05921352 -0.0614421 -0.07937651 0.078811266 0.058698673 0.04748204 0.052064907
0.06232262 0.059038695 0.062041044 -0.063994534 0.07332406 0.0630995 -0.071138196 -0.0021253268
-0.03510724 -0.00042035006 -0.0032903196 -0.033546243 -0.033482417 -0.061386295 0.02365043 -0.060889993
-0.0077908393 -0.020002168 -0.10107353 -0.049091812 0.020028826 0.020636307 -0.0853681 -0.062443223
-0.07499371 -0.07308338 0.018716196 0.016152358 -0.08937577 0.009753379 0.06570272 0.067515165
-0.07628321 -0.05430119 -0.040964738 -0.066313475 0.04444642 -0.014047023 -0.030613268 -0.024445573
-0.018203039 -0.0542585 -0.07500305 0.052794173 0.038629595 -0.0752601 -0.07580021 -0.00070988835
0.023245847 -0.049998283 -0.019981729 0.045027155 -0.0341159 0.028168026 0.035952505 -0.019859869
-0.052244164 0.008793964 0.029460577 0.028340671 -0.04702006 0.016369266 -0.025605438 -0.03303008
-0.03383261 -0.05815869 0.044886626 0.05295709 -0.088052295 0.03238305 -0.03904901 0.044488214
-0.07119733 -0.052425463 -0.06830739 0.078500405 -0.06317202 0.001840132 0.07713207 -0.026852231
0.06532105 0.031713713 -0.018891618 -0.0133378655 0.01281901 0.028158857 -0.012586575 0.016099326
0.021236427 -0.010064002 0.06232295 0.07350047 0.01370333 0.058691457 0.026467973 0.029067922
00000000: 2952 083c 8457 833d f81d 233d c7b5 3a3d
00000010: 42d4 e83c 9baa 9b3d 6dd0 5a3d 50c9 cc3c
00000020: 1caa 8c3c 3588 353c def6 35bd f42b 743d
00000030: 5de4 6fbd 75f8 40bc d88c ffbc 0225 243c
00000040: 49f7 b93d d2d6 76b9 faa7 81bd 2527 30bc
00000050: 25d2 f93c bb49 30bc 378a e03c f886 4e3c
00000060: cf94 753d e089 723d b6aa 7bbd 2790 a2bd
00000070: cd67 a13d 056e 703d 877c 423d 0342 553d
00000080: 0146 7f3d 8fd2 713d c01e 7e3d 910f 83bd
00000090: ed2a 963d 503a 813d e7b0 91bd 1149 0bbb
000000a0: 9ccc 0fbd 6e62 dcb9 67a2 57bb c967 09bd
000000b0: dc24 09bd 3270 7bbd 8cbe c13c c967 79bd
000000c0: 4c4a ffbb 96db a3bc a4ff cebd 7f14 49bd
000000d0: 7e13 a43c 790d a93c 78d5 aebd 77c4 7fbd
000000e0: 4d96 99bd bdac 95bd b552 993c f351 843c
000000f0: a50a b7bd a3cc 1f3c 268f 863d 6445 8a3d
00000100: 5f3a 9cbd ed6a 5ebd a4ca 27bd 5ccf 87bd
00000110: 730d 363d 7c25 66bc adc8 fabc 1542 c8bc
00000120: 8a1e 95bc 293e 5ebd 339b 99bd b43e 583d
00000130: 113a 1e3d f821 9abd 243d 9bbd cd17 3aba
00000140: 136e be3c 00cb 4cbd b9b0 a3bc 656e 383d
00000150: 1dbd 0bbd a2c0 e63c ef42 133d 2ab1 a2bc
00000160: fafd 55bd 8f14 103c 4f57 f13c b22a e83c
00000170: 1b98 40bd d718 863c 7fc2 d1bc 8d4a 07bd
00000180: 1094 0abd ce37 6ebd 0adb 373d 89e9 583d
00000190: c354 b4bd 17a4 043d dbf1 1fbd 4639 363d
000001a0: e8cf 91bd 15bc 56bd bfe4 8bbd d2c4 a03d
000001b0: 5560 81bd 9630 f13a 6bf7 9d3d 36f9 dbbc
000001c0: 0bc7 853d 3de6 013d 98c2 9abc 1087 5abc
000001d0: d306 523c 67ad e63c ec37 4ebc bce2 833c
000001e0: 04f8 ad3c 7ce3 24bc 5a46 7f3d 6a87 963d
000001f0: ef83 603c 7466 703d 5dd3 d83c da1f ee3c
