tuning_multi_scale_transformer_encoder/transformer_encoder_model_fold_3.pth (torch, 822178 bytes, 28 tensors)

embedding.weight f4 [128, 25]
0.16829816 -0.0221667 0.1456991 -0.032580446 0.04238842 0.057130493 -0.03305375 0.1991324
-0.015917527 0.04487119 -0.20165947 0.15016475 -0.1545538 0.04196069 -0.007491124 0.03441276
-0.012201305 -0.1467321 -0.13195114 0.0510645 0.18165214 -0.011707412 -0.13096094 -0.1116193
0.050160483 -0.05984151 -0.05779717 -0.15886359 0.064907745 -0.028583191 0.06464795 0.0403797
-0.072736055 -0.030301757 -0.14502689 -0.07538148 -0.16604692 0.030964255 -0.039231353 -0.07024696
0.18331197 0.14234114 0.053107403 -0.20317285 -0.13297689 -0.15407988 0.0785131 0.05731351
-0.1680349 0.089241 0.06438627 -0.16175814 0.05537099 -0.101133876 0.04221058 0.042654183
-0.13852629 0.018815784 0.24032524 0.13664669 -0.055833418 0.06363809 -0.037624106 -0.032946706
-0.14679757 -0.115906194 -0.1730813 0.043886397 0.1700792 -0.088013336 -0.04870413 -0.0012373258
-0.05262925 0.07300146 0.0064629274 0.15994678 0.18399772 0.072847 0.12133711 -0.015142588
-0.011163083 0.08256138 0.100865684 0.100779176 0.08739573 -0.16894302 0.11020284 0.19714014
-0.187281 0.11643239 0.05819532 -0.00035542302 -0.10500465 -0.16720206 0.04917886 0.07425555
0.03324387 -0.06811006 -0.28143185 0.05846871 0.103119105 0.1028652 0.06089765 0.13876249
0.14863895 -0.15564811 -0.1304422 0.24591821 -0.092682876 0.088455275 0.09172408 0.052278027
0.17658119 -0.027598456 -0.14280275 0.0044017164 -0.076236755 0.105972305 -0.0779322 0.1572606
0.20077112 -0.055997927 0.17156094 -0.11204113 0.17889649 -0.0195667 0.061201207 -0.046152115
-0.10581245 0.13892806 0.20452301 -0.11903765 -0.19901907 0.18501927 0.033957925 0.06149453
0.09306446 -0.12574455 -0.00992004 0.052139632 -0.06338194 0.15775892 -0.023815759 0.2243459
-0.1703078 0.051380888 0.20396714 -0.03493653 0.3104014 -0.12534367 0.05800405 0.22000693
0.055623278 -0.093343206 -0.19568059 -0.10389626 -0.11955477 0.1889497 -0.11456905 0.12078774
0.056722045 0.15300423 0.15029965 0.08437524 -0.15347679 -0.1669711 0.15547782 -0.11507983
0.2701783 -0.0022337653 -0.08026891 0.15146911 0.091557704 0.08138047 -0.19243719 -0.03782064
0.034827773 0.18215677 0.059816167 -0.20353135 0.18753146 0.19030127 0.09294768 -0.11326517
0.02982445 0.004057447 0.16345888 0.051719904 -0.15157665 -0.026154572 -0.03571264 0.2044179
0.051444538 -0.1870781 0.0076244483 -0.10821564 0.119958036 -0.1737321 -0.23581259 0.008899238
0.0861315 0.19134822 0.1435494 0.21143356 -0.0392362 0.12988716 0.13851114 -0.07421993
0.20971264 -0.0774216 0.15750875 0.17177774 0.023316206 -0.031914834 -0.19325313 0.13007966
0.01529617 -0.029918112 0.24353695 0.14816917 -0.16920818 -0.14019376 0.043263964 0.06036948
-0.17096204 0.12283363 -0.06668359 -0.001517403 -0.004431624 -0.05899581 0.003679981 -0.1706919
-0.016528029 0.08399896 -0.074967735 0.1788012 0.18703297 0.23253332 -0.16489844 -0.041458372
-0.047002118 0.13092794 -0.035194848 -0.03197911 0.06413936 0.15432127 0.14093538 0.11475008
-0.2078388 -0.026077898 -0.09413534 -0.22100939 -0.014554975 0.07607318 -0.04847858 0.11912078
00000000: 5a56 2c3e f096 b5bc 2532 153e 1373 05bd
00000010: 7b9f 2d3d aa01 6a3d 5e63 07bd 5de9 4b3e
00000020: 7965 82bc daca 373d d27f 4ebe cac4 193e
00000030: 5a43 1ebe f9de 2b3d 1a78 f5bb 65f4 0c3d
00000040: fbe7 47bc f140 16be 331e 07be 0229 513d
00000050: 0503 3a3e 72d0 3fbc a01a 06be a998 e4bd
00000060: 1475 4d3d 5f1c 75bd babc 6cbd 23ad 22be
00000070: 5aee 843d 4c27 eabc 2566 843d 2f65 253d
00000080: a4f6 94bd 643b f8bc ee81 14be 9b61 9abd
00000090: 3408 2abe c0a8 fd3c 0eb1 20bd a3dd 8fbd
000000a0: 22b6 3b3e e0c1 113e 2687 593d 8b0c 50be
000000b0: 182b 08be 1ec7 1dbe 7acb a03d 92c1 6a3d
000000c0: 5711 2cbe fcc3 b63d f3dc 833d eda3 25be
000000d0: b1cc 623d 471f cfbd 00e5 2c3d 27b6 2e3d
000000e0: d6d9 0dbe 8f23 9a3c d217 763e 1ced 0b3e
000000f0: 95b1 64bd b054 823d bc1b 1abd 20f3 06bd
00000100: 1a52 16be 3a60 edbd 393c 31be 39c2 333d
00000110: 3e29 2e3e 5640 b4bd fb7d 47bd c42d a2ba
00000120: c591 57bd ca81 953d f7c6 d33b 17c9 233e
00000130: e669 3c3e cf30 953d 977f f83d 9e18 78bc
00000140: 5de5 36bc f115 a93d ab92 ce3d 5065 ce3d
00000150: 88fc b23d 66ff 2cbe 07b2 e13d 1bdf 493e
00000160: 97c6 3fbe 1b74 ee3d 375e 6e3d 1258 bab9
00000170: ae0c d7bd 0437 2bbe c66f 493d 4b13 983d
00000180: b92a 083d 4a7d 8bbd d617 90be e37c 6f3d
00000190: 1c30 d33d fdaa d23d d06f 793d c117 0e3e
000001a0: cf34 183e 3862 1fbe a492 05be fcd1 7b3e
000001b0: 85d0 bdbd 0a28 b53d d6d9 bb3d 7c21 563d
000001c0: b3d1 343e 2816 e2bc e23a 12be 463c 903b
000001d0: 0422 9cbd 0208 d93d eb9a 9fbd ec08 213e
000001e0: f296 4d3e 155e 65bd acad 2f3e d275 e5bd
000001f0: a430 373e 584a a0bc 1eae 7a3d 000a 3dbd
00000200: 33b4 d8bd 2843 0e3e 7b6e 513e 03ca f3bd
00000210: a8cb 4bbe b175 3d3e 7717 0b3d b0e1 7b3d
00000220: 9498 be3d 2ec3 00be aa87 22bc 5e90 553d
00000230: 64ce 81bd 8e8b 213e 4419 c3bc eeba 653e
00000240: 2b65 2ebe c474 523d c3dc 503e 9b19 0fbd
00000250: efec 9e3e 175a 00be a895 6d3d 7f49 613e
00000260: 3cd5 633d b92a bfbd 7e60 48be 90c7 d4bd
00000270: 22d9 f4bd 087c 413e 2ea3 eabd 905f f73d
00000280: 6055 683d 24ad 1c3e 27e8 193e edcc ac3d
00000290: 0529 1dbe 79fa 2abe 9435 1f3e f9ae ebbd
000002a0: cf54 8a3e 5d64 12bb 0764 a4bd b81a 1b3e
000002b0: 9b82 bb3d ceaa a63d 410e 45be d1e9 1abd
000002c0: 91a7 0e3d 4e87 3a3e cc01 753d 866a 50be
000002d0: 3f08 403e 56de 423e 5a5b be3d 92f7 e7bd
000002e0: 6852 f43c 55f4 843b c461 273e 40d8 533d
000002f0: e936 1bbe 1d42 d6bc 6b47 12bd ed52 513e
00000300: 82b7 523d 6791 3fbe 82d6 f93b 29a0 ddbd
00000310: 8fac f53d d4e6 31be db78 71be 1cce 113c
00000320: b665 b03d caf0 433e 9dfe 123e 0a82 583e
00000330: 23b6 20bd 2401 053e ddd5 0d3e 9e00 98bd
00000340: e9be 563e 378f 9ebd f949 213e 81e6 2f3e
00000350: a101 bf3c 21b9 02bd 26e4 45be 9a33 053e
00000360: c99c 7a3c d416 f5bc c061 793e a9b9 173e
00000370: e944 2dbe f48e 0fbe 8e35 313d fd45 773d
00000380: ac10 2fbe 3390 fb3d 6891 88bd 99e3 c6ba
00000390: 2837 91bb 97a5 71bd d62b 713b dcc9 2ebe
000003a0: ca65 87bc a607 ac3d af88 99bd a917 373e
000003b0: 9285 3f3e 371d 6e3e 23db 28be 41d0 29bd
000003c0: 4b85 40bd f911 063e 7928 10bd 87fc 02bd
000003d0: 7f5b 833d 6506 1e3e 5d51 103e 1702 eb3d
000003e0: b2d3 54be 51a1 d5bc 07ca c0bd 4950 62be
000003f0: fd77 6ebc 41cc 9b3d 7a91 46bd 98f5 f33d

embedding.bias f4 [128]
0.14656356 0.012512707 -0.022966098 -0.12720814 -0.07164075 0.15340492 -0.053752024 0.1643591
-0.028557345 -0.11212099 -0.07412741 0.13006036 0.037852902 0.18099393 0.1480753 -0.16026844
-0.10662493 -0.07758518 -0.11649118 -0.09939852 -0.006350694 0.13097881 0.03790706 -0.12912102
-0.06943071 -0.15267076 -0.14320983 0.046981316 0.15047087 -0.13125594 0.02922896 -0.1993853
-0.028233446 -0.109664835 -0.019476537 -0.048973776 0.029214501 -0.15488517 0.13080007 -0.08786497
0.08596875 0.13530587 -0.23088418 0.047209885 0.08689581 -0.13720986 0.13759576 0.016047977
-0.11174665 -0.07804902 -0.02538279 -0.06530374 -0.12778944 -0.098880336 0.06022466 -0.0035998635
-0.051828638 0.09976751 0.08707179 -0.13007076 -0.049776085 0.104549564 0.17911883 0.036328685
-0.0012250447 0.061041057 0.12108469 -0.0774434 0.036313754 0.1536934 0.021671837 0.118219614
-0.13691746 0.03742824 -0.011731344 0.11629348 0.19520003 -0.17699808 0.21359305 -0.18353212
0.020974765 0.10538836 0.017686764 0.17257252 -0.08286333 0.05451572 -0.038907923 0.20807739
-0.040384896 -0.09516429 -0.06017355 -0.085510485 -0.07114198 0.051290173 0.1942594 -0.0884653
-0.019870276 -0.019787848 0.19450521 -0.120672636 0.08542214 -0.10931874 -0.018786537 -0.106005006
0.08362868 -0.024951521 -0.12982917 -0.09665852 -0.059065763 0.115744784 0.13513055 -0.09520004
-0.013361139 0.117121235 0.05819044 -0.14795175 0.14128284 -0.016842475 0.00590459 0.06433045
-0.12174891 -0.10161797 -0.10110416 0.004600768 -0.027647201 0.17379738 -0.043985456 0.059857123
00000000: c214 163e 1902 4d3c 6623 bcbc da42 02be
00000010: 63b8 92bd 2e16 1d3e 152b 5cbd c04d 283e
00000020: 18f1 e9bc b19f e5bd 1dd0 97bd 8b2e 053e
00000030: a50b 1b3d 7956 393e 0da1 173e 691d 24be
00000040: 2c5e dabd fbe4 9ebd ee92 eebd 7491 cbbd
00000050: 7c19 d0bb 4f1f 063e 6f44 1b3d 4d38 04be
00000060: b031 8ebd b955 1cbe 99a5 12be 7b6f 403d
00000070: 0915 1a3e f567 06be 9271 ef3c a92b 4cbe
00000080: d449 e7bc f597 e0bd 428d 9fbc ba98 48bd
00000090: 4053 ef3c 389a 1ebe 74f0 053e 8df2 b3bd
000000a0: 6210 b03d 9f8d 0a3e e76c 6cbe 275f 413d
000000b0: 6ef6 b13d be80 0cbe e7e5 0c3e 0c77 833c
000000c0: 6ddb e4bd 2ad8 9fbd 92ef cfbc f8bd 85bd
000000d0: 3cdb 02be c681 cabd 22ae 763d b0eb 6bbb
000000e0: 444a 54bd e952 cc3d b252 b23d 4531 05be
000000f0: 02e2 4bbd 151e d63d ed6a 373e 63cd 143d
00000100: ae91 a0ba 3006 7a3d 40fb f73d a59a 9ebd
00000110: bbbd 143d cd61 1d3e 2389 b13c 201d f23d
00000120: 1734 0cbe 5b4e 193d d334 40bc 472b ee3d
00000130: 84e2 473e fc3e 35be 23b8 5a3e d8ef 3bbe
00000140: 45d3 ab3c dad5 d73d d5e3 903c dab6 303e
00000150: 40b4 a9bd e04b 5f3d ea5d 1fbd 3d12 553e
00000160: a26a 25bd 7fe5 c2bd 8a78 76bd 1f20 afbd
00000170: e3b2 91bd a515 523d f0eb 463e 4c2d b5bd
00000180: fdc6 a2bc 201a a2bc 602c 473e 3723 f7bd
00000190: cef1 ae3d 81e2 dfbd 39e6 99bc 2719 d9bd
000001a0: 8345 ab3d 2267 ccbc f0f1 04be e7f4 c5bd
000001b0: f1ee 71bd 9a0b ed3d aa5f 0a3e 3df8 c2bd
000001c0: aee8 5abc 42dd ef3d 1959 6e3d aa80 17be
000001d0: 73ac 103e 3bf9 89bc 4a7b c13b afbf 833d
000001e0: 7e57 f9bd 151d d0bd b30f cfbd 0ac2 963b
000001f0: 627c e2bc f1f7 313e 182a 34bd be2c 753d

transformer_encoder.layers.0.self_attn.in_proj_weight f4 [384, 128]
-0.016800985 0.07567408 0.07818831 0.011009648 0.031866096 -0.09402431 -0.09686119 0.033151947
-0.10323028 0.014981218 -0.067237735 -0.019966878 -0.09079924 0.06681735 -0.010715291 -0.10680702
0.08080182 -0.071481526 0.056188636 0.028793134 -0.09627955 -0.013305306 0.052108087 0.07366834
-0.04174632 -0.09669094 0.066794135 -0.08755021 0.09037892 -0.10330936 -0.08780918 -0.0487025
-0.09041134 0.101722755 0.02243232 0.102176316 -0.03678772 -0.07947695 0.06374068 0.09390252
-0.021837696 0.0209255 0.052149735 -0.08934224 0.027938955 0.060154654 -0.022032544 0.0895263
-0.02515474 -0.107493326 -0.07591816 0.0026046783 0.0925205 -0.033758402 -0.025439963 0.07497581
-0.03789088 -0.08384153 -0.011132605 -0.0643626 -0.003572151 0.032199733 -0.073862426 -0.067241594
0.083383806 -0.009185173 -0.0540178 -0.06496338 0.08524569 0.008247875 0.05604618 -0.054806076
0.07867337 -0.085574284 -0.011236362 -0.1021306 0.02698595 -0.03473773 -0.054509718 0.08880853
-0.06041235 -0.06160581 -0.021880858 0.021919526 0.009975024 0.079319306 0.035603903 0.103041284
0.018491708 -0.01216796 0.047197334 0.024408527 -0.06478949 -0.070342325 0.028926067 -0.066474184
0.047527812 0.060638286 -0.079841174 0.098475315 0.097532995 -0.019851096 -0.027534962 0.045929648
-0.07200819 -0.06635788 -0.074669324 -0.049827125 -0.024142079 0.085704185 -0.05860509 -0.04435181
-0.06268975 -0.0792027 -0.057661954 -0.006721571 -0.010758936 0.009786628 -0.007178761 -0.063926354
-0.02681937 -0.10583318 -0.08657929 -0.084630035 0.101265006 0.011178978 -0.008180469 0.05835641
-0.014945686 -0.030905992 0.06096401 -0.05833982 0.076436125 0.07564763 -0.08365548 0.08385699
0.0047573224 0.05511219 0.03347718 -0.057635203 0.08337972 0.094980545 0.032790117 -0.070968375
0.07918862 0.012308992 0.01032117 -0.101889916 -0.060491253 -0.060537014 0.0054134503 -0.09607638
-0.00759577 -0.005306758 0.06188325 -0.013818726 -0.05417361 0.057426326 0.05775412 -0.016887099
0.10322372 0.09015372 -0.023995712 -0.052444525 -0.092750475 0.039302833 -0.10296268 0.014598265
-0.015027478 -0.049371175 0.05420462 0.027673475 -0.007991493 -0.0814587 0.08424447 -0.05709515
-0.10448019 0.0894017 -0.09283638 0.049961872 -0.04756013 -0.035316467 0.07892444 0.08882453
-0.07897183 -0.031609327 0.08593739 0.10101063 -0.06914893 -0.018092684 0.054422878 -0.0072008595
-0.021739751 0.06862161 -0.0772107 0.07404711 0.053490676 0.09862549 -0.007663019 -0.06144347
-0.04889589 -0.070995376 0.046746664 0.023203306 0.064673804 -0.0049859956 -0.09550947 0.032958083
0.00570482 -0.014693193 -0.063643105 0.044336237 0.096328445 0.033702455 0.0051727444 -0.07266103
-0.028913945 -0.09058334 0.10560361 0.058155872 0.023352109 0.061967425 0.08734105 -0.089986555
0.0339975 0.05650484 0.051892288 0.08610646 0.0029529482 -0.014252685 0.10775416 0.04094834
-0.07771552 -0.07166849 -0.05346838 0.059954308 -0.0034129769 0.0947118 -0.10424593 0.0523637
-0.02868437 0.022955038 0.09622464 0.009222336 0.051416256 -0.009521626 0.10558393 0.07311053
0.07005844 0.028961278 0.05455283 0.08496373 0.09874115 0.09659522 -0.022925489 -0.09286007
00000000: 38a2 89bc 03fb 9a3d 3121 a03d d061 343c
00000010: 0686 023d d18f c0bd 295f c6bd 56ca 073d
00000020: 666a d3bd c873 753c f0b3 89bd 9491 a3bc
00000030: f4f4 b9bd 89d7 883d 308f 2fbc a4bd dabd
00000040: 6d7b a53d e864 92bd 0e26 663d 94df eb3c
00000050: 362e c5bd 80fe 59bc 4a6f 553d 6ddf 963d
00000060: 30fe 2abd e605 c6bd 5dcb 883d 864d b3bd
00000070: 9518 b93d dc93 d3bd 4dd5 b3bd 467c 47bd
00000080: 9529 b9bd 0554 d03d fcc3 b73c d141 d13d
00000090: b8ae 16bd d0c4 a2bd 798a 823d f74f c03d
000000a0: f8e4 b2bc f46b ab3c f69a 553d 10f9 b6bd
000000b0: 3ce0 e43c ba64 763d 987d b4bc 9159 b73d
000000c0: 5011 cebc 7625 dcbd fb7a 9bbd 40b3 2a3b
000000d0: 637b bd3d 4046 0abd 7867 d0bc eb8c 993d
000000e0: 7833 1bbd 1cb5 abbd 8865 36bc 8ad0 83bd
000000f0: c01a 6abb dee3 033d 2f45 97bd f6b5 89bd
00000100: 21c5 aa3d 687d 16bc c541 5dbd 850b 85bd
00000110: 4b95 ae3d 1822 073c ae90 653d 567c 60bd
00000120: 811f a13d 9241 afbd b818 38bc d929 d1bd
00000130: a411 dd3c 2649 0ebd 9545 5fbd 3fe1 b53d
00000140: f172 77bd 6056 7cbd 7c3f b3bc 9490 b33c
00000150: 486e 233c 2972 a23d 66d5 113d 4f07 d33d
00000160: ec7b 973c 205c 47bc fe51 413d 64f4 c73c
00000170: 5ab0 84bd a30f 90bd 5cf6 ec3c 9e23 88bd
00000180: 86ac 423d da5f 783d c583 a3bd 6dad c93d
00000190: 61bf c73d c49e a2bc 0091 e1bc ba20 3c3d
000001a0: 0879 93bd a4e6 87bd 3bec 98bd 8717 4cbd
000001b0: 9cc5 c5bc ad85 af3d e40b 70bd 3eaa 35bd
000001c0: 7c63 80bd 0635 a2bd f12e 6cbd a040 dcbb
000001d0: 4046 30bc 1858 203c d03b ebbb d2eb 82bd
000001e0: 4cb4 dbbc 11bf d8bd 7c50 b1bd 8352 adbd
000001f0: 0764 cf3d 0828 373c 6007 06bc 2207 6f3d
00000200: c0de 74bc 902e fdbc 66b5 793d bcf5 6ebd
00000210: 8b8a 9c3d 25ed 9a3d 9053 abbd 37bd ab3d
00000220: 50e3 9b3b 52bd 613d 5e1f 093d e412 6cbd
00000230: fdc2 aa3d 2985 c23d ee4e 063d de57 91bd
00000240: a52d a23d a8ab 493c 201a 293c a9ab d0bd
00000250: adc5 77bd a9f5 77bd 5063 b13b b1c3 c4bd
00000260: f0e5 f8bb 50e4 adbb 4a79 7d3d f067 62bc
00000270: 26e5 5dbd de37 6b3d 968f 6c3d d056 8abc
00000280: f566 d33d 83a2 b83d a892 c4bc 12d0 56bd
00000290: f6f3 bdbd 02fc 203d 19de d2bd 902d 6f3c
000002a0: d035 76bc 6e39 4abd aa05 5e3d 7cb3 e23c
000002b0: c0ee 02bc d2d3 a6bd 5d88 ac3d 9bdc 69bd
000002c0: b6f9 d5bd 3d18 b73d 0021 bebd d2a4 4c3d
000002d0: 69ce 42bd 00a8 10bd 23a3 a13d a3e9 b53d
000002e0: fcbb a1bd c878 01bd f1ff af3d a9de ce3d
000002f0: f49d 8dbd 1c37 94bc 86ea 5e3d 30f5 ebbb
00000300: 9017 b2bc 7d89 8c3d a520 9ebd 03a6 973d
00000310: 0a19 5b3d 29fc c93d 101a fbbb 26ac 7bbd
00000320: 0f47 48bd 0666 91bd 6e79 3f3d dc14 be3c
00000330: b373 843d 9061 a3bb 789a c3bd 0eff 063d
00000340: 80ef ba3b b8bb 70bc 5157 82bd ea99 353d
00000350: d947 c53d 960b 0a3d 2080 a93b 4ecf 94bd
00000360: f0dc ecbc c283 b9bd b546 d83d da34 6e3d
00000370: ec4c bf3c 8ed1 7d3d dddf b23d df4a b8bd
00000380: f640 0b3d 9e71 673d 028d 543d 9558 b03d
00000390: 4086 413b 1884 69bc 37ae dc3d 72b9 273d
000003a0: 5129 9fbd eec6 92bd a901 5bbd a692 753d
000003b0: 40ac 5fbb 43f8 c13d e47e d5bd 527b 563d
000003c0: 7cfb eabc 340c bc3c 6d11 c53d 4819 173c
000003d0: da99 523d 9800 1cbc 633c d83d f9ba 953d
000003e0: cd7a 8f3d 3440 ed3c ca72 5f3d 7701 ae3d
000003f0: cd38 ca3d b7d3 c53d 3cce bbbc 6c2d bebd

transformer_encoder.layers.0.self_attn.in_proj_bias f4 [384]
0.0 0.0 0.0 0.0 0.0 0.0 0.0 0.0
0.0 0.0 0.0 0.0 0.0 0.0 0.0 0.0
0.0 0.0 0.0 0.0 0.0 0.0 0.0 0.0
0.0 0.0 0.0 0.0 0.0 0.0 0.0 0.0
0.0 0.0 0.0 0.0 0.0 0.0 0.0 0.0
0.0 0.0 0.0 0.0 0.0 0.0 0.0 0.0
0.0 0.0 0.0 0.0 0.0 0.0 0.0 0.0
0.0 0.0 0.0 0.0 0.0 0.0 0.0 0.0
0.0 0.0 0.0 0.0 0.0 0.0 0.0 0.0
0.0 0.0 0.0 0.0 0.0 0.0 0.0 0.0
0.0 0.0 0.0 0.0 0.0 0.0 0.0 0.0
0.0 0.0 0.0 0.0 0.0 0.0 0.0 0.0
0.0 0.0 0.0 0.0 0.0 0.0 0.0 0.0
0.0 0.0 0.0 0.0 0.0 0.0 0.0 0.0
0.0 0.0 0.0 0.0 0.0 0.0 0.0 0.0
0.0 0.0 0.0 0.0 0.0 0.0 0.0 0.0
0.0 0.0 0.0 0.0 0.0 0.0 0.0 0.0
0.0 0.0 0.0 0.0 0.0 0.0 0.0 0.0
0.0 0.0 0.0 0.0 0.0 0.0 0.0 0.0
0.0 0.0 0.0 0.0 0.0 0.0 0.0 0.0
0.0 0.0 0.0 0.0 0.0 0.0 0.0 0.0
0.0 0.0 0.0 0.0 0.0 0.0 0.0 0.0
0.0 0.0 0.0 0.0 0.0 0.0 0.0 0.0
0.0 0.0 0.0 0.0 0.0 0.0 0.0 0.0
0.0 0.0 0.0 0.0 0.0 0.0 0.0 0.0
0.0 0.0 0.0 0.0 0.0 0.0 0.0 0.0
0.0 0.0 0.0 0.0 0.0 0.0 0.0 0.0
0.0 0.0 0.0 0.0 0.0 0.0 0.0 0.0
0.0 0.0 0.0 0.0 0.0 0.0 0.0 0.0
0.0 0.0 0.0 0.0 0.0 0.0 0.0 0.0
0.0 0.0 0.0 0.0 0.0 0.0 0.0 0.0
0.0 0.0 0.0 0.0 0.0 0.0 0.0 0.0
00000000: 0000 0000 0000 0000 0000 0000 0000 0000
00000010: 0000 0000 0000 0000 0000 0000 0000 0000
00000020: 0000 0000 0000 0000 0000 0000 0000 0000
00000030: 0000 0000 0000 0000 0000 0000 0000 0000
00000040: 0000 0000 0000 0000 0000 0000 0000 0000
00000050: 0000 0000 0000 0000 0000 0000 0000 0000
00000060: 0000 0000 0000 0000 0000 0000 0000 0000
00000070: 0000 0000 0000 0000 0000 0000 0000 0000
00000080: 0000 0000 0000 0000 0000 0000 0000 0000
00000090: 0000 0000 0000 0000 0000 0000 0000 0000
000000a0: 0000 0000 0000 0000 0000 0000 0000 0000
000000b0: 0000 0000 0000 0000 0000 0000 0000 0000
000000c0: 0000 0000 0000 0000 0000 0000 0000 0000
000000d0: 0000 0000 0000 0000 0000 0000 0000 0000
000000e0: 0000 0000 0000 0000 0000 0000 0000 0000
000000f0: 0000 0000 0000 0000 0000 0000 0000 0000
00000100: 0000 0000 0000 0000 0000 0000 0000 0000
00000110: 0000 0000 0000 0000 0000 0000 0000 0000
00000120: 0000 0000 0000 0000 0000 0000 0000 0000
00000130: 0000 0000 0000 0000 0000 0000 0000 0000
00000140: 0000 0000 0000 0000 0000 0000 0000 0000
00000150: 0000 0000 0000 0000 0000 0000 0000 0000
00000160: 0000 0000 0000 0000 0000 0000 0000 0000
00000170: 0000 0000 0000 0000 0000 0000 0000 0000
00000180: 0000 0000 0000 0000 0000 0000 0000 0000
00000190: 0000 0000 0000 0000 0000 0000 0000 0000
000001a0: 0000 0000 0000 0000 0000 0000 0000 0000
000001b0: 0000 0000 0000 0000 0000 0000 0000 0000
000001c0: 0000 0000 0000 0000 0000 0000 0000 0000
000001d0: 0000 0000 0000 0000 0000 0000 0000 0000
000001e0: 0000 0000 0000 0000 0000 0000 0000 0000
000001f0: 0000 0000 0000 0000 0000 0000 0000 0000
00000200: 0000 0000 0000 0000 0000 0000 0000 0000
00000210: 0000 0000 0000 0000 0000 0000 0000 0000
00000220: 0000 0000 0000 0000 0000 0000 0000 0000
00000230: 0000 0000 0000 0000 0000 0000 0000 0000
00000240: 0000 0000 0000 0000 0000 0000 0000 0000
00000250: 0000 0000 0000 0000 0000 0000 0000 0000
00000260: 0000 0000 0000 0000 0000 0000 0000 0000
00000270: 0000 0000 0000 0000 0000 0000 0000 0000
00000280: 0000 0000 0000 0000 0000 0000 0000 0000
00000290: 0000 0000 0000 0000 0000 0000 0000 0000
000002a0: 0000 0000 0000 0000 0000 0000 0000 0000
000002b0: 0000 0000 0000 0000 0000 0000 0000 0000
000002c0: 0000 0000 0000 0000 0000 0000 0000 0000
000002d0: 0000 0000 0000 0000 0000 0000 0000 0000
000002e0: 0000 0000 0000 0000 0000 0000 0000 0000
000002f0: 0000 0000 0000 0000 0000 0000 0000 0000
00000300: 0000 0000 0000 0000 0000 0000 0000 0000
00000310: 0000 0000 0000 0000 0000 0000 0000 0000
00000320: 0000 0000 0000 0000 0000 0000 0000 0000
00000330: 0000 0000 0000 0000 0000 0000 0000 0000
00000340: 0000 0000 0000 0000 0000 0000 0000 0000
00000350: 0000 0000 0000 0000 0000 0000 0000 0000
00000360: 0000 0000 0000 0000 0000 0000 0000 0000
00000370: 0000 0000 0000 0000 0000 0000 0000 0000
00000380: 0000 0000 0000 0000 0000 0000 0000 0000
00000390: 0000 0000 0000 0000 0000 0000 0000 0000
000003a0: 0000 0000 0000 0000 0000 0000 0000 0000
000003b0: 0000 0000 0000 0000 0000 0000 0000 0000
000003c0: 0000 0000 0000 0000 0000 0000 0000 0000
000003d0: 0000 0000 0000 0000 0000 0000 0000 0000
000003e0: 0000 0000 0000 0000 0000 0000 0000 0000
000003f0: 0000 0000 0000 0000 0000 0000 0000 0000

transformer_encoder.layers.0.self_attn.out_proj.weight f4 [128, 128]
0.077731304 -0.08234402 -0.0004835974 -0.021192983 -0.01800224 0.03209774 -0.0915738 0.040428884
0.028619204 0.09443364 -0.01986174 0.057978444 -0.096399866 0.056674276 -0.06730357 0.015365683
0.029230589 -0.056858968 0.016097333 0.07752765 0.018981481 0.02225492 -0.011285695 0.013860371
-0.08416249 0.02877927 0.03280337 -0.023920115 0.007002994 0.02834047 -0.0034885611 0.099762484
-0.032608982 0.10231879 0.09053989 0.051678915 -0.039109603 0.055380993 0.07299607 -0.0015012798
0.062295396 0.07678679 -0.025178043 0.03392239 -0.015225576 0.084534675 -0.048009116 -0.054700375
-0.076118216 -0.0011883669 0.02979184 -0.046345163 0.046893112 -0.02898452 -0.049303036 -0.046801012
0.060512107 -0.011010256 0.048651222 0.040120263 -0.03957196 -0.06641695 0.013420812 -0.061530847
-0.031554446 -0.030802492 -0.04691211 0.07168469 0.036828138 0.016759079 -0.0014553863 0.048587706
0.0017892205 0.049175713 0.011035553 0.0742708 -0.07680447 -0.040627263 -0.0638975 0.053277638
0.081542395 -0.013910729 -0.028616842 0.050203282 -0.10497771 0.042390246 -0.038666245 -0.08480826
0.036318928 0.017442288 0.062421564 0.025025258 -0.0017234457 -0.016292494 0.019201022 -0.009501546
-0.0052649505 0.073957786 -0.073309116 0.038782068 -0.03736417 0.060625914 0.034968555 0.058061622
-0.024255743 0.07816799 0.08006116 0.03235541 0.010331917 0.029492322 -0.061442897 -0.09426677
0.05981393 -0.022927677 -0.07327308 0.029743915 0.085694805 -0.0105511695 0.06042278 -0.053686436
-0.004046258 0.027671494 0.059705533 0.0444549 0.030208534 0.05342768 -0.050973296 -2.9196905e-05
-0.028014265 0.062654674 0.049581148 -0.031836405 -0.08221966 0.050667852 0.021908378 -0.10190547
0.07426783 0.07488966 -0.038930386 0.062165804 0.10044844 0.05618384 0.014205879 0.026875578
-0.068982944 -0.053762075 0.0034831301 -0.013947588 -0.08536522 -0.042143907 -0.059657067 -0.03557829
-0.020125836 -0.075261354 0.07167822 0.06735897 -0.0478637 0.05256956 0.06885344 -0.08811731
-0.062135115 -0.092700705 -0.030903667 0.084159896 0.050811816 -0.06874164 0.05788726 0.07095639
-0.029316613 0.021060757 -0.018453183 -0.05993269 -0.08628456 0.0617828 -0.09189848 0.07323154
0.011069705 0.04596974 -0.01767821 -0.024547063 0.06439287 -0.07567333 0.021747343 -0.0019096283
0.017482825 0.023864074 -0.051611952 0.08704226 0.08026283 0.033601597 0.09159138 0.050596427
-0.044451706 -0.06653097 -0.006832792 0.085126154 -0.006932863 0.06561938 -0.06602172 0.017904174
-0.056135114 0.07046957 -0.006150091 0.0898348 -0.051135268 -0.057219148 -0.030663222 -0.09824737
0.0423636 -0.024665259 0.010698012 -0.0033418871 -0.011518865 0.104623444 0.021110035 -0.06776019
0.080463015 0.027830023 -0.02915938 -0.07104278 -0.0075612366 -0.03679483 -0.043695264 -0.08139772
-0.023179531 0.064810045 -0.09211878 0.017291466 0.05651133 0.031692952 0.057193633 0.039152145
0.008804589 -0.01392467 0.01496572 -0.07807471 0.00877604 0.046828445 -0.043144334 0.10399905
0.050596338 -0.048966676 0.0805743 0.081545286 -0.002529255 -0.050674025 -0.028506573 -0.084980555
-0.048862915 -0.00052267994 -0.021558456 -0.027522502 0.080185525 0.013916651 0.025729192 0.038868923
00000000: 9731 9f3d fba3 a8bd 588b fdb9 e89c adbc
00000010: 6f79 93bc eb78 033d 0b8b bbbd c298 253d
00000020: d272 ea3c 6d66 c13d 16b5 a2bc ce7a 6d3d
00000030: 4b6d c5bd 4923 683d 74d6 89bd 58c0 7b3c
00000040: fd74 ef3c f3e4 68bd 8ede 833c d1c6 9e3d
00000050: 0d7f 9b3c f34f b63c a3e7 38bc 9c16 633c
00000060: 625d acbd 81c2 eb3c d45c 063d 1ef4 c3bc
00000070: 5f79 e53b 462a e83c 58a0 64bb 4650 cc3d
00000080: ff90 05bd 848c d13d fa6c b93d 45ad 533d
00000090: 6431 20bd 2ed7 623d f77e 953d 97c6 c4ba
000000a0: 7529 7f3d 6442 9d3d 2f42 cebc 34f2 0a3d
000000b0: b274 79bc 8420 ad3d 35a5 44bd 800d 60bd
000000c0: dee3 9bbd fac2 9bba 040e f43c 6dd4 3dbd
000000d0: fe12 403d f270 edbc fbf1 49bd 6bb2 3fbd
000000e0: 8bdb 773d 5c64 34bc 8146 473d 2555 243d
000000f0: 3516 22bd 9c05 88bd f7e2 5b3c c507 7cbd
00000100: 3c3f 01bd 8255 fcbc ea26 40bd 6ccf 923d
00000110: 1ad9 163d 564a 893c a9c2 beba e703 473d
00000120: 4784 ea3a 796c 493d 77ce 343c 4a1b 983d
00000130: a94b 9dbd c668 26bd b1dc 82bd a739 5a3d
00000140: b3ff a63d d4e9 63bc de6d eabc f5a1 4d3d
00000150: 8efe d6bd 65a1 2d3d 7f60 1ebd f4af adbd
00000160: 28c3 143d 21e3 8e3c c1ad 7f3d c501 cd3c
00000170: 3ee5 e1ba d677 85bc 764b 9d3c 5fac 1bbc
00000180: 9b85 acbb 2e77 973d 1723 96bd f2d9 1e3d
00000190: 2c0b 19bd e152 783d 303b 0f3d 06d2 6d3d
000001a0: fbb3 c6bc 8a16 a03d 1bf7 a33d 1b87 043d
000001b0: 3347 293c e299 f13c 8cab 7bbd f00e c1bd
000001c0: 74ff 743d d3d2 bbbc 3210 96bd 83a9 f33c
000001d0: c280 af3d d0de 2cbc e17d 773d 4fe6 5bbd
000001e0: 7996 84bb 54af e23c ca8d 743d 5716 363d
000001f0: e377 f73c fcd6 5a3d 60c9 50bd e0eb f4b7
00000200: 2c7e e5bc 1851 803d 9a15 4b3d e466 02bd
00000210: c862 a8bd 1889 4f3d 3379 b33c d1b3 d0bd
00000220: bb19 983d c05f 993d 7875 1fbd 92a1 7e3d
00000230: e9b7 cd3d 0721 663d c6bf 683c 2c2a dc3c
00000240: ee46 8dbd 9f35 5cbd 3a45 643b 6d84 64bc
00000250: f6d3 aebd 179f 2cbd f85a 74bd 8aba 11bd
00000260: f0de a4bc a022 9abd 08cc 923d 80f3 893d
00000270: ba0c 44bd 2e53 573d 0803 8d3d d976 b4bd
00000280: 6481 7ebd ded9 bdbd b029 fdbc 065c ac3d
00000290: 0d20 503d 6bc8 8cbd 311b 6d3d 9551 913d
000002a0: 6529 f0bc 9c87 ac3c 212b 97bc fb7b 75bd
000002b0: f6b5 b0bd f60f 7d3d 4535 bcbd 6bfa 953d
000002c0: b55d 353c c44a 3c3d e5d1 90bc ec16 c9bc
000002d0: 69e0 833d 9efa 9abd 7c27 b23c 7e4c faba
000002e0: 2438 8f3c 977e c33c 0e67 53bd 3643 b23d
000002f0: d760 a43d d4a1 093d 4394 bb3d 333e 4f3d
00000300: fe12 36bd 6441 88bd 9de5 dfbb 9f56 ae3d
00000310: 122d e3bb 7463 863d 6536 87bd c6ab 923c
00000320: efed 65bd 5a52 903d b486 c9bb 4ffb b73d
00000330: 3773 51bd a05e 6abd 7031 fbbc eb35 c9bd
00000340: 7485 2d3d cc0e cabc b746 2f3c 9003 5bbb
00000350: 9fb9 3cbc d144 d63d f4ee ac3c dbc5 8abd
00000360: cbc9 a43d cafb e33c a7df eebc e17e 91bd
00000370: 40c4 f7bb 2db6 16bd cef9 32bd d9b3 a6bd
00000380: 00e3 bdbc 21bb 843d c5a8 bcbd d5a6 8d3c
00000390: 6d78 673d 78d0 013d df43 6a3d 005e 203d
000003a0: 1f41 103c 4d24 64bc c732 753c a2e5 9fbd
000003b0: 61c9 0f3c 2fcf 3f3d 1db8 30bd 74fd d43d
000003c0: 1b3e 4f3d 4891 48bd 2304 a53d 3701 a73d
000003d0: dcc1 25bb 918f 4fbd 9e86 e9bc 490a aebd
000003e0: 7b24 48bd 7504 09ba 5c9b b0bc df76 e1bc
000003f0: 4f38 a43d aa02 643c 07c6 d23c 0535 1f3d

transformer_encoder.layers.0.self_attn.out_proj.bias f4 [128]
0.023114858 0.0072226874 -0.017794294 0.036367998 0.02379606 -0.0064626844 -0.006349896 0.011566642
-0.019796351 0.021660868 0.009432846 -0.0032201647 0.019119665 -0.016541628 0.011815282 -0.015184307
-0.02545175 -0.033276234 0.015311871 0.008428456 -0.02005528 0.015701758 0.018026965 0.039508343
-0.011699467 -0.023020223 -0.015373493 -0.06183128 0.00042605048 0.007071458 0.05654121 0.00035050904
0.0075312895 -0.014259893 -0.0061340947 0.0023648664 0.017980143 0.017210951 0.005388926 0.0074284817
-0.064238414 -0.00042787226 -0.023869267 -0.008333704 0.0032777558 0.0039851004 -0.025121199 -0.0071860133
-0.031489924 -0.02517005 0.011958309 -0.00478407 0.027836135 -0.009711542 0.021842346 0.017332857
0.019200142 0.01365975 0.0015707368 -0.00128422 -0.0037433745 -0.0046440517 0.0031537963 0.02118715
0.017185405 0.004057709 0.052961204 -0.030772518 -0.004965496 -0.0002792595 -0.011047387 0.023612585
0.0101306215 -0.04602204 0.024491305 -0.013046849 -0.013562142 -0.02405937 0.0031331484 0.010735764
0.03666704 0.0033254363 0.0042651235 0.008697273 -0.0042240582 0.027179984 0.01356796 0.025378432
0.025611728 -0.012767096 -0.008113147 -0.031937797 -0.0018314297 0.0076294537 0.015623472 -0.04345322
-0.007967722 -0.00038410074 -0.00254463 0.00988674 0.019890375 -0.020907722 -0.015462179 -0.003517523
0.009767507 -0.0021623084 0.0041221897 -0.0008456664 0.02479297 0.038280375 -0.011807014 0.031893827
0.005553713 -0.0044152797 -0.009382617 0.009603059 0.017505523 -0.012796233 -0.036746 -0.007322791
0.0031499255 -0.006918736 -0.01819451 0.0051965243 0.020756146 -0.0013954962 0.023629539 0.0003054166
00000000: 5f5b bd3c 4bac ec3b 57c5 91bc 9cf6 143d
00000010: f4ef c23c edc4 d3bb ca12 d0bb 0382 3d3c
00000020: f52b a2bc 2272 b13c 398c 1a3c 6609 53bb
00000030: d8a0 9c3c 4f82 87bc e294 413c 99c7 78bc
00000040: 3080 d0bc a94c 08bd a4de 7a3c 8217 0a3c
00000050: f84a a4bc f9a0 803c 49ad 933c 80d3 213d
00000060: 1faf 3fbc e894 bcbc 1ae1 7bbc cc42 7dbd
00000070: 875f df39 b0b7 e73b c197 673d 87c4 b739
00000080: 09c9 f63b 54a2 69bc 8400 c9bb e0fb 1a3b
00000090: 184b 933c fbfd 8c3c 9695 b03b 9f6a f33b
000000a0: 6e8f 83bd 0b54 e0b9 7b89 c3bc 178a 08bc
000000b0: 9ecf 563b 7295 823b f9ca cdbc a678 ebbb
000000c0: 94fb 00bd 6c31 cebc c9ec 433c b0c3 9cbb
000000d0: 9b08 e43c 291d 1fbc b8ee b23c a3fd 8d3c
000000e0: 9e49 9d3c 25cd 5f3c 2ee1 cd3a 4653 a8ba
000000f0: 6753 75bb 212d 98bb ecaf 4e3b ad90 ad3c
00000100: 68c8 8c3c 88f6 843b d9ed 583d a616 fcbc
00000110: 99b5 a2bb 9369 92b9 1900 35bc 2e6f c13c
00000120: e8fa 253c 9b81 3cbd fda1 c83c 73c2 55bc
00000130: bf33 5ebc 2818 c5bc 8255 4d3b 0fe5 2f3c
00000140: 2e30 163d 90ef 593b 73c2 8b3b 027f 0e3c
00000150: f869 8abb 8fa8 de3c 264c 5e3c 6ee6 cf3c
00000160: b0cf d13c 152d 51bc 01ed 04bc 35d1 02bd
00000170: 950c f0ba 7f00 fa3b 97f9 7f3c 01fc 31bd
00000180: 0c8b 02bc 2161 c9b9 cfc3 26bb fefb 213c
00000190: 24f1 a23c ac46 abbc 1455 7dbc 3e86 66bb
000001a0: e507 203c 84b5 0dbb 6f13 873b b6af 5dba
000001b0: a01a cb3c e2cb 1c3d 3572 41bc 1aa3 023d
000001c0: ecfb b53b 0dae 90bb 8cb9 19bc 2656 1d3c
000001d0: be67 8f3c 4ba7 51bc f982 16bd 06f4 efbb
000001e0: fb6e 4e3b 90b6 e2bb a70c 95bc 9b47 aa3b
000001f0: cb08 aa3c 15e9 b6ba bc92 c13c 5220 a039

transformer_encoder.layers.0.linear1.weight f4 [128, 128]
-0.09342359 -0.09099681 -0.025445998 0.04955844 0.024571246 -0.07441551 -0.026881224 -0.051571194
-0.07127001 0.07354848 0.06229582 0.016106587 0.024093926 0.037717678 -0.012421684 0.057561852
0.12524885 -0.014783512 0.07932489 0.104035854 0.058363643 -0.00031452798 -0.07173745 -0.10466733
0.078802384 0.11018665 0.010406338 -0.003081601 0.051775333 -0.04649186 -0.0145402895 0.0052911565
-0.025190918 -0.09418442 0.017439524 0.011981501 -0.070639044 -0.06305471 -0.09565258 -0.093421
0.024099143 -0.0695785 0.10695965 0.012558196 0.021871984 -0.08194587 -0.10301134 -0.03495467
-0.05075983 -0.047647744 0.010218031 -0.048648797 0.06901303 0.0059643313 -0.06531224 0.015105029
0.05546994 0.031411152 0.0283391 -0.018974228 -0.039592266 -0.093558356 -0.06500272 -0.10615045
0.02560708 -0.047519613 -0.0098188 0.019461127 -0.0073172627 0.04051082 -0.087952085 -0.038083225
-0.060298365 0.094150305 -0.0016941132 -0.0371224 0.059760105 0.11463799 0.032207876 -0.03361738
0.0067396266 0.04315405 0.0057829013 -0.017548583 0.06806603 0.025369639 -0.10156946 -0.0231125
0.031502 0.094392665 0.026053801 -0.016712634 0.10846687 -0.06273938 0.04186006 0.10930663
0.09883462 -0.13925955 -0.015332575 0.047510557 0.055147994 0.061532687 0.024603158 0.0598506
0.07073634 0.116893776 -0.09219202 0.04392835 -0.10140535 -0.11941469 0.112891 -0.019521885
-0.046265133 0.12801287 -0.048157416 0.024585575 0.023586717 -0.085150175 0.046537086 0.020350346
-0.083276875 -0.07898952 -0.04283873 -0.026493123 0.013787837 0.010387687 -0.095701866 0.02412022
0.003259332 0.043334354 0.09508601 0.022389453 -0.004823759 -0.06392404 -0.0066780327 -0.015942419
-0.02296334 0.023221835 0.061325565 -0.09780129 -0.030708894 -0.096277185 0.039461315 0.09250892
-0.08834659 0.05885818 0.04949912 -0.020938704 -0.0325685 -0.041388746 -0.047833133 0.012037015
0.11027599 -0.037896715 -0.025386423 -0.035917915 -0.053338997 -0.111479245 -0.016463691 0.121571496
0.057083204 0.053294297 0.008853201 0.06525708 -0.22817557 0.08828201 -0.059005596 0.021641033
0.013445662 -0.044102956 -0.033844214 0.013019064 -0.15317392 0.09749821 0.033488076 -0.029506918
0.073188856 -0.01948685 -0.0402448 -0.10037785 0.021486327 0.0019854144 -0.09216976 -0.013643133
0.11514898 -0.035428334 0.123476975 -0.008147467 -0.07061544 0.081379116 -0.013075165 -0.037492156
-0.02504846 -0.09503241 -0.04061529 0.030521749 0.123609245 0.11567425 -0.067229435 -0.0713168
-0.016336901 -0.076913945 0.02903668 -0.014491045 -0.03300527 0.012632174 0.01664692 0.1050918
0.07555494 -0.028917316 -0.09661392 0.05093037 0.026478061 0.05447733 -0.0027132558 -0.08066021
0.13628833 -0.0068519656 0.023460483 0.035006315 0.04045426 0.026815394 0.073509105 -0.05490341
-0.059322592 0.09520739 -0.03294825 -0.07281553 -0.11807408 0.07991506 -0.11330727 -0.010047071
-0.11092737 -0.06195998 -0.03483299 -0.0032706195 0.032861438 -0.040462974 -0.015710125 0.036484394
-0.07024829 -0.09832097 -0.114154935 0.019617368 0.020543987 0.061386347 0.12830582 -0.044063326
0.0073470254 0.012913237 0.03691768 -0.028816132 0.0050418978 0.011212999 -0.00625151 0.10403229
00000000: de54 bfbd 895c babd 2074 d0bc cafd 4a3d
00000010: a349 c93c 2967 98bd 0336 dcbc 513c 53bd
00000020: 03f6 91bd 96a0 963d e729 7f3d f6f1 833c
00000030: a060 c53c da7d 1a3d 5284 4bbc fac5 6b3d
00000040: 3c41 003e 8b36 72bc 1775 a23d c010 d53d
00000050: b70e 6f3d 3be7 a4b9 16eb 92bd d35b d6bd
00000060: 2563 a13d 8aa9 e13d 587f 2a3c b0f4 49bb
00000070: 5f12 543d 406e 3ebd 653a 6ebc 7061 ad3b
00000080: 2f5d cebc c3e3 c0bd 55dd 8e3c 0f4e 443c
00000090: 34ab 90bd d422 81bd 80e5 c3bd 8253 bfbd
000000a0: 916b c53c 2c7f 8ebd a90d db3d e4c0 4d3c
000000b0: e02c b33c 3cd3 a7bd 9cf7 d2bd a12c 0fbd
000000c0: 8ae9 4fbd 482a 43bd 8769 273c f643 47bd
000000d0: b456 8d3d 7070 c33b 6cc2 85bd 157b 773c
000000e0: 7334 633d fba8 003d 6627 e83c d76f 9bbc
000000f0: 802b 22bd 869b bfbd 2520 85bd 6865 d9bd
00000100: f0c5 d13c eda3 42bd 08df 20bc f16c 9f3c
00000110: a6c5 efbb acee 253d 3920 b4bd 28fd 1bbd
00000120: 6bfb 76bd e0d1 c03d 020d deba a80d 18bd
00000130: 03c7 743d 53c7 ea3d 68ec 033d 61b2 09bd
00000140: 16d8 dc3b 4dc2 303d 7e7e bd3b 0cc2 8fbc
00000150: 3466 8b3d fdd3 cf3c a603 d0bd 6d56 bdbc
00000160: 3e08 013d f150 c13d c86e d53c efe8 88bc
00000170: e123 de3d 817d 80bd 7475 2b3d 28dc df3d
00000180: ce69 ca3d 0e9a 0ebe 7b35 7bbc 6e9a 423d
00000190: dde2 613d b309 7c3d 908c c93c e725 753d
000001a0: 37de 903d 0166 ef3d 2bcf bcbd 37ee 333d
000001b0: 9cad cfbd b08f f4bd 6633 e73d 5cec 9fbc
000001c0: 8280 3dbd ce15 033e b640 45bd b067 c93c
000001d0: ee38 c13c 3763 aebd ac9d 3e3d c5b5 a63c
000001e0: 118d aabd 42c5 a1bd aa77 2fbd 1b08 d9bc
000001f0: 61e6 613c 1e31 2a3c 57ff c3bd c597 c53c
00000200: 849a 553b 5d7f 313d 74bc c23d 166a b73c
00000210: a010 9ebb 9bea 82bd 66d3 dabb ad99 82bc
00000220: 9d1d bcbc b83b be3c 8430 7b3d 0b4c c8bd
00000230: 3891 fbbc f92c c5bd 30a2 213d 5175 bd3d
00000240: 0fef b4bd 4615 713d 97bf 4a3d a587 abbc
00000250: 8c66 05bd 3f87 29bd adec 43bd e636 453c
00000260: 61d8 e13d 9639 1bbd 30f7 cfbc aa1e 13bd
00000270: fe79 5abd 3b4f e4bd ddde 86bc 7afa f83d
00000280: 14d0 693d 1f4b 5a3d 040d 113c 81a5 853d
00000290: dba6 69be 33cd b43d daaf 71bd 8948 b13c
000002a0: 324b 5c3c 4da5 34bd 3ba0 0abd ea4d 553c
000002b0: a0d9 1cbe 24ad c73d cb2a 093d 7eb8 f1bc
000002c0: 0ae4 953d e3a2 9fbc bbd7 24bd e792 cdbd
000002d0: 1804 b03c ba1d 023b 80c3 bcbd 7387 5fbc
000002e0: 3ad3 eb3d 4d1d 11bd 7fe1 fc3d f47c 05bc
000002f0: d49e 90bd 18aa a63d 3839 56bc 6091 19bd
00000300: 6e32 cdbc 5aa0 c2bd 385c 26bd bf08 fa3c
00000310: d826 fd3d 9fe6 ec3d 96af 89bd 8b0e 92bd
00000320: f7d4 85bc 0f85 9dbd 55de ed3c d96b 6dbc
00000330: 8930 07bd 2ef7 4e3c 1f5f 883c 5f3a d73d
00000340: 8cbc 9a3d 02e4 ecbc 85dd c5bd 5d9c 503d
00000350: 85e8 d83c 9f23 5f3d e1d0 31bb 2e31 a5bd
00000360: 2b8f 0b3e 7486 e0bb 3330 c03c c862 0f3d
00000370: 5eb3 253d f5ab db3c f18b 963d 66e2 60bd
00000380: 3ffc 72bd 18fc c23d bff4 06bd 4f20 95bd
00000390: d3d0 f1bd 82aa a33d a40d e8bd 789c 24bc
000003a0: e42d e3bd bfc9 7dbd 0aad 0ebd e457 56bb
000003b0: b799 063d 81bc 25bd 85b2 80bc a970 153d
000003c0: 56de 8fbd 815c c9bd 10ca e9bd 9ab4 a03c
000003d0: dd4b a83c 4070 7b3d 9a62 033e bf7b 34bd
000003e0: 51bf f03b 0b92 533c fe36 173d cf0f ecbc
000003f0: 8136 a53b bab6 373c 78d9 ccbb e20e d53d

transformer_encoder.layers.0.linear1.bias f4 [128]
-0.093738064 -0.11322899 -0.11136379 -0.05634165 -0.06803549 -0.04612434 -0.08396496 -0.013152886
0.010740409 0.015227664 -0.06406567 -0.02886824 -0.07399737 -0.012996326 -0.1056624 -0.07412138
-0.004911987 -0.06483115 -0.09075884 -0.06818752 -0.06586702 -0.028735194 -0.096417405 -0.06125367
-0.050745334 -0.09661256 -0.014225608 -0.077201195 -0.12863109 0.023859086 -0.036048464 -0.115656465
-0.11126987 -0.018284371 0.012512754 0.022393044 -0.04859009 -0.047891684 -0.01346966 -0.016161919
-0.115833335 -0.011477231 0.020463409 -0.06801465 -0.082140505 -0.10001779 -0.0070692264 -0.054039977
-0.11741187 0.034151856 -0.11909514 -0.107978314 -0.035890337 -0.020515678 -0.050194062 -0.10790701
-0.018590089 -0.10603427 -0.106899045 -0.08312967 -0.0064595076 -0.04353256 -0.050140362 0.04012289
0.061129835 -0.02144416 0.03512309 0.015687047 -0.09822404 0.004126829 -0.055907242 -0.0668284
0.03526628 -0.12954731 -0.09781089 -0.107885696 0.048311565 -0.061449017 -0.06759292 -0.03144776
0.053872906 0.0659251 -0.07365646 -0.08666334 0.07117879 0.00727061 -0.0015859605 -0.012340234
-0.092297725 -0.09140234 0.04953109 -0.0010566434 -0.07017124 -0.006955123 0.042505167 -0.046291713
0.022409135 -0.01568018 0.009768711 -0.008600544 -0.02464885 -0.09320941 -0.0068709957 -0.17391615
0.022322979 -0.012939158 0.048757233 -0.06793134 0.0074150935 -0.052273974 -0.10379755 -0.11296657
0.03253618 -0.08752256 -0.06151091 -0.11927665 -0.11362659 -0.10725869 -0.0018401496 -0.0072515
-0.09770847 -0.012794831 0.04751577 -0.058707867 -0.004522631 -0.02617852 -0.104367755 -0.03047213
00000000: bef9 bfbd 9ae4 e7bd b312 e4bd 81c6 66bd
00000010: 3156 8bbd e0ec 3cbd d2f5 abbd 347f 57bc
00000020: 8af8 2f3c 747d 793c dd34 83bd 167d ecbc
00000030: ef8b 97bd 8bee 54bc 8765 d8bd f3cc 97bd
00000040: bcf4 a0bb 32c6 84bd c5df b9bd e6a5 8bbd
00000050: 4ae5 86bd 1266 ebbc 7d76 c5bd 21e5 7abd
00000060: 57da 4fbd cedc c5bd 8612 69bc a91b 9ebd
00000070: deb7 03be 2174 c33c 8ea7 13bd 4cdd ecbd
00000080: 75e1 e3bd 1bc9 95bc 4b02 4d3c 9e71 b73c
00000090: 6706 47bd 122a 44bd d9af 5cbc 0066 84bc
000000a0: 073a edbd ff0a 3cbc e1a2 a73c 444b 8bbd
000000b0: 4839 a8bd 21d6 ccbd f8a4 e7bb 0659 5dbd
000000c0: a275 f0bd d1e2 0b3d 27e8 f3bd bc23 ddbd
000000d0: bf01 13bd 7f10 a8bc 4a98 4dbd 5afe dcbd
000000e0: 3e4a 98bc 7f28 d9bd e3ed dabd e33f aabd
000000f0: 47aa d3bb 334f 32bd fb5f 4dbd e657 243d
00000100: 4763 7a3d aaab afbc 3bdd 0f3d 1f82 803c
00000110: af29 c9bd 5a3a 873b fefe 64bd 54dd 88bd
00000120: 6073 103d 0da8 04be 1351 c8bd 2df3 dcbd
00000130: 59e2 453d f7b1 7bbd 286e 8abd 5ecf 00bd
00000140: d6a9 5c3d bd03 873d 33d9 96bd 8d7c b1bd
00000150: 2fc6 913d 4c3e ee3b 01e0 cfba b12e 4abc
00000160: 9706 bdbd 2631 bbbd 1de1 4a3d 127f 8aba
00000170: f0b5 8fbd cde7 e3bb e619 2e3d 619c 3dbd
00000180: 5d93 b73c b973 80bc f20c 203c 4ce9 0cbc
00000190: 63ec c9bc 93e4 bebd 1726 e1bb 1317 32be
000001a0: aede b63c c3fe 53bc aab5 473d 961f 8bbd
000001b0: 50fa f23b 3c1d 56bd cf93 d4bd 045b e7bd
000001c0: a844 053d 073f b3bd ddf2 7bbd 5147 f4bd
000001d0: 0fb5 e8bd 72aa dbbd 2d31 f1ba fe9d edbb
000001e0: 611b c8bd 69a1 51bc e59f 423d a977 70bd
000001f0: 9432 94bb 5674 d6bc c3be d5bd b0a0 f9bc

transformer_encoder.layers.0.linear2.weight f4 [128, 128]
-0.01836456 -0.013039928 -0.05693788 0.061775092 0.09272785 -0.03772612 0.036626007 0.089477904
-0.06568663 -0.0921765 0.013555483 -0.06884164 -0.029686583 0.05241514 -0.03860159 -0.0038779592
0.036108524 -0.07746394 0.13915224 -0.0047650696 0.028724 -0.065689795 -0.033828314 -0.06340982
-0.05475571 0.08015619 0.055413745 0.07595117 -0.06450045 -0.026709415 0.035270795 0.04960347
0.13007744 -0.07334724 -0.048138313 -0.12793426 -0.12315363 -0.022402123 -0.12616247 0.011256563
0.012828704 -0.046667244 -0.005907926 -0.044648293 0.10640371 -0.1188151 0.14499025 0.019631725
-0.011193914 0.070766166 0.037090223 -0.008920909 0.10209747 -0.045216385 -0.012375908 0.03145861
0.033900365 0.0055238022 0.070932314 0.02243304 -0.010759456 -0.08912254 -0.10695567 -0.033287548
-0.12458566 0.061572768 0.027461361 -0.0068378556 0.10143493 -0.060119912 0.014151687 -0.054764573
0.0035808615 0.015724204 -0.09042256 -0.05151538 -0.028901463 0.037842605 -0.043025527 -0.06678882
0.090591766 0.0002094623 -0.051864352 -0.02793313 0.040057212 -0.07990147 -0.010779435 -0.07493946
0.085214384 0.025386456 0.054326374 0.029555503 0.11739918 -0.0076934984 0.0031273437 0.0009270177
0.008255841 0.060395718 -0.099734 -0.03579869 0.00016790486 0.06811624 0.061726335 0.14919125
-0.023172695 0.0013675832 -0.053276487 -0.00580482 -0.010161174 -0.12175232 -0.03837232 0.10553275
0.09587505 0.08873831 0.0056457147 -0.058144715 0.033061344 0.081018545 -0.078854084 0.07195033
0.080887325 -0.08169726 0.0060744225 0.04231595 0.038232617 -0.07407682 0.049368 0.036864184
0.02237837 -0.083495125 -0.039650656 0.047700558 -0.050654184 0.009797022 -0.10728513 -0.045728825
-0.053283066 0.01120249 -0.039311644 0.097325414 -0.037020557 -0.072427675 0.015210571 -0.07456354
0.03716071 0.028849356 -0.11556784 0.052635804 0.07935429 0.10172601 -0.06956192 0.022312744
0.037751023 0.018862084 -0.025014332 -0.021537336 0.06827589 -0.0805526 -0.058775447 0.03719961
-0.09333917 0.057892486 0.054950316 0.0584363 -0.03485688 -0.08119018 0.030548247 -0.10841596
-0.03477167 -0.02984014 0.09567708 -0.012344202 -0.04714269 0.09499878 -0.037906967 -0.02146906
0.08725239 -0.08774101 0.086934894 0.0019050095 -0.036475856 0.11299072 -0.03191167 0.037822332
-0.06422818 0.07498565 -0.07804912 0.06358366 0.014742555 -0.008728959 -0.010085197 -0.07354608
-0.012642794 0.04802506 -0.047128882 0.03550103 -0.06365483 0.01995332 0.086925246 0.011601975
0.083617255 0.015016743 0.081895076 0.089419186 0.04343395 -0.11402895 -0.054304287 0.005361465
-0.072924666 -0.07382962 -0.05615945 -0.047319565 -0.06445733 0.07571777 0.07727373 -0.004858037
-0.019949349 0.068424664 -0.029927153 -0.066057496 0.0048163217 0.09342897 0.013970822 0.08179898
0.09009911 0.06863113 0.052385956 -0.0003781287 -0.06510921 -0.01195782 0.048686266 -0.040025346
0.08835903 0.05487635 -0.055425823 0.03435832 -0.06659091 -0.032411136 0.022583308 -0.11759022
-0.011701317 0.03273813 -0.105643585 0.016976438 0.006225981 0.054365505 0.053746022 -0.052584074
0.009353238 0.122364216 -0.08903453 0.08585285 -0.032225527 -0.07009279 -0.04081346 0.06456509
00000000: 4671 96bc 6ca5 55bc b237 69bd e107 7d3d
00000010: 19e8 bd3d b486 1abd 2705 163d 3140 b73d
00000020: b686 86bd 08c7 bcbd d117 5e3c d9fc 8cbd
00000030: 4731 f3bc 42b1 563d b31c 1ebd 5c25 7ebb
00000040: 88e6 133d 6aa5 9ebd ed7d 0e3e 4d24 9cbb
00000050: 984e eb3c 5f88 86bd 8f8f 0abd 02dd 81bd
00000060: 8647 60bd ee28 a43d 86f9 623d 498c 9b3d
00000070: d018 84bd b4cd dabc 1c78 103d 022d 4b3d
00000080: 0533 053e 1437 96bd ae2c 45bd 3301 03be
00000090: f837 fcbd a884 b7bc bc30 01be 726d 383c
000000a0: 7c2f 523c 2726 3fbd 4697 c1bb 21e1 36bd
000000b0: 30ea d93d 5555 f3bd 5378 143e b6d2 a03c
000000c0: ae66 37bc daed 903d ebeb 173d 0129 12bc
000000d0: 7a18 d13d d134 39bd 52c4 4abc beda 003d
000000e0: 1cdb 0a3d 0301 b53b f644 913d 7fc5 b73c
000000f0: 6e48 30bc e185 b6bd 930b dbbd 8658 08bd
00000100: c426 ffbd ba33 7c3d a6f6 e03c 1710 e0bb
00000110: 1ebd cf3d 4c40 76bd 7adc 673c d150 60bd
00000120: e3ac 6a3b 0cd0 803c 772f b9bd cb01 53bd
00000130: c3c2 ecbc d900 1b3d 893b 30bd 94c8 88bd
00000140: 2d88 b93d 1ca3 5b39 b76f 54bd 05d4 e4bc
00000150: 0813 243d 62a3 a3bd 3a9c 30bc dc79 99bd
00000160: e184 ae3d 42f7 cf3c 5585 5e3d 621e f23c
00000170: fb6e f03d be19 fcbb 1ff4 4c3b 1b03 733a
00000180: 8243 073c 8061 773d 5741 ccbd a6a1 12bd
00000190: 9e0f 3039 8780 8b3d c1d4 7c3d 97c5 183e
000001a0: aad4 bdbc 7a40 b33a 7238 5abd 5c36 bebb
000001b0: 0e7b 26bc 4859 f9bd 4b2c 1dbd 8e21 d83d
000001c0: 235a c43d 6ebc b53d b0ff b83b 2729 6ebd
000001d0: 556b 073d 0ded a53d 407e a1bd b25a 933d
000001e0: 41a8 a53d e550 a7bd f30b c73b 7d53 2d3d
000001f0: ce99 1c3d 96b5 97bd 1a36 4a3d e6fe 163d
00000200: d852 b73c 7eff aabd ba68 22bd a961 433d
00000210: c37a 4fbd b083 203c 4eb8 dbbd 264e 3bbd
00000220: 583f 5abd a68a 373c 3f05 21bd 8c52 c73d
00000230: dea2 17bd f654 94bd c235 793c c5b4 98bd
00000240: d435 183d 7c55 ec3c d5ae ecbd a498 573d
00000250: 8184 a23d ba55 d03d 7b76 8ebd 37c9 b63c
00000260: d1a0 1a3d a884 9a3c dbea ccbc 116f b0bc
00000270: 3bd4 8b3d c3f8 a4bd 86be 70bd 9e5e 183d
00000280: 9b28 bfbd ac20 6d3d 9513 613d e75a 6f3d
00000290: 16c6 0ebd 0947 a6bd 5140 fa3c 3009 debd
000002a0: bd6c 0ebd 4f73 f4bc 58f2 c33d 563f 4abc
000002b0: b118 41bd b88e c23d 5644 1bbd e2df afbc
000002c0: 62b1 b23d 8fb1 b3bd ec0a b23d 83b1 f93a
000002d0: b567 15bd ae67 e73d d0b5 02bd 97eb 1a3d
000002e0: 108a 83bd 1492 993d 38d8 9fbd 2638 823d
000002f0: c28a 713c e803 0fbc 623c 25bc 549f 96bd
00000300: b923 4fbc edb5 443d 370a 41bd 8769 113d
00000310: 775d 82bd 2575 a33c dd05 b23d 3616 3e3c
00000320: 863f ab3d c908 763c 9bb8 a73d 6821 b73d
00000330: cce7 313d 0388 e9bd 2c6e 5ebd 3aaf af3b
00000340: 8759 95bd fc33 97bd 7407 66bd 29d2 41bd
00000350: 3402 84bd eb11 9b3d b041 9e3d 2b30 9fbb
00000360: d16c a3bc 3b22 8c3d ca29 f5bc 2749 87bd
00000370: 3cd2 9d3b b057 bf3d e0e5 643c 3986 a73d
00000380: e285 b83d 7a8e 8c3d a892 563d 933f c6b9
00000390: fa57 85bd bbea 43bc 406b 473d 9ef1 23bd
000003a0: 94f5 b43d 06c6 603d 3006 63bd 4fbb 0c3d
000003b0: d160 88bd 8ac1 04bd a100 b93c 24d3 f0bd
000003c0: e1b6 3fbc 6b18 063d aa5b d8bd 2c12 8b3c
000003d0: 5003 cc3b 5dae 5e3d ca24 5c3d 6662 57bd
000003e0: 533e 193c 179a fa3d bc57 b6bd 9ed3 af3d
000003f0: eafe 03bd cf8c 8fbd 042c 27bd b43a 843d

transformer_encoder.layers.0.linear2.bias f4 [128]
0.0822876 0.08012689 0.052058205 0.020612897 0.02423261 -0.017708022 0.0009500754 -0.019913843
-0.068564355 -0.06718958 -0.002482465 -0.11515957 -0.04661135 0.03535769 -0.044434614 0.025681969
-0.00275931 0.0378145 -0.0525716 -0.022109505 -0.10730408 -0.07073335 0.08736704 -0.04098944
-0.000501589 -0.034963652 -0.06476861 -0.062013734 -0.07276019 -0.028221639 0.04148658 -0.07020846
-0.00049484574 -0.006104965 0.046408355 0.026510872 -0.0583691 0.03708691 -0.0518174 -0.056684144
-0.052146647 0.010566296 0.056512665 0.04339943 -0.017196573 -0.0025505465 0.061915506 -0.00012964846
-0.01775024 0.054504443 -0.0373723 -0.02773549 -0.033219922 0.036926232 -0.054404125 -0.03074015
-0.0087659145 0.041572332 -0.009828437 -0.07649919 -0.07844567 0.05505513 -0.0057661603 -0.00888395
-0.0449258 -0.01361212 0.015599128 -0.06148618 -0.00716967 0.06643532 0.024716983 -0.05275961
-0.0678073 -0.036925364 -0.069916874 -0.032702856 0.004916032 -0.0632958 0.08396897 0.003086218
-0.023026112 0.07495372 0.047947712 0.07227828 0.02209289 0.073233396 0.070393704 -0.004494848
-0.03930946 0.034508776 0.06874879 0.009286079 -0.057574216 -0.03649217 -0.03218204 0.00046082528
0.00390735 -0.010897171 -0.0024233377 -0.013223602 -0.028952455 0.017595524 -0.045233622 -0.06493523
-0.027806506 -0.04281279 0.05646094 -0.013733912 0.05082466 0.0012008135 0.02431673 -0.052986734
-0.016622288 -0.05818858 0.038238805 -0.033704977 0.066829294 0.05339061 0.0637314 0.009403744
0.051558178 -0.05424879 0.0070718373 0.014181212 0.045824304 -0.07587705 -0.07142367 0.026493715
00000000: 6786 a83d 9119 a43d fc3a 553d 61dc a83c
00000010: 7783 c63c 6a10 91bc 7b0e 793a 5b22 a3bc
00000020: 786b 8cbd b19a 89bd dab0 22bb c8d8 ebbd
00000030: 8beb 3ebd 3ad3 103d 1201 36bd fe62 d23c
00000040: 8ad5 34bb 61e3 1a3d 5155 57bd fe1e b5bc
00000050: 3ec2 dbbd a6dc 90bd 7eed b23d 8be4 27bd
00000060: 117d 03ba 0c36 0fbd 68a5 84bd 1d02 7ebd
00000070: 4b03 95bd 1131 e7bc d5ed 293d 74c9 8fbd
00000080: 89b8 01ba 290c c8bb b016 3e3d 542d d93c
00000090: 7014 6fbd 72e8 173d 7b3e 54bd a22d 68bd
000000a0: b997 55bd 421e 2d3c d379 673d 9ac3 313d
000000b0: d4df 8cbc 1227 27bb 1d9b 7d3d 3ef2 07b9
000000c0: f468 91bc 0d40 5f3d b213 19bd 8a35 e3bc
000000d0: 9d11 08bd f63f 173d dcd6 5ebd c4d2 fbbc
000000e0: e99e 0fbc c047 2a3d 7407 21bc 9bab 9cbd
000000f0: 20a8 a0bd 7d81 613d 0ff2 bcbb fd8d 11bc
00000100: 1e04 38bd 5f05 5fbc 7c93 7f3c efd8 7bbd
00000110: 8def eabb 3e0f 883d 457b ca3c 761a 58bd
00000120: 8ede 8abd 0d3f 17bd 9430 8fbd 6ef3 05bd
00000130: aa16 a13b 3aa1 81bd ecf7 ab3d 2542 4a3b
00000140: 42a1 bcbc 5681 993d d264 443d a306 943d
00000150: 26fc b43c 64fb 953d 932a 903d 8549 93bb
00000160: f502 21bd 1359 0d3d 2acc 8c3d a324 183c
00000170: f1d2 6bbd d078 15bd 51d1 03bd ec9a f139
00000180: 3a09 803b 0c8a 32bc dcd0 1ebb cfa7 58bc
00000190: b32d edbc 7d24 903c e446 39bd c3fc 84bd
000001a0: 78ca e3bc 775c 2fbd 9643 673d 3404 61bc
000001b0: 852d 503d 9d64 9d3a e133 c73c 9e08 59bd
000001c0: 772b 88bc 2657 6ebd 4ba0 1c3d 3b0e 0abd
000001d0: ccdd 883d 1db0 5a3d 9c85 823d 2912 1a3c
000001e0: ab2e 533d fb33 5ebd dfba e73b 5058 683c
000001f0: 44b2 3b3d 6d65 9bbd 9346 92bd 5909 d93c
