tuning_multi_scale_transformer_encoder/transformer_encoder_model_fold_2.pth (torch, 822178 bytes, 28 tensors)

embedding.weight f4 [128, 25]
0	0x3e13be5f	0.1442809
1	0x3d639167	0.05555859
2	0x3dc6baef	0.097036235
3	0xbcee23a4	-0.02906973
4	0xbdfa4746	-0.122206256
5	0xbe2308b6	-0.15921292
6	0xbc9d8121	-0.019226613
7	0xbe0bf22f	-0.13666604
8	0xbd359106	-0.04432776
9	0xbdcbbef8	-0.09948534
10	0xbe510f19	-0.20415916
11	0x3e238406	0.15968332
12	0x3dd14d23	0.10219791
13	0x3e13c8f7	0.14432131
14	0xbdae437c	-0.085089654
15	0xbe11af9c	-0.14227146
16	0xbe37918b	-0.17926614
17	0xbe2fca85	-0.17167099
18	0x3dfef36c	0.12448773
19	0xbd66bb08	-0.05633071
20	0x3dffc0a9	0.12487919
21	0xbe04d7a9	-0.12972893
22	0x3cf64e11	0.030066522
23	0xbd9f01ed	-0.07764039
24	0x3b01d581	0.0019811096
25	0xbe38dfc8	-0.18054116
26	0xbde9ec80	-0.11422062
27	0x3da51a14	0.08061615
28	0x3e3cbdf1	0.18431832
29	0xbd18f070	-0.037338674
30	0xbdce35fd	-0.10068891
31	0xbe392d53	-0.18083696
32	0xbdef8e06	-0.11697011
33	0xbe39ea40	-0.18155766
34	0x3d965c3b	0.0734181
35	0xbe3fbf8d	-0.18725415
36	0x3e029699	0.12752761
37	0xbc3ae90d	-0.011408103
38	0x3d5baead	0.05363338
39	0x3ca049e7	0.01956649
40	0xbe11e16d	-0.1424615
41	0x3dd0ba60	0.10191798
42	0xbd941366	-0.072302625
43	0xbd2adbfa	-0.041713692
44	0xbe301479	-0.1719531
45	0x3e3da6ba	0.18520632
46	0x3dfcf769	0.12351877
47	0xbc91ae43	-0.01778329
48	0x3dc75615	0.09733216
49	0xbc9de8e8	-0.019276097
50	0xbe189de0	-0.14903975
51	0x3e14039a	0.14454499
52	0x3daee5b4	0.08539906
53	0x3e0f5311	0.13996531
54	0x3e14b3c1	0.14521696
55	0xbdc4ee37	-0.096157484
56	0x3dc27744	0.09495404
57	0x3d672c99	0.056439016
58	0x3e377f2f	0.1791961
59	0xbe39bbc4	-0.18138033
60	0x3d83de35	0.06438867
61	0xbde5c63f	-0.11219453
62	0x3e185cd5	0.14879163
63	0xbddf2dc4	-0.10897401
64	0x3da1bade	0.0789697
65	0x3d8dc972	0.06923188
66	0xbdef2f88	-0.11678988
67	0xbdd7ed7e	-0.10543345
68	0xbe2a7a7f	-0.16648291
69	0xbd16e642	-0.036840685
70	0x3c6af9c0	0.014341772
71	0x3dc9c6d1	0.09852374
72	0xbda4cbe5	-0.08046702
73	0x3e545f5e	0.20739505
74	0xbbbd2a0f	-0.005772836
75	0x3dc16de4	0.09444788
76	0xbd65b68a	-0.056082286
77	0xbe165160	-0.1467948
78	0x3de180f8	0.11010927
79	0xbce2fba4	-0.027707882
80	0x3d5ac72d	0.053412605
81	0xbe246812	-0.16055325
82	0xbe3a6e68	-0.18206179
83	0x3e259d0a	0.16173187
84	0x3d96d3c1	0.073646076
85	0xbdb99bcf	-0.09062921
86	0xbe09707c	-0.13421816
87	0x3ca6e9bf	0.02037513
88	0x3e42a979	0.19009961
89	0xbe0f9568	-0.14021838
90	0xbd4d8824	-0.050178662
91	0x3dbc166c	0.09183964
92	0xbe01b0a0	-0.12665033
93	0x3e711097	0.23541485
94	0x3dc1936c	0.094519466
95	0xbd3fbc56	-0.04681047
96	0x3d945768	0.07243234
97	0xbd8a5804	-0.06755069
98	0x3e90e7ea	0.28301936
99	0x3e3b9f34	0.1832245
100	0x3c3f65a1	0.011681945
101	0x3e09cfe9	0.13458218
102	0x3bc5f88f	0.0060415934
103	0xbe2d9743	-0.16952233
104	0xbde984bd	-0.11402271
105	0xbe18e698	-0.14931715
106	0x3e4daf7d	0.20086475
107	0xbdd75f92	-0.105162755
108	0xbdaec243	-0.08533146
109	0xbdb3611d	-0.08758757
110	0xbe31fdef	-0.17382024
111	0x3dd5badd	0.10436032
112	0xbe322c62	-0.17399743
113	0x3ba11628	0.0049159713
114	0x3e0fdae7	0.14048348
115	0xbe39d28c	-0.18146724
116	0xbe46b3e5	-0.19404562
117	0xbd171522	-0.03688539
118	0xbdce3aee	-0.10069834
119	0xbe1c916e	-0.15289852
120	0xbd2e37a5	-0.042533536
121	0xbe5b0356	-0.21387991
122	0x3dbb667d	0.091504075
123	0xbe732419	-0.23744239
124	0x3ca7a6d6	0.020465296
125	0x3e322740	0.17397785
126	0x3e742858	0.23843515
127	0xbe4232ed	-0.18964739
128	0xbc056d78	-0.008143775
129	0xbe3471ba	-0.17621508
130	0x3e307521	0.17232181
131	0x3e2caa86	0.16861925
132	0x3d9fb3a8	0.077979386
133	0x3d802ede	0.06258939
134	0xbda90adb	-0.08254024
135	0xbdc8d865	-0.09806899
136	0x3d6118c6	0.054955266
137	0x3e2559a8	0.16147482
138	0x3db76927	0.08955603
139	0xbd45aa39	-0.04825804
140	0x3e0e5096	0.13897929
141	0x3d93129a	0.07181282
142	0x3e2ca557	0.16859947
143	0x3c02057f	0.007935881
144	0xbda68a47	-0.08131843
145	0xbda5b651	-0.08091415
146	0x3d5d6dfa	0.05405996
147	0x3d09879d	0.033576597
148	0x3e2d307f	0.16913031
149	0x3e00f758	0.12594354
150	0xbe000457	-0.12501656
151	0xbe677017	-0.22601353
152	0xbe27299e	-0.1632447
153	0x3e361f13	0.17785291
154	0xbe560414	-0.20899993
155	0x3e11c652	0.1423581
156	0x3e27e04d	0.16394158
157	0x3d507d34	0.050900653
158	0x3c8b6ec4	0.01702059
159	0xbe1f0fc5	-0.1553336
160	0x3e0f531d	0.13996549
161	0x3e0e3ff7	0.13891588
162	0xbde6b92a	-0.11265786
163	0x3dbfe1c0	0.0936923
164	0x3d3c3959	0.04595313
165	0x3dfa62d6	0.12225883
166	0xbd4e4384	-0.050357357
167	0xbe145e5e	-0.14489123
168	0xbd8b87f3	-0.0681304
169	0x3b60eacd	0.003431964
170	0x3e2869b2	0.1644657
171	0x3d1e190e	0.038598113
172	0xbe3c27bd	-0.18374534
173	0xbd7c9499	-0.06166515
174	0xbdcec29d	-0.10095713
175	0xbdca2dd8	-0.09872025
176	0xbd4463ba	-0.04794667
177	0xbcec45e2	-0.028841916
178	0x3db4458b	0.08802327
179	0x3e1dace7	0.15397988
180	0x3d89b50d	0.06723986
181	0x3e065ce4	0.13121372
182	0x3dcad4b5	0.09903852
183	0x3d447efa	0.047972657
184	0x3dc33f88	0.09533602
185	0x3e2ea730	0.17055964
186	0x3de766d1	0.112989075
187	0x3e1f87f3	0.15579204
188	0x3d07a47b	0.033115845
189	0xbdff9e5d	-0.12481377
190	0x3df2de31	0.11858786
191	0x3e360c4e	0.17778131
192	0x3d67f5e2	0.056630976
193	0x3e1a81b0	0.15088534
194	0x3e28b069	0.16473545
195	0x3d592c7b	0.053020936
196	0xbc733d89	-0.014846214
197	0x3de2081d	0.11036704
198	0x3e7869a3	0.24259047
199	0xbd935313	-0.071935795
200	0xbd9bb2b9	-0.07602448
201	0x3da4cb55	0.08046595
202	0xbd5aefee	-0.05345147
203	0xbe019748	-0.12655365
204	0x3d8574af	0.06516396
205	0x3da26a8f	0.07930481
206	0xbd890ff8	-0.06692499
207	0x3e6ae00a	0.22937027
208	0x3dd7d5ab	0.10538801
209	0x3dd12a42	0.10213138
210	0x3dc9761a	0.09836979
211	0xbdaaf241	-0.083469875
212	0x3dbf8732	0.09351958
213	0x3e3445f4	0.1760481
214	0xbe11c7ad	-0.14236327
215	0x3d0c08ac	0.034187958
216	0xbe4d9381	-0.200758
217	0x3c96c481	0.018404247
218	0x3b6f57dd	0.0036520876
219	0xbe219084	-0.15777785
220	0xbde183ca	-0.11011465
221	0xbdf4a92e	-0.11946331
222	0xbdd86198	-0.105654895
223	0xbe3a8478	-0.18214595
224	0xbd1faf6d	-0.03898566
225	0xbd812b45	-0.06307081
226	0xbd9df73d	-0.077131726
227	0x3d7740fc	0.06036471
228	0x3e25dcae	0.16197464
229	0xbdd501b6	-0.10400717
230	0x3e096579	0.13417615
231	0xbe4427af	-0.19155763
232	0xbe112303	-0.14173512
233	0xbd3ff0b5	-0.046860415
234	0x3cc00c08	0.023443237
235	0xbdda03ac	-0.106452316
236	0xbe263f33	-0.16235046
237	0x3e3085f4	0.17238599
238	0x3e3a61d8	0.18201387
239	0x3ce5ee08	0.028067604
240	0xbda605bd	-0.08106563
241	0x3d3a343f	0.045459982
242	0x3dd905ba	0.105967954
243	0x3e78080e	0.24221823
244	0x3d8e0a2d	0.069355346
245	0x3e38c4d5	0.18043835
246	0x3e0e75c2	0.13912109
247	0x3e0040e6	0.12524757
248	0x3e5852bf	0.21125315
249	0xbcd77d7f	-0.026304958
250	0x3db1bee1	0.086789854
251	0x3e15340d	0.14570637
252	0xbdc9d6ca	-0.09855421
253	0xbce5ad63	-0.028036779
254	0xbe39abec	-0.18131989
255	0x3d58ed97	0.05296096

embedding.bias f4 [128]
0	0x3e0d9180	0.13825035
1	0x3e3a816c	0.18213433
2	0xbc43d4fd	-0.011952636
3	0x3d075ba4	0.03304638
4	0xbd33e3aa	-0.04391829
5	0x3d92f25a	0.07175131
6	0x3e429955	0.19003804
7	0x3de54799	0.11195297
8	0x3df1484c	0.11781368
9	0xbe075222	-0.13214925
10	0xbd583163	-0.052781474
11	0x3cc5e2be	0.02415597
12	0x3e05f66b	0.13082282
13	0xbdbffc93	-0.093743466
14	0xbd6415a4	-0.0556847
15	0xbe345d46	-0.17613706
16	0xbe09ff02	-0.13476184
17	0xbd9de91c	-0.07710478
18	0x3e17f730	0.14840388
19	0x3ddcd8d9	0.10783548
20	0xbdf30ce7	-0.11867695
21	0xbdd3587c	-0.103196114
22	0x3e1b121f	0.15143631
23	0xbd12f4d7	-0.03587803
24	0x3cd4ae99	0.02596216
25	0x3df87e9e	0.12133525
26	0x3df1924b	0.11795481
27	0xbe0a1b58	-0.13486993
28	0xbc8cffea	-0.017211873
29	0xbe2888f2	-0.1645849
30	0xbd316773	-0.043311547
31	0x3c67d29e	0.014149336
32	0xbe22f8ec	-0.15915269
33	0xbe11bd29	-0.14232315
34	0xbd14f348	-0.036364824
35	0x3dfaa66f	0.12238776
36	0xbe13c222	-0.14429525
37	0x3df0e0c5	0.117616214
38	0xbe30fbc6	-0.17283544
39	0x3d7cc963	0.061715495
40	0xbdb0a441	-0.08625079
41	0x3da981d8	0.08276719
42	0x3dba478c	0.09095678
43	0x3d5ed0fb	0.054398518
44	0xbc09457e	-0.008378385
45	0xbe23c89b	-0.15994494
46	0x3d13f1ff	0.036119457
47	0xbd9abb38	-0.075552404
48	0x3e1fa559	0.15590419
49	0xbe1aa0c4	-0.1510039
50	0x3e31ebab	0.17375056
51	0xbe213405	-0.157425
52	0x3dfca63e	0.12336396
53	0xbd4ece47	-0.05048969
54	0xbdcb6936	-0.09932177
55	0xbe2ebc8a	-0.1706411
56	0xbd4489db	-0.04798303
57	0x3d8b81e6	0.068118855
58	0xbdb22dd0	-0.08700144
59	0xbd038cb5	-0.03211661
60	0xbe21ce2a	-0.15801302
61	0xbe286b05	-0.16447075
62	0xbcac5825	-0.021038124
63	0xbe2465f8	-0.16054523
64	0xbe128528	-0.14308608
65	0x3ca69882	0.020336393
66	0xbe012147	-0.1261035
67	0xbe302f1b	-0.1720547
68	0x3de14296	0.109990284
69	0x3e2f09a1	0.17093517
70	0xbe188b7b	-0.14896958
71	0xbdf9427a	-0.121708825
72	0x3d940116	0.072267696
73	0xbd0a0fe3	-0.033706557
74	0xbd84de39	-0.06487698
75	0xbd61a6e4	-0.0550908
76	0xbdb8d0a2	-0.090241686
77	0xbb245bfb	-0.0025079239
78	0x3da13823	0.07872035
79	0xbe2decc9	-0.16984858
80	0x3d1ec82a	0.03876511
81	0x3d1af13f	0.037827726
82	0x3d3c6327	0.045992997
83	0xbdf4f1bc	-0.1196017
84	0xbe05dcea	-0.13072553
85	0xbe22a118	-0.15881765
86	0x3e2c75b2	0.16841772
87	0xbe492fc3	-0.19647126
88	0xbe25da85	-0.1619664
89	0x3e3f7279	0.18696012
90	0xbe2c86f2	-0.16848353
91	0xbe0cb7ec	-0.13742036
92	0xbe08bf95	-0.13354333
93	0xbbcc012e	-0.0062257266
94	0xbe1eabfe	-0.15495297
95	0x3d18521e	0.037187688
96	0x3deeb6c7	0.11655956
97	0x3d5633d4	0.05229552
98	0x3de0e024	0.109802514
99	0x3c8709e2	0.016484205
100	0x3da1638a	0.07880314
101	0x3e3d21a8	0.1846987
102	0x3d22795a	0.03966651
103	0x3de21235	0.11038629
104	0x3c6da526	0.0145047065
105	0x3e36e531	0.17860867
106	0x3e114ebf	0.14190196
107	0xbca2e035	-0.0198823
108	0xbca25ef8	-0.019820675
109	0x3dc41981	0.09575177
110	0xbde1e534	-0.11030045
111	0xbdaf3dac	-0.08556685
112	0x3da3044b	0.07959803
113	0xbc4319ee	-0.011908038
114	0x3e3a127a	0.18171111
115	0xbc1d9e76	-0.0096203
116	0x3e2cec04	0.16886908
117	0xbe1e7aea	-0.15476575
118	0xbe3935d8	-0.18086946
119	0x3ca47902	0.020077232
120	0xbc8737bc	-0.016506068
121	0xbe0f41e5	-0.1398998
122	0x3e3efe0b	0.18651597
123	0x3c8fe954	0.017567314
124	0x3d94789a	0.072495654
125	0xbe25900e	-0.16168234
126	0x3de8725e	0.11349939
127	0x3c39b8dc	0.011335578

transformer_encoder.layers.0.self_attn.in_proj_weight f4 [384, 128]
0	0xbd212e66	-0.03935089
1	0xbd08d9aa	-0.033410706
2	0xbd48e4c5	-0.049046297
3	0xbd8461e6	-0.06463985
4	0x3dac8893	0.08424487
5	0x3d38322a	0.044969715
6	0xbd484932	-0.04889793
7	0x3d89840d	0.0671464
8	0x3dca8157	0.09887951
9	0xbcce9f14	-0.025222339
10	0x3a0b3500	0.0005310327
11	0x3d35562e	0.04427164
12	0xbd935c9a	-0.07195397
13	0x3c05a760	0.008157581
14	0x3d7effa2	0.06225551
15	0x3cbbcb44	0.022924073
16	0x3ccf6984	0.025318868
17	0xbd9b3696	-0.07578771
18	0x3daa275d	0.08308289
19	0x3c342470	0.0109950155
20	0xbdd65a58	-0.104664505
21	0x3d2ce146	0.042207025
22	0xbb819820	-0.0039549023
23	0x3c989994	0.01862792
24	0x3dadf353	0.08493676
25	0xbd5264e5	-0.05136575
26	0xbc281aa8	-0.010260262
27	0xbd3f6edc	-0.046736583
28	0x3d89036b	0.06690105
29	0xbd1f483c	-0.038887247
30	0x3da2b307	0.07944303
31	0x3d548446	0.05188396
32	0xbdb2a1fe	-0.08722304
33	0xbdd049c2	-0.10170318
34	0xbd73769a	-0.05943928
35	0x3d390636	0.04517194
36	0xbd809614	-0.06278625
37	0x3d8354a5	0.06412629
38	0x3cd4f28c	0.025994562
39	0xbca51e74	-0.020156123
40	0x3d16768e	0.036734156
41	0x3c679ee8	0.014137007
42	0x3c6570a8	0.01400391
43	0x3dd1f6d5	0.102521576
44	0xbdd2be83	-0.102902435
45	0x3d841ad1	0.06450427
46	0x3d1574b6	0.036488257
47	0x3da74111	0.08166707
48	0x3dcda3a9	0.10040981
49	0x3dbf3ca9	0.09337742
50	0x3dbbb6fd	0.091657616
51	0xbcbc7e04	-0.023009308
52	0x3c4ab938	0.012373261
53	0x3dc3e8c9	0.095658846
54	0xbc95a6dc	-0.018268041
55	0xbd747224	-0.059679165
56	0x3d86b8a5	0.06578187
57	0xbd4bc579	-0.04974887
58	0xbd4c5145	-0.049882192
59	0x3c774bd0	0.015093759
60	0xbd9afb77	-0.07567494
61	0x3dcce4e3	0.10004594
62	0xbc6764d8	-0.014123164
63	0x3d4f1ebe	0.050566427
64	0xbd8cbb4c	-0.068716615
65	0x3cc6de0c	0.024275802
66	0x3cc35744	0.023845322
67	0x3d435dfe	0.04769706
68	0x3db50963	0.08839681
69	0x3d21b07a	0.03947494
70	0x3d52868a	0.051397838
71	0xbd9da7ba	-0.07698007
72	0xbd340e36	-0.043958865
73	0xbdd22317	-0.10260599
74	0x3da21763	0.07914617
75	0x3dc7403d	0.09729049
76	0xbd539d1c	-0.051663503
77	0xbdc3c4e9	-0.09559042
78	0xbd8ba61a	-0.06818791
79	0xbc8f1498	-0.017465875
80	0xbd980531	-0.07422865
81	0xbd3c4195	-0.04596098
82	0x3d9924c7	0.07477718
83	0xbc947d44	-0.018126138
84	0xbd482054	-0.048858956
85	0xbdd36f40	-0.10323954
86	0xbd3896aa	-0.04506556
87	0x3caffeec	0.02148386
88	0x3ca71424	0.020395346
89	0xbd0b1d88	-0.03396371
90	0xbc506738	-0.012719922
91	0x3c073810	0.008253112
92	0xbdaf2f44	-0.08553937
93	0x3d92e0a9	0.07171757
94	0x3dd97eed	0.10619912
95	0xbdb66f8f	-0.08907997
96	0x3dc6fb8d	0.09715948
97	0xbcbefcb4	-0.023313858
98	0xbc8e6e04	-0.017386444
99	0xbd4a8c00	-0.04944992
100	0xbd0e5b42	-0.034755
101	0xbd0f7432	-0.03502292
102	0x3d6c7386	0.05772736
103	0x3d315356	0.043292366
104	0x3c15e508	0.009148844
105	0xbddd61e1	-0.108096845
106	0xbc3daa60	-0.011576265
107	0x3da308ff	0.079607
108	0x3d876de1	0.066127546
109	0x3aa291c0	0.0012403056
110	0x3d80dc73	0.06292047
111	0x3cf0c8b4	0.029392578
112	0xbd2c1cd4	-0.04201968
113	0xbc3fffe8	-0.011718728
114	0xbd5e7ea7	-0.054320004
115	0xbdc0b25e	-0.09409021
116	0xbd93e37e	-0.07221125
117	0xbd6f9e30	-0.05850047
118	0xbdbdfb4a	-0.09276445
119	0xbcf6fa70	-0.030148715
120	0xbc524aa0	-0.012835175
121	0x3dabd245	0.08389715
122	0x3d3614ba	0.04445336
123	0xbbfa5b80	-0.007640302
124	0xbd2d5066	-0.042313002
125	0xbd787c38	-0.06066534
126	0xbd6f1b3e	-0.05837559
127	0x3cab7bf4	0.020933129
128	0xbd58caab	-0.052927654
129	0xbd9c1916	-0.07621972
130	0xbdb95096	-0.09048574
131	0x3dba7729	0.09104759
132	0x3d4ecf3a	0.050490595
133	0x3dbb5147	0.09146362
134	0x3dd704b3	0.10498943
135	0x3d8b6557	0.068064384
136	0x3dd1b587	0.10239702
137	0x3c8ff544	0.017573006
138	0x3d6748e2	0.05646599
139	0x3dd8af09	0.1058026
140	0x3c496788	0.01229275
141	0xbd8bbcfc	-0.06823155
142	0x3da11a21	0.07866312
143	0x3d9e0777	0.077162676
144	0xbdb770f7	-0.08957093
145	0xbd5455c6	-0.051839612
146	0xbd59bba4	-0.053157464
147	0xbd891943	-0.066942714
148	0x3da8a42d	0.08234439
149	0x3dd97901	0.10618783
150	0x3dad9569	0.08475763
151	0x3dd2d66f	0.10294806
152	0x3dbb0989	0.09132678
153	0x3c970154	0.01843325
154	0xbdb28903	-0.08717539
155	0x3dd50d73	0.10402956
156	0xbdc3898c	-0.09547719
157	0x3dbb84a1	0.09156156
158	0xbd886ec7	-0.06661754
159	0x3d42888a	0.047493495
160	0xbd22f028	-0.039779812
161	0xbc55e100	-0.013054132
162	0xbdad6f1b	-0.08468457
163	0x3d2df366	0.04246845
164	0x3d8556af	0.06510674
165	0xbd4ccdfa	-0.050001122
166	0xbb822aa0	-0.0039723665
167	0x3cd53e5c	0.026030712
168	0x3d7682a6	0.06018319
169	0x3dc6eb81	0.097128876
170	0x3adb9080	0.0016751438
171	0xbd335a30	-0.04378718
172	0xbdcd3b85	-0.10021118
173	0x3d995a67	0.07487946
174	0xbddcd38c	-0.10782537
175	0x39bb9300	0.00035776943
176	0xbda80744	-0.08204511
177	0xbd1906c0	-0.037359953
178	0xbdd54760	-0.10414004
179	0x3d803201	0.062595375
180	0xbdb616aa	-0.088910416
181	0xbd56e84e	-0.052467637
182	0xbc0778d0	-0.00826855
183	0x3d897231	0.067112334
184	0xbd9235b8	-0.07139152
185	0x3dcb8c27	0.09938841
186	0xbd8c959a	-0.06864472
187	0x3db77c9b	0.089593135
188	0xbda9c680	-0.08289814
189	0x3d373366	0.04472675
190	0xbd071ad2	-0.032984562
191	0xbcf6a22c	-0.030106626
192	0x3d4c8a7a	0.04993675
193	0xbdb65276	-0.08902447
194	0xbd0f1608	-0.03493312
195	0x3cb36b54	0.021901764
196	0xbd829375	-0.063757814
197	0x3c7c8f70	0.015415058
198	0xbd9eadec	-0.07748017
199	0xbc913c34	-0.017728902
200	0xbdba819e	-0.09106754
201	0x3dc8b8d5	0.09800879
202	0x3cabe49c	0.020983033
203	0x3d679c9e	0.056545846
204	0xbc6181d8	-0.013763867
205	0xbd9c2a94	-0.07625309
206	0xbce36e1c	-0.027762465
207	0x3dd1dd8b	0.10247334
208	0xbc52a628	-0.012856998
209	0xbd14c38c	-0.0363193
210	0x3b225d60	0.0024774894
211	0x3dd39d63	0.103327535
212	0x3d64b21e	0.05583393
213	0xbdb8db33	-0.09026184
214	0xbdbd2d9a	-0.092372134
215	0xbdd393af	-0.10330903
216	0x3dd7b445	0.105324306
217	0x3d9ba18f	0.07599174
218	0x3d665622	0.056234486
219	0x3d43be1e	0.04778873
220	0xbc231f60	-0.009956211
221	0xbd42e219	-0.047578905
222	0xbd99a60c	-0.07502374
223	0xbd58bbd0	-0.052913487
224	0xbdb1fe2b	-0.08691057
225	0x3c7f9cf0	0.015601382
226	0x3c83f790	0.016109258
227	0x3c81aa1c	0.015828185
228	0xbd7e5c6f	-0.06209987
229	0x3db27a53	0.08714738
230	0xbd823451	-0.06357635
231	0xbcae451c	-0.021273188
232	0x3d2d3482	0.042286403
233	0xbcf622e4	-0.030045934
234	0xbd9646a6	-0.07337694
235	0xbdd5b226	-0.1043437
236	0xbd5cc674	-0.053900197
237	0x3dc7c1f9	0.09753794
238	0x3cebf9d4	0.02880565
239	0xbce33c34	-0.027738668
240	0xbc5b0f08	-0.013370283
241	0xbd99d35c	-0.07511017
242	0xba852cc0	-0.0010160431
243	0xbd239fc0	-0.03994727
244	0x3d3ca3da	0.0460547
245	0x3dae535f	0.085119955
246	0xbcd30d7c	-0.025763266
247	0xbcf88564	-0.030337043
248	0xbd8be153	-0.068300866
249	0x3d75d0e2	0.06001366
250	0x3cfc46c4	0.030795462
251	0xbd3b0224	-0.04565634
252	0x3da97149	0.082735606
253	0x3db4d405	0.08829502
254	0xbd8e8ff6	-0.06961052
255	0x3c1cd938	0.009573273

transformer_encoder.layers.0.self_attn.in_proj_bias f4 [384]
0	0x00000000	0.0
1	0x00000000	0.0
2	0x00000000	0.0
3	0x00000000	0.0
4	0x00000000	0.0
5	0x00000000	0.0
6	0x00000000	0.0
7	0x00000000	0.0
8	0x00000000	0.0
9	0x00000000	0.0
10	0x00000000	0.0
11	0x00000000	0.0
12	0x00000000	0.0
13	0x00000000	0.0
14	0x00000000	0.0
15	0x00000000	0.0
16	0x00000000	0.0
17	0x00000000	0.0
18	0x00000000	0.0
19	0x00000000	0.0
20	0x00000000	0.0
21	0x00000000	0.0
22	0x00000000	0.0
23	0x00000000	0.0
24	0x00000000	0.0
25	0x00000000	0.0
26	0x00000000	0.0
27	0x00000000	0.0
28	0x00000000	0.0
29	0x00000000	0.0
30	0x00000000	0.0
31	0x00000000	0.0
32	0x00000000	0.0
33	0x00000000	0.0
34	0x00000000	0.0
35	0x00000000	0.0
36	0x00000000	0.0
37	0x00000000	0.0
38	0x00000000	0.0
39	0x00000000	0.0
40	0x00000000	0.0
41	0x00000000	0.0
42	0x00000000	0.0
43	0x00000000	0.0
44	0x00000000	0.0
45	0x00000000	0.0
46	0x00000000	0.0
47	0x00000000	0.0
48	0x00000000	0.0
49	0x00000000	0.0
50	0x00000000	0.0
51	0x00000000	0.0
52	0x00000000	0.0
53	0x00000000	0.0
54	0x00000000	0.0
55	0x00000000	0.0
56	0x00000000	0.0
57	0x00000000	0.0
58	0x00000000	0.0
59	0x00000000	0.0
60	0x00000000	0.0
61	0x00000000	0.0
62	0x00000000	0.0
63	0x00000000	0.0
64	0x00000000	0.0
65	0x00000000	0.0
66	0x00000000	0.0
67	0x00000000	0.0
68	0x00000000	0.0
69	0x00000000	0.0
70	0x00000000	0.0
71	0x00000000	0.0
72	0x00000000	0.0
73	0x00000000	0.0
74	0x00000000	0.0
75	0x00000000	0.0
76	0x00000000	0.0
77	0x00000000	0.0
78	0x00000000	0.0
79	0x00000000	0.0
80	0x00000000	0.0
81	0x00000000	0.0
82	0x00000000	0.0
83	0x00000000	0.0
84	0x00000000	0.0
85	0x00000000	0.0
86	0x00000000	0.0
87	0x00000000	0.0
88	0x00000000	0.0
89	0x00000000	0.0
90	0x00000000	0.0
91	0x00000000	0.0
92	0x00000000	0.0
93	0x00000000	0.0
94	0x00000000	0.0
95	0x00000000	0.0
96	0x00000000	0.0
97	0x00000000	0.0
98	0x00000000	0.0
99	0x00000000	0.0
100	0x00000000	0.0
101	0x00000000	0.0
102	0x00000000	0.0
103	0x00000000	0.0
104	0x00000000	0.0
105	0x00000000	0.0
106	0x00000000	0.0
107	0x00000000	0.0
108	0x00000000	0.0
109	0x00000000	0.0
110	0x00000000	0.0
111	0x00000000	0.0
112	0x00000000	0.0
113	0x00000000	0.0
114	0x00000000	0.0
115	0x00000000	0.0
116	0x00000000	0.0
117	0x00000000	0.0
118	0x00000000	0.0
119	0x00000000	0.0
120	0x00000000	0.0
121	0x00000000	0.0
122	0x00000000	0.0
123	0x00000000	0.0
124	0x00000000	0.0
125	0x00000000	0.0
126	0x00000000	0.0
127	0x00000000	0.0
128	0x00000000	0.0
129	0x00000000	0.0
130	0x00000000	0.0
131	0x00000000	0.0
132	0x00000000	0.0
133	0x00000000	0.0
134	0x00000000	0.0
135	0x00000000	0.0
136	0x00000000	0.0
137	0x00000000	0.0
138	0x00000000	0.0
139	0x00000000	0.0
140	0x00000000	0.0
141	0x00000000	0.0
142	0x00000000	0.0
143	0x00000000	0.0
144	0x00000000	0.0
145	0x00000000	0.0
146	0x00000000	0.0
147	0x00000000	0.0
148	0x00000000	0.0
149	0x00000000	0.0
150	0x00000000	0.0
151	0x00000000	0.0
152	0x00000000	0.0
153	0x00000000	0.0
154	0x00000000	0.0
155	0x00000000	0.0
156	0x00000000	0.0
157	0x00000000	0.0
158	0x00000000	0.0
159	0x00000000	0.0
160	0x00000000	0.0
161	0x00000000	0.0
162	0x00000000	0.0
163	0x00000000	0.0
164	0x00000000	0.0
165	0x00000000	0.0
166	0x00000000	0.0
167	0x00000000	0.0
168	0x00000000	0.0
169	0x00000000	0.0
170	0x00000000	0.0
171	0x00000000	0.0
172	0x00000000	0.0
173	0x00000000	0.0
174	0x00000000	0.0
175	0x00000000	0.0
176	0x00000000	0.0
177	0x00000000	0.0
178	0x00000000	0.0
179	0x00000000	0.0
180	0x00000000	0.0
181	0x00000000	0.0
182	0x00000000	0.0
183	0x00000000	0.0
184	0x00000000	0.0
185	0x00000000	0.0
186	0x00000000	0.0
187	0x00000000	0.0
188	0x00000000	0.0
189	0x00000000	0.0
190	0x00000000	0.0
191	0x00000000	0.0
192	0x00000000	0.0
193	0x00000000	0.0
194	0x00000000	0.0
195	0x00000000	0.0
196	0x00000000	0.0
197	0x00000000	0.0
198	0x00000000	0.0
199	0x00000000	0.0
200	0x00000000	0.0
201	0x00000000	0.0
202	0x00000000	0.0
203	0x00000000	0.0
204	0x00000000	0.0
205	0x00000000	0.0
206	0x00000000	0.0
207	0x00000000	0.0
208	0x00000000	0.0
209	0x00000000	0.0
210	0x00000000	0.0
211	0x00000000	0.0
212	0x00000000	0.0
213	0x00000000	0.0
214	0x00000000	0.0
215	0x00000000	0.0
216	0x00000000	0.0
217	0x00000000	0.0
218	0x00000000	0.0
219	0x00000000	0.0
220	0x00000000	0.0
221	0x00000000	0.0
222	0x00000000	0.0
223	0x00000000	0.0
224	0x00000000	0.0
225	0x00000000	0.0
226	0x00000000	0.0
227	0x00000000	0.0
228	0x00000000	0.0
229	0x00000000	0.0
230	0x00000000	0.0
231	0x00000000	0.0
232	0x00000000	0.0
233	0x00000000	0.0
234	0x00000000	0.0
235	0x00000000	0.0
236	0x00000000	0.0
237	0x00000000	0.0
238	0x00000000	0.0
239	0x00000000	0.0
240	0x00000000	0.0
241	0x00000000	0.0
242	0x00000000	0.0
243	0x00000000	0.0
244	0x00000000	0.0
245	0x00000000	0.0
246	0x00000000	0.0
247	0x00000000	0.0
248	0x00000000	0.0
249	0x00000000	0.0
250	0x00000000	0.0
251	0x00000000	0.0
252	0x00000000	0.0
253	0x00000000	0.0
254	0x00000000	0.0
255	0x00000000	0.0

transformer_encoder.layers.0.self_attn.out_proj.weight f4 [128, 128]
0	0x3c81404b	0.015777728
1	0x3c5792c0	0.0131575465
2	0xbc763540	-0.015027344
3	0xbd10d402	-0.035358436
4	0xbd48f35a	-0.049060203
5	0xbc6491ec	-0.013950806
6	0xbb97866b	-0.004624178
7	0x3d95af12	0.07308783
8	0xbcc8649f	-0.024462042
9	0xbd856d26	-0.06514959
10	0x3d4ce1d9	0.050020073
11	0x3cc354b5	0.023844102
12	0xbce4f844	-0.027950414
13	0x3d5306f9	0.05152032
14	0xbbb229a2	-0.005437092
15	0x3cadcd07	0.021215929
16	0x3dc53c93	0.09630694
17	0x3cbd0c3f	0.023077128
18	0xbd9b5ebb	-0.07586428
19	0xbd84599f	-0.06462406
20	0x3d845166	0.06460838
21	0x3d0c92fd	0.034319866
22	0x3db229f5	0.08699409
23	0xbd9d4bb4	-0.07680455
24	0xbda5f175	-0.08102695
25	0xbcad2ad2	-0.021138582
26	0xbd843226	-0.064548776
27	0xbbb02701	-0.0053757434
28	0xbdc32c6f	-0.095299594
29	0x3d521c11	0.051296297
30	0x3d458c9f	0.04822981
31	0x3cc82d50	0.02443567
32	0xbce4112a	-0.027840216
33	0xbc0be5c1	-0.008538664
34	0x39f804a8	0.00047305715
35	0x3c075c79	0.008261793
36	0x3c5e2933	0.013559627
37	0x3d7c251b	0.061558824
38	0x3b6b150b	0.0035870697
39	0xbdaa44fb	-0.08313938
40	0x3c6ecfc5	0.014575903
41	0x3da8ab6e	0.082358226
42	0xbd1d3ec7	-0.038389947
43	0xbd1a2eb3	-0.037642192
44	0xbcfadbac	-0.030622326
45	0xbd831c20	-0.06401849
46	0xbbf6ce36	-0.0075319065
47	0x3d4f3a03	0.050592434
48	0x3d85f4d1	0.06540836
49	0xbd3fa855	-0.046791393
50	0x3c8ebae3	0.017423099
51	0x3ba49fe6	0.005023944
52	0xbd8201e2	-0.06348015
53	0xbd02d56a	-0.03194181
54	0xbdaa70ee	-0.08322321
55	0x3c37c8c2	0.011217298
56	0x3d612a5b	0.054972034
57	0xbda5315b	-0.080660544
58	0xbd1c6b0a	-0.038188018
59	0x3bf5bf63	0.0074996217
60	0xbd06cd8c	-0.03291087
61	0x3dbf73ad	0.09348235
62	0x3da58583	0.08082106
63	0xbc4140d0	-0.011795238
64	0x3d6923fb	0.05691908
65	0x3bf10e0e	0.007356412
66	0x3ce9881c	0.028507285
67	0xbd5f4605	-0.054510135
68	0xbc1a8a1a	-0.00943234
69	0xbd65ff7c	-0.056151852
70	0xbb9fee63	-0.004880713
71	0x3d880980	0.06642437
72	0x3d935949	0.07194764
73	0xbd83d602	-0.06437303
74	0x3ccdd8be	0.025127765
75	0x3b692329	0.0035573936
76	0x3bd7457b	0.006569562
77	0xbd19d6f5	-0.037558515
78	0x3d096e77	0.033552613
79	0x3c9cff02	0.019164566
80	0xbda29ec1	-0.07940436
81	0x3d9890ae	0.074494705
82	0xbd06f997	-0.03295287
83	0xbcf33c56	-0.029691856
84	0x3dae2c43	0.08504536
85	0xbc9d596a	-0.019207675
86	0x3cd646ca	0.026156802
87	0x3ce7665c	0.028247051
88	0xbd787ecd	-0.0606678
89	0x3d636674	0.05551763
90	0xbdaaf8d3	-0.08348241
91	0x3c79d784	0.015249137
92	0xb9d85a7b	-0.00041266144
93	0xbc071e1e	-0.008246927
94	0xbc105488	-0.008809216
95	0xbd984b5b	-0.07436248
96	0xbd50266f	-0.050817903
97	0x3d7c7a90	0.061640322
98	0x3d3778da	0.044792987
99	0xbd397899	-0.045281027
100	0x3c1e43c2	0.009659709
101	0x3be98be7	0.0071272734
102	0x3cd0c41b	0.025484135
103	0x3d99dbb6	0.0751261
104	0x3d999200	0.074985504
105	0x3d8d20a8	0.06890994
106	0xbd7a7861	-0.06114996
107	0x3d3caa7f	0.046061035
108	0xbd8cf6b2	-0.06882991
109	0x3c20de67	0.00981865
110	0x3c56ddfb	0.013114448
111	0xbca46e3e	-0.020072099
112	0xbd4eb377	-0.05046412
113	0xbd3d6267	-0.046236422
114	0x3d754404	0.059879318
115	0x3d3db725	0.04631724
116	0x3c124cab	0.008929412
117	0xbd899f91	-0.06719888
118	0x3d02077f	0.03174543
119	0xbce8e1e7	-0.028428031
120	0xbdaafa0f	-0.08348476
121	0x3da9a0ab	0.08282598
122	0xbd6df8f1	-0.058098737
123	0x3ccc8299	0.024964618
124	0xbcc87ccd	-0.024473572
125	0xbc9eb498	-0.019373223
126	0xbd09904b	-0.033584874
127	0x3d9d2366	0.07672767
128	0x3d79b885	0.060966987
129	0xbd53bf3a	-0.05169604
130	0xbc73b69c	-0.01487508
131	0xbd574e5f	-0.052564975
132	0xbce1771b	-0.027522614
133	0x3c0e0179	0.008667343
134	0xbce7e3e8	-0.028306916
135	0x3d55f6b0	0.052237213
136	0x3d3b9906	0.04580023
137	0xbc009a1f	-0.007849245
138	0x3d964550	0.07337439
139	0x3d895b51	0.0670687
140	0x3c4b3554	0.012402851
141	0x3db334eb	0.08750328
142	0x3d915993	0.07097163
143	0x3d9bde5a	0.076107696
144	0x3c8dd17b	0.017311802
145	0x3ca1c57b	0.019747486
146	0x3d3ccbfb	0.04609297
147	0x3d9bf7b5	0.07615606
148	0xbd13facf	-0.03612786
149	0x3b8d7995	0.004317472
150	0x3d218e48	0.03944233
151	0x3d9fe291	0.07806886
152	0xbd927607	-0.07151418
153	0x3d4beae1	0.049784545
154	0x3cd943a4	0.026521511
155	0xbd098c32	-0.033580966
156	0xbd96f20e	-0.07370387
157	0x3b77ecf3	0.0037830442
158	0xbda2b372	-0.07944383
159	0x3d1dcff8	0.038528413
160	0xbcc636fb	-0.024196139
161	0xbd1c1139	-0.038102362
162	0xbd902d52	-0.07039894
163	0xbc9ac922	-0.018894736
164	0xbd7d8b7e	-0.06190061
165	0xba877f79	-0.0010337672
166	0x3da4969f	0.08036541
167	0xbda610a8	-0.08108646
168	0x3d5da480	0.054111958
169	0xbb381b99	-0.0028092621
170	0xbb9cae3d	-0.004781513
171	0xbd3cd27b	-0.046099167
172	0x3d34d9c2	0.044152983
173	0xbc7e0924	-0.015505109
174	0x3db0e815	0.08638016
175	0x3c0d2b2a	0.008616248
176	0x3bfb70c7	0.007673356
177	0x3d9d3dac	0.076777786
178	0xbd240be8	-0.040050417
179	0x3cf9b805	0.030483255
180	0x3cb1bc71	0.021696301
181	0xbc555147	-0.013019866
182	0xbcec75d6	-0.028864782
183	0x3b014c1d	0.0019729205
184	0x3d701622	0.058614857
185	0xbd8ac4db	-0.067758285
186	0x3c33e074	0.010978807
187	0x3d89f424	0.06736019
188	0xbd5190c6	-0.051163457
189	0xbdc5a858	-0.0965125
190	0x3d8d499f	0.06898808
191	0x3cd5e18d	0.026108528
192	0x3c133fb9	0.008987361
193	0xbd8b6955	-0.068072
194	0xbbc0d56c	-0.005884817
195	0x3d408bff	0.04700851
196	0x3d78449b	0.060612302
197	0x3d1de415	0.038547594
198	0xbd97947a	-0.074013665
199	0xbd890ab4	-0.066914946
200	0x3ca31d82	0.019911531
201	0x3d7388f6	0.059456788
202	0x3d837e61	0.06420589
203	0x3d8cadcd	0.06869087
204	0x3da18257	0.078861885
205	0x3db426a0	0.0879643
206	0xbcd412aa	-0.025887806
207	0x3c3f714a	0.011684725
208	0xbd23a42d	-0.039951492
209	0x3d2ab05c	0.041672096
210	0x3d012643	0.03153063
211	0xbd3f6d49	-0.04673508
212	0xbc3720df	-0.011177271
213	0x3d73a7fa	0.059486367
214	0x3ceec22e	0.029145326
215	0x3d858920	0.06520295
216	0xbccd0896	-0.025028508
217	0xbc747935	-0.014921476
218	0xbc504abf	-0.012713133
219	0x3b162548	0.0022910405
220	0xbd8490ea	-0.06472953
221	0xbd5bb506	-0.053639434
222	0x3d88e071	0.06683434
223	0x3d8ef2c6	0.06979899
224	0x3c909e75	0.017653683
225	0x3d533eb4	0.05157347
226	0x3d380d86	0.044934772
227	0x3c90f700	0.017695904
228	0x3ce0cc5d	0.027441198
229	0xbc2ae0fa	-0.010429615
230	0xbbed5a44	-0.0072434265
231	0x3d0cf2fa	0.034411408
232	0x3dc1a00c	0.09454355
233	0x3b3aedd2	0.00285231
234	0xbca58bd8	-0.020208284
235	0x3cf022e6	0.029313516
236	0xbab207f4	-0.0013582692
237	0x3d206949	0.039162908
238	0xbc50ec5f	-0.012751668
239	0xbd2426c6	-0.04007604
240	0xbcdbe70d	-0.026843572
241	0x3c0720ba	0.008247549
242	0xbd506de9	-0.05088607
243	0xbd47482c	-0.048652813
244	0xbd7a2268	-0.06106797
245	0x3d0b0f11	0.033949915
246	0x3d9bc5f6	0.076061174
247	0xbd867a6d	-0.065663196
248	0xbd6be38e	-0.05759006
249	0x3c840f59	0.0161206
250	0x3da8a42d	0.08234439
251	0xbd772f6a	-0.060347952
252	0x3ce257bb	0.027629724
253	0xbd06cd1a	-0.032910444
254	0xbcc08990	-0.023503095
255	0x3c9c9760	0.01911515

transformer_encoder.layers.0.self_attn.out_proj.bias f4 [128]
0	0xbc970c9b	-0.018438628
1	0x3c98ba12	0.018643413
2	0xbbb2e4b0	-0.0054593906
3	0x3c90a9b4	0.017659046
4	0xbc8d77eb	-0.017269095
5	0xbc2c2615	-0.010507126
6	0xbbd83b91	-0.0065988977
7	0x3c936c58	0.017995998
8	0xb9fe52db	-0.00048508387
9	0x3ceb29e8	0.028706506
10	0xbc38db45	-0.011282747
11	0xbc2bfa1e	-0.010496644
12	0x3c843717	0.01613955
13	0xbc8230f1	-0.015892478
14	0x3c1b3dac	0.009475153
15	0x3abbc5e9	0.001432595
16	0x3c993d83	0.018706089
17	0x39bc2425	0.00035885084
18	0xbc2a5fc5	-0.01039881
19	0x3cc11c94	0.023573197
20	0x39e43334	0.00043525698
21	0x3c4a3bd7	0.0123433685
22	0x3adb543b	0.0016733477
23	0x3cdba104	0.026810177
24	0x3c0c2b7d	0.00855529
25	0x3ca62df1	0.020285578
26	0x3c066846	0.008203572
27	0x3c168c7d	0.009188768
28	0x3cd47d48	0.025938645
29	0x3c00d8b4	0.007864166
30	0xbc1a1951	-0.00940545
31	0xbcbd5c18	-0.023115203
32	0xbae43df1	-0.001741348
33	0xbc7c2b6d	-0.015391213
34	0x3c30cb1b	0.010790612
35	0x3ae7b9da	0.001767929
36	0xbbe7deaf	-0.0070761065
37	0x3b9e349a	0.004828048
38	0xbbc49dae	-0.006000242
39	0xbb5d7129	-0.0033789373
40	0xbbd8d6fd	-0.0066174255
41	0xbc1161a4	-0.008873377
42	0x3bad274d	0.005284226
43	0xbc8bcb74	-0.017064787
44	0x3a7921d8	0.00095036393
45	0x3c4cb3a7	0.012494004
46	0x3cb8bec3	0.0225519
47	0x3af52b08	0.0018704841
48	0x3a4e85cf	0.00078782154
49	0xbb874a0d	-0.0041287006
50	0x3ad056c0	0.0015894994
51	0xbc02de5c	-0.007987585
52	0xba654532	-0.00087459676
53	0xbbbd28f1	-0.005772703
54	0x3c338b04	0.010958437
55	0xbb9cc576	-0.0047842814
56	0xbc23a56f	-0.009988173
57	0xbb6335b0	-0.0034669451
58	0x3bd4c0a2	0.00649269
59	0x3b836bca	0.004010652
60	0xbaab1603	-0.0013052825
61	0x3c9e5efe	0.019332405
62	0x3c6fb8d7	0.014631472
63	0xba889595	-0.0010420555
64	0x3b2f9822	0.002679356
65	0x3c025b62	0.007956358
66	0x3a0415b0	0.0005038632
67	0xbc602361	-0.01368031
68	0xbd4e230a	-0.050326385
69	0xbc10c38a	-0.008835683
70	0x3c19ed89	0.009395012
71	0xbc865e6d	-0.016402448
72	0x3b1248f3	0.0022321313
73	0xbc2228dc	-0.009897437
74	0xbae49e1d	-0.0017442141
75	0x3a668b5c	0.000879457
76	0xbc18f223	-0.009335074
77	0xbc8bf046	-0.017082345
78	0x3a9339d0	0.001123244
79	0x3cb2d444	0.021829732
80	0xbb8ccc19	-0.0042967913
81	0x3c309d78	0.010779731
82	0x3c2d8d09	0.010592707
83	0xbc3ae3c5	-0.011406844
84	0xbc3710d5	-0.011173447
85	0xbbb05950	-0.0053817406
86	0xbae4fd98	-0.0017470596
87	0x3b196aa4	0.002340951
88	0xbc3b7737	-0.011441997
89	0xbc27b7d1	-0.010236696
90	0xbcda93cf	-0.026681809
91	0x3d0fbb14	0.03509052
92	0xba4c13d1	-0.00077849353
93	0x3c66d5b1	0.014089034
94	0xbcd12c6c	-0.025533877
95	0xbcb92395	-0.022599975
96	0xbae37ace	-0.0017355324
97	0xbb0ca2eb	-0.0021459411
98	0x39c15370	0.00036873994
99	0xbc0ac352	-0.00846942
100	0x3c84f5e6	0.016230535
101	0x3c553568	0.013013221
102	0xbb21e43d	-0.002470269
103	0xbc97e350	-0.018541008
104	0xbc9310f4	-0.01795242
105	0xbc36800b	-0.011138926
106	0xbc124bd3	-0.008929211
107	0xbb141d74	-0.0022600563
108	0x3aeb9d33	0.0017975926
109	0xbcb3b119	-0.021935033
110	0xbb97ac13	-0.004628667
111	0x3b31063f	0.002701178
112	0xbc492ba6	-0.012278473
113	0xbd3a61b0	-0.04550332
114	0x3d14f0fc	0.036362633
115	0x39f431c1	0.00046576376
116	0x3c935c85	0.017988453
117	0xbc23ebb9	-0.010004931
118	0xb6893cbc	-4.0899886e-06
119	0x3bddca8b	0.00676853
120	0xbc028f13	-0.007968682
121	0xbb60b21a	-0.0034285844
122	0xbbe96230	-0.0071223006
123	0xbc8783fc	-0.016542427
124	0xbcf9c776	-0.030490618
125	0x3c6d7378	0.014492862
126	0xbab94408	-0.0014134655
127	0x3cf8d8e6	0.030376863

transformer_encoder.layers.0.linear1.weight f4 [128, 128]
0	0x3d33a5ec	0.043859407
1	0xbe087caf	-0.13328813
2	0xbdccbedf	-0.09997343
3	0xbc623ae4	-0.013807986
4	0x3de5f742	0.11228801
5	0x3dafff28	0.08593589
6	0xbe0d2ba4	-0.13786179
7	0xbd081977	-0.03322741
8	0x3d9b4cb9	0.07582993
9	0x3af837fc	0.0018937583
10	0xbd7da7d5	-0.061927635
11	0xbd7a474e	-0.061103158
12	0x3d9dc71b	0.07703992
13	0xbd8b6630	-0.068066
14	0x3d78c3f0	0.060733736
15	0xbc5fdc92	-0.013663428
16	0x3dc9a5e7	0.098460965
17	0xbd110840	-0.03540826
18	0x3d069400	0.032855988
19	0xbcc31621	-0.023814263
20	0xbd2801e9	-0.041017447
21	0x3d20e411	0.03928
22	0xbdb64760	-0.089003325
23	0xbdb54391	-0.08850778
24	0x3d542623	0.051794183
25	0x3d035f94	0.032073572
26	0x3cb5b5b1	0.022181364
27	0xbc751d1b	-0.014960553
28	0xbda102f5	-0.07861892
29	0xbd062249	-0.03274754
30	0xbca7a2df	-0.020463405
31	0x3decf0bb	0.11569353
32	0x3a9c9ae0	0.0011948012
33	0x3ce6d254	0.028176464
34	0xbd7579f7	-0.059930768
35	0x3d0f041e	0.034916036
36	0x3d8095b5	0.06278554
37	0xbdfe998e	-0.12431632
38	0x3d1a9e6a	0.03774873
39	0x3d2b5ff4	0.041839555
40	0x3dde6419	0.10858936
41	0xbe0edb17	-0.13950764
42	0xbd19b14e	-0.037522607
43	0x3c147952	0.009062128
44	0x3d23a64a	0.039953507
45	0x3da7fc73	0.08202448
46	0x3c7a999a	0.0152954105
47	0xbc9435a4	-0.018091984
48	0xbd4c78cb	-0.049919885
49	0xbc26adff	-0.01017332
50	0xbdab89a8	-0.08375865
51	0x3d1f8a4d	0.038950253
52	0x3d88dacd	0.06682358
53	0xbdf0c963	-0.117571615
54	0x3ddd8c6f	0.10817801
55	0xbd433fee	-0.04766839
56	0xbd86a5cb	-0.06574591
57	0x3cfb9043	0.030708438
58	0xbccd5226	-0.025063585
59	0xbdae6343	-0.085150264
60	0x3ce122e3	0.027482456
61	0x3c96ac1c	0.018392615
62	0xbc8a2292	-0.016862188
63	0x3d0d8201	0.03454781
64	0x3d302910	0.04300791
65	0x3d0876ac	0.0333163
66	0xbd850656	-0.06495349
67	0xbd94ee27	-0.072719865
68	0xbdb22238	-0.08697933
69	0x3bf86783	0.007580699
70	0x3d2003c5	0.039066095
71	0xbd662be4	-0.0561942
72	0x3d9b1336	0.075720236
73	0x3cd68fb5	0.026191572
74	0xbb696319	-0.0035612045
75	0xbdf78bba	-0.120871976
76	0x3d91e229	0.07123215
77	0x3db00632	0.08594932
78	0xbdc11cb7	-0.09429305
79	0xbccf1a7d	-0.025281185
80	0x3da773e1	0.08176399
81	0xbd0b8e18	-0.034071058
82	0xbd2626e9	-0.04056445
83	0xbd8ec18f	-0.06970512
84	0x3c1049a8	0.0088066235
85	0x3dfebb79	0.12438101
86	0xbd5527c1	-0.052039865
87	0x3d1b80f0	0.03796476
88	0xbcbf48b4	-0.023350097
89	0x3d17eae3	0.03708924
90	0x3ca90abf	0.020635007
91	0xbdbce4b0	-0.09223306
92	0xbd2648cd	-0.040596772
93	0x3d2864fc	0.04111193
94	0x3d820f7c	0.0635061
95	0x3c709921	0.014684946
96	0x3d384b1a	0.044993497
97	0xbb9b3930	-0.004737042
98	0x3d32f1d9	0.043687675
99	0x3b13bbe3	0.002254241
100	0x3d0aaa79	0.03385398
101	0x3d2905e2	0.041265376
102	0xbce0fb07	-0.02746345
103	0xbd1b8f20	-0.03797829
104	0xbde12dd6	-0.10995071
105	0xbdb20fd0	-0.08694422
106	0x3c61965c	0.013768759
107	0xbbb07ff3	-0.0053863465
108	0x3d81d452	0.06339325
109	0x3d729d15	0.059231836
110	0x3dc91376	0.09818165
111	0xbcd41993	-0.025891101
112	0xbd8d8ebf	-0.06911992
113	0xbc8df18a	-0.017327089
114	0xbd315d67	-0.043301966
115	0x3db32350	0.0874697
116	0xbbf298ef	-0.007403485
117	0x3dcea8ec	0.10090813
118	0xbd55d261	-0.052202586
119	0x3cac43c3	0.021028405
120	0x3d15acae	0.036541633
121	0xbb366bd3	-0.0027835264
122	0xbdd098d3	-0.10185399
123	0xbbb919ad	-0.0056488127
124	0x3d78e12e	0.060761623
125	0xbd77cf17	-0.06050023
126	0xbd126281	-0.035738472
127	0x3d84d674	0.06486216
128	0xbd7123f9	-0.058872197
129	0xbb55a501	-0.003259957
130	0x3cdc0c3d	0.026861304
131	0x3d76cddc	0.060254917
132	0x3c9ed02a	0.01938637
133	0xbd8e6e3e	-0.06954621
134	0x3d960daa	0.07326825
135	0xbd64199f	-0.055688497
136	0x3d3b5a7c	0.04574059
137	0x3cded50e	0.027201202
138	0x3d6ebb5c	0.05828415
139	0x3c93f5ae	0.018061485
140	0x3d17bb24	0.037043706
141	0x3d219280	0.039446354
142	0x3ddb8d8a	0.10720356
143	0xbc875bbf	-0.01652324
144	0xbceef35f	-0.029168783
145	0xbdbce34a	-0.092230394
146	0xbb4b977b	-0.0031065631
147	0x3d9fe875	0.078080095
148	0xbd486e3b	-0.04893325
149	0x3d890f70	0.066923976
150	0x3d041cc2	0.032253988
151	0x3c37eff1	0.01122664
152	0x3d425d0a	0.04745201
153	0xbc2b8fe1	-0.010471315
154	0xbd48b097	-0.048996534
155	0xbc149229	-0.00906805
156	0xbd241de5	-0.040067572
157	0xbd9540b8	-0.07287735
158	0x3c9a1bf3	0.018812155
159	0x3d89a743	0.06721356
160	0x3ce2fea4	0.027709313
161	0xbd8575cd	-0.06516609
162	0x3c09e427	0.008416212
163	0xbd522ab1	-0.051310245
164	0x3d9ca477	0.07648557
165	0x3d554349	0.05206612
166	0xbd0ca49a	-0.034336664
167	0x3cdeeadb	0.027211597
168	0xbd3020a7	-0.04299989
169	0x3c598765	0.0132769095
170	0x3d6ac632	0.05731792
171	0x3ca84f02	0.020545486
172	0xbcdea3fc	-0.027177803
173	0x3c9edd33	0.019392585
174	0x3d88f29f	0.06686901
175	0x3b2e3b42	0.0026585613
176	0x3d05140f	0.032489832
177	0x3dc0a073	0.09405603
178	0xbd9e5b9c	-0.07732317
179	0x3d149e4b	0.036283772
180	0x3d0e9083	0.034805786
181	0x3dcab4b1	0.098977454
182	0xbcaa3a76	-0.02077983
183	0xbd51ab85	-0.051188964
184	0x3cb48d50	0.02204004
185	0xbd59f0c1	-0.053208116
186	0x3d137adf	0.03600585
187	0x3cba396e	0.022732463
188	0xbd29c7d3	-0.041450333
189	0xbd245d01	-0.040127758
190	0x3cdd7c3e	0.027036782
191	0xbb0ec68b	-0.0021785821
192	0xbc3dbb8f	-0.011580362
193	0x3d7b992c	0.061425373
194	0x3d2cafe8	0.042159945
195	0xbdce9ccd	-0.10088501
196	0x3bdb22d0	0.0066874996
197	0xbd466ee9	-0.048445616
198	0xbd547ef8	-0.0518789
199	0xbc934bef	-0.017980544
200	0x3da98c54	0.082787186
201	0x3d8b75a4	0.068095475
202	0x3d20ed5b	0.03928886
203	0xbd309d6f	-0.04311889
204	0xbd860703	-0.06544306
205	0x3d739a99	0.059473608
206	0xbd94c0e2	-0.07263352
207	0x3d2ac919	0.041695688
208	0x3d98f4cd	0.07468567
209	0x3d174282	0.03692866
210	0xbd854d78	-0.065089166
211	0x3d441de6	0.047880076
212	0x3d9dbca8	0.07701999
213	0x3ba7e418	0.0051236264
214	0xbc0308d4	-0.00799771
215	0x3ca3debc	0.020003669
216	0xbdaa6c70	-0.08321464
217	0xbd9878da	-0.074449256
218	0x3c57e855	0.013177951
219	0xbbe02836	-0.006840731
220	0xbdd10453	-0.10205903
221	0xbd30cc5a	-0.043163635
222	0x3d2ad785	0.04170944
223	0xbca641c3	-0.02029503
224	0xbc75ade8	-0.014995076
225	0xbd902cd5	-0.07039801
226	0xbd5e0cd7	-0.054211464
227	0xbd33b0e8	-0.043869883
228	0x3d5c1914	0.053734854
229	0x3cdbf1cc	0.026848696
230	0x3d7199f1	0.0589847
231	0x3ccf835a	0.025331188
232	0xbd6a455e	-0.05719506
233	0x3d828278	0.06372541
234	0xbdbe5634	-0.09293786
235	0x3cdab87a	0.026699293
236	0xbd5afef1	-0.053465787
237	0xbc62c792	-0.013841527
238	0xbd8b6462	-0.06806256
239	0x3c0a5c42	0.008444848
240	0x3c71b73c	0.014753159
241	0xbd8bc258	-0.068241775
242	0xbdb9151a	-0.09037228
243	0x3d7e8a3a	0.062143542
244	0xbc8a97fb	-0.016918173
245	0x3dab16b5	0.083539404
246	0x3cdefe8e	0.02722099
247	0xbd33cf15	-0.04389866
248	0xbc6c4b00	-0.014422178
249	0x3c2337de	0.00996205
250	0xbd6b2ea0	-0.057417512
251	0x3d279677	0.04091498
252	0xbcabdf75	-0.020980576
253	0xbd50637e	-0.050876133
254	0x3d0a0d88	0.03370431
255	0xbd0d22a9	-0.034456883

transformer_encoder.layers.0.linear1.bias f4 [128]
0	0x3c3025d8	0.01075121
1	0xbdceeeb7	-0.10104125
2	0xbd668785	-0.056281585
3	0xbddab8d3	-0.10679784
4	0xbdbb26c9	-0.09138257
5	0xbd0d5769	-0.03450719
6	0x3ce67086	0.028129827
7	0xbcef4bd1	-0.029210957
8	0x3d683a6e	0.056696348
9	0xbd232e0a	-0.03983883
10	0x3cbe573c	0.023234956
11	0xbd8324e0	-0.06403518
12	0xbda030a3	-0.07821777
13	0xbdeb43f1	-0.11487568
14	0xbd6c179c	-0.057639703
15	0x3c82313b	0.015892616
16	0x3c966af2	0.018361542
17	0xbd34d8b9	-0.044151995
18	0xbd287624	-0.041128293
19	0x3d6d5224	0.057939664
20	0xbce504b7	-0.02795635
21	0xbcf1d755	-0.029521624
22	0x3cd6c3e9	0.026216464
23	0xbdd4cd89	-0.10390765
24	0x3bd66269	0.006542493
25	0xbb9c2e78	-0.0047662817
26	0xbd5df307	-0.054186847
27	0xbc51f3e3	-0.012814495
28	0x3aa57344	0.0012622853
29	0x3cba9da5	0.022780249
30	0xbd691098	-0.05690059
31	0xbd25365a	-0.040335037
32	0x3acc3118	0.0015578596
33	0xbc38a18b	-0.011268984
34	0xbd3aff0e	-0.045653395
35	0xbd8b6e16	-0.068081066
36	0xbdefb398	-0.11704177
37	0x3d373406	0.044727348
38	0x3d9a1f8c	0.07525548
39	0xbd4c95a4	-0.049947396
40	0xbd67e326	-0.05661311
41	0xbd8d7c7d	-0.0690851
42	0x3d1b9534	0.037984088
43	0x3c841a16	0.01612572
44	0xbd1d909b	-0.038467985
45	0x3d5fe639	0.054662917
46	0x3c9f67d7	0.019458694
47	0xbdc9c473	-0.09851923
48	0x3cba0f88	0.022712484
49	0x394872cf	0.00019116256
50	0xbdc30af6	-0.09523575
51	0x3c392725	0.011300837
52	0xbde6e7c4	-0.112746745
53	0xbd18b8d2	-0.037285633
54	0xbd1ed567	-0.038777735
55	0xb8b51a90	-8.6357e-05
56	0xbc826dcf	-0.015921501
57	0x3c9eee88	0.01940085
58	0x3d851ac0	0.06499243
59	0x3cdfa45d	0.027300054
60	0xbd1b1e15	-0.037870485
61	0xbc39e7d7	-0.011346779
62	0xbd155859	-0.036461208
63	0xbd6ef524	-0.058339253
64	0xbd712dc0	-0.05888152
65	0x3c5e2a70	0.013559923
66	0x3d54be26	0.051939152
67	0xbb8f0bc7	-0.0043654176
68	0xbe1da4bb	-0.15394871
69	0xbbbe3f62	-0.0058058957
70	0xbd8f4467	-0.069954686
71	0xbd83c38f	-0.06433784
72	0xbd215619	-0.03938875
73	0xbdc815d6	-0.0976979
74	0xbd28c7f6	-0.041206323
75	0xbd9c0634	-0.07618371
76	0xbd0dbf1c	-0.034606084
77	0xbd808122	-0.0627463
78	0xbdb4e09e	-0.08831905
79	0x3ba38024	0.004989641
80	0xbd8892fc	-0.0666866
81	0xbd2ff9c0	-0.04296279
82	0x3820425c	3.8208775e-05
83	0xbdd6b2f3	-0.104833506
84	0xbdb748f7	-0.08949464
85	0xbcaa2a95	-0.020772258
86	0xbd224044	-0.03961207
87	0x3b814418	0.003944885
88	0xbbe96835	-0.007123018
89	0xbc2a799f	-0.010404973
90	0x3ce6ab3e	0.028157827
91	0xbd8b6486	-0.06806283
92	0xbce3e703	-0.027820116
93	0x3cb646fc	0.022250645
94	0xbd311e7b	-0.04324196
95	0xbcc20868	-0.023685649
96	0x3cbf69c5	0.023365865
97	0xbd1ee668	-0.03879395
98	0xbdd261f5	-0.1027259
99	0xbdcbfb4b	-0.0996004
100	0xbda3767d	-0.07981584
101	0xbd8cba70	-0.06871498
102	0xbdaab57e	-0.08335398
103	0x3cd5a195	0.026078025
104	0xbcef4e02	-0.029212002
105	0xbd92ef5a	-0.07174559
106	0xbdb97006	-0.0905457
107	0x3d32555d	0.04353844
108	0x3c0eb526	0.008710181
109	0x3d6e22c1	0.058138613
110	0xbb308a5f	-0.0026937944
111	0xbd39cd12	-0.045361586
112	0x3ae73211	0.0017638822
113	0x3d52cffb	0.051467877
114	0xbdcde773	-0.10053911
115	0xbdc4ae9f	-0.09603619
116	0xbd93f7ec	-0.07225022
117	0xbdade622	-0.0849116
118	0xbcc13950	-0.023586899
119	0x3cbab23a	0.022790063
120	0x3cb08d41	0.02155173
121	0xbde49d56	-0.11162822
122	0xbd19f694	-0.03758867
123	0x3cfb0525	0.030642102
124	0xbdc9dd86	-0.09856705
125	0xbd898f4f	-0.06716787
126	0xbd903844	-0.07041982
127	0xbc4312ac	-0.011906307

transformer_encoder.layers.0.linear2.weight f4 [128, 128]
0	0xbdb0ddc9	-0.08636052
1	0xbd371810	-0.044700682
2	0xbd7e69e9	-0.062112723
3	0x3c64565e	0.013936607
4	0xbc8927ab	-0.016742548
5	0xbd977f11	-0.07397283
6	0xbd3fb426	-0.046802662
7	0x3db42cff	0.08797645
8	0xbca0cba7	-0.019628359
9	0x3c7930cb	0.015209387
10	0x3dbe225c	0.09283897
11	0xbc55bb83	-0.013045195
12	0x3d23a85c	0.039955482
13	0x3d206a46	0.03916385
14	0xbd86e099	-0.06585807
15	0xbbdff49e	-0.0068345806
16	0x3d842dec	0.064540714
17	0x3cbda095	0.02314786
18	0xbdca3af5	-0.098745264
19	0xbd634905	-0.05548956
20	0x3c8f9dda	0.017531324
21	0x3cfd2ba0	0.030904591
22	0xbcdb2823	-0.026752537
23	0xbcbb151e	-0.022837218
24	0xbd868484	-0.06568244
25	0x3b3b31ee	0.0028563696
26	0x3d4d85c8	0.050176412
27	0xbcb66bd9	-0.022268223
28	0xbc8007ec	-0.015628777
29	0x3d0f6b11	0.035014216
30	0xbdeda0da	-0.116029456
31	0xbd82eb0a	-0.063924864
32	0xbcb38def	-0.021918265
33	0x3d65271f	0.055945512
34	0xbd8492eb	-0.06473335
35	0x3d743cc3	0.05962826
36	0x3d696f34	0.056990817
37	0xbda181c1	-0.07886077
38	0x3c83cdfc	0.016089432
39	0xbd1ae4a8	-0.03781572
40	0xbc054615	-0.008134385
41	0xbda19e42	-0.078915134
42	0xbd4ac1c4	-0.049501196
43	0x3d668462	0.056278594
44	0xbd1b5f1a	-0.037932493
45	0x3ae102f4	0.0017167018
46	0x3c9b4f6a	0.018958766
47	0x3d559e91	0.052153174
48	0xbd8e3fe3	-0.06945779
49	0xbd3de9c7	-0.046365526
50	0x3dde5af0	0.10857189
51	0x3bc2575a	0.0059308233
52	0x3db5616c	0.088564724
53	0xbda84515	-0.08216301
54	0xbddb0ebe	-0.10696171
55	0x3cbff810	0.023433715
56	0x3d01030a	0.03149704
57	0x3d4320b7	0.04763862
58	0x3d49884c	0.04920225
59	0x3d99e342	0.07514049
60	0xbd5ad401	-0.05342484
61	0xbd34fadd	-0.044184554
62	0xbdb494cd	-0.08817444
63	0x3dbd27bf	0.092360966
64	0xbc7f1a73	-0.015570271
65	0x3db43495	0.08799092
66	0x3d690219	0.056886766
67	0x3cb017af	0.021495668
68	0x3c8dc6e6	0.017306756
69	0x3d9e8286	0.07739739
70	0xbc3424a3	-0.010995063
71	0xbcf2fa46	-0.029660355
72	0xbd664720	-0.056220174
73	0x3d5e9437	0.054340567
74	0xbdb5fc60	-0.08886027
75	0xbe10e3e0	-0.14149427
76	0x3c4b6b08	0.012415655
77	0x3c3f3b50	0.011671856
78	0xbb7d0d5c	-0.00386127
79	0xbdbaf5ea	-0.09128936
80	0xbcc84dd4	-0.024451174
81	0x3c5b7468	0.013394453
82	0x3d028b21	0.031870965
83	0x3d0455d4	0.032308415
84	0x3d7faef9	0.062422726
85	0x3d3a9625	0.045553345
86	0xbd73846d	-0.059452463
87	0xbc007c47	-0.00784213
88	0x3d4e147d	0.050312508
89	0xbc9a3bed	-0.018827403
90	0xbd621424	-0.05519499
91	0x3dbd182b	0.09233125
92	0xbc6fea47	-0.014643258
93	0x3d30772e	0.04308241
94	0x3ccf73b1	0.02532372
95	0x3da7dff9	0.08197016
96	0xbb51f587	-0.0032037215
97	0xbc3ee2db	-0.011650766
98	0x3c62a976	0.013834348
99	0xbd20ed0e	-0.039288573
100	0x3cf5f1dd	0.030022556
101	0xbd9cf004	-0.07662967
102	0x3d05e083	0.032684814
103	0x3da87704	0.082258254
104	0x3d9508c8	0.072770655
105	0xbd5bec73	-0.053692292
106	0xbdba7739	-0.09104771
107	0xbe0774e9	-0.13228191
108	0xbd9d4a56	-0.07680194
109	0x3b7d3bec	0.0038640453
110	0x3df0ce54	0.11758104
111	0xbd92d3e3	-0.071693204
112	0xbb68cdd7	-0.003552308
113	0x3d4a448e	0.049381785
114	0x3c8782da	0.016541887
115	0x3d91cba1	0.07118917
116	0x3d862c32	0.06551398
117	0xbcdb8bc2	-0.02680004
118	0xbcba851a	-0.022768546
119	0xbdbfea8e	-0.0937091
120	0x3dac81d6	0.08423202
121	0xbc039d78	-0.008033149
122	0xbd235ecb	-0.039885323
123	0x3bae92eb	0.0053275726
124	0x3d38b1e9	0.045091543
125	0x39ccb298	0.00039042975
126	0x3cbb776a	0.02288409
127	0x3df61ce2	0.12017228
128	0x3d392eaa	0.045210518
129	0xbd2da063	-0.042389285
130	0xbd033b79	-0.03203914
131	0xbd566cf4	-0.05235
132	0xbd8339a6	-0.0640748
133	0xbd9cccde	-0.07656263
134	0xbd51e750	-0.051245987
135	0xbc991eae	-0.018691387
136	0x3c832dcc	0.016013049
137	0xbe0a50a9	-0.13507332
138	0x3d0791d9	0.033098076
139	0x3e11d6d4	0.14242107
140	0xbd9ac0bc	-0.075562924
141	0xbd58c04a	-0.052917756
142	0xbdc9d0df	-0.09854292
143	0x3d1aa230	0.03775233
144	0x3e043832	0.12912062
145	0x3c4100ba	0.011779958
146	0xbd69fe8d	-0.057127524
147	0xbdaca84a	-0.08430536
148	0xbcc4edc5	-0.024039159
149	0x3cd3382f	0.025783626
150	0xbd8756c3	-0.06608345
151	0xbda7f0a2	-0.08200194
152	0xbd26f930	-0.040764987
153	0x3cfcb708	0.030848995
154	0x39ab0a38	0.00032623275
155	0x3d943790	0.0723716
156	0xbd92fd3a	-0.071772054
157	0x3d91b28a	0.07114132
158	0x3c584eeb	0.013202409
159	0x3cda912b	0.02668055
160	0xbd53cacf	-0.051707085
161	0x3d676c7c	0.056499943
162	0xbdb6444a	-0.08899744
163	0x3db64154	0.08899179
164	0xbd78f9f5	-0.060785253
165	0xbdbba697	-0.09162634
166	0x3d681204	0.056657806
167	0x3d264d87	0.04060128
168	0x3de78838	0.113052785
169	0xbd8d16bd	-0.068891026
170	0x3d6f2af2	0.058390565
171	0xbd447f97	-0.04797324
172	0xbcc74bdc	-0.024328165
173	0x3d858209	0.06518943
174	0xbd9dbc61	-0.07701946
175	0x3d6c8d03	0.057751667
176	0xbd006408	-0.031345397
177	0x3c60aab2	0.013712572
178	0xbd080c59	-0.0332149
179	0xbd22dfb5	-0.039764125
180	0x3d7961ff	0.060884472
181	0x3d74897a	0.05970142
182	0xbd3a9afb	-0.045557957
183	0x3defdcc8	0.117120326
184	0xbc43909a	-0.011936331
185	0x3db341f7	0.08752816
186	0xbd76a485	-0.06021549
187	0xbd7e61ea	-0.062105097
188	0x3ce95891	0.028484615
189	0xbc742689	-0.014901766
190	0xbd99042e	-0.074715
191	0xbd7b25d3	-0.06131537
192	0x3ba1e1e2	0.0049402574
193	0x3d89e4b0	0.06733072
194	0x3dbd0e6b	0.09231266
195	0xbd0ecf84	-0.03486587
196	0xbdc4bf8d	-0.09606848
197	0x3dea2533	0.114328764
198	0xbdf825f6	-0.121166155
199	0x3da27721	0.07932878
200	0xbdd72973	-0.10505953
201	0x3d52805e	0.05139195
202	0xbdcedc85	-0.101006545
203	0xbe34c9ac	-0.17655057
204	0x3db81491	0.08988298
205	0x3cb73f42	0.02236903
206	0x3d15192f	0.03640097
207	0x3c042093	0.008064407
208	0xba057436	-0.0005090864
209	0xbd3de8f7	-0.04636475
210	0x3d78b18a	0.06071619
211	0xbda97686	-0.0827456
212	0xbc937d56	-0.0180041
213	0xbd1a208f	-0.037628707
214	0xbd05bd9f	-0.03265154
215	0x3dca351c	0.09873411
216	0xbd45c954	-0.048287705
217	0x3d581866	0.052757643
218	0x3b9a57e7	0.004710186
219	0x3d6b344f	0.057422932
220	0x3d050ba8	0.03248182
221	0x3cbbeba0	0.022939503
222	0xbd003d7d	-0.03130864
223	0x3dd5c943	0.10438778
224	0x3d946326	0.072454736
225	0xbcfa3968	-0.030544952
226	0xbcce089f	-0.025150595
227	0x3cd3b549	0.02584328
228	0xbccd86f8	-0.025088772
229	0xbde18f2f	-0.11013638
230	0xbc05d61f	-0.008168726
231	0xbda3c29d	-0.07996104
232	0x3cfb713b	0.030693641
233	0xbdf10bf5	-0.11769859
234	0xbd11d041	-0.035598997
235	0x3cd07a74	0.025449015
236	0xbcc88107	-0.024475588
237	0xbc9e4e53	-0.019324457
238	0xbd5ee453	-0.054416966
239	0xbd2fde1f	-0.04293644
240	0x3d2ddcdb	0.042446952
241	0xbd5bd66e	-0.053671293
242	0x3da1886d	0.07887349
243	0xbd6a8a1e	-0.057260625
244	0xbd155aa5	-0.0364634
245	0xbd7e25e3	-0.06204785
246	0x3cbea4d9	0.023271965
247	0xbd49285a	-0.049110748
248	0xbd3cf81e	-0.04613506
249	0x3ca7b64d	0.02047267
250	0x3d71945d	0.05897938
251	0x3d00234d	0.031283665
252	0xbd4bae69	-0.049726877
253	0xbd45f27d	-0.048326958
254	0x3d2011d7	0.039079513
255	0xbd0dff5f	-0.03466737
