multi_scale_transformer_encoder/transformer_encoder_model_fold_5.pth (torch, 822178 bytes, 28 tensors)

embedding.weight f4 [128, 25]
0	0x3d11bc0f	0.035579737
1	0xbba485de	-0.005020841
2	0x3d1a8d6b	0.037732523
3	0xbe095262	-0.13410333
4	0xbd962a7e	-0.073323235
5	0xbd1db283	-0.03850032
6	0xbdd52803	-0.10408022
7	0x3eaa979d	0.33318797
8	0x3c4e2005	0.012580876
9	0x3dedce4e	0.11611615
10	0x3dec61b7	0.11542075
11	0x3d0c9a7f	0.034327026
12	0x3e1e2773	0.15444736
13	0xbe1c7337	-0.15278326
14	0xbe1b01cd	-0.15137406
15	0xbe0f7bcb	-0.14012067
16	0x3e18430f	0.14869331
17	0x3dbfbb39	0.09361882
18	0xbdd16a31	-0.102253325
19	0x3ccca809	0.02498247
20	0xbe3cf14b	-0.18451421
21	0x3e5f1066	0.217836
22	0xbe36279f	-0.17788552
23	0xbe31f2e8	-0.17377818
24	0x3dbb399e	0.09141849
25	0x3d5c37e1	0.053764228
26	0x3dc67677	0.09690564
27	0x3d7f7f8e	0.062377505
28	0xbdf0cc69	-0.11757738
29	0xbdc12a3d	-0.094318844
30	0xbdd7631d	-0.10516951
31	0x3e171f67	0.14758073
32	0xbea5e6e0	-0.32402706
33	0x3e88fcba	0.26755315
34	0x3c5025c5	0.012704317
35	0xbd9f762e	-0.07786213
36	0x3d9f4e20	0.07778573
37	0x3e0ebe9e	0.13939902
38	0x3dccd238	0.100010335
39	0x3e17790d	0.14792271
40	0xbe295214	-0.16535217
41	0x3a313599	0.0006760001
42	0x3d8f8bf7	0.07009118
43	0x3d79ceb6	0.06098815
44	0x3df100df	0.11767744
45	0xbe349d25	-0.17638071
46	0xbe08f107	-0.13373195
47	0xbe221986	-0.15830049
48	0x3e6d650e	0.2318308
49	0x3e4e40b2	0.20141867
50	0x3ddf8c91	0.10915483
51	0xbda62b0e	-0.08113681
52	0x3e6a6d0e	0.22893164
53	0x3e34cd31	0.176564
54	0xbe23ed1f	-0.16008423
55	0x3cb900dc	0.022583418
56	0xbe17101a	-0.14752236
57	0x3ddf1d33	0.10894241
58	0xbb5c00b9	-0.0033569767
59	0x3cd5e126	0.026108336
60	0x3e0567ff	0.13027953
61	0xbe449f13	-0.19201307
62	0xbdaf1d4c	-0.0855051
63	0xbd9e31bb	-0.07724329
64	0x3b04e35b	0.0020277116
65	0xbdf9b568	-0.121928036
66	0x3d8e5faf	0.06951844
67	0xbe127ee1	-0.14306213
68	0x3d79a4f7	0.06094834
69	0x3d958670	0.073010325
70	0xbcd3c8e2	-0.025852624
71	0x3e0fb11f	0.1403241
72	0x3e1052c5	0.14094074
73	0xbd8575fb	-0.065166436
74	0xbdc30f37	-0.095243864
75	0xbe45b920	-0.19308901
76	0xbdad9ef3	-0.08477583
77	0xbd29d77e	-0.041465275
78	0x3d0b5eaa	0.034025826
79	0xbddde056	-0.10833804
80	0x3dbd21d9	0.092349716
81	0xbe0ca267	-0.13733827
82	0x3e580604	0.21096045
83	0xbe45a745	-0.1930209
84	0x3e38e622	0.18056539
85	0xbdd242a4	-0.10266617
86	0x3d96eb60	0.07369113
87	0x3d689136	0.05677911
88	0x3e009269	0.12555851
89	0xbdb878b6	-0.09007399
90	0x3ddb4f5e	0.107084975
91	0x3de21c41	0.11040545
92	0x3dee1024	0.11624172
93	0x3d008325	0.03137507
94	0xbd8aaf84	-0.06771758
95	0x3d948b3c	0.07253119
96	0xbe3081e5	-0.17237051
97	0x3e06e906	0.13174829
98	0xbd354059	-0.04425082
99	0xbcfaf33d	-0.030633563
100	0x3e0096f9	0.12557591
101	0xbd8ed25b	-0.06973716
102	0xbde314c3	-0.11087944
103	0x3d7c864d	0.061651517
104	0xbd82e9a0	-0.06392217
105	0xbcaef03c	-0.021354787
106	0xbe3a6ef3	-0.18206386
107	0x3d9aed2c	0.07564768
108	0xbe7e9e89	-0.24865164
109	0x3d2c2f60	0.042037368
110	0xbe35450b	-0.17702119
111	0xbd938f61	-0.07205082
112	0x3d89e345	0.06732801
113	0x3da85f38	0.082212865
114	0x3e278a94	0.16361457
115	0x3cc70f81	0.024299385
116	0xbdbc2320	-0.09186387
117	0x3d6c427d	0.057680596
118	0xbe944daa	-0.28965503
119	0xbdfc609c	-0.12323114
120	0xbb3caee7	-0.0028790773
121	0xbe36720e	-0.17816946
122	0xbdfdbaeb	-0.123891674
123	0xbe81e765	-0.25371853
124	0x3e329482	0.17439464
125	0x3e15ed47	0.14641295
126	0x3db990dd	0.090608336
127	0xbddd4d71	-0.108057864
128	0x3d8ccb1b	0.06874677
129	0xbdead823	-0.11467006
130	0xbd545576	-0.051839314
131	0x3dbea078	0.09307951
132	0xbea7edf2	-0.32798725
133	0x3eacac09	0.33725002
134	0x3d02053d	0.031743277
135	0x3d765f15	0.06014927
136	0x3d598863	0.053108584
137	0x3c9d4e88	0.019202486
138	0xbe170ab6	-0.1475018
139	0xbd9e303c	-0.07724044
140	0x3e3a0255	0.18164952
141	0xbde5eac7	-0.11226421
142	0xbe13bf34	-0.14428407
143	0x3e5b3d96	0.21410212
144	0xbe026388	-0.1273328
145	0xbd4d4306	-0.050112747
146	0x3c9c5b4e	0.019086506
147	0xbdb6c590	-0.08924401
148	0x3e9182b2	0.28420025
149	0x3dad984c	0.08476314
150	0x3e570104	0.20996481
151	0xbc97ab33	-0.018514251
152	0xbe3b6ed7	-0.18304001
153	0xbd24fb12	-0.0402785
154	0x3d9df033	0.0771183
155	0x3dc47808	0.09593207
156	0xbd88bac5	-0.066762485
157	0xbea6b309	-0.32558468
158	0x3d15ddd4	0.036588505
159	0x3e00259b	0.12514345
160	0xbc9e3103	-0.01931048
161	0x3e54e0d9	0.20788898
162	0xbe05f610	-0.13082147
163	0x3d510ae6	0.051035784
164	0x3d853f5e	0.06506227
165	0x3c230fe2	0.009952517
166	0xbe693a70	-0.22776198
167	0x3c9cbfad	0.019134367
168	0x3ce5a32b	0.028031906
169	0x3dc60c64	0.09670332
170	0x3dbf37dd	0.09336827
171	0xbd67a685	-0.05655529
172	0xbdb58ee1	-0.088651426
173	0x3e84b3f9	0.25918558
174	0x3dc68b13	0.09694495
175	0xbe26d446	-0.16291913
176	0xbe452a44	-0.19254404
177	0xbcfc0fba	-0.030769218
178	0xbc171e0a	-0.00922347
179	0xbd670bd6	-0.056407772
180	0xbde2f608	-0.11082083
181	0x3dfe53c5	0.124183215
182	0xbd3a0ea5	-0.045424122
183	0x3da373d2	0.07981075
184	0x3d7266ad	0.05917995
185	0xbd865074	-0.06558314
186	0xbe411a5a	-0.18857709
187	0xbe6566c3	-0.22402482
188	0xbd816887	-0.06318765
189	0xbd85c445	-0.06531576
190	0x3c6101d6	0.013733348
191	0xbdf68fa7	-0.12039118
192	0xbd1e7bc4	-0.03869225
193	0xbc26a5d4	-0.010171372
194	0xbd896fc4	-0.06710771
195	0x3aa2d1a0	0.0012422092
196	0x3e04532e	0.12922356
197	0xbbdc9305	-0.0067313933
198	0x3df81484	0.12113288
199	0x3dc9721e	0.09836219
200	0x3d793284	0.06083919
201	0x3e361447	0.17781173
202	0xbdead31e	-0.11466049
203	0x3d1f6668	0.03891602
204	0xbe4decb7	-0.20109831
205	0xbcef63d5	-0.029222408
206	0xbe1c3f2e	-0.15258476
207	0xbe18cfdd	-0.14923044
208	0x3c2ca34d	0.010536981
209	0x3d35fb66	0.044429205
210	0xbe355d3e	-0.1771135
211	0x3e6a1d15	0.22862656
212	0x3dcbc3dc	0.099494666
213	0xbdde44a4	-0.10852936
214	0x3df0b54a	0.11753328
215	0xbe24d5a1	-0.16097118
216	0xbe2b376a	-0.16720358
217	0xbdca66c2	-0.09882881
218	0x3e14a2dc	0.14515251
219	0x3dcfb3f2	0.10141744
220	0xbd947d8d	-0.072505094
221	0xbe20e8ce	-0.15713808
222	0xbd9e2b2d	-0.07723079
223	0xbe5e7c57	-0.2172712
224	0xbdcf6aa7	-0.10127764
225	0xbe240e2f	-0.16021036
226	0x3de19535	0.11014787
227	0xbe01dc74	-0.12681752
228	0x3cf429e2	0.029805128
229	0x3e0c2df5	0.13689406
230	0x3d3e047f	0.046391007
231	0xbd1bd541	-0.03804517
232	0xbe6d48a5	-0.23172243
233	0x3e876b81	0.26449206
234	0xbda8a368	-0.08234292
235	0xbdc74c51	-0.09731353
236	0xbe0201d2	-0.12696007
237	0xbd2c1314	-0.04201038
238	0x3daa57b7	0.083175115
239	0xbe3e1ed3	-0.18566446
240	0x3b7d968e	0.0038694474
241	0x3d64d411	0.055866305
242	0x3de3eef9	0.11129565
243	0xbdd91a15	-0.10600678
244	0xbdec0d16	-0.115259334
245	0xbe3a4efc	-0.18194193
246	0x3dd40e30	0.103542686
247	0xbd7fe304	-0.06247236
248	0x3c51f3bc	0.012814458
249	0x3ddd86cd	0.10816727
250	0xbda37540	-0.07981348
251	0x3e045829	0.12924255
252	0x3e538f15	0.2066005
253	0xbcb4e743	-0.02208293
254	0x3e4515a6	0.1924654
255	0x3de71416	0.11283128

embedding.bias f4 [128]
0	0x3da4a869	0.08039934
1	0x3d4672ab	0.0484492
2	0xbdd7e0e1	-0.10540939
3	0x3d5dad9e	0.054120652
4	0x3e504bee	0.20341465
5	0x3b78f767	0.003798926
6	0xbd8cd4a5	-0.06876496
7	0x3e02b7b4	0.1276539
8	0x3ce40927	0.027836395
9	0x3e06b65c	0.13155502
10	0xbe1280be	-0.14306924
11	0x3df728ba	0.12068315
12	0xbca62fd3	-0.020286476
13	0xba60a956	-0.0008570155
14	0x3da70056	0.08154361
15	0x3da16bf3	0.07881918
16	0xbd4c2b9c	-0.049846277
17	0x3e14ee2e	0.14543983
18	0xbe688fcf	-0.22711109
19	0xbe161bfe	-0.14659116
20	0xbe2db010	-0.16961694
21	0xbd053df5	-0.03252979
22	0xbe1d1a65	-0.153421
23	0xbcf9025f	-0.030396638
24	0xbcdd11b6	-0.026985984
25	0x39fce075	0.0004823242
26	0xbcd937df	-0.0265159
27	0xbd5478e5	-0.051873107
28	0xbdc11d00	-0.094293594
29	0x3dadc1e5	0.08484248
30	0xbe1a7557	-0.15083824
31	0xbc48c8f6	-0.012254944
32	0xbb9eee24	-0.004850166
33	0x3dcc02eb	0.09961494
34	0xbd5e6eda	-0.054304935
35	0x3d89f221	0.067356355
36	0x3e011994	0.12607414
37	0xbe06aa2b	-0.13150851
38	0xbe145e83	-0.14489178
39	0xbd49c238	-0.049257487
40	0xbdc1db72	-0.09465684
41	0x3db0e44f	0.086372964
42	0xbe0266e9	-0.1273457
43	0x3c427459	0.01186856
44	0x3d6c0319	0.05762014
45	0x3dd28170	0.102785945
46	0xbdd186bd	-0.102307774
47	0x3e065a0f	0.13120292
48	0xb9f3cb69	-0.00046500124
49	0x3d2f02a5	0.04272713
50	0x3e1e348d	0.15449734
51	0x3db82ca5	0.0899289
52	0xbdeabac5	-0.11461405
53	0xbe186369	-0.14881672
54	0xbc35da56	-0.011099419
55	0x3d899ea7	0.06719714
56	0x3d24a2a9	0.040194187
57	0xbda06ee3	-0.0783365
58	0xbdf3c342	-0.11902477
59	0xbda5e522	-0.08100344
60	0x3dec4110	0.11535847
61	0x3e2e5a81	0.17026712
62	0xbdb51cbf	-0.088433735
63	0x3d603e74	0.05474706
64	0xbda9f56c	-0.08298764
65	0x3dc65764	0.09684637
66	0xbe198766	-0.14993057
67	0x3d048b29	0.032359276
68	0x3d6b697e	0.057473652
69	0x3dd9f75e	0.10642885
70	0xbd0a8061	-0.033813838
71	0xbdd324a8	-0.10309726
72	0xbc03dc49	-0.008048126
73	0xbdba64dc	-0.09101269
74	0xbe1a4670	-0.15065932
75	0x3d9459fb	0.07243725
76	0x3d9e5299	0.07730598
77	0xbd842fbf	-0.06454419
78	0x3d4977a2	0.049186356
79	0x3e24d8e1	0.16098358
80	0xbda842b0	-0.08215845
81	0xbd8a3e20	-0.06750131
82	0x3e4db019	0.20086707
83	0x3d6609d8	0.05616173
84	0x3e49f95b	0.19724028
85	0x3cb55c62	0.022138778
86	0xbe1740a0	-0.14770746
87	0xbdde2a59	-0.10847921
88	0xbda5237c	-0.08063409
89	0xbe56c78e	-0.20974562
90	0x3e509fd9	0.20373477
91	0x3db841cc	0.08996925
92	0x3e05677f	0.13027762
93	0xbdbb3ac6	-0.091420695
94	0xbe6a0822	-0.22854665
95	0x3c70f9b2	0.0147079695
96	0x3daf44df	0.08558058
97	0x38df2d4a	0.000106419044
98	0x3d58e377	0.052951302
99	0xbdc6da16	-0.09709565
100	0x3c1cb64d	0.009564948
101	0x3d506518	0.05087766
102	0x3db0b43d	0.08628128
103	0x3d46672a	0.04843823
104	0x3e12b646	0.14327344
105	0xbde530c5	-0.11190943
106	0x3e432ff1	0.19061257
107	0x3dad3d77	0.08458989
108	0xbd987d56	-0.07445781
109	0xbd6dec77	-0.05808684
110	0x3d610753	0.054938626
111	0xbe2704f8	-0.16310489
112	0x3d67f4d9	0.05662999
113	0xbe342161	-0.17590858
114	0x3e30c0f7	0.1726111
115	0x3db9bb43	0.090689205
116	0xbe16d59a	-0.1472992
117	0xbcc3fbe1	-0.023923816
118	0x3c9dd145	0.019264827
119	0x3e1b16d0	0.15145421
120	0xbe1faf4c	-0.15594214
121	0xbd9f7422	-0.077858225
122	0xbd389252	-0.045061417
123	0x3df6e0f5	0.12054626
124	0x3e3030e5	0.17206152
125	0xbdd47fca	-0.10375936
126	0x3ddb66a0	0.107129335
127	0xbc5fb9b1	-0.013655112

transformer_encoder.layers.0.self_attn.in_proj_weight f4 [384, 128]
0	0xbdcdd017	-0.100494556
1	0x3d2d0e1e	0.04224979
2	0xbd672425	-0.056430954
3	0xbd912b67	-0.070883565
4	0x3c31f230	0.010860965
5	0x3d2247a6	0.03961911
6	0x3c8cfb0c	0.017209552
7	0x3c5f5b10	0.013632551
8	0xbc1251f0	-0.008930668
9	0xbd97542e	-0.07389103
10	0xbda2c461	-0.079476126
11	0xbd11dcf8	-0.035611123
12	0xbdcc2c0c	-0.09969339
13	0xbdd14eb2	-0.10220088
14	0x3d4d1b1a	0.050074674
15	0xbd9baa1c	-0.07600805
16	0xbdbcbeea	-0.092161015
17	0xbdba13e2	-0.090858236
18	0xbc5ed830	-0.013601348
19	0xbd3e73be	-0.0464971
20	0xbd4f0242	-0.050539263
21	0xbd8b4ab8	-0.06801361
22	0x3da18c69	0.07888109
23	0xbd672fe8	-0.05644217
24	0xbc70eaa8	-0.014704384
25	0xbd273478	-0.040821522
26	0xbdb45765	-0.08805732
27	0x3d78a0b2	0.060700126
28	0x3bb68260	0.005569741
29	0xbaaf3dc0	-0.0013369843
30	0xbdbce834	-0.09223977
31	0xbda3c362	-0.07996251
32	0x3d562456	0.052280746
33	0x3d17609a	0.03695736
34	0x3d14f26a	0.036363997
35	0x3dd9347b	0.10605713
36	0xbdce9739	-0.10087437
37	0xbd03ceb8	-0.032179564
38	0x3cfa26ac	0.030536018
39	0xbd9d3278	-0.07675642
40	0xbd811d38	-0.06304401
41	0xbcd2b38c	-0.02572038
42	0x3d95bbe3	0.07311227
43	0x3dd31db7	0.10308402
44	0x3da1c3e3	0.078986906
45	0x3d5e12ba	0.054217078
46	0xbd045f5c	-0.032317504
47	0x3c1c6418	0.009545349
48	0xbd4c077b	-0.04981182
49	0x3d54d7e2	0.051963694
50	0xbd84fb45	-0.06493238
51	0xbd6f2c55	-0.058391888
52	0x3d8601bd	0.065433
53	0xbc1aee58	-0.00945624
54	0xbc8b084c	-0.01697173
55	0xbd96814d	-0.07348881
56	0x3da201d1	0.07910503
57	0x3d5775fa	0.052602746
58	0x3d387ba2	0.04503978
59	0xbd837c70	-0.06420219
60	0xbd8ffafd	-0.07030294
61	0xbddb6544	-0.10712674
62	0xbd19857e	-0.037480824
63	0x3c9f5bd4	0.019452967
64	0x3d9794bb	0.07401415
65	0xbd73d846	-0.059532426
66	0xbd57731a	-0.052600004
67	0x3dc2197d	0.09477518
68	0x3a871bc0	0.0010307953
69	0xbd9b2ea2	-0.07577254
70	0x3d73536a	0.05940572
71	0x3d8ae7e1	0.06782509
72	0xbd949eba	-0.07256837
73	0x3c5359c0	0.012899816
74	0xbd9037c8	-0.070418894
75	0xbdc76a0d	-0.097370245
76	0x3cfb97dc	0.03071206
77	0x3cc0ab1c	0.023519091
78	0x3ca30c64	0.01990337
79	0xbce21c74	-0.027601458
80	0x3ba47930	0.0050193295
81	0x3d14c662	0.036322005
82	0xbaef2600	-0.0018245578
83	0x3db698ef	0.089158885
84	0xbd607673	-0.054800462
85	0x3cc577b4	0.02410493
86	0x3c0788d0	0.008272365
87	0xbd4eb58c	-0.050466105
88	0x3daa77f3	0.0832366
89	0xbced27b0	-0.028949589
90	0xbce2686c	-0.027637683
91	0x3dbcfffb	0.09228512
92	0x3d179066	0.037002943
93	0xbbed30f0	-0.0072385
94	0xbdc8af2d	-0.09799037
95	0x3c8e45b4	0.017367221
96	0x3c902674	0.01759646
97	0xbdabc874	-0.08387843
98	0xbd3e932d	-0.046527077
99	0x3d8b3d53	0.06798806
100	0xbdcbc825	-0.09950284
101	0x3d3e7cde	0.0465058
102	0x39671000	0.00022035837
103	0xbb6ec3a0	-0.003643252
104	0x3d8801af	0.06640946
105	0x3c957214	0.018242873
106	0x3d155f5e	0.036467902
107	0xbb2807c0	-0.0025639385
108	0xbd3003ec	-0.04297249
109	0x3db9dde5	0.09075526
110	0x3dbb0065	0.091309346
111	0x3b244480	0.0025065243
112	0xbca2b114	-0.019859828
113	0xbd848344	-0.064703494
114	0xbd283788	-0.041068584
115	0x3d6f48d2	0.058419056
116	0x3d5777ca	0.052604474
117	0x3caf15bc	0.021372668
118	0xbb0004c0	-0.0019534081
119	0xbd6a4326	-0.057192944
120	0xbd9cc4a0	-0.07654691
121	0xbda28d0a	-0.07937057
122	0xbdb6eedf	-0.0893228
123	0x3daa40af	0.08313119
124	0xbc3f6c60	-0.011683553
125	0x3b1a1a80	0.002351433
126	0xbbc91370	-0.0061363503
127	0x3d42afd6	0.04753097
128	0x3da1c785	0.078993835
129	0x3d0f678a	0.035010852
130	0xbcdc0490	-0.026857644
131	0x3d2417e2	0.04006184
132	0xbd70cc6b	-0.0587887
133	0x3cd0b8ec	0.025478803
134	0x3d2a0ff2	0.041519113
135	0xbdab029e	-0.083501086
136	0xbd165c76	-0.03670927
137	0xbbf5e3d0	-0.007503964
138	0xbca27068	-0.01982899
139	0xbdc2907d	-0.09500215
140	0x3c074850	0.008256987
141	0xbd8b5b64	-0.06804541
142	0x3da16ab3	0.078816794
143	0xbdd8df6f	-0.105894916
144	0x3c30b6f0	0.010785803
145	0xbd8fb17c	-0.07016274
146	0xbd46cc8d	-0.04853492
147	0xbdb31b10	-0.08745396
148	0xbdcf169a	-0.10111733
149	0xbc4f5e50	-0.012656763
150	0x3d93476f	0.07191359
151	0x3d4183e6	0.04724493
152	0xbca15cf4	-0.019697644
153	0x3d8a2e9f	0.067471735
154	0xbd8764aa	-0.06610997
155	0xbdd7b5c2	-0.105327144
156	0x3dc53859	0.09629888
157	0x3db021f9	0.0860023
158	0xbcea11d8	-0.028572962
159	0xbdc1f1c5	-0.09469942
160	0xbb2fbda0	-0.0026815906
161	0x3bbb50f0	0.0057164356
162	0xbd894637	-0.067028455
163	0xbd6828dc	-0.05667959
164	0xbd88f0f8	-0.06686586
165	0xbc537a98	-0.012907647
166	0xbdd052c5	-0.10172037
167	0x3da0a4b1	0.078439124
168	0xbbe9aba0	-0.007131055
169	0xbd588945	-0.052865285
170	0xbd50cb05	-0.050974865
171	0x3d5ba1aa	0.05362097
172	0x3d5d7b6e	0.05407279
173	0x3d42ab6e	0.04752677
174	0xbc836418	-0.01603894
175	0xbcea8580	-0.02862811
176	0x3c786c50	0.015162542
177	0xbce9b4b0	-0.028528541
178	0x3cba7484	0.022760637
179	0xbc79d4b0	-0.015248463
180	0xbcb57c60	-0.022154033
181	0x3cbe4604	0.023226745
182	0x3dd34c7f	0.10317325
183	0xbda7b0bc	-0.08188006
184	0x3b4226c0	0.0029625148
185	0x3da8fc79	0.0825128
186	0x3d937d41	0.07201625
187	0x3db16b01	0.086629875
188	0xbd650cc8	-0.055920392
189	0xbdc85110	-0.097810864
190	0x3da2ea03	0.079547904
191	0x3db1e44b	0.086861216
192	0x3d16e9d2	0.036844082
193	0x3b323940	0.0027194768
194	0x3dd0ec73	0.10201349
195	0x3db09a0d	0.08623133
196	0x3d18b39a	0.037280656
197	0xbd2405fc	-0.04004477
198	0xbb35d1a0	-0.0027743354
199	0xbd51f53e	-0.05125927
200	0xbd3f71b0	-0.04673928
201	0x3d5f4c12	0.054515906
202	0x3d4a50f6	0.049393617
203	0xbc8936f0	-0.016749829
204	0x3dd376a1	0.10325361
205	0xbd6e6d67	-0.058209803
206	0x3d54f7ba	0.051994063
207	0xbca046e0	-0.019565046
208	0x3dc1f869	0.094712086
209	0x3c86bd18	0.016447589
210	0x3d454bbe	0.048167937
211	0x3ddcba67	0.10777741
212	0xbaec7f80	-0.0018043369
213	0x3ca81e34	0.020522214
214	0x3db9244d	0.09040127
215	0xbb4d9080	-0.0031366646
216	0x3b907500	0.0044084787
217	0xbdbbfaa4	-0.09178665
218	0xbd97abf8	-0.07405847
219	0x3d9e21a5	0.07721261
220	0xbdabce3e	-0.08388947
221	0xbc86ea50	-0.01646915
222	0xbdc4919e	-0.09598087
223	0xbd82ecb8	-0.06392807
224	0x3c498578	0.012299888
225	0xbdcedad2	-0.101003304
226	0x3d21bf1e	0.039488904
227	0x3cc356ac	0.02384504
228	0xbcbe90c8	-0.023262396
229	0xbdd57632	-0.104229346
230	0x3c1e6010	0.009666458
231	0x3caf9f14	0.021438159
232	0x3d9e9dc5	0.07744936
233	0x3d049542	0.032368906
234	0xbd417dbe	-0.047239058
235	0xbdb24c5b	-0.0870597
236	0xbda50e57	-0.08059376
237	0x3db1a55b	0.08674117
238	0xbd72f4c4	-0.059315458
239	0x3d6d5e16	0.057951055
240	0xbdd1eb00	-0.10249901
241	0x3c7a0288	0.015259393
242	0xbda4aa5e	-0.080403075
243	0xbda5b75f	-0.08091616
244	0xbd216962	-0.03940714
245	0x3d87bfbb	0.066283666
246	0xbd453551	-0.04814655
247	0x3cc2488c	0.023716234
248	0x3c63c788	0.013902552
249	0x3d4339f2	0.047662683
250	0x3d8847ef	0.06654345
251	0x3d260dd6	0.04054054
252	0x3d918d21	0.07106996
253	0x3dad3087	0.084565215
254	0x3d49083e	0.049080126
255	0xbdcffb60	-0.10155368

transformer_encoder.layers.0.self_attn.in_proj_bias f4 [384]
0	0x00000000	0.0
1	0x00000000	0.0
2	0x00000000	0.0
3	0x00000000	0.0
4	0x00000000	0.0
5	0x00000000	0.0
6	0x00000000	0.0
7	0x00000000	0.0
8	0x00000000	0.0
9	0x00000000	0.0
10	0x00000000	0.0
11	0x00000000	0.0
12	0x00000000	0.0
13	0x00000000	0.0
14	0x00000000	0.0
15	0x00000000	0.0
16	0x00000000	0.0
17	0x00000000	0.0
18	0x00000000	0.0
19	0x00000000	0.0
20	0x00000000	0.0
21	0x00000000	0.0
22	0x00000000	0.0
23	0x00000000	0.0
24	0x00000000	0.0
25	0x00000000	0.0
26	0x00000000	0.0
27	0x00000000	0.0
28	0x00000000	0.0
29	0x00000000	0.0
30	0x00000000	0.0
31	0x00000000	0.0
32	0x00000000	0.0
33	0x00000000	0.0
34	0x00000000	0.0
35	0x00000000	0.0
36	0x00000000	0.0
37	0x00000000	0.0
38	0x00000000	0.0
39	0x00000000	0.0
40	0x00000000	0.0
41	0x00000000	0.0
42	0x00000000	0.0
43	0x00000000	0.0
44	0x00000000	0.0
45	0x00000000	0.0
46	0x00000000	0.0
47	0x00000000	0.0
48	0x00000000	0.0
49	0x00000000	0.0
50	0x00000000	0.0
51	0x00000000	0.0
52	0x00000000	0.0
53	0x00000000	0.0
54	0x00000000	0.0
55	0x00000000	0.0
56	0x00000000	0.0
57	0x00000000	0.0
58	0x00000000	0.0
59	0x00000000	0.0
60	0x00000000	0.0
61	0x00000000	0.0
62	0x00000000	0.0
63	0x00000000	0.0
64	0x00000000	0.0
65	0x00000000	0.0
66	0x00000000	0.0
67	0x00000000	0.0
68	0x00000000	0.0
69	0x00000000	0.0
70	0x00000000	0.0
71	0x00000000	0.0
72	0x00000000	0.0
73	0x00000000	0.0
74	0x00000000	0.0
75	0x00000000	0.0
76	0x00000000	0.0
77	0x00000000	0.0
78	0x00000000	0.0
79	0x00000000	0.0
80	0x00000000	0.0
81	0x00000000	0.0
82	0x00000000	0.0
83	0x00000000	0.0
84	0x00000000	0.0
85	0x00000000	0.0
86	0x00000000	0.0
87	0x00000000	0.0
88	0x00000000	0.0
89	0x00000000	0.0
90	0x00000000	0.0
91	0x00000000	0.0
92	0x00000000	0.0
93	0x00000000	0.0
94	0x00000000	0.0
95	0x00000000	0.0
96	0x00000000	0.0
97	0x00000000	0.0
98	0x00000000	0.0
99	0x00000000	0.0
100	0x00000000	0.0
101	0x00000000	0.0
102	0x00000000	0.0
103	0x00000000	0.0
104	0x00000000	0.0
105	0x00000000	0.0
106	0x00000000	0.0
107	0x00000000	0.0
108	0x00000000	0.0
109	0x00000000	0.0
110	0x00000000	0.0
111	0x00000000	0.0
112	0x00000000	0.0
113	0x00000000	0.0
114	0x00000000	0.0
115	0x00000000	0.0
116	0x00000000	0.0
117	0x00000000	0.0
118	0x00000000	0.0
119	0x00000000	0.0
120	0x00000000	0.0
121	0x00000000	0.0
122	0x00000000	0.0
123	0x00000000	0.0
124	0x00000000	0.0
125	0x00000000	0.0
126	0x00000000	0.0
127	0x00000000	0.0
128	0x00000000	0.0
129	0x00000000	0.0
130	0x00000000	0.0
131	0x00000000	0.0
132	0x00000000	0.0
133	0x00000000	0.0
134	0x00000000	0.0
135	0x00000000	0.0
136	0x00000000	0.0
137	0x00000000	0.0
138	0x00000000	0.0
139	0x00000000	0.0
140	0x00000000	0.0
141	0x00000000	0.0
142	0x00000000	0.0
143	0x00000000	0.0
144	0x00000000	0.0
145	0x00000000	0.0
146	0x00000000	0.0
147	0x00000000	0.0
148	0x00000000	0.0
149	0x00000000	0.0
150	0x00000000	0.0
151	0x00000000	0.0
152	0x00000000	0.0
153	0x00000000	0.0
154	0x00000000	0.0
155	0x00000000	0.0
156	0x00000000	0.0
157	0x00000000	0.0
158	0x00000000	0.0
159	0x00000000	0.0
160	0x00000000	0.0
161	0x00000000	0.0
162	0x00000000	0.0
163	0x00000000	0.0
164	0x00000000	0.0
165	0x00000000	0.0
166	0x00000000	0.0
167	0x00000000	0.0
168	0x00000000	0.0
169	0x00000000	0.0
170	0x00000000	0.0
171	0x00000000	0.0
172	0x00000000	0.0
173	0x00000000	0.0
174	0x00000000	0.0
175	0x00000000	0.0
176	0x00000000	0.0
177	0x00000000	0.0
178	0x00000000	0.0
179	0x00000000	0.0
180	0x00000000	0.0
181	0x00000000	0.0
182	0x00000000	0.0
183	0x00000000	0.0
184	0x00000000	0.0
185	0x00000000	0.0
186	0x00000000	0.0
187	0x00000000	0.0
188	0x00000000	0.0
189	0x00000000	0.0
190	0x00000000	0.0
191	0x00000000	0.0
192	0x00000000	0.0
193	0x00000000	0.0
194	0x00000000	0.0
195	0x00000000	0.0
196	0x00000000	0.0
197	0x00000000	0.0
198	0x00000000	0.0
199	0x00000000	0.0
200	0x00000000	0.0
201	0x00000000	0.0
202	0x00000000	0.0
203	0x00000000	0.0
204	0x00000000	0.0
205	0x00000000	0.0
206	0x00000000	0.0
207	0x00000000	0.0
208	0x00000000	0.0
209	0x00000000	0.0
210	0x00000000	0.0
211	0x00000000	0.0
212	0x00000000	0.0
213	0x00000000	0.0
214	0x00000000	0.0
215	0x00000000	0.0
216	0x00000000	0.0
217	0x00000000	0.0
218	0x00000000	0.0
219	0x00000000	0.0
220	0x00000000	0.0
221	0x00000000	0.0
222	0x00000000	0.0
223	0x00000000	0.0
224	0x00000000	0.0
225	0x00000000	0.0
226	0x00000000	0.0
227	0x00000000	0.0
228	0x00000000	0.0
229	0x00000000	0.0
230	0x00000000	0.0
231	0x00000000	0.0
232	0x00000000	0.0
233	0x00000000	0.0
234	0x00000000	0.0
235	0x00000000	0.0
236	0x00000000	0.0
237	0x00000000	0.0
238	0x00000000	0.0
239	0x00000000	0.0
240	0x00000000	0.0
241	0x00000000	0.0
242	0x00000000	0.0
243	0x00000000	0.0
244	0x00000000	0.0
245	0x00000000	0.0
246	0x00000000	0.0
247	0x00000000	0.0
248	0x00000000	0.0
249	0x00000000	0.0
250	0x00000000	0.0
251	0x00000000	0.0
252	0x00000000	0.0
253	0x00000000	0.0
254	0x00000000	0.0
255	0x00000000	0.0

transformer_encoder.layers.0.self_attn.out_proj.weight f4 [128, 128]
0	0x3dbc1f1e	0.09185623
1	0x3d081c99	0.033230398
2	0x3c8df280	0.017327547
3	0xbccab9c7	-0.024746789
4	0x3d71f35f	0.059069987
5	0x3d1f6d01	0.038922314
6	0xbcb71c51	-0.02235237
7	0x3c994d6a	0.018713672
8	0xbbf4e1ca	-0.007473205
9	0x3d27afe0	0.04093921
10	0xbd994da7	-0.07485514
11	0x3c9d8c3b	0.019231906
12	0x3d83dffb	0.06439205
13	0xbd744f76	-0.059646092
14	0x3db1531f	0.08658432
15	0x3ba55117	0.005045067
16	0xbd2bc128	-0.041932255
17	0x3d664080	0.056213856
18	0x3c618c42	0.01376635
19	0xbcaeb4a2	-0.021326367
20	0x3cfb07c0	0.030643344
21	0x3d151251	0.03639442
22	0xbc3dd67b	-0.011586781
23	0xbdc869a9	-0.09785778
24	0xbd318152	-0.04333622
25	0xbd51786d	-0.051140238
26	0x3d25730d	0.040392924
27	0xbcdee939	-0.027210819
28	0xbdbc36b7	-0.091901235
29	0xbd49eb40	-0.049296618
30	0xbb4ea6ad	-0.0031532452
31	0x3d124b25	0.035716195
32	0x3d06c292	0.0329004
33	0xbda07671	-0.07835091
34	0xbc07a2a3	-0.008278522
35	0x3bd76ee8	0.0065745004
36	0xbcdc0a67	-0.026860429
37	0xbd836424	-0.06415585
38	0xbc0b5a5c	-0.00850543
39	0x3aa36aa6	0.0012467697
40	0x3d3f620a	0.046724357
41	0xbcf762f9	-0.030198561
42	0xbb9694d4	-0.0045953784
43	0x3cf09e2c	0.029372297
44	0xbdad10b9	-0.08450455
45	0x3aa07d96	0.0012244459
46	0xbd5719ee	-0.052514963
47	0x3d322906	0.043496154
48	0xbd9edc88	-0.07756907
49	0xbd274e45	-0.040846128
50	0xbced55fd	-0.028971666
51	0xbd8dacbe	-0.069177136
52	0x3da6dcc1	0.08147574
53	0xbc9a1bbe	-0.018812057
54	0x3d1cc13f	0.03827023
55	0xbd591789	-0.05300096
56	0xbd48d897	-0.04903468
57	0x3dc4e224	0.096134454
58	0xbd13ddeb	-0.03610031
59	0xbc1352bb	-0.008991892
60	0xbc45768e	-0.012052191
61	0x3d453d6b	0.048154276
62	0x3d69a597	0.057042684
63	0x3c2afc61	0.010436148
64	0xbd4516ad	-0.04811733
65	0x3d7d568b	0.061850112
66	0xbd10425c	-0.035219535
67	0x3cf17f1e	0.02947956
68	0x3d10b8bc	0.035332426
69	0xbc7c3236	-0.015392831
70	0xbdc48feb	-0.09597763
71	0xbdaac4d9	-0.08338327
72	0xbdc3784f	-0.095444314
73	0xbd6b78f8	-0.05748841
74	0x3d303056	0.043014847
75	0x3d4c7959	0.049920414
76	0x3d47d6fa	0.048789002
77	0xbd187c7c	-0.037228093
78	0x3d53c50f	0.0517016
79	0x3bd62ee9	0.006536354
80	0xbce3d983	-0.027813679
81	0x3d2149f4	0.039377168
82	0xbd7bef15	-0.061507303
83	0x3d50903b	0.0509188
84	0xbd60cf79	-0.05488536
85	0x3dba7fa6	0.09106378
86	0xbc39c69d	-0.011338857
87	0x3d4d3932	0.050103374
88	0x3c64f920	0.013975412
89	0xbda1b868	-0.07896501
90	0xbde2fdb9	-0.1108355
91	0x3d70419b	0.058656316
92	0xbdb5d433	-0.088783644
93	0xbd865da0	-0.06560826
94	0x3d215348	0.039386064
95	0x3c5b4caa	0.013384977
96	0x3c1e974e	0.009679629
97	0x3d680564	0.056645766
98	0x3d291dde	0.04128825
99	0xbdec27f4	-0.11531058
100	0xbd9d6833	-0.0768589
101	0xbd8da7d9	-0.0691678
102	0xbc98c5f6	-0.018649083
103	0x3d6ea02e	0.058258228
104	0xbccccf71	-0.02500126
105	0xbc05205a	-0.008125389
106	0x3d13f7ce	0.036124997
107	0x3daa39da	0.083118156
108	0x3c83a70d	0.016070867
109	0xbda79c0b	-0.0818406
110	0xbccc168b	-0.024913093
111	0xbd7666cc	-0.06015663
112	0xbd939ae6	-0.07207279
113	0xbd375009	-0.04475406
114	0x3d6397fb	0.05556486
115	0x3d4f0f6c	0.050551817
116	0xbd80d51e	-0.06290649
117	0xb960b957	-0.00021431349
118	0xbcebdfec	-0.028793298
119	0xbc998f40	-0.018745065
120	0xbc7c8e5a	-0.015414799
121	0x3c9cf297	0.019158645
122	0xbb0c7d88	-0.0021437127
123	0xbcba7092	-0.022758756
124	0x3d63ac4f	0.05558425
125	0x3d232e12	0.039838858
126	0xba8ffc6e	-0.0010985264
127	0xbcfd39ab	-0.030911287
128	0xbd85a4d5	-0.0652558
129	0x3d391b29	0.045191918
130	0xbdb2e366	-0.08734779
131	0x3cf03a25	0.0293246
132	0xbbd5b9ac	-0.006522378
133	0x3d1e8baf	0.03870743
134	0xbbef41ae	-0.007301531
135	0x3bd9fb81	0.006652296
136	0x3d852ede	0.0650308
137	0xbc7d6617	-0.015466235
138	0x3d4e1b8b	0.050319236
139	0xbd16617d	-0.036714066
140	0x3d256872	0.04038281
141	0x3d09880f	0.03357702
142	0x3da8887a	0.08229156
143	0xbd6ad11e	-0.057328336
144	0x3b686b17	0.003546422
145	0xbda548a5	-0.080704965
146	0xbd8e06c7	-0.069348864
147	0xbdaf4841	-0.08558703
148	0x3c8004f3	0.01562736
149	0xbb93eaf9	-0.004514095
150	0xbd7993ba	-0.0609319
151	0x3cdd57a5	0.027019331
152	0x3d77db02	0.060511597
153	0xbd01204f	-0.031524953
154	0xbc7b02fe	-0.015320538
155	0xbbc0c8b3	-0.0058833
156	0xbd64267a	-0.055700757
157	0xbc393c30	-0.011305854
158	0xbd71109a	-0.058853723
159	0x3ddbd8ce	0.107347116
160	0xbd4e97db	-0.05043779
161	0x3d8c37de	0.06846593
162	0x3d4e5bd1	0.05038053
163	0xbd1496fd	-0.036276806
164	0xbc9a4b4d	-0.018834734
165	0xbd88f0bd	-0.06686542
166	0x3dcc1696	0.099652454
167	0x3d8076e4	0.062726766
168	0x3c1d109d	0.00958648
169	0x3a20c71e	0.00061331864
170	0x3db1afe0	0.086761236
171	0xbd7d7bdd	-0.061885703
172	0x3dc97eeb	0.09838661
173	0x3d847744	0.064680606
174	0xbd1acee2	-0.037794955
175	0x3ce7c048	0.028289929
176	0x3c81734b	0.015802046
177	0xbd874151	-0.06604255
178	0xbd0d3094	-0.034470156
179	0xbcba90d3	-0.022774136
180	0xbd0778fb	-0.03307436
181	0xbc1da27a	-0.009621257
182	0x3bb6eb09	0.0055822176
183	0xbd8fa38a	-0.070136145
184	0x3d213f67	0.039367106
185	0xbc79a118	-0.015236162
186	0xbd22201a	-0.039581396
187	0xbdde826c	-0.1086472
188	0xbc9f49d1	-0.019444378
189	0xbd52435d	-0.051333774
190	0xbd8b58a8	-0.06804019
191	0x3cbc6f68	0.023002341
192	0xbd14d581	-0.036336426
193	0x3da96709	0.082716055
194	0x3cb58c90	0.022161752
195	0x3ddc06ce	0.107434854
196	0xbd5d7e85	-0.054075737
197	0xbdf6c814	-0.120498806
198	0xbda264ed	-0.07929406
199	0x3cad6946	0.021168362
200	0x3d5e0db1	0.054212276
201	0xbca822cc	-0.020524405
202	0x3b9cee80	0.0047891736
203	0xbd86b8cf	-0.06578218
204	0xbb1cdc95	-0.0023935188
205	0x3d93fa4f	0.07225477
206	0xbd7c9d63	-0.061673533
207	0x3dc0c5bf	0.09412717
208	0xbd00e9e6	-0.031473063
209	0xbd524453	-0.05133469
210	0xbd3a1dba	-0.045438506
211	0x3a1551fa	0.00056961144
212	0xbcc975ed	-0.024592364
213	0x3c46786d	0.012113673
214	0xbcdf7c8f	-0.027281074
215	0x3bc67196	0.006056021
216	0x3db80919	0.0898611
217	0xbc60dd66	-0.0137246605
218	0x3c1f6d50	0.009730652
219	0x3d7d8bed	0.06190102
220	0xbc9cdb41	-0.019147517
221	0x3bf1042b	0.007355233
222	0xbd12f878	-0.03588149
223	0xbb6e28d3	-0.003634025
224	0xbdb93a21	-0.0904429
225	0xbd2438eb	-0.040093344
226	0xbd54a069	-0.05191079
227	0xbd7317eb	-0.05934898
228	0x3d6219f5	0.055200536
229	0x3d9041be	0.07043789
230	0xbbc2e1b3	-0.0059473156
231	0xbc92a73f	-0.017902015
232	0xbdcebca5	-0.10094575
233	0xbd9f714a	-0.0778528
234	0xbd4196dc	-0.04726301
235	0xbd7d9aae	-0.061915092
236	0x3c97deb2	0.018538807
237	0x3cb9ab6e	0.022664752
238	0x3de03334	0.10947266
239	0xbcdc2d79	-0.026877152
240	0xbd56b7e7	-0.052421477
241	0xbd28399c	-0.041070566
242	0xbc7f71dc	-0.015591111
243	0x3cd119a0	0.025524914
244	0xbcb8a4af	-0.022539465
245	0xbc5ef001	-0.013607026
246	0xbd765136	-0.060136043
247	0xbd6082c0	-0.054812193
248	0xba9bf78f	-0.001189934
249	0xbbc78c20	-0.0060897022
250	0xbe0379af	-0.12839387
251	0xbc2a8f44	-0.010410134
252	0xbd034f32	-0.03205795
253	0xbd6cd4d5	-0.05782016
254	0xbd72259f	-0.05911791
255	0xbdaf26df	-0.08552336

transformer_encoder.layers.0.self_attn.out_proj.bias f4 [128]
0	0x3c8f7d37	0.017515762
1	0x3d1ceab4	0.038309768
2	0xbd528efc	-0.05140589
3	0x3d1ff10e	0.039048247
4	0x3d8eb2b7	0.06967681
5	0xbcf62164	-0.030045219
6	0xbbd66276	-0.006542499
7	0xbcf369fa	-0.02971362
8	0x3cfd6a2f	0.030934421
9	0x3da78695	0.08179966
10	0xbbf29ad6	-0.007403712
11	0xbc3fe5d9	-0.011712515
12	0xbd4c66a1	-0.049902562
13	0xbd85c0d9	-0.065309234
14	0x3d2def4a	0.042464532
15	0x3c322c2d	0.01087479
16	0xbd52df58	-0.05148253
17	0x3d37e14a	0.044892587
18	0xbad67c68	-0.001636398
19	0xbc9bcf1e	-0.01901966
20	0x3c1cf106	0.009578949
21	0xbd85a6b6	-0.06525938
22	0xbd6fe1e7	-0.058565047
23	0x3d217ebb	0.0394275
24	0x3c83f4ea	0.016107995
25	0x3bcc6a4f	0.006238259
26	0xbc45378b	-0.012037168
27	0xbce463de	-0.027879652
28	0x3c55058d	0.013001812
29	0x3d0320ed	0.032013822
30	0xbd616095	-0.05502375
31	0xbcbc82e6	-0.023011636
32	0x3c79d055	0.015247424
33	0xbc095401	-0.0083818445
34	0xbd0f7857	-0.035026874
35	0xbb20ff07	-0.002456607
36	0x3c0d8aeb	0.008639078
37	0x3c4de4c7	0.012566752
38	0xbda5cfeb	-0.08096298
39	0xbcf131a7	-0.029442621
40	0xbcc9681b	-0.024585774
41	0xba80e195	-0.0009832854
42	0x3d05561d	0.032552827
43	0xbd48c6d9	-0.04901776
44	0x3d7825ea	0.060583033
45	0xbc8f4146	-0.01748718
46	0xbcda3462	-0.026636306
47	0x3cad0627	0.021121098
48	0xbbda114c	-0.006654894
49	0x3ab971d6	0.0014148306
50	0x3dad120b	0.08450707
51	0xbd15b133	-0.036545943
52	0x3b6d45d2	0.0036204946
53	0x3bcdedde	0.0062844595
54	0xbc3259e9	-0.010885694
55	0xbcbd1b92	-0.023084436
56	0x3c868f07	0.016425623
57	0xbccedf06	-0.02525283
58	0xbc6bcb81	-0.014391781
59	0x3c714852	0.014726715
60	0xbba89fe9	-0.005146016
61	0x3d0703d3	0.03296263
62	0x3cd41a2c	0.025891386
63	0xbdb6135a	-0.0889041
64	0x3bf2b466	0.007406759
65	0xbca84471	-0.020540448
66	0xbdb46d7a	-0.088099435
67	0x3cf692e7	0.030099345
68	0x3ce04a9a	0.027379323
69	0x3bb994a9	0.0056634736
70	0x3c538b77	0.012911669
71	0xbc8fd9c3	-0.017559892
72	0xb9bca67c	-0.00035982195
73	0x3c54dabb	0.0129916025
74	0xbd4f3be9	-0.050594244
75	0x3cab8fa0	0.02094251
76	0xbb62a60f	-0.0034583842
77	0xbd17f718	-0.03710088
78	0x3d5a3d9e	0.05328142
79	0x3da1a099	0.0789196
80	0x3d41c4ec	0.04730694
81	0xbc36aa55	-0.011149009
82	0x3d92748f	0.07151138
83	0x3cb2a3e6	0.021806668
84	0x3d9f3e45	0.07775549
85	0x3da80316	0.082037136
86	0xbd70ca7a	-0.058786847
87	0xbcbfda1f	-0.023419438
88	0xbd74d853	-0.059776615
89	0xbd412a7e	-0.047159664
90	0x3d27197a	0.04079578
91	0x3ce02aa4	0.027364083
92	0x3b375299	0.0027972816
93	0xbd57d468	-0.0526928
94	0xbd1983c3	-0.037479173
95	0x3c81bb84	0.015836485
96	0x3c39ae81	0.011333109
97	0xbd58d003	-0.05293275
98	0x3ce66540	0.028124452
99	0xba9fc7e6	-0.0012190312
100	0xbba54d10	-0.005044587
101	0x3ccd6681	0.025073292
102	0x3afd873f	0.0019342675
103	0x3bcee939	0.0063144234
104	0xbbae2919	-0.005314958
105	0xbd11daad	-0.035608936
106	0x3d05d291	0.032671515
107	0xb9b8c41d	-0.0003524133
108	0x3cbbc1a9	0.022919493
109	0x3cc688be	0.024235126
110	0xbc9b49a7	-0.018956019
111	0x3b138903	0.0022512085
112	0x3c0468e3	0.008081648
113	0xbcb10b20	-0.02161175
114	0x3cc22036	0.023697
115	0x3d673a32	0.056451984
116	0x3cabfd0e	0.02099469
117	0x3c22a783	0.009927633
118	0x3cd105e4	0.025515504
119	0xbbf68c1f	-0.007524028
120	0xbd70ce6f	-0.05879062
121	0xbd68ecb7	-0.056866374
122	0x3cd43c33	0.025907611
123	0xbd0782d0	-0.033083737
124	0x3d89f30d	0.067358114
125	0x3cad4a13	0.021153485
126	0xbc4ce033	-0.012504625
127	0x3bd64d6a	0.00653999

transformer_encoder.layers.0.linear1.weight f4 [128, 128]
0	0xbcda0dae	-0.026617851
1	0x3d75c97d	0.060006607
2	0xbdad8caa	-0.08474095
3	0xbc0674c7	-0.008206553
4	0x3cc46e51	0.023978384
5	0x3dacd6e8	0.084394276
6	0x3e572bc3	0.21012788
7	0xbd1dd274	-0.038530782
8	0x3d7bb3ed	0.061450887
9	0xbdbf07d7	-0.09327667
10	0xbc2e6640	-0.0106444955
11	0xbd0520dd	-0.032502044
12	0xbdbff106	-0.093721434
13	0x3d922287	0.07135492
14	0x398760f6	0.00025821448
15	0x3daed2fa	0.08536334
16	0xbd2f5836	-0.042808734
17	0xbd8ba81f	-0.06819176
18	0x3a805a4a	0.0009792533
19	0x3d587a12	0.05285079
20	0x3d2061d1	0.039155785
21	0xbc8f63fc	-0.017503731
22	0x3debad20	0.1150763
23	0x3df6f8aa	0.12059148
24	0xbda5eb9b	-0.08101579
25	0x3d06b8e0	0.032891154
26	0xbca471ed	-0.020073855
27	0xbc1b56b8	-0.009481125
28	0xbd99e58d	-0.075144865
29	0xbdbb1018	-0.09133929
30	0x3d709e22	0.058744557
31	0xbd66e896	-0.056374155
32	0x3d13e0e1	0.036103133
33	0xbe4dc705	-0.20095451
34	0xbe1fdfb0	-0.15612674
35	0x3cf75bfa	0.030195225
36	0xbdc0fe6c	-0.09423527
37	0x3d2aa92c	0.04166524
38	0xbc89e07b	-0.016830673
39	0xbbf31a7d	-0.007418929
40	0xbce0589e	-0.027386006
41	0xbcffa0f6	-0.031204682
42	0x3dffd98e	0.12492667
43	0x3d87c113	0.06628623
44	0xbcf98f55	-0.030463854
45	0xbcb43e09	-0.022002237
46	0xbdc00e3d	-0.09377716
47	0x3d54bd31	0.05193824
48	0x3d49fb82	0.049312122
49	0xbd1880aa	-0.03723208
50	0xbccf4294	-0.025300302
51	0xbd587224	-0.052843228
52	0x3d2e9e56	0.04263147
53	0xbb25b412	-0.0025284332
54	0x3db1a11d	0.08673308
55	0x3def9e55	0.11700121
56	0x3d244aa7	0.040110257
57	0x3dbea247	0.09308296
58	0xbc9f4a4b	-0.019444605
59	0x3e3cc519	0.18434562
60	0xbd38b5fa	-0.04509542
61	0xbdbdc04c	-0.09265193
62	0xbd10c4b8	-0.035343856
63	0xbd473231	-0.04863185
64	0xbd250b07	-0.04029372
65	0xbd6bac15	-0.057537157
66	0xbd25deae	-0.040495567
67	0xbd3f27f0	-0.046668947
68	0xbc7015b1	-0.014653609
69	0x3d1c2e60	0.038130164
70	0x3d8264fb	0.06366917
71	0x3da480a3	0.08032348
72	0xbcc87bf0	-0.02447316
73	0x3daade36	0.083431646
74	0x3d518866	0.05115547
75	0x3de38714	0.111097485
76	0xbdcbba93	-0.099476956
77	0xbd7d7bff	-0.06188583
78	0xbc9aa40e	-0.018877055
79	0xbdfd4efb	-0.1236858
80	0xbd8aef5f	-0.06783938
81	0x3c9daa78	0.019246325
82	0xbd79f5a3	-0.061025273
83	0x3db5243f	0.08844804
84	0xbd9c2ad9	-0.0762536
85	0xbd05e48d	-0.032688666
86	0x3bb45bcd	0.0055041076
87	0xbe0bcce9	-0.13652386
88	0x3b187d34	0.0023267986
89	0x3d6ae6c9	0.057349
90	0x3d647bfa	0.055782296
91	0x3cd76c85	0.026296863
92	0x3da18a5c	0.07887718
93	0xbd4782fb	-0.048708897
94	0xbdbcaacf	-0.09212267
95	0x3e072152	0.13196304
96	0xbd217600	-0.039419174
97	0xbd98be8d	-0.0745822
98	0x3d27fba0	0.041011453
99	0x3d42fa74	0.047602132
100	0x3db9e4c5	0.090768375
101	0xbb8a4264	-0.00421934
102	0xbda44f56	-0.08022945
103	0xbdd1e604	-0.1024895
104	0xbcca5f8e	-0.024703767
105	0xbb7ae06b	-0.0038280736
106	0xbd825b5f	-0.06365084
107	0xbc433bdc	-0.011916127
108	0xbdcc501e	-0.09976219
109	0xbc925a67	-0.017865373
110	0xbdcad3c7	-0.099036746
111	0x3d0eb11c	0.034836873
112	0x3d8dcb6c	0.06923565
113	0x3e05fcf5	0.13084777
114	0xbd83e2da	-0.06439753
115	0xbcd58680	-0.026065111
116	0x3dd4349a	0.103615955
117	0xbe24439a	-0.16041413
118	0x3dddcbf3	0.10829916
119	0x3c138135	0.009002973
120	0xbe0456cf	-0.1292374
121	0x3d3fed8d	0.046857405
122	0x3dddff97	0.108397655
123	0x3d96fb14	0.07372108
124	0x3e264832	0.16238478
125	0xbdfe274a	-0.124098375
126	0xbcc6852f	-0.024233429
127	0x3cd97dbe	0.026549216
128	0xbdb228c1	-0.086991794
129	0x3a3c78c3	0.0007189626
130	0xbdb6ad43	-0.08919766
131	0xbdae27f7	-0.085037164
132	0xbd2779ee	-0.040887766
133	0xbda8ec9f	-0.08248257
134	0x3ccf9b34	0.025342561
135	0xbc2edffe	-0.010673521
136	0x3ce8c70f	0.028415231
137	0xbd55f165	-0.052232165
138	0xbdf29913	-0.11845603
139	0x3d32b0a2	0.04362548
140	0x3c5fea9f	0.013666778
141	0xbbeb7c61	-0.007186458
142	0x3db6f8f2	0.08934201
143	0xbd84a2ed	-0.06476388
144	0x3d9025be	0.07038449
145	0xbda7a8b9	-0.08186478
146	0x3de7d333	0.1131958
147	0xbd30625e	-0.04306256
148	0xbd44a534	-0.048009112
149	0xbd1e8a33	-0.038706016
150	0x3ccec9c6	0.025242697
151	0x3bd8646d	0.0066037686
152	0x3d350a25	0.044199128
153	0x3b34a07e	0.002756148
154	0x3c56daa5	0.013113652
155	0xbd2aca9b	-0.041697126
156	0xba1d8a21	-0.00060096575
157	0xbd12b78c	-0.035819575
158	0x3bdff1bd	0.0068342374
159	0xbca7b625	-0.020472595
160	0x3c6bf1e1	0.01440093
161	0xbd690f38	-0.05689928
162	0x3bc1dec3	0.005916448
163	0x3d56f077	0.05247542
164	0xbd70ae2a	-0.058759846
165	0x3da6cf1e	0.08144973
166	0x3cd1e147	0.025620116
167	0x3d89aa08	0.06721884
168	0x3d095939	0.033532355
169	0xbc974a34	-0.018468
170	0x3dc03a5c	0.09386131
171	0x3c93f049	0.018058913
172	0x3cbda0cd	0.023147965
173	0x3cbc963f	0.023020862
174	0x3d3d04fa	0.046147324
175	0xbc9215ba	-0.017832626
176	0xbd162f3d	-0.036666144
177	0xbda60dc9	-0.08108098
178	0xbe134cb7	-0.14384733
179	0x3da65a16	0.08122651
180	0xbd866e28	-0.065639794
181	0x3cae9a7e	0.021313902
182	0xbc810d79	-0.015753495
183	0xbd9cf1e8	-0.076633275
184	0x3cf8e59f	0.03038293
185	0xbd3a4a82	-0.045481212
186	0x3d8a1806	0.06742863
187	0x3a459b01	0.0007538051
188	0xbd4a832d	-0.049441505
189	0xbd2d4edb	-0.04231153
190	0x3a7ea49a	0.00097138586
191	0x3cd1b263	0.025597757
192	0x3ddc24d8	0.10749215
193	0xbd65dcb1	-0.05611867
194	0x3dc0dd1d	0.09417174
195	0xbd4ea509	-0.05045036
196	0xbcd28999	-0.025700377
197	0xbda7e6b3	-0.08198299
198	0xbd6bc882	-0.057564266
199	0x3c97eae7	0.018544627
200	0xbd8570dc	-0.06515667
201	0xbda154ad	-0.07877479
202	0x3bf8ceac	0.0075929966
203	0x3d568c96	0.052380167
204	0x3d3708a9	0.044685993
205	0xbd03701a	-0.03208933
206	0xbe128e80	-0.14312172
207	0xbd80c08b	-0.06286725
208	0x3d8987fc	0.0671539
209	0x3d2adde3	0.041715514
210	0xbd436f9e	-0.04771387
211	0xbd3b3695	-0.04570635
212	0xbd169c3f	-0.0367701
213	0xbd452d2a	-0.048138775
214	0x3c8d2d70	0.01723358
215	0xbcbf371c	-0.023341708
216	0xbdd25481	-0.10270024
217	0x39878a63	0.00025852313
218	0x3d85c571	0.065317996
219	0xbd75e849	-0.060035978
220	0x3d4fed69	0.05076352
221	0x3ce149fa	0.027501095
222	0x3cddc53a	0.027071584
223	0xbccc3def	-0.024931876
224	0xbd6e2592	-0.0581413
225	0x3cf3ab95	0.029744903
226	0x3d0ab278	0.033861607
227	0x3dfa0076	0.12207119
228	0x3de6b6de	0.11265348
229	0x3ca63555	0.020289103
230	0xbd482731	-0.0488655
231	0x3dd8f3f6	0.10593407
232	0x3d8108d5	0.06300513
233	0x3d9aeda0	0.075648546
234	0xbdec867f	-0.115490906
235	0xbcdcc080	-0.02694726
236	0xbdf29c07	-0.11846166
237	0xbd411c8e	-0.047146372
238	0x3da06bfa	0.07833095
239	0xbb4be2b4	-0.0031110467
240	0xbc94fc77	-0.01818679
241	0xbd2836ea	-0.041067995
242	0x3d88cda8	0.06679851
243	0xbd76606a	-0.06015054
244	0xbd3e35dc	-0.046438083
245	0x3d8c692b	0.06855997
246	0xbdb0ab30	-0.086264014
247	0xbe002b61	-0.12516548
248	0x3d7a3ae3	0.061091315
249	0x3ce645aa	0.02810939
250	0xbca578ee	-0.020199265
251	0xbb8628eb	-0.0040942333
252	0xbda368a1	-0.07978941
253	0xbcccfc68	-0.0250227
254	0x3d05c634	0.032659724
255	0x3dbbee89	0.09176356

transformer_encoder.layers.0.linear1.bias f4 [128]
0	0xbe2690d5	-0.16266187
1	0x3ca533de	0.020166334
2	0xbd66868a	-0.05628065
3	0x3d1d7aca	0.03844718
4	0xbde4150a	-0.111368254
5	0xbd981da3	-0.07427528
6	0xbded5c63	-0.11589887
7	0xbd9583d1	-0.073005326
8	0xbc92e674	-0.017932154
9	0xbd254e29	-0.040357742
10	0xbd7e04c7	-0.062016275
11	0xbe151b11	-0.14561106
12	0xbdbee1cb	-0.0932041
13	0xbdc2aa1e	-0.095051035
14	0xbe100322	-0.14063695
15	0xbddb028a	-0.10693844
16	0xbe09b37f	-0.13447379
17	0xbe004c7c	-0.12529176
18	0xbcb82c8e	-0.022482183
19	0xbd983479	-0.07431883
20	0xbd192382	-0.03738738
21	0xbe3024a1	-0.17201473
22	0xbd6b1e12	-0.057401724
23	0xbe00e9df	-0.12589215
24	0xbde3fac8	-0.11131817
25	0xbe1652a2	-0.1467996
26	0xbc0e298c	-0.008676898
27	0xbe0a7db9	-0.13524522
28	0xbc63f0cf	-0.013912394
29	0xbdc85245	-0.09781317
30	0xbdf22d70	-0.11825073
31	0xbde9966f	-0.11405646
32	0xbdbf0389	-0.09326846
33	0xbcd90a14	-0.026494063
34	0xbe2031b2	-0.15643957
35	0xbd07cbf8	-0.033153504
36	0xbdbfa744	-0.09358075
37	0xbd117fa5	-0.035522122
38	0xba90b30d	-0.0011039689
39	0xbdcae147	-0.099062495
40	0xbbd51aee	-0.0065034544
41	0xbd32e758	-0.043677658
42	0xbe18474c	-0.14870948
43	0xbd85eb39	-0.06539006
44	0xbc21536a	-0.009846548
45	0xbd8ebb05	-0.06969265
46	0xbdb893cc	-0.09012565
47	0xbdcd5d98	-0.10027617
48	0x3ccaeb99	0.024770545
49	0xbdad9e47	-0.08477455
50	0xbd78ad3f	-0.060712095
51	0x3d29053b	0.041264754
52	0xbdae496d	-0.085100986
53	0xbd2a0b47	-0.04151466
54	0x3ca0353c	0.019556634
55	0xbe0b1f14	-0.13586074
56	0xbddec0ea	-0.10876639
57	0xbe295fd1	-0.16540457
58	0xbd1fb67d	-0.038992394
59	0xbd1fd92a	-0.039025463
60	0xbde60b00	-0.11232567
61	0xbbe2ae70	-0.006917767
62	0x3d0a3ead	0.03375118
63	0xbce70dda	-0.028204847
64	0xbd3faa75	-0.04679342
65	0xbcd57bd1	-0.026060017
66	0xbc24d859	-0.010061347
67	0xbcaec219	-0.021332787
68	0xbb7ef081	-0.0038900676
69	0xbe0976f7	-0.13424288
70	0xbdee7d45	-0.11644987
71	0xbd94755d	-0.07248948
72	0xbdf8ff6c	-0.12158093
73	0xbd9542a7	-0.072881036
74	0xbcfa730e	-0.03057244
75	0xbdca8ff5	-0.09890739
76	0xbdca9786	-0.09892182
77	0xbdddae95	-0.108243145
78	0xbdfea692	-0.124341145
79	0xbdcd031c	-0.10010359
80	0xbdf7ffbe	-0.12109326
81	0x3b4e7ac4	0.003150628
82	0xbca01620	-0.0195418
83	0xbbd98c04	-0.0066390056
84	0xbe2c2449	-0.16810717
85	0xbd09b69d	-0.03362142
86	0xbdc458b7	-0.095872335
87	0xbc093fcc	-0.008377027
88	0x3cb80bd7	0.022466583
89	0xbd8de75b	-0.06928893
90	0xbdfabb4a	-0.12242754
91	0xbd360b86	-0.044444583
92	0xbd607c23	-0.054805886
93	0xbdb59f93	-0.08868327
94	0xbd65ba37	-0.05608579
95	0x3c87a118	0.016556308
96	0xbd170bb3	-0.03687639
97	0xbd2f07bc	-0.042731985
98	0x3d79d4f3	0.0609941
99	0xbd3f82a9	-0.046755467
100	0xbd334b4f	-0.04377299
101	0xbdffa1b8	-0.12482017
102	0xb77168e0	-1.43891375e-05
103	0xbc38ded4	-0.011283595
104	0xbe095dea	-0.13414732
105	0xbe21e21c	-0.1580891
106	0xbdacf45d	-0.08445046
107	0xbd25ed4a	-0.0405095
108	0xbae23de9	-0.0017260882
109	0x3d1c20b3	0.038117122
110	0xbd97d238	-0.07413143
111	0xbded4a8e	-0.11586486
112	0x3b835866	0.0040083406
113	0xbe059e8c	-0.13048762
114	0xbddd89ce	-0.108173
115	0xbe02b98d	-0.12766095
116	0xbd9be141	-0.07611323
117	0x3bb7bcdc	0.0056072306
118	0xbe12bdc1	-0.14330198
119	0xbdee9f5d	-0.1165149
120	0xbcfc6212	-0.030808482
121	0xbccd64bf	-0.025072454
122	0x3bb47ceb	0.0055080554
123	0xbd09e1d1	-0.03366262
124	0xbd874e6f	-0.06606757
125	0x3c623a89	0.013807901
126	0xbc81d59a	-0.015848923
127	0xbdf1904c	-0.117951006

transformer_encoder.layers.0.linear2.weight f4 [128, 128]
0	0xbd7c78bb	-0.061638575
1	0xbdb38b1b	-0.08766767
2	0x3ce8852c	0.028383814
3	0x3dcba3cc	0.09943351
4	0xbc9f999e	-0.01948243
5	0xbc4d4cad	-0.012530488
6	0x3db67a81	0.089100845
7	0xbdcdf89b	-0.10057183
8	0x3e06b08c	0.13153285
9	0xbdd4e88a	-0.10395916
10	0xbaed291c	-0.0018093917
11	0xbd0e6c7d	-0.03477143
12	0xbd2a66d9	-0.04160199
13	0x3c477a6d	0.012175185
14	0xbdb0c659	-0.08631582
15	0x3dc6a16f	0.0969876
16	0xbe21f44b	-0.15815847
17	0xbce48006	-0.027893078
18	0xbd837e1b	-0.06420537
19	0xbbd085d1	-0.0063636084
20	0x3d4f1df7	0.050565686
21	0x3cd62820	0.02614218
22	0xbd15336b	-0.03642599
23	0x3c226724	0.009912286
24	0x3c86ccb4	0.016455032
25	0xbdf6335d	-0.120215155
26	0xbbc64949	-0.0060512167
27	0x3ca37baf	0.019956438
28	0xbdeb6298	-0.11493415
29	0x3d478fa5	0.048720974
30	0x3bc78d18	0.0060898177
31	0x3d8e5726	0.06950216
32	0xbcca62e5	-0.02470536
33	0x3e1be6cd	0.15224762
34	0xbc8997a5	-0.016795943
35	0x3ceeaef4	0.029136159
36	0xbdab2089	-0.08355815
37	0xbd6602e7	-0.05615511
38	0xbd490eff	-0.049086567
39	0xbdbc849e	-0.09204982
40	0xbd4684b2	-0.04846639
41	0xbdabc465	-0.08387069
42	0x3c561ae3	0.013067934
43	0x3d927548	0.07151276
44	0x3dc0047f	0.093758576
45	0xbc829ae4	-0.015942998
46	0x3cd611b3	0.026131487
47	0xbd47289b	-0.04862271
48	0xbd90577e	-0.07047938
49	0x3d2a9fad	0.041656185
50	0x3dafce00	0.08584213
51	0xbdb0bc55	-0.086296715
52	0x3d520e5f	0.051283237
53	0xbd5a62ea	-0.053316988
54	0x3e006cc7	0.12541495
55	0x3c3c77d0	0.011503175
56	0x3b913324	0.0044311453
57	0xbd8f1f67	-0.069884114
58	0xbddde593	-0.108348034
59	0x3b941abb	0.004519788
60	0x3dd0c5d0	0.1019398
61	0xbccf4c3a	-0.025304902
62	0xbc8a7bfd	-0.016904825
63	0xbda098fd	-0.0784168
64	0x3d19d008	0.03755191
65	0xbd785536	-0.06062814
66	0xbbcb1ea9	-0.0061987233
67	0xbc610637	-0.013734392
68	0x3b968197	0.004593085
69	0xbd232a42	-0.039835222
70	0xbe013f7e	-0.12621877
71	0x3dd5f264	0.10446623
72	0x3d1ff1ed	0.039049078
73	0x3e488ccf	0.19584964
74	0xbbbd3fb8	-0.005775418
75	0xbc81d63a	-0.015849221
76	0xbb3411ca	-0.0027476423
77	0x3da42819	0.080154605
78	0xbe43f1ca	-0.19135204
79	0xbdaa6886	-0.083207175
80	0xbdb412f6	-0.08792679
81	0xbca83b8c	-0.020536207
82	0x3b568337	0.0032732019
83	0xbdf011d6	-0.11722152
84	0x3b407831	0.0029368515
85	0x3df5e91b	0.12007352
86	0x3d1628b9	0.03665993
87	0x3b4620f4	0.0030232044
88	0x3cbfa2ca	0.023393054
89	0x3e14f1f9	0.1454543
90	0x3db656e3	0.08903291
91	0xbcd5a194	-0.026078023
92	0xbdd2c8e2	-0.102922216
93	0xb9314a83	-0.00016907793
94	0xbc922fae	-0.017845001
95	0xbd94cc9e	-0.0726559
96	0xbc81763a	-0.015803445
97	0xbcf9ca0c	-0.030491851
98	0xbdbf8854	-0.093521744
99	0x3d3fd745	0.046836156
100	0xbd8ae741	-0.067823894
101	0xbcaa94b8	-0.020822868
102	0x3dcebeca	0.10094984
103	0xbc86d398	-0.016458318
104	0xbb837ec4	-0.0040129144
105	0x3cadaeb6	0.021201473
106	0xbd930e84	-0.07180503
107	0x3bac2833	0.0052538156
108	0xbd4a6bb9	-0.04941914
109	0x3c6a325b	0.014294232
110	0x3bde1dd6	0.006778459
111	0x3d066963	0.03281535
112	0xbe0534ba	-0.13008395
113	0x3b8854af	0.0041604857
114	0xbde1d9ae	-0.11027847
115	0x3dadb092	0.08480944
116	0xbd52d677	-0.05147406
117	0xbe7f9f25	-0.24963053
118	0x3dacab9b	0.08431169
119	0x3bc3b4e7	0.005972493
120	0x3d55f20d	0.05223279
121	0x3d96d484	0.07364753
122	0x3986b322	0.00025691936
123	0xbd9be2d9	-0.07611627
124	0x3d6b64bc	0.057469115
125	0xbd907e85	-0.07055382
126	0xbca786f4	-0.020450093
127	0xbc6ca572	-0.014443742
128	0xbd87abec	-0.06624588
129	0x3c523463	0.012829873
130	0xbd04f74f	-0.032462414
131	0xbd6da6ad	-0.058020283
132	0xbc083b79	-0.008314961
133	0xbdd9b3d9	-0.10630006
134	0xbd94298e	-0.072344884
135	0xbded159f	-0.115763895
136	0xbd1fcefd	-0.03901576
137	0xbd254376	-0.04034754
138	0x3b3d1169	0.0028849489
139	0x3d2556db	0.040366035
140	0xbda1e5ab	-0.07905134
141	0xbb5d271b	-0.0033745233
142	0x3cc481a9	0.023987608
143	0xbbb241d6	-0.005439977
144	0x3d6e94bf	0.058247324
145	0x3d61a266	0.055086516
146	0xbc8b307a	-0.016990889
147	0x3d044403	0.032291424
148	0x3d311927	0.043236878
149	0xbdd25a61	-0.10271145
150	0xbd292b8d	-0.0413013
151	0xbd47cf79	-0.048781846
152	0x3d30e07c	0.043182835
153	0xbb22433c	-0.0024759313
154	0x3d55a949	0.052163396
155	0x3d29a8a8	0.04142061
156	0xbbd1cd17	-0.0064026224
157	0xbccc7fba	-0.024963249
158	0x3d7fbf57	0.062438335
159	0x3ad06bda	0.0015901283
160	0x3d5d51d6	0.054033123
161	0x3ca65825	0.020305702
162	0xbd743b2e	-0.05962675
163	0xbd078960	-0.033089995
164	0xbdaef61a	-0.08543034
165	0xbda615c3	-0.081096195
166	0x3c84a630	0.016192526
167	0x3cd7f199	0.02636032
168	0xbd54fdac	-0.051999733
169	0x3d65f71a	0.056143858
170	0xbda83289	-0.08212764
171	0xbd691f81	-0.05691481
172	0xbd56713a	-0.052354075
173	0x3d008839	0.031379912
174	0xbc6a4b26	-0.014300143
175	0xbd98d079	-0.07461638
176	0x3e04e5a7	0.1297823
177	0x3d087626	0.0333158
178	0x3bdc01d2	0.006714084
179	0xbb151758	-0.002274951
180	0x3c814047	0.01577772
181	0xbde741e0	-0.112918615
182	0xbcb2416d	-0.021759713
183	0x3d82db4d	0.063894846
184	0x3d9edc37	0.077568464
185	0xbbcbcdfe	-0.0062196245
186	0x3d31ddb1	0.043424312
187	0x3d9cb485	0.07651619
188	0xbd21bdb1	-0.039487544
189	0xbb4623fe	-0.0030233855
190	0xbd6589eb	-0.056039732
191	0xbdd23b08	-0.102651656
192	0x3d850abc	0.06496188
193	0xbe013f70	-0.12621856
194	0x3d31007b	0.04321335
195	0xbd4878b3	-0.048943233
196	0x3dd3175b	0.10307189
197	0x3e01f17f	0.1268978
198	0x3d3264a9	0.04355303
199	0x3cc050be	0.023476
200	0xbddbb159	-0.10727186
201	0x3d2228a9	0.039589558
202	0x3da84bc6	0.08217578
203	0xbd1da958	-0.038491577
204	0x3c00e7b6	0.007867744
205	0x3dcfb98f	0.10142814
206	0x3d97f187	0.074191146
207	0x3d05635d	0.032565463
208	0xbdf9aeaf	-0.121915214
209	0xbd953176	-0.072848246
210	0xbd84f4ad	-0.06491981
211	0xbd3b96af	-0.045798
212	0x3d803d0a	0.06261642
213	0x3cb1d6f7	0.021708949
214	0x3b79c4f8	0.0038111787
215	0xbd853b20	-0.06505418
216	0x3d97efb7	0.07418769
217	0xbdae934e	-0.0852419
218	0xbd798ed6	-0.060927235
219	0x3d1b606c	0.037933752
220	0xbc47222c	-0.012154143
221	0xbd12b372	-0.035815664
222	0xbdfbcff4	-0.12295523
223	0x3cb60921	0.02222115
224	0x3c5d8609	0.013520726
225	0xbd02b69b	-0.031912427
226	0xbd997d5b	-0.07494613
227	0x3dd9461e	0.10609077
228	0x3db4e412	0.088325635
229	0x3c56fe2c	0.013122123
230	0xbc945fb3	-0.01811204
231	0xbd08d18c	-0.033402964
232	0xbc27f4fa	-0.010251278
233	0x3dee0216	0.116214916
234	0x3d96526c	0.073399395
235	0x3d372b9e	0.04471933
236	0xbd2a418f	-0.041566428
237	0xbd3b6003	-0.04574586
238	0xbcf9fd92	-0.03051642
239	0x3d92a5ef	0.071605556
240	0xbc815ecc	-0.015792273
241	0xbdea3102	-0.11435129
242	0x3bfa10b3	0.0076313852
243	0xbc858d4d	-0.016302729
244	0xbbb6ded0	-0.0055807605
245	0xbd48269e	-0.048864953
246	0xbd451f72	-0.04812569
247	0x3d9e7be7	0.07738476
248	0xbc3dce2d	-0.011584801
249	0x3d39459c	0.0452324
250	0x3d08852d	0.03333013
251	0xbd0bb8b3	-0.03411169
252	0xbc801b43	-0.015638
253	0xbd814498	-0.06311911
254	0x3c823682	0.015895132
255	0xbd836ee1	-0.06417633
