multi_scale_transformer_encoder/transformer_encoder_model_fold_2.pth (torch, 822178 bytes, 28 tensors)

embedding.weight f4 [128, 25]
0	0xbda4d439	-0.08048291
1	0x3dd1a1b5	0.10235921
2	0xbc305ce6	-0.010764336
3	0xbc5b4c73	-0.013384926
4	0x3d7c0aec	0.061533853
5	0xbe0789d9	-0.13236178
6	0xbe7bd419	-0.24592628
7	0xbb0e773a	-0.0021738545
8	0xbe292950	-0.16519666
9	0x3dfc1bf3	0.123100184
10	0x3e1099f0	0.14121222
11	0x3b3c12d0	0.0028697737
12	0x3def96f1	0.11698712
13	0xbd8884a8	-0.06665927
14	0xbe509e66	-0.20372924
15	0xbda44f31	-0.08022917
16	0xbd901a86	-0.07036309
17	0x3d7c1270	0.06154102
18	0xbdafae65	-0.08578185
19	0x3da89819	0.08232135
20	0xbdd15699	-0.10221595
21	0x3d9ae8aa	0.075639084
22	0xbd9c6aed	-0.07637582
23	0xbce9dadc	-0.028546743
24	0x3da487fb	0.08033749
25	0xbe40fe62	-0.1884704
26	0x3de00109	0.109376974
27	0x3e3119f0	0.1729505
28	0x3dc7bfef	0.09753405
29	0xbd09a6a0	-0.03360617
30	0x3df2f536	0.118631765
31	0x3d718ac5	0.05897023
32	0xbc9e174f	-0.019298224
33	0x3b90798e	0.0044090217
34	0x3e21d4ca	0.15803829
35	0x3b63aaad	0.0034739182
36	0x3c6a3b25	0.014296328
37	0x3e36db3c	0.17857069
38	0x3cc26a43	0.02373231
39	0xbdf4b2ed	-0.1194819
40	0xbe39d6e9	-0.18148388
41	0xbddb86e8	-0.10719091
42	0x3d8933cc	0.066993326
43	0x3e975607	0.2955782
44	0xbc64b8e8	-0.013960101
45	0x3dfb3c41	0.12267352
46	0x3e429a63	0.19004206
47	0xbde6c40f	-0.11267864
48	0x3ead44cc	0.3384155
49	0x3e195620	0.1497426
50	0x3e224b90	0.15849137
51	0xbe362071	-0.17785813
52	0x3de13e62	0.10998227
53	0xbdd23ec5	-0.102658786
54	0xbd47ebbf	-0.04880881
55	0x3d78bc38	0.060726374
56	0xbe42fbad	-0.19041319
57	0xbd77b278	-0.060472935
58	0x3e3b7ed9	0.18310107
59	0xbda7868d	-0.081799604
60	0xbe4c3c34	-0.1994484
61	0x3d67f866	0.056633376
62	0x3e332fad	0.17498656
63	0x3da7df5e	0.08196901
64	0xbce8c243	-0.028412944
65	0x3da67551	0.08127845
66	0x3d3e3a98	0.046442598
67	0x3be06b33	0.0068487166
68	0x3e9da0be	0.307867
69	0x3e2474f0	0.16060233
70	0x3d71eb92	0.059062548
71	0xbd46daf4	-0.048548654
72	0x3e17b26b	0.14814155
73	0x3caaffc9	0.020873921
74	0xbe274023	-0.1633306
75	0xbda61145	-0.08108763
76	0xbd7fb5b0	-0.06242913
77	0xbb555b23	-0.0032555542
78	0x3e613a60	0.21994925
79	0x3b655780	0.003499478
80	0x3d85e0c7	0.065370135
81	0xbe2698ab	-0.16269176
82	0xbe1aa696	-0.1510261
83	0xbd65527b	-0.055986863
84	0x3d8dea11	0.0692941
85	0x3dffa407	0.124824576
86	0xbd518da2	-0.051160462
87	0x3e51c69f	0.20485924
88	0xbde376ce	-0.111066446
89	0xbe0449f7	-0.1291884
90	0x3e05c329	0.13062729
91	0xbd9baa34	-0.07600823
92	0xbb8245ce	-0.0039756065
93	0x3e79a78c	0.2438032
94	0xbd34ff23	-0.04418863
95	0x3db3ae7f	0.08773517
96	0x3e5750c0	0.21026897
97	0xbad4e428	-0.0016242312
98	0x3aa9d70b	0.0012957765
99	0xbb3ccb32	-0.0028807637
100	0xbe00561d	-0.1253285
101	0x3e3367fe	0.17520139
102	0x3dd44d8a	0.10366352
103	0xbcd35af6	-0.02580021
104	0xbd9ccf3b	-0.076567136
105	0x3caa9b7f	0.0208261
106	0x3c9c0c67	0.019048883
107	0x3e03ebdb	0.1288294
108	0xbdaa82e0	-0.08325744
109	0x3dccd774	0.10002032
110	0xbe1b4746	-0.15163907
111	0xbe4b13f0	-0.19831824
112	0xbde85dae	-0.11345993
113	0x3daec5e0	0.085338354
114	0x3d53d40b	0.05171589
115	0x3da94085	0.08264259
116	0x3e80a901	0.2512894
117	0x3db04a0a	0.08607872
118	0xbe6cae08	-0.23113263
119	0xbd8d022c	-0.0688518
120	0xbe1da929	-0.1539656
121	0x3d71fcc4	0.059078947
122	0xbbf0db37	-0.007350351
123	0x3e0f94b9	0.14021577
124	0xbe06fa15	-0.13181336
125	0x3dd7d5a6	0.10538797
126	0x3e18954b	0.14900701
127	0xba301d9a	-0.0006718278
128	0xbe011fc4	-0.12609774
129	0x3e157ac5	0.14597614
130	0xbb4fce2c	-0.0031708581
131	0xbdf4462d	-0.119274475
132	0xbe805d27	-0.2507107
133	0xbda93a3e	-0.08263062
134	0xbe015109	-0.12628569
135	0xbcfd4887	-0.030918373
136	0xbe48172b	-0.19540088
137	0xbdba3e62	-0.0909393
138	0x3e3a6c28	0.18205321
139	0xbd72b83e	-0.05925774
140	0xbe24a588	-0.1607877
141	0xbc7bb666	-0.015363311
142	0x3dc17f3a	0.09448095
143	0x3e7805da	0.24220982
144	0xbde5ce81	-0.11221028
145	0x3dcafe55	0.09911791
146	0x3e158609	0.14601912
147	0xbcf20ac2	-0.029546145
148	0x3e78ef9f	0.24310158
149	0xbe0aea31	-0.135659
150	0xbd3d386d	-0.04619639
151	0xbdfa37b6	-0.12217657
152	0x3d33075b	0.043708187
153	0xbe004ed8	-0.12530077
154	0x3e531586	0.2061368
155	0x3d8cd794	0.06877056
156	0x3e540d59	0.20708217
157	0xbe52d363	-0.2058845
158	0x3e0f3905	0.13986595
159	0xbdba6ce9	-0.09102804
160	0x3e6dab78	0.23209941
161	0x3e0b9bda	0.13633671
162	0x3da88784	0.082289726
163	0x3d757250	0.05992347
164	0xbe44e54d	-0.19228096
165	0xbdaef584	-0.08542922
166	0xbd33e8d1	-0.043923203
167	0xbe0649f3	-0.13114147
168	0x3c42bd43	0.011885944
169	0x3cb76a35	0.02238951
170	0x3ce328ec	0.027729474
171	0x3d8f0d02	0.06984903
172	0xbc67cc70	-0.014147863
173	0x3e5ee445	0.21766765
174	0xbace7a3d	-0.0015752983
175	0x3e0b9870	0.13632369
176	0xbe12b3cd	-0.14326401
177	0xbdebb5e4	-0.11509302
178	0x3d96b0d2	0.073579445
179	0x3db71b94	0.08940807
180	0xbda834b7	-0.082131796
181	0xbdce9227	-0.1008647
182	0x3e972578	0.29520774
183	0x3d7d13bb	0.061786395
184	0xbe26771f	-0.16256379
185	0xbd383d37	-0.044980254
186	0x3e727592	0.23677662
187	0x3d5a7e47	0.053343084
188	0x3e4a71b6	0.1976994
189	0x3cbb24f0	0.022844762
190	0xbe0f3709	-0.13985838
191	0xbdc3cf0b	-0.09560975
192	0x3ca83925	0.020535061
193	0x3d83e4d6	0.06440131
194	0xbe3a197d	-0.18173786
195	0x3e3b180a	0.18270889
196	0xbe00f5c8	-0.12593758
197	0xbda84074	-0.082154185
198	0xbea63363	-0.3246108
199	0xbd26078c	-0.04053454
200	0x3e37cf56	0.17950186
201	0xbca640c3	-0.020294553
202	0xbdfbb6b4	-0.12290707
203	0x3e270823	0.16311698
204	0xbd81bda4	-0.06334999
205	0x3e2387d3	0.15969782
206	0xbd823938	-0.0635857
207	0x3e45e01d	0.19323774
208	0x3c820c62	0.015875045
209	0xbe3e11fe	-0.18561551
210	0x3e82ddac	0.25559747
211	0xbd807e87	-0.06274133
212	0x3e6c1865	0.23056181
213	0x3d1d5b8d	0.038417388
214	0x3e20bb4f	0.15696453
215	0xbe235dc3	-0.15953736
216	0x3ddf19fa	0.108936265
217	0x3cf2fecd	0.029662514
218	0x3e8c9a38	0.2746141
219	0xbe2c5468	-0.16829073
220	0x3db8582f	0.09001195
221	0x3e1f77dd	0.15573068
222	0xbcb159ea	-0.02164932
223	0xbe471237	-0.19440542
224	0xbe08676a	-0.133207
225	0x3e1f7f8a	0.15575996
226	0xbdd80aeb	-0.105489574
227	0xbc055426	-0.008137738
228	0x3bb87b66	0.0056299446
229	0xbdd2bd92	-0.10290064
230	0xbd98bfde	-0.07458471
231	0x3d8be11b	0.06830045
232	0x3eb62b7c	0.3558005
233	0xbe6035c7	-0.21895514
234	0xbe500270	-0.2031343
235	0x3e58849f	0.21144341
236	0xbcfa5ca5	-0.030561754
237	0x3bcbd8f3	0.0062209307
238	0x3e2eb865	0.17062528
239	0xbe1b5e2d	-0.15172644
240	0xbe1ee145	-0.15515621
241	0xbb97bcb2	-0.0046306485
242	0x3e16cfee	0.14727756
243	0xbdeef329	-0.11667473
244	0xbe13bdf8	-0.14427936
245	0x3df83168	0.121187985
246	0xbdea7442	-0.11447956
247	0x3d533f0d	0.0515738
248	0xbe44d38f	-0.19221328
249	0x3d217042	0.039413698
250	0xbc71559d	-0.014729884
251	0xbe57d9be	-0.21079156
252	0xbe264d13	-0.16240339
253	0xbdb66d35	-0.08907548
254	0x3e509b42	0.20371726
255	0xbd2c7cfa	-0.042111374

embedding.bias f4 [128]
0	0xbd03e0e8	-0.03219691
1	0xbd3a8050	-0.045532525
2	0xbd894d14	-0.067041546
3	0xbd798a5f	-0.060922977
4	0xbda7f68d	-0.08201323
5	0xbc883bd1	-0.016630085
6	0xbcf79561	-0.030222597
7	0x3e5ecc7c	0.21757692
8	0x3e1b7625	0.15181787
9	0x3de9a652	0.11408676
10	0xbe47280e	-0.19448873
11	0xbddb3436	-0.10703318
12	0xbdde382a	-0.10850556
13	0xbe0002bf	-0.12501048
14	0xbd4b1db0	-0.04958886
15	0x3e3028a6	0.17203006
16	0xbe076c1c	-0.13224834
17	0xbd811b47	-0.06304031
18	0x3d38c456	0.045109116
19	0x3d536af7	0.05161568
20	0x3ccbcf85	0.024879226
21	0x3e352da0	0.17693186
22	0x3e27a98e	0.16373274
23	0xbdb598dd	-0.08867047
24	0xbc967d6e	-0.018370356
25	0xbc1f8edf	-0.009738653
26	0x3d06765c	0.03282772
27	0xbd081b8f	-0.033229407
28	0x3d176a79	0.036966775
29	0x3d0a4f82	0.03376723
30	0x3d138c6c	0.03602259
31	0xbe262859	-0.16226329
32	0xbcbc7116	-0.023003142
33	0x3c319d51	0.01084073
34	0x3db3ec4c	0.087853044
35	0x3de4e39d	0.11176226
36	0xbcea1d44	-0.028578408
37	0x3d87d0ac	0.06631598
38	0xbc645ff1	-0.01393889
39	0x3d99644f	0.074898355
40	0x3e57c9e9	0.21073116
41	0xbdff83a4	-0.1247628
42	0xbd7f1831	-0.06227893
43	0x3dd391ad	0.1033052
44	0xbc10e199	-0.008842849
45	0x3d6fabbf	0.0585134
46	0x3e025679	0.12728299
47	0x3dbbc834	0.09169045
48	0xbd69874f	-0.057013806
49	0xbe1799f6	-0.14804825
50	0xbe0642c5	-0.13111408
51	0x3d2d6e03	0.042341243
52	0x3cf92571	0.030413361
53	0xbe2bb743	-0.16769128
54	0x3dbe3f5f	0.09289431
55	0x3d8a7945	0.067614116
56	0xbdf372f4	-0.1188716
57	0xbd9aa2ae	-0.0755056
58	0xbd9566cc	-0.072949976
59	0x3deac5b6	0.114634916
60	0xbd97ef8a	-0.07418735
61	0xbe08cf42	-0.13360313
62	0xbe117667	-0.14205323
63	0xbd7d77c6	-0.061881803
64	0xbd358984	-0.0443206
65	0x3e2d82b1	0.16944386
66	0x3e313b4e	0.17307779
67	0x3dd72ae8	0.105062306
68	0x3cc1660f	0.023608236
69	0xbcd93bad	-0.026517713
70	0x3e1a3211	0.15058161
71	0x3dfbabd0	0.1228863
72	0x3d7046d3	0.058661293
73	0xbce6c2fd	-0.02816915
74	0x3dfdb70d	0.1238843
75	0xbc3d6bcc	-0.011561345
76	0xbd607322	-0.0547973
77	0xbe25caaf	-0.16190599
78	0x3d30dd30	0.04317969
79	0x3e17d978	0.14829051
80	0x3d0f8f3d	0.035048712
81	0x3bef720a	0.0073072957
82	0xbd8dc170	-0.06921661
83	0x3e05b769	0.13058247
84	0x3d8f658e	0.07001792
85	0xbdd0c949	-0.10194642
86	0x3c53340a	0.012890825
87	0x3e342414	0.17591888
88	0x3d9f41eb	0.07776245
89	0xbda46994	-0.0802795
90	0xbd5465c0	-0.05185485
91	0xbdc077f1	-0.09397877
92	0xbe1c9bb4	-0.15293771
93	0x3df51560	0.119669676
94	0xbdb870e6	-0.09005909
95	0xbe0c7224	-0.13715416
96	0x3d68a0c7	0.056793954
97	0xbe37aa1a	-0.17935982
98	0xbdbd0f12	-0.0923139
99	0x3d88093a	0.06642385
100	0xbdc5bb1a	-0.096548274
101	0x3dc44d46	0.09585051
102	0x3dea77f2	0.11448659
103	0x3ddb827e	0.10718249
104	0xbd127bb6	-0.03576251
105	0x3e2211fa	0.1582717
106	0xbd9b575c	-0.07585022
107	0x3d8609e4	0.06544855
108	0xbddbe000	-0.10736084
109	0x3de7f0e7	0.11325245
110	0x3ce521db	0.027970245
111	0x3c50f403	0.012753489
112	0xbe40f38b	-0.18842904
113	0xbd6fe371	-0.058566514
114	0x3e574d9d	0.21025701
115	0x3e265290	0.16242433
116	0xbda4c0ec	-0.080446094
117	0xbe33a193	-0.17542104
118	0xbe2ae79c	-0.16689914
119	0xbd79373b	-0.060843688
120	0xbe19bc2b	-0.15013187
121	0xbde0ac3a	-0.109703496
122	0x3e163b71	0.14671113
123	0x3b1962dc	0.0023404872
124	0x3d843d01	0.06456948
125	0x3e0cdbaa	0.1375567
126	0x3dae0659	0.084973045
127	0x3d2792aa	0.040911354

transformer_encoder.layers.0.self_attn.in_proj_weight f4 [384, 128]
0	0x3d09d68e	0.03365188
1	0x3d8d5a5b	0.069019996
2	0x3d88cd65	0.06679801
3	0xbd282f2c	-0.04106061
4	0xbda8d429	-0.08243591
5	0x3c552df0	0.013011441
6	0xbd49a2e0	-0.049227595
7	0xbc1d5c68	-0.009604551
8	0xbcd15098	-0.025551125
9	0xbdac70f4	-0.084199816
10	0xbcdda610	-0.027056724
11	0x3d376bfe	0.044780724
12	0x3dd251ab	0.10269483
13	0x3d46825e	0.04846417
14	0xbcafd574	-0.021464087
15	0x3d202d6a	0.03910581
16	0xbdd16277	-0.10223859
17	0xbcc9d784	-0.024638899
18	0xbdb80f86	-0.08987336
19	0x3dba15b3	0.0908617
20	0x3db43331	0.087988265
21	0xbd88788e	-0.06663619
22	0x3c1dbb50	0.009627178
23	0x3da4a6b3	0.08039608
24	0xbd18eba2	-0.037334092
25	0xbcdd0960	-0.02698201
26	0xbbddf6c0	-0.0067737997
27	0x3d844991	0.06459344
28	0xbd0baa62	-0.034098037
29	0x3d9cc875	0.07655422
30	0x3dab108f	0.08352768
31	0x3c97e5a4	0.018542118
32	0xbd3a6c48	-0.04551342
33	0x3c902aa4	0.017598458
34	0x3dca0b95	0.0986549
35	0x3ddc4a81	0.10756398
36	0x3d83f82b	0.06443819
37	0x3d0b2aae	0.03397625
38	0xbdc37397	-0.095435314
39	0xbd2754a6	-0.04085221
40	0xba9c4d80	-0.0011924952
41	0x3b97a820	0.0046281964
42	0x3dae90d9	0.08523721
43	0x3dbf8c27	0.09352904
44	0x3d7643d2	0.060123272
45	0xbd9aa205	-0.07550434
46	0x3d5780e2	0.052613147
47	0x3d97217d	0.07379434
48	0x3da6b5f7	0.08140176
49	0xbd5593a6	-0.05214276
50	0x3ce2ee74	0.027701594
51	0x3d5cebee	0.053935938
52	0x3d76994e	0.060204796
53	0x3d0a1e0a	0.033720054
54	0xbba17f60	-0.0049285144
55	0xbdaf7052	-0.08566345
56	0x3d975619	0.07389469
57	0x3d272506	0.040806793
58	0xbdd123a3	-0.10211875
59	0x3db5968b	0.088666044
60	0xbd236770	-0.039893568
61	0x3d0d976e	0.034568243
62	0xbca000c0	-0.019531608
63	0xbc3f1c00	-0.011664391
64	0xbc54e438	-0.012993865
65	0x3d962e45	0.07333044
66	0x3dc8f457	0.09812229
67	0x3b8ff830	0.0043936
68	0xbda48bb1	-0.080344565
69	0xbcd2e690	-0.025744706
70	0xbda1f228	-0.07907516
71	0x3dc33757	0.095320396
72	0xbd7fbd8f	-0.062436637
73	0xbdba4efd	-0.09097097
74	0x3db814dd	0.08988354
75	0xbd84e32a	-0.064886406
76	0x3dcca293	0.09991946
77	0x3d75b54e	0.05998736
78	0x3c071f70	0.008247241
79	0xbdb7cf8a	-0.08975132
80	0x3c259c00	0.010107994
81	0xbd9f81e7	-0.07788449
82	0xbda47503	-0.08030131
83	0x3d90563f	0.070477
84	0xbbd84120	-0.0065995604
85	0x3cb72244	0.022355206
86	0xba476e00	-0.0007607639
87	0xbc96c2ac	-0.018403374
88	0xbd267856	-0.040642105
89	0x3cbf0c3c	0.023321263
90	0xbd2f9cc2	-0.042874105
91	0xbd9c85c2	-0.076427
92	0x3d0bdd7a	0.034146763
93	0xbc1a4a20	-0.009417087
94	0x3c2c7a40	0.010527194
95	0xbccfc708	-0.02536346
96	0x3d8dd5fd	0.06925581
97	0xbdd104a5	-0.10205964
98	0xbdb054c1	-0.086099155
99	0xbdabab85	-0.08382324
100	0xbdcb3a4b	-0.09923228
101	0xbd901868	-0.07035905
102	0x3dc9f071	0.09860314
103	0x3d7b7642	0.061392076
104	0xbd92bb58	-0.07164639
105	0xbdb82071	-0.08990563
106	0xbd544c08	-0.05183032
107	0xbd6831fb	-0.05668829
108	0x3dae32ab	0.08505758
109	0x3d395c0e	0.045253806
110	0x3d3b9a62	0.045801528
111	0x3d40f422	0.047107823
112	0xbbdff4a0	-0.0068345815
113	0xbd5f6f00	-0.054549217
114	0x3dd6ed91	0.10494531
115	0x3db9ceb3	0.09072628
116	0xbcf6ee1c	-0.030142836
117	0x3d5cafd6	0.053878628
118	0xbd1cad1a	-0.03825102
119	0x3da02bdd	0.07820866
120	0x3cabe444	0.020982869
121	0x3d65504a	0.055984773
122	0x3dc73d2d	0.09728465
123	0x3d8f7857	0.07005375
124	0x3d32640e	0.04355245
125	0x3b90d2a0	0.0044196397
126	0xbd917250	-0.071018815
127	0x3d6c62ce	0.057711415
128	0x3dad6055	0.084656395
129	0xbdcd3f39	-0.100218244
130	0xbd482808	-0.0488663
131	0xbda88cf5	-0.082300104
132	0xbd779175	-0.060441453
133	0x3d9014b1	0.070351966
134	0xbd413bce	-0.047176175
135	0xbb935350	-0.0044960156
136	0xbda22947	-0.07918029
137	0x3cd9a654	0.02656857
138	0x3c86bfc4	0.016448863
139	0xbcd669b8	-0.026173458
140	0xbd8a6f02	-0.06759454
141	0xbd197232	-0.03746242
142	0x3dba950d	0.091104604
143	0x3dac6df9	0.08419413
144	0x3cd4f60c	0.02599623
145	0x3d5c22ae	0.05374401
146	0x3d901b93	0.07036509
147	0x3dc7d887	0.09758096
148	0xbdd6a8e9	-0.10481436
149	0x3cdfe3f4	0.027330376
150	0xbdc5db08	-0.096609175
151	0xbda7b12a	-0.08188088
152	0xbd1f0482	-0.03882266
153	0x3dd940d1	0.10608066
154	0xbda66958	-0.081255615
155	0x3cb16ccc	0.021658324
156	0x3c916eb4	0.017752983
157	0x3d6bbcfe	0.057553284
158	0xbdb08a7c	-0.08620164
159	0x3c250518	0.010072015
160	0x3d0041f2	0.03131289
161	0x3d64b89e	0.055840127
162	0xbdcb48a8	-0.099259675
163	0xbd6bbed2	-0.057555027
164	0xbcc8c3f4	-0.0245075
165	0x3d9bb25b	0.07602378
166	0xbdceb848	-0.100937426
167	0xbda28fd8	-0.07937592
168	0xbd1d7dec	-0.038450167
169	0xbd4f6b17	-0.05063924
170	0x3cf5243c	0.029924504
171	0x3d88fba5	0.066886224
172	0xbdb6650d	-0.08905993
173	0xbd72d818	-0.059288114
174	0x3da54aaf	0.080708854
175	0x3d70416a	0.058656134
176	0x3d00dcf2	0.03146071
177	0xbd8e37f0	-0.06944263
178	0xbda691c2	-0.0813327
179	0x3cd108dc	0.02551692
180	0x3d5164ae	0.051121406
181	0x3d9d34b7	0.0767607
182	0xbc88ee5c	-0.016715221
183	0x3d9c69fd	0.07637403
184	0xbd7fe3e4	-0.062473193
185	0x3d0739ea	0.033014216
186	0x3d941fc9	0.07232625
187	0xbdd87974	-0.1057004
188	0x392fd800	0.00016769767
189	0x3d5c88ce	0.053841405
190	0x3c8ae21c	0.01695352
191	0xbdbfaa09	-0.093586035
192	0xbbf02e10	-0.00732971
193	0xbc198490	-0.009369984
194	0xbdcb1212	-0.09915556
195	0x3db4d2d3	0.08829274
196	0xbdb604cd	-0.088876344
197	0x3cd63cbc	0.026152007
198	0x3d45f62e	0.04833048
199	0x3d9c3539	0.07627339
200	0x3d43867a	0.04773567
201	0x3caaae3c	0.020835035
202	0x3d826f1f	0.06368851
203	0x3d1f86f6	0.03894707
204	0xbd61b151	-0.055100743
205	0xbdcd2e14	-0.10018554
206	0xbd9bfaee	-0.076162204
207	0x3d671fbe	0.056426756
208	0xbda9d309	-0.08292205
209	0xbd0858dc	-0.033287868
210	0x3dbcb9af	0.09215104
211	0x3db0f113	0.08639731
212	0x3d8b5139	0.06802601
213	0x3d6fc882	0.05854083
214	0xbbca3d10	-0.00617183
215	0x3d918ce5	0.071069516
216	0xbdd44156	-0.10364024
217	0xbc8f9748	-0.017528191
218	0xbddd4d3b	-0.10805746
219	0xbd254c7e	-0.04035615
220	0x3d9b679d	0.07588122
221	0x3d9ec96f	0.07753264
222	0x3db1063b	0.086437665
223	0xbdbc461a	-0.09193058
224	0x3dbb5a69	0.09148104
225	0xbb3d75c0	-0.0028909296
226	0xbd75a65e	-0.059973113
227	0x3dd1cf6f	0.10244643
228	0x3c629650	0.013829783
229	0xbdd9add1	-0.10628856
230	0x3d8c805b	0.06860419
231	0x3dac633b	0.08417364
232	0xbdbe75d8	-0.09299821
233	0x3d2d5c32	0.042324252
234	0x3d55b7e2	0.052177317
235	0xbda5e78d	-0.081008054
236	0x3d74e10e	0.05978494
237	0x3db807f5	0.08985893
238	0xbddb378c	-0.10703954
239	0x3c29e690	0.010369912
240	0xbd129338	-0.03578493
241	0x3c89cd24	0.016821451
242	0xbc601e70	-0.013679132
243	0x3c6b1ef8	0.014350645
244	0x3d238b02	0.03992749
245	0xbd1752d4	-0.036944225
246	0x3dcb3b31	0.09923399
247	0xbdd90cce	-0.105981454
248	0xbd7d7a44	-0.06188418
249	0x3d1cf13e	0.038316004
250	0xbda73762	-0.0816486
251	0xbdb3bd1b	-0.087763034
252	0xbcea2bd0	-0.028585345
253	0xbc49aa88	-0.012308724
254	0x3d79ccbe	0.060986273
255	0x3d8f9f65	0.07012824

transformer_encoder.layers.0.self_attn.in_proj_bias f4 [384]
0	0x00000000	0.0
1	0x00000000	0.0
2	0x00000000	0.0
3	0x00000000	0.0
4	0x00000000	0.0
5	0x00000000	0.0
6	0x00000000	0.0
7	0x00000000	0.0
8	0x00000000	0.0
9	0x00000000	0.0
10	0x00000000	0.0
11	0x00000000	0.0
12	0x00000000	0.0
13	0x00000000	0.0
14	0x00000000	0.0
15	0x00000000	0.0
16	0x00000000	0.0
17	0x00000000	0.0
18	0x00000000	0.0
19	0x00000000	0.0
20	0x00000000	0.0
21	0x00000000	0.0
22	0x00000000	0.0
23	0x00000000	0.0
24	0x00000000	0.0
25	0x00000000	0.0
26	0x00000000	0.0
27	0x00000000	0.0
28	0x00000000	0.0
29	0x00000000	0.0
30	0x00000000	0.0
31	0x00000000	0.0
32	0x00000000	0.0
33	0x00000000	0.0
34	0x00000000	0.0
35	0x00000000	0.0
36	0x00000000	0.0
37	0x00000000	0.0
38	0x00000000	0.0
39	0x00000000	0.0
40	0x00000000	0.0
41	0x00000000	0.0
42	0x00000000	0.0
43	0x00000000	0.0
44	0x00000000	0.0
45	0x00000000	0.0
46	0x00000000	0.0
47	0x00000000	0.0
48	0x00000000	0.0
49	0x00000000	0.0
50	0x00000000	0.0
51	0x00000000	0.0
52	0x00000000	0.0
53	0x00000000	0.0
54	0x00000000	0.0
55	0x00000000	0.0
56	0x00000000	0.0
57	0x00000000	0.0
58	0x00000000	0.0
59	0x00000000	0.0
60	0x00000000	0.0
61	0x00000000	0.0
62	0x00000000	0.0
63	0x00000000	0.0
64	0x00000000	0.0
65	0x00000000	0.0
66	0x00000000	0.0
67	0x00000000	0.0
68	0x00000000	0.0
69	0x00000000	0.0
70	0x00000000	0.0
71	0x00000000	0.0
72	0x00000000	0.0
73	0x00000000	0.0
74	0x00000000	0.0
75	0x00000000	0.0
76	0x00000000	0.0
77	0x00000000	0.0
78	0x00000000	0.0
79	0x00000000	0.0
80	0x00000000	0.0
81	0x00000000	0.0
82	0x00000000	0.0
83	0x00000000	0.0
84	0x00000000	0.0
85	0x00000000	0.0
86	0x00000000	0.0
87	0x00000000	0.0
88	0x00000000	0.0
89	0x00000000	0.0
90	0x00000000	0.0
91	0x00000000	0.0
92	0x00000000	0.0
93	0x00000000	0.0
94	0x00000000	0.0
95	0x00000000	0.0
96	0x00000000	0.0
97	0x00000000	0.0
98	0x00000000	0.0
99	0x00000000	0.0
100	0x00000000	0.0
101	0x00000000	0.0
102	0x00000000	0.0
103	0x00000000	0.0
104	0x00000000	0.0
105	0x00000000	0.0
106	0x00000000	0.0
107	0x00000000	0.0
108	0x00000000	0.0
109	0x00000000	0.0
110	0x00000000	0.0
111	0x00000000	0.0
112	0x00000000	0.0
113	0x00000000	0.0
114	0x00000000	0.0
115	0x00000000	0.0
116	0x00000000	0.0
117	0x00000000	0.0
118	0x00000000	0.0
119	0x00000000	0.0
120	0x00000000	0.0
121	0x00000000	0.0
122	0x00000000	0.0
123	0x00000000	0.0
124	0x00000000	0.0
125	0x00000000	0.0
126	0x00000000	0.0
127	0x00000000	0.0
128	0x00000000	0.0
129	0x00000000	0.0
130	0x00000000	0.0
131	0x00000000	0.0
132	0x00000000	0.0
133	0x00000000	0.0
134	0x00000000	0.0
135	0x00000000	0.0
136	0x00000000	0.0
137	0x00000000	0.0
138	0x00000000	0.0
139	0x00000000	0.0
140	0x00000000	0.0
141	0x00000000	0.0
142	0x00000000	0.0
143	0x00000000	0.0
144	0x00000000	0.0
145	0x00000000	0.0
146	0x00000000	0.0
147	0x00000000	0.0
148	0x00000000	0.0
149	0x00000000	0.0
150	0x00000000	0.0
151	0x00000000	0.0
152	0x00000000	0.0
153	0x00000000	0.0
154	0x00000000	0.0
155	0x00000000	0.0
156	0x00000000	0.0
157	0x00000000	0.0
158	0x00000000	0.0
159	0x00000000	0.0
160	0x00000000	0.0
161	0x00000000	0.0
162	0x00000000	0.0
163	0x00000000	0.0
164	0x00000000	0.0
165	0x00000000	0.0
166	0x00000000	0.0
167	0x00000000	0.0
168	0x00000000	0.0
169	0x00000000	0.0
170	0x00000000	0.0
171	0x00000000	0.0
172	0x00000000	0.0
173	0x00000000	0.0
174	0x00000000	0.0
175	0x00000000	0.0
176	0x00000000	0.0
177	0x00000000	0.0
178	0x00000000	0.0
179	0x00000000	0.0
180	0x00000000	0.0
181	0x00000000	0.0
182	0x00000000	0.0
183	0x00000000	0.0
184	0x00000000	0.0
185	0x00000000	0.0
186	0x00000000	0.0
187	0x00000000	0.0
188	0x00000000	0.0
189	0x00000000	0.0
190	0x00000000	0.0
191	0x00000000	0.0
192	0x00000000	0.0
193	0x00000000	0.0
194	0x00000000	0.0
195	0x00000000	0.0
196	0x00000000	0.0
197	0x00000000	0.0
198	0x00000000	0.0
199	0x00000000	0.0
200	0x00000000	0.0
201	0x00000000	0.0
202	0x00000000	0.0
203	0x00000000	0.0
204	0x00000000	0.0
205	0x00000000	0.0
206	0x00000000	0.0
207	0x00000000	0.0
208	0x00000000	0.0
209	0x00000000	0.0
210	0x00000000	0.0
211	0x00000000	0.0
212	0x00000000	0.0
213	0x00000000	0.0
214	0x00000000	0.0
215	0x00000000	0.0
216	0x00000000	0.0
217	0x00000000	0.0
218	0x00000000	0.0
219	0x00000000	0.0
220	0x00000000	0.0
221	0x00000000	0.0
222	0x00000000	0.0
223	0x00000000	0.0
224	0x00000000	0.0
225	0x00000000	0.0
226	0x00000000	0.0
227	0x00000000	0.0
228	0x00000000	0.0
229	0x00000000	0.0
230	0x00000000	0.0
231	0x00000000	0.0
232	0x00000000	0.0
233	0x00000000	0.0
234	0x00000000	0.0
235	0x00000000	0.0
236	0x00000000	0.0
237	0x00000000	0.0
238	0x00000000	0.0
239	0x00000000	0.0
240	0x00000000	0.0
241	0x00000000	0.0
242	0x00000000	0.0
243	0x00000000	0.0
244	0x00000000	0.0
245	0x00000000	0.0
246	0x00000000	0.0
247	0x00000000	0.0
248	0x00000000	0.0
249	0x00000000	0.0
250	0x00000000	0.0
251	0x00000000	0.0
252	0x00000000	0.0
253	0x00000000	0.0
254	0x00000000	0.0
255	0x00000000	0.0

transformer_encoder.layers.0.self_attn.out_proj.weight f4 [128, 128]
0	0x3cc31c4c	0.023817204
1	0xbd41412e	-0.0471813
2	0xbdb90b49	-0.090353556
3	0xbd9a47fd	-0.07533262
4	0x3cb84e8c	0.022498392
5	0xbcdddae1	-0.027081909
6	0xbd247220	-0.0401479
7	0x3d1d0a27	0.03833976
8	0x3d3d70b1	0.04625005
9	0x3d809b4c	0.062796205
10	0x3d9c1c52	0.07622589
11	0xbc018d0a	-0.0079071615
12	0xbe0407f9	-0.12893666
13	0xbcff8746	-0.031192433
14	0x3bdf65a5	0.006817537
15	0xbcaefa31	-0.021359535
16	0x3cd240e5	0.02566571
17	0xbdbe1d40	-0.09282923
18	0xbc15ad61	-0.009135575
19	0x3cfda78f	0.030963687
20	0xbd72c705	-0.05927183
21	0x3c7820eb	0.015144567
22	0x3ce5d7c1	0.028056981
23	0xbcc2538f	-0.023721484
24	0x3cc84a26	0.02444942
25	0x3d8cec32	0.06880988
26	0x3c83795e	0.016049083
27	0x3d925010	0.07144177
28	0xbc53b6f7	-0.01292204
29	0x3dc2e684	0.095166236
30	0x3d376b73	0.044780206
31	0x3cd07206	0.025444996
32	0xbd6ae7f7	-0.057350125
33	0x3d9ad6d0	0.075605035
34	0x3db8770a	0.0900708
35	0x3de04fb7	0.109527044
36	0x3bf9a696	0.0076187355
37	0xbc325767	-0.010885096
38	0xbc21656c	-0.009850841
39	0xbda85d25	-0.08220891
40	0x3c817405	0.015802393
41	0x3d492117	0.049103823
42	0x3dd35f2b	0.10320886
43	0x3d829c09	0.063774176
44	0x3c922bec	0.01784321
45	0xbcf818f3	-0.030285334
46	0x3da38f4e	0.079863176
47	0xbd3dba01	-0.046319965
48	0xbd2dd0bf	-0.042435404
49	0xbd2f48e0	-0.04279411
50	0xbb3e96c4	-0.0029081563
51	0x3d8cd713	0.0687696
52	0x3d78def6	0.060759507
53	0x3d8e7d52	0.06957497
54	0xbd66ae46	-0.056318544
55	0xbd7dd8a1	-0.06197417
56	0x3d90c771	0.070692904
57	0xbdd1d779	-0.10246176
58	0xbd54cb5d	-0.051951755
59	0xbc845f0a	-0.0161586
60	0x3cdff6fb	0.02733945
61	0xbdb2923f	-0.087193005
62	0x3d288d4d	0.04115038
63	0xbdc780d6	-0.097413704
64	0x3d99dc94	0.07512775
65	0xbbafb78f	-0.005362458
66	0xbd8617a2	-0.06547476
67	0x3c930956	0.017948788
68	0x3d642e2b	0.05570809
69	0xbd58932e	-0.052874736
70	0x3d5da7da	0.054115154
71	0xbd443e8b	-0.047911208
72	0x3c9bffe4	0.019042917
73	0x3b76cf5c	0.0037660217
74	0x3d956e9f	0.0729649
75	0xbccf78fa	-0.02532624
76	0x3c52f751	0.012876348
77	0x3d6a1c71	0.05715603
78	0x3c4ea971	0.01261364
79	0xbd393418	-0.045215696
80	0xbdbcc309	-0.092168875
81	0x3dbf514e	0.093416795
82	0x3d6f4c10	0.05842215
83	0x3d5a3eab	0.05328242
84	0xbd9a92ae	-0.07547508
85	0x3d7e9d3b	0.062161665
86	0xbcef8835	-0.029239753
87	0xbc674c0f	-0.014117255
88	0x3c2025f6	0.009774676
89	0xbcfcd54d	-0.030863428
90	0xbce8c858	-0.028415844
91	0xbd2659d3	-0.040613007
92	0x3d7dbc8e	0.061947398
93	0x3d272aff	0.04081249
94	0xbda40c82	-0.08010198
95	0xbc40ceb1	-0.011768029
96	0x3ce63698	0.028102204
97	0x3ce1f537	0.027582748
98	0x3d821133	0.06350937
99	0xbbc1f000	-0.005918503
100	0xbd626325	-0.055270333
101	0x3d9ef830	0.07762182
102	0xbd38db2a	-0.045130886
103	0xba6ad14e	-0.00089575804
104	0x3b2e99a0	0.002664186
105	0x3cc645a8	0.024203137
106	0x3d843b9d	0.06456683
107	0xbd334609	-0.043767963
108	0xbb064e9c	-0.0020493632
109	0xbd53f046	-0.051742814
110	0xbda3b5a5	-0.0799363
111	0x3dac7a21	0.08421732
112	0x3dddcc82	0.108300224
113	0xbc8b9cea	-0.017042596
114	0x3ddf2917	0.10896509
115	0xbd6b502b	-0.0574495
116	0x3dba447f	0.09095096
117	0x3ced6343	0.028977996
118	0xbcb8580e	-0.022502925
119	0x3d25ca53	0.040476155
120	0x3bdb275e	0.0066880425
121	0x3c406c07	0.011744506
122	0xbda093a6	-0.07840662
123	0xbb4dba46	-0.0031391545
124	0x3cc58d43	0.02411521
125	0xbda5c16c	-0.08093533
126	0x3cb33a58	0.021878406
127	0xbc93fe00	-0.018065453
128	0xbbc3f2e8	-0.0059798844
129	0xbd6d2173	-0.057893228
130	0xbd1deabf	-0.03855395
131	0xbd9b367d	-0.07578752
132	0xbd3b5fd0	-0.04574567
133	0x3c9b1490	0.018930703
134	0xbc27e9bf	-0.0102486005
135	0xbd9ee612	-0.07758726
136	0xbd1cff2e	-0.038329296
137	0x3cb5661b	0.022143414
138	0x3cf1da34	0.029522993
139	0xbd059d49	-0.032620702
140	0x3d8f64ad	0.07001624
141	0xbcbb5fba	-0.022872794
142	0xbd81c6f1	-0.06336773
143	0xbd71d3ae	-0.059039764
144	0xbda9ba5d	-0.08287499
145	0x3c924bb5	0.017858366
146	0x3bf4617c	0.00745791
147	0xba9f135f	-0.001213651
148	0xbd8e5e20	-0.06951547
149	0xbd51f46d	-0.051258493
150	0x3d701337	0.058612075
151	0x3de2dfc7	0.110778384
152	0x3d30f203	0.04319955
153	0x3c637fad	0.013885421
154	0x3d9bad64	0.07601431
155	0x3b87fefb	0.004150269
156	0xbd868a96	-0.06569402
157	0xbcc6b2bb	-0.024255147
158	0x3d87fdf8	0.066402376
159	0x3dd41b1d	0.10356734
160	0x3ce41c4e	0.027845528
161	0xbd8c4cf9	-0.06850619
162	0xbd082ec7	-0.033247735
163	0xbd49cdf0	-0.049268663
164	0x3d571988	0.052514583
165	0xbc641142	-0.01392013
166	0xbdcbbf36	-0.0994858
167	0x3d5b8690	0.053595126
168	0x3bb1be21	0.0054242765
169	0x3d15615d	0.036469806
170	0x3dc28320	0.09497666
171	0x3d6b1891	0.057396475
172	0x3d0dc48e	0.034611277
173	0xbd11f854	-0.035637215
174	0x3d5e262d	0.054235626
175	0xbc9dbbba	-0.019254554
176	0xbd6154d3	-0.055012535
177	0xbb359381	-0.0027706327
178	0x3cc7dc05	0.024396906
179	0x3c4dab71	0.012553082
180	0xbc497856	-0.012296757
181	0xbd0bfb39	-0.03417513
182	0xbd9f5664	-0.077801496
183	0xbd86f979	-0.06590552
184	0xbc7e9dd1	-0.015540556
185	0xbd4b03c5	-0.04956414
186	0xbc5f54c6	-0.013631051
187	0xbd0d1169	-0.03444043
188	0xbd5d3201	-0.054002766
189	0xbda19d52	-0.078913346
190	0xbd6a516e	-0.057206564
191	0x3d207dee	0.039182596
192	0x3c4a530c	0.0123489015
193	0x3d4dcb57	0.050242748
194	0xbd3a9a09	-0.045557056
195	0xbdda45fb	-0.10657879
196	0x3d89cee4	0.067289144
197	0x3df6e77c	0.12055871
198	0xbce8c5f8	-0.028414711
199	0x3d9966a1	0.07490278
200	0xbdba6b25	-0.091024674
201	0xbd258cb2	-0.04041738
202	0xbc8ad3f4	-0.01694677
203	0xbca3738b	-0.019952556
204	0x3d66237c	0.056186184
205	0xbd4b8b7a	-0.049693562
206	0xbda22fe3	-0.0791929
207	0x3c92b360	0.017907798
208	0x3cf48749	0.029849665
209	0x3d475874	0.04866834
210	0xbd1e7976	-0.038690053
211	0xbd16c7b5	-0.03681155
212	0x3d01b161	0.031663302
213	0xbc629fbe	-0.013832031
214	0xbd74ace9	-0.059735212
215	0x3ca74f02	0.020423416
216	0x3c055f53	0.008140403
217	0xbb816627	-0.003948945
218	0x3d18a904	0.03727056
219	0x3d90f645	0.07078222
220	0xbda6550b	-0.081216894
221	0x3c193511	0.009351031
222	0xbc4f9209	-0.012669095
223	0x3d3c1c90	0.045925677
224	0xbd2aceba	-0.041701056
225	0x3d150b7d	0.03638791
226	0x3c9c5979	0.019085633
227	0xbc6de81e	-0.014520673
228	0x3c8d216c	0.01722785
229	0x3d859e28	0.065243065
230	0xbc0652e7	-0.008198476
231	0x3d7fbaab	0.06243388
232	0x3d25998c	0.040429637
233	0x3bf734c2	0.007544131
234	0xbcb3669b	-0.021899512
235	0x3d985072	0.07437219
236	0xbd69db4b	-0.0570939
237	0x3d38fffc	0.045166
238	0x3c061993	0.008184808
239	0x3d7fa3f7	0.06241223
240	0xbd6d56f1	-0.057944242
241	0x3d97889d	0.07399104
242	0xbcfacf07	-0.030616296
243	0x3ca607be	0.020267364
244	0xbd272965	-0.04081096
245	0x3b407eac	0.0029372377
246	0x3d46ff7b	0.04858349
247	0x3d52b172	0.051438756
248	0x3d0ae593	0.033910345
249	0xbd6d8334	-0.057986453
250	0x3d115a6d	0.035486627
251	0xbcd9a981	-0.026570084
252	0x3d5365bc	0.051610693
253	0xbd35b8c1	-0.04436565
254	0xbd1f10cd	-0.03883438
255	0x3b9eb111	0.0048428853

transformer_encoder.layers.0.self_attn.out_proj.bias f4 [128]
0	0x3c86951f	0.016428528
1	0xbc820118	-0.015869662
2	0xbd6ec52a	-0.0582935
3	0xbd10065b	-0.03516231
4	0xbd64db97	-0.05587348
5	0xbcb0bdfa	-0.021574963
6	0xbbf7a66c	-0.007557681
7	0x3d48d6ae	0.04903286
8	0x3c590e54	0.013248045
9	0x3bd5d62f	0.006525777
10	0xbdb4327b	-0.08798691
11	0xbcca2a47	-0.024678363
12	0x3cbd5619	0.023112344
13	0xbbc00c36	-0.0058608307
14	0x3c0bc8c3	0.008531752
15	0x3d8a72d4	0.06760183
16	0xbc662a4d	-0.014048171
17	0x3ced8588	0.028994337
18	0xbb50d4ea	-0.0031865188
19	0x3c24db45	0.010062044
20	0xbc85ab23	-0.016316956
21	0x3d2f676a	0.042823233
22	0x3cebdaa1	0.028790774
23	0xbca6bbe2	-0.020353261
24	0xbcb2928c	-0.021798395
25	0x3c9e437d	0.01931929
26	0x3d12446f	0.035709795
27	0xbd5f2b22	-0.054484494
28	0x3d6663d2	0.05624754
29	0x3cae0fe0	0.021247804
30	0xbd3e0afb	-0.04639719
31	0xbccec4ef	-0.02524039
32	0xbc89baa5	-0.016812632
33	0x3d0156f7	0.031577077
34	0xbcbd92af	-0.023141233
35	0x3cc5c93a	0.024143804
36	0xbcf03630	-0.029322714
37	0xbcc0ceaa	-0.023536045
38	0xbc97c877	-0.018528206
39	0x3c9eb164	0.019371696
40	0x3e03a94a	0.12857547
41	0x3b9970f2	0.0046826536
42	0xbcf31c03	-0.029676443
43	0x3d7d4b1e	0.061839215
44	0x3cd64533	0.026156044
45	0xbc92147c	-0.017832033
46	0xbd76de25	-0.060270447
47	0x3b89c382	0.0042042146
48	0x3b734282	0.00371185
49	0xbcb83699	-0.022486972
50	0xbba85358	-0.0051368885
51	0xbc0a35d3	-0.008435684
52	0x3ca507b1	0.02014527
53	0xbd0267e9	-0.031837378
54	0x3ce6e8ba	0.028187145
55	0x3d14c066	0.036316298
56	0x3c55f6ea	0.013059357
57	0x3ce75e4a	0.028243203
58	0x3d475803	0.04866792
59	0x3d22da8b	0.0397592
60	0xbcb0d95d	-0.021588022
61	0xbd369a31	-0.044580642
62	0xbdba0d38	-0.090845525
63	0x3d217c13	0.039424967
64	0x3cbee6fc	0.023303501
65	0x3ca721b1	0.020401808
66	0x3d3bc638	0.045843333
67	0xbad7a66d	-0.0016452797
68	0xbd082ecd	-0.033247758
69	0xbb028136	-0.0019913442
70	0xbc5d8717	-0.013520977
71	0x3d8318c5	0.06401209
72	0xbd29f323	-0.04149164
73	0xb87408c9	-5.8182315e-05
74	0x3d282e05	0.041059513
75	0x386586f5	5.4723543e-05
76	0xbbe285df	-0.0069129313
77	0xbce1579c	-0.027507596
78	0xbc04b03c	-0.008098658
79	0x3cb27931	0.021786304
80	0xbcc488f7	-0.023991091
81	0x3a9adcf0	0.0011815112
82	0xbd9db76b	-0.07701
83	0xbafc0cbc	-0.0019229869
84	0x3d03a46f	0.032139238
85	0xbc7d2a13	-0.015451926
86	0xbcc2380f	-0.023708371
87	0x3d42f9e4	0.047601596
88	0x37f2b298	2.8931812e-05
89	0x3c210d53	0.009829837
90	0xbd10a895	-0.035317022
91	0xbdc66499	-0.09687156
92	0xbc93430a	-0.017976303
93	0x3d1d83fa	0.03845594
94	0x3cc598d9	0.024120735
95	0xbd1bb085	-0.03801014
96	0xbd2851cf	-0.041093644
97	0xbb998dcb	-0.0046860925
98	0xbce66312	-0.028123412
99	0x3c82930e	0.015939262
100	0xbc958351	-0.018251093
101	0x3d5654a9	0.052326832
102	0x3cdd45ae	0.027010765
103	0xbc7ce4ce	-0.015435411
104	0xbba5942a	-0.005053063
105	0x3cfa6854	0.030567326
106	0xbbd89768	-0.006609846
107	0x3d902498	0.0703823
108	0x3cec5224	0.028847761
109	0xbd4abe56	-0.049497925
110	0xbb77726c	-0.003775741
111	0xbc8bf6cd	-0.017085457
112	0xbd194009	-0.037414584
113	0xba02aaaa	-0.00049845374
114	0x3d01f746	0.03172996
115	0x3dd21870	0.10258567
116	0x3c2f3365	0.010693406
117	0xbd0089fc	-0.031381592
118	0x3b3f1c85	0.0029161286
119	0x3cae09a0	0.021244824
120	0xbd2e4e48	-0.042555124
121	0x3bfed7b2	0.0077771777
122	0x3ce3181b	0.027721455
123	0xbce66893	-0.028126037
124	0xbd0884e5	-0.033329863
125	0x3cc00e60	0.023444355
126	0xbcefd90c	-0.0292783
127	0xbc849d01	-0.016188147

transformer_encoder.layers.0.linear1.weight f4 [128, 128]
0	0xbc037c12	-0.008025186
1	0x3dc03753	0.09385552
2	0xbd0bd823	-0.03414167
3	0x3da4c058	0.08044499
4	0x3da62bbe	0.08113812
5	0x3cf134be	0.029444095
6	0x3dd4d328	0.10391837
7	0x3d60bece	0.054869466
8	0xbd73e972	-0.059548803
9	0x3d80c9e5	0.06288508
10	0xbd1caed5	-0.03825267
11	0x3de2befc	0.11071584
12	0x3dafd579	0.085856386
13	0xbd7e0a5a	-0.06202159
14	0x3da7328f	0.0816394
15	0x3b81e38b	0.003963893
16	0x3cb72408	0.022356048
17	0x3acdc26c	0.0015698201
18	0x3d50c40a	0.050968207
19	0x3d1a2e37	0.03764173
20	0x3d637e0e	0.055540137
21	0x3bcccb20	0.0062498003
22	0xbdd68744	-0.104750186
23	0xbd84253b	-0.06452414
24	0x3b79b2c0	0.0038100928
25	0xbcfccd65	-0.030859658
26	0x3d838346	0.06421523
27	0x3d4ca4df	0.04996192
28	0x3d1927fd	0.03739165
29	0x3d7f54cd	0.06233673
30	0xbe1c781c	-0.15280193
31	0x3d7ed901	0.06221867
32	0xbd00dffc	-0.03146361
33	0x3d2a221b	0.04153643
34	0x3d9df7b4	0.07713261
35	0xbb312380	-0.0027029216
36	0x3df6d055	0.12051455
37	0xbb64ffd6	-0.003494253
38	0x3d88eb64	0.06685522
39	0x3d345e0a	0.044034995
40	0xbe0627c0	-0.13101101
41	0xbcac03ae	-0.020997848
42	0xbbddf4a7	-0.0067735496
43	0xbd3a7a4b	-0.045526784
44	0x3dff3535	0.1246132
45	0xbda69997	-0.08134764
46	0x3d0ef0bc	0.03489755
47	0x3db411bc	0.08792445
48	0xbdbad323	-0.091223024
49	0x3d8bd76d	0.068281986
50	0x3a8a824c	0.0010567396
51	0xbe07396a	-0.13205495
52	0xbd9c0976	-0.07618992
53	0x3bbc6fd1	0.0057506342
54	0x3c1fc6cb	0.009751986
55	0x3cb53407	0.022119535
56	0xbc98b8cc	-0.018642806
57	0xbd74330d	-0.059619
58	0xbbbfdb3c	-0.005854992
59	0xbc6a7691	-0.014310495
60	0xbd52276a	-0.05130712
61	0x3ba38a2e	0.0049908375
62	0x3d84190d	0.064500906
63	0xbdf2d417	-0.11856859
64	0xbd1a474f	-0.03766566
65	0x3d8a7998	0.067614734
66	0xbc86d84c	-0.01646056
67	0xb841f764	-4.6245186e-05
68	0xbc03e761	-0.0080507705
69	0xbd858f4f	-0.065214746
70	0xbd789de9	-0.06069747
71	0x3cab2a9e	0.020894345
72	0xbc298016	-0.0103454795
73	0x3d7876f5	0.06066032
74	0xbdd2a77c	-0.10285851
75	0x3dc45a38	0.0958752
76	0x3df1b896	0.11802785
77	0x3c4ea7d9	0.01261326
78	0x3d1e61bb	0.03866742
79	0x3e39eee9	0.18157543
80	0xbd0ad1bf	-0.033891436
81	0xbdb27984	-0.087145835
82	0xbd9075e4	-0.07053736
83	0xb956ae80	-0.00020473637
84	0x3c7ae80c	0.015314113
85	0xbd9d00db	-0.07666179
86	0x3d7053f5	0.058673818
87	0xbd803065	-0.062592305
88	0xbdadeb31	-0.08492125
89	0xbd9fdd63	-0.07805898
90	0x3d8c8c3a	0.068626836
91	0xbcc4075e	-0.023929294
92	0x3dade988	0.08491808
93	0xbe24d5cd	-0.16097184
94	0x3dc9be29	0.09850723
95	0xbdc0f533	-0.09421768
96	0xbc50cc04	-0.012743954
97	0x3ddfe67c	0.10932633
98	0x3df83e74	0.12121287
99	0xbdcd9fb5	-0.10040227
100	0xbd3ffd5d	-0.046872485
101	0x3c9682e1	0.018372955
102	0xbd4ca412	-0.049961157
103	0xbb256ad8	-0.0025240686
104	0x3e1d0d56	0.15337119
105	0x3c8b2725	0.016986439
106	0x3e058395	0.13038476
107	0xbdc2e752	-0.09516777
108	0xbca40776	-0.020023089
109	0xbc81198c	-0.015759252
110	0xbccffe70	-0.02538988
111	0xbcb854cb	-0.02250137
112	0x3df3bda2	0.11901404
113	0xbce44ba8	-0.027868107
114	0x3da9ae80	0.08285236
115	0xbce6be1d	-0.028166825
116	0xbdcaffab	-0.09912046
117	0x3da68ce0	0.081323385
118	0x3cbc8177	0.023010952
119	0xbb5ddc9c	-0.0033853417
120	0xbd148c52	-0.036266632
121	0xbd9c0bb5	-0.076194204
122	0xbd8fa634	-0.070141226
123	0x3d60fa70	0.054926336
124	0x3d94ba33	0.07262077
125	0xbdec6c92	-0.11544146
126	0xbc317ce1	-0.010832996
127	0xbd1f07a4	-0.038825646
128	0x3d356591	0.044286314
129	0xbcdb8155	-0.026795069
130	0x3dce31a6	0.100680634
131	0x3dd04233	0.101688765
132	0x3d10c5c5	0.035344858
133	0xbd65a781	-0.056067947
134	0xbcd28d61	-0.02570218
135	0x3dba901d	0.09109519
136	0x3c6606b0	0.01403968
137	0x3cedff85	0.029052505
138	0x3d8fceeb	0.07021888
139	0xbda5370b	-0.08067139
140	0xbde6b07c	-0.112641305
141	0xbd9c1b74	-0.07622424
142	0x3cf19dec	0.029494248
143	0xbd012f10	-0.031539023
144	0x3dbaa7ca	0.091140345
145	0xbd41ebab	-0.04734389
146	0xbc992097	-0.018692298
147	0xbd4c6913	-0.049904894
148	0x3d2cf259	0.04222331
149	0xbd871f14	-0.065977246
150	0x3d897cb8	0.06713241
151	0x3e30b9cc	0.17258376
152	0xbd5e2fd3	-0.054244827
153	0xbe0d94f8	-0.13826358
154	0xbdbb20d3	-0.0913712
155	0x38e638ca	0.000109778324
156	0xbdbd7440	-0.092506886
157	0xbdfaabf2	-0.12239827
158	0x3da6f345	0.08151869
159	0x3df34134	0.11877671
160	0x3d81668b	0.06318387
161	0xbd84241a	-0.06452198
162	0xbc8534fb	-0.016260615
163	0xbcae409f	-0.021271048
164	0xbdaf7e7f	-0.08569049
165	0x3d471df4	0.04861255
166	0xbd5c42c1	-0.0537746
167	0x3d287778	0.04112956
168	0x3d264a13	0.040597986
169	0x3ce0b567	0.02743025
170	0x3d0c68c2	0.034279592
171	0xbdf0693a	-0.117388204
172	0xbd08e777	-0.033423867
173	0x3cb8fe1f	0.022582112
174	0xbdf1226d	-0.11774144
175	0xbdf88732	-0.121351615
176	0x3ddbdd06	0.10735516
177	0x3d84ffce	0.06494103
178	0xbe088e30	-0.1333549
179	0xbda95a99	-0.08269233
180	0x3d2c4fd9	0.042068336
181	0x3d8124dc	0.063058585
182	0xbac9fdc3	-0.001541071
183	0xbd868cb8	-0.06569809
184	0xbd8a10f2	-0.06741513
185	0x3dd650a3	0.10464599
186	0xbd040fb4	-0.03224154
187	0xbd0028a2	-0.03128875
188	0x3d4b0ba1	0.049571637
189	0xbc93ce84	-0.01804281
190	0x3cb23ea9	0.021758394
191	0xbd828ffb	-0.06375118
192	0xbd705e06	-0.058683418
193	0xbd4cf2ed	-0.05003636
194	0xbd1fc103	-0.03900243
195	0xbd8acfc7	-0.06777912
196	0x3e087ec0	0.13329601
197	0x3d9a83ea	0.07544692
198	0xbd9fa1e1	-0.07794548
199	0xbd741b78	-0.05959651
200	0x3d6b8028	0.057495266
201	0x3e1852cc	0.14875335
202	0xbe26c3da	-0.16285649
203	0xbd2c9728	-0.04213634
204	0xbd343bbc	-0.04400228
205	0x3dec5a25	0.11540631
206	0x3dc27a68	0.094960034
207	0xbd7d4805	-0.06183626
208	0xbd268d39	-0.040662024
209	0xbd10f98e	-0.035394244
210	0x3d8170ae	0.0632032
211	0xbd1c7692	-0.038199015
212	0xbd7cb6c9	-0.061697755
213	0x3a2851ec	0.0006420899
214	0x3bf5b63e	0.0074985316
215	0xbcf767ec	-0.030200921
216	0xbd848bf1	-0.06472004
217	0x3d58b283	0.052904617
218	0xbd9e348c	-0.07724866
219	0x3e1708cb	0.14749448
220	0x3e07ad20	0.13249636
221	0xbd9645a2	-0.073375
222	0xbb5a3c74	-0.0033300193
223	0xbdddeeeb	-0.108365856
224	0x3d097d63	0.033566844
225	0x3d70599d	0.058679212
226	0x3c4dac12	0.012553232
227	0x3b9ef26f	0.0048506777
228	0xbd35dc53	-0.04439957
229	0xbdac72fc	-0.08420369
230	0xbcb553e5	-0.02213473
231	0xbd177465	-0.036976237
232	0x3d1fd27c	0.039019093
233	0xbd6658e4	-0.056237116
234	0x3cd77971	0.026303025
235	0xbe040a5d	-0.12894578
236	0xbdf836ba	-0.12119813
237	0x3d83f50e	0.06443225
238	0x3d083b64	0.033259764
239	0xbc09e515	-0.008416434
240	0xbcd77463	-0.026300615
241	0x3ce6332b	0.02810057
242	0x3d3dafbc	0.04631017
243	0x3d5ff703	0.054678928
244	0x3cff9020	0.031196654
245	0xbcafdaae	-0.02146658
246	0x3db45713	0.088056706
247	0x3d1c85ed	0.03821366
248	0x3d8cecc8	0.068811
249	0xbdf0e002	-0.11761476
250	0x3c9d926b	0.019234857
251	0xbd800cc0	-0.06252432
252	0x3c93412b	0.01797541
253	0xbd08f9a4	-0.0334412
254	0x3cb6e555	0.02232615
255	0x3cb93579	0.022608506

transformer_encoder.layers.0.linear1.bias f4 [128]
0	0xbc650d74	-0.013980258
1	0xbdc737cd	-0.0972744
2	0x3c7238ee	0.014784081
3	0xbd9d86f0	-0.07691753
4	0xbda6fb6d	-0.081534244
5	0xbc9a8f30	-0.018867105
6	0xbc6f36b6	-0.014600446
7	0x3d7b8714	0.061408117
8	0xbdef8d57	-0.1169688
9	0xbd4d9ebb	-0.050200205
10	0xbd017509	-0.031605754
11	0xb99661e4	-0.00028683164
12	0xbd13855a	-0.036015846
13	0x3c35f61f	0.011106043
14	0xbd566ba1	-0.052348737
15	0xbdf8d23b	-0.12149473
16	0x3d08479e	0.033271424
17	0xbda34518	-0.07972163
18	0x3c4540b2	0.01203935
19	0xbdd49172	-0.10379304
20	0xbdceb6c1	-0.10093451
21	0xbd7af8f4	-0.061272576
22	0xbde6016c	-0.1123074
23	0x3b28353e	0.00256665
24	0xbdb4a34a	-0.088202074
25	0xbd6db8e6	-0.05803766
26	0x3d1e46e7	0.038641836
27	0xbdac1060	-0.08401561
28	0xbb43d429	-0.0029881096
29	0xbdf6bad8	-0.12047356
30	0xbdb6861a	-0.089122966
31	0xbd495f1d	-0.049162973
32	0xbd9e20b2	-0.0772108
33	0xbd1394ed	-0.0360307
34	0xbdc9309c	-0.09823725
35	0xbd6069c0	-0.05478835
36	0xbde1d65c	-0.11027214
37	0xba9a8bf6	-0.0011790979
38	0x3d1759c8	0.036950856
39	0xbdd98681	-0.10621358
40	0xbd9974ba	-0.07492967
41	0xbdab4954	-0.083635956
42	0xbd2b545b	-0.041828495
43	0xbd192f9a	-0.037398912
44	0xbd3e77c5	-0.04650094
45	0xbdef0819	-0.116714664
46	0xbd106cdd	-0.03526007
47	0xbdc213a9	-0.09476406
48	0xbd6eff3b	-0.058348875
49	0x3cafb608	0.021449104
50	0xbc618112	-0.013763683
51	0xbe0d8330	-0.13819575
52	0xbc6aad0a	-0.014323482
53	0x3c8d966e	0.017283645
54	0xbd8f5ddd	-0.07000325
55	0xbe2494d0	-0.16072392
56	0xbd48e2a6	-0.049044274
57	0xbd08c944	-0.033395067
58	0x3d971aa6	0.0737813
59	0xbd2eaa29	-0.042642746
60	0xbe02a3fc	-0.12757868
61	0xbd2453e6	-0.040119074
62	0xbdecfb26	-0.1157134
63	0xbd04780b	-0.032341044
64	0xbb861fbd	-0.004093139
65	0xbd7070ff	-0.05870151
66	0x3c298ce5	0.010348533
67	0xbdd82671	-0.10554207
68	0xbd9871e8	-0.07443601
69	0xbcceec37	-0.02525912
70	0xbc2cd561	-0.01054892
71	0xbdf89bdc	-0.12139103
72	0xbc95d47e	-0.0182898
73	0xbd304897	-0.043037977
74	0xbd6a3333	-0.057177734
75	0xbd9fb8ab	-0.077988945
76	0xbd231e57	-0.039823856
77	0xbc939b8d	-0.018018508
78	0xbd9f4252	-0.077763215
79	0xbde7c471	-0.11316765
80	0xbe142ca3	-0.14470153
81	0xbd4589c4	-0.048227087
82	0xbd2ce9b1	-0.042215053
83	0xbdf5c17d	-0.119997956
84	0xbaf78d3b	-0.0018886694
85	0xbdc73ede	-0.09728788
86	0xbd8b4dcb	-0.06801947
87	0xbd04ba31	-0.03240413
88	0xbdbf82df	-0.093511336
89	0xbdb80e32	-0.089870825
90	0xbd388746	-0.04505088
91	0xbcdb7421	-0.026788773
92	0x3b5a4a8d	0.0033308596
93	0xbd9afdf4	-0.07567969
94	0xbd73da8d	-0.0595346
95	0x3c437d46	0.011931723
96	0xbdaaa0bc	-0.08331439
97	0xbd1f9ccd	-0.038967896
98	0xbdae4a72	-0.08510293
99	0xbd875b5f	-0.066092245
100	0xbe051642	-0.12996772
101	0x3d1363fe	0.03598403
102	0xbd2b9870	-0.041893423
103	0x3d8f41fb	0.06995007
104	0xbcf5c7fd	-0.030002588
105	0xbaee337a	-0.00181733
106	0xbda6b521	-0.08140016
107	0xbce9d2e5	-0.028542945
108	0x3c8fd1ac	0.017556034
109	0x3d001ce4	0.031277552
110	0xbd61a52f	-0.055089172
111	0xbe166b5f	-0.14689396
112	0xbd414051	-0.047180478
113	0x3c541409	0.01294423
114	0xbbeb7c41	-0.007186443
115	0xbda58b44	-0.080832034
116	0xbdf588d8	-0.119889915
117	0xbdc4f17b	-0.09616371
118	0xbd737e5b	-0.059446674
119	0xbc586533	-0.0132077215
120	0xbdac1f94	-0.084044605
121	0xbddf2191	-0.10895074
122	0xbd26d9d4	-0.04073508
123	0xbd08d0a7	-0.03340211
124	0xbe0f5fab	-0.14001338
125	0xbe043d07	-0.12913905
126	0xbcf85a1a	-0.030316401
127	0x3d80e2e8	0.06293279

transformer_encoder.layers.0.linear2.weight f4 [128, 128]
0	0x3db1f3be	0.08689068
1	0xbc004648	-0.007829256
2	0xbdf7e505	-0.12104229
3	0x3d5c8c57	0.053844776
4	0xbde4fdad	-0.11181197
5	0x3cb236d5	0.021754662
6	0x3dbd9b92	0.09258188
7	0x3d9c2e20	0.07625985
8	0x3d54c956	0.05194982
9	0x3cb278be	0.02178609
10	0x3d6c8a0e	0.057748847
11	0xbdafb397	-0.08579176
12	0xbd1de1b9	-0.038545344
13	0x3d98de25	0.07464246
14	0xbb45375a	-0.0030092807
15	0xbc0e953b	-0.0087025715
16	0xbdfa28e0	-0.122148275
17	0x3cdab477	0.02669738
18	0x3a1c27dd	0.0005956868
19	0xbbe1c110	-0.00688947
20	0xbdaa31ed	-0.08310304
21	0x3d7fd1fa	0.06245611
22	0x3d441b2b	0.047877472
23	0x3c0ba12f	0.008522316
24	0xbd2aabbb	-0.04166768
25	0x3dca6239	0.09882016
26	0xbe198c97	-0.14995037
27	0xbb66a316	-0.0035192422
28	0x3c78ed3c	0.01519328
29	0x3c32d605	0.010915284
30	0x3c7b0682	0.015321376
31	0xbcd8c20a	-0.026459713
32	0x3d100d65	0.035169024
33	0xbd9e7ab3	-0.07738247
34	0xbd9de7e2	-0.07710244
35	0xbd6e7038	-0.05821249
36	0x3dfc2f9b	0.123137675
37	0xbd5ad9b5	-0.053430278
38	0xbcbc66e4	-0.02299828
39	0x3e1d9e5e	0.15392444
40	0x3c7cab03	0.015421632
41	0x3c9ee41a	0.019395877
42	0x3aa7ee3f	0.0012812092
43	0x3cd68b68	0.026189521
44	0x3dbd85a9	0.09254009
45	0x3c9cd2be	0.019143458
46	0xbda6c8c7	-0.08143764
47	0x3def1e05	0.11675648
48	0xbd1d220e	-0.038362555
49	0x3d054a69	0.032541666
50	0xbd186fb0	-0.03721589
51	0xbd805c59	-0.06267614
52	0x3c1fb73a	0.009748274
53	0xbcf02f21	-0.029319348
54	0x3e2b41af	0.16724275
55	0xbdc27481	-0.094948776
56	0xbd67c4f8	-0.05658433
57	0xbcc24cc3	-0.023718243
58	0x3ccee50d	0.025255704
59	0xbe260b5d	-0.16215272
60	0x3d0de5e4	0.03464307
61	0x3d2d1600	0.04225731
62	0xbe4154ba	-0.18879977
63	0x3d33fed1	0.043944184
64	0x3b501da5	0.003175595
65	0x3dc7b3cf	0.09751093
66	0xbd9ddae2	-0.07707764
67	0xbdf3263c	-0.11872527
68	0xbd5c7658	-0.0538238
69	0x3ddc5f6d	0.107603885
70	0x3e1f86ed	0.15578814
71	0xbdcdf169	-0.10055811
72	0xbdc5581c	-0.09635946
73	0xbe1e71f1	-0.15473153
74	0xbd550ba4	-0.052013054
75	0x3d8e2b6b	0.06941875
76	0xbc67babf	-0.014143645
77	0xbe1c0476	-0.15236077
78	0xbc50641f	-0.012719183
79	0x3d3eb560	0.04655969
80	0xbd1b2cae	-0.037884407
81	0x3e0355ba	0.12825671
82	0xbe046ab8	-0.12931335
83	0xbd60ed94	-0.054914072
84	0xbe04cfaf	-0.1296985
85	0xbdc7026b	-0.09717258
86	0xbcaf5a47	-0.021405352
87	0x3c17ba55	0.009260734
88	0xbe1c9f4b	-0.1529514
89	0xbe0aa851	-0.1354077
90	0x3e42cb34	0.19022828
91	0x3c35a5fb	0.011086936
92	0x3e0efee7	0.13964425
93	0x3d711429	0.058857117
94	0xbd8353dd	-0.0641248
95	0x3d919c52	0.07109894
96	0xbd6eea01	-0.058328632
97	0xbe171f84	-0.14758116
98	0x3d58bceb	0.05291454
99	0x3beb88f8	0.007187959
100	0x3de49d3d	0.11162803
101	0xbdf50122	-0.11963107
102	0xbc457e7f	-0.012054085
103	0x3cf4c0fd	0.02987718
104	0xbdac4fa3	-0.08413627
105	0xbbeaa9b6	-0.0071613444
106	0xbc96d5be	-0.018412467
107	0xbdd46868	-0.103714764
108	0x3db29963	0.087206624
109	0x3dd82e2c	0.105556816
110	0xbc3b05a0	-0.011414915
111	0x3da520db	0.08062907
112	0x3e1cc2f7	0.15308748
113	0xbd7cc06f	-0.061706956
114	0x3acdaf72	0.0015692546
115	0xbd8dbf30	-0.06921232
116	0x3e0b4716	0.13601336
117	0x3c2f1f6e	0.010688646
118	0x3d0d2c16	0.03446587
119	0x3d91117b	0.07083412
120	0x3e072b6a	0.13200155
121	0x3c991357	0.01868598
122	0x3d117100	0.035508156
123	0x3b06d4fc	0.0020573726
124	0xbbd15b46	-0.0063890545
125	0x3dd2da55	0.1029555
126	0x3bacc78f	0.0052728127
127	0x3cef9619	0.029246377
128	0xbdab3e0c	-0.08361444
129	0xbcebd54f	-0.028788237
130	0xbddadaee	-0.10686289
131	0xbdb0fb70	-0.08641708
132	0xbd46b5de	-0.048513286
133	0x3d375599	0.044759367
134	0xbc0204e6	-0.007935738
135	0x3ce0f6fb	0.02746152
136	0x3d0e93c0	0.034808874
137	0xbdb95f74	-0.09051409
138	0x3e01002e	0.12597725
139	0xbcf1c412	-0.029512439
140	0x3b975ae7	0.0046189907
141	0x3d708742	0.058722742
142	0xbc8c02ed	-0.017091239
143	0x3d389bd6	0.04507049
144	0xbbd879d9	-0.0066063222
145	0x3be09164	0.0068532694
146	0x3d0b6d96	0.034040056
147	0xbc3f787f	-0.011686443
148	0xbd279a3c	-0.040918574
149	0x3d91b8f7	0.07115357
150	0x3dccfb7f	0.100089066
151	0xbcf66166	-0.03007574
152	0xbda342be	-0.079717144
153	0x3e0b67fa	0.13613883
154	0xbd9f229a	-0.077702716
155	0x3da6543d	0.08121536
156	0xbdb2ccdb	-0.08730479
157	0x3dcf44fb	0.10120579
158	0x3dce9292	0.1008655
159	0x3dfdf63e	0.124004826
160	0x3dbd9ae3	0.09258058
161	0x3d31f520	0.04344666
162	0xbb560017	-0.0032653862
163	0x3aa73ade	0.0012758633
164	0x3d07cf93	0.033156943
165	0xbd1b10d8	-0.03785786
166	0xbdc0d9a6	-0.09416513
167	0xbca1a174	-0.019730307
168	0xbccb7570	-0.024836272
169	0x3cdf9016	0.027290385
170	0xbc6a9a9f	-0.014319091
171	0x3da5c997	0.08095091
172	0x3ca2d883	0.019878631
173	0x3c40a690	0.011758462
174	0xbbcc442c	-0.0062337127
175	0x3ba98b72	0.005174094
176	0x3de9b4b9	0.11411423
177	0x3c800d56	0.01563136
178	0xbd4b89a7	-0.049691822
179	0xbda03c2d	-0.078239776
180	0x3ca30689	0.019900577
181	0x3da3ba69	0.07994539
182	0x3d26178f	0.04054981
183	0xbddbe350	-0.10736716
184	0xbd95e291	-0.07318605
185	0xbdb6f613	-0.08933654
186	0x3c46b887	0.012128956
187	0xbc7a8e11	-0.01529266
188	0x3d73fb92	0.059566088
189	0xbd4b7770	-0.04967445
190	0x3cd66439	0.026170837
191	0x3c3e456c	0.011613231
192	0x3d75110e	0.059830718
193	0xbd36995c	-0.04457985
194	0xbdfe83db	-0.12427493
195	0xbc48f5da	-0.012265647
196	0xbbee1da6	-0.007266718
197	0x3d9434cc	0.07236633
198	0x3d8e1bed	0.0693892
199	0x3d24081a	0.04004679
200	0xbdb9d77b	-0.09074303
201	0xbd165608	-0.03670314
202	0x3d7ff7dc	0.062492236
203	0xbcc80460	-0.024416149
204	0xbc3e5c3f	-0.011618673
205	0xbdc817b5	-0.09770147
206	0xbc870fc0	-0.016487002
207	0xbd36b1c6	-0.04460313
208	0x3ca54241	0.020173194
209	0xbd7e2baf	-0.06205338
210	0xbd00c167	-0.031434443
211	0x3c30f9a6	0.010801708
212	0xbdc848b8	-0.09779495
213	0x3d105039	0.035232756
214	0xbdb84b6f	-0.08998763
215	0xbd822a12	-0.063556805
216	0x3c647e0f	0.01394607
217	0xbd94bf21	-0.072630174
218	0x3da35fd1	0.0797726
219	0xbdbdccef	-0.092676036
220	0x3dd0505e	0.10171579
221	0x3d4c66e4	0.04990281
222	0xbd27625f	-0.0408653
223	0x3dae4086	0.085084006
224	0x3df28962	0.1184261
225	0xbde2aa4d	-0.110676385
226	0xbd0e0886	-0.034676097
227	0xbc94c466	-0.018160056
228	0x3d09711c	0.033555135
229	0x3d02e7a3	0.031959187
230	0xbd6a80c3	-0.057251703
231	0xbd02f73d	-0.031974066
232	0xbd0642a7	-0.03277841
233	0xbda3b8ee	-0.07994257
234	0xbce3a016	-0.027786296
235	0xbd4b2ca5	-0.049603123
236	0xbced505c	-0.028968982
237	0xbaf460bb	-0.0018644551
238	0x3d39ab30	0.045329273
239	0x3c3dc1a3	0.011581811
240	0x3d466f4d	0.04844599
241	0x3d4efff4	0.050537065
242	0x3d8f19a6	0.06987314
243	0x3d38a43f	0.045078512
244	0x3cfdca8c	0.030980371
245	0x3d51d499	0.05122814
246	0xbca4ba81	-0.020108463
247	0x3d567fcc	0.05236797
248	0x3d7d2614	0.061803892
249	0x3c87dd56	0.016585033
250	0x3dc2786a	0.094956234
251	0xbc2b891b	-0.0104697
252	0xbcde7123	-0.027153557
253	0x3d8da6ea	0.06916602
254	0xbb92b61e	-0.0044772765
255	0x3df8bd30	0.1214546
