multi_scale_transformer_encoder/transformer_encoder_model_fold_3.pth (torch, 822178 bytes, 28 tensors)

embedding.weight f4 [128, 25]
0	0xba921c02	-0.0011147263
1	0x3d142ab7	0.03617355
2	0xbe229cb6	-0.15880093
3	0xbe1f96ba	-0.15584841
4	0xbde0173e	-0.10941933
5	0xbd3e47a6	-0.046455048
6	0x3db7cfe9	0.089752026
7	0xbd9a7c3c	-0.07543227
8	0xbea060ef	-0.31323954
9	0xbe099126	-0.13434276
10	0x3d9b7286	0.07590203
11	0x3dd7e8f2	0.10542478
12	0xbe0bae7f	-0.13640784
13	0xbd3cd14d	-0.046098042
14	0x3d9b3806	0.07579045
15	0xbdbd425f	-0.09241175
16	0xbcbb7cb2	-0.022886608
17	0xbd07ecf8	-0.033184975
18	0xbe8b3013	-0.27185115
19	0x3e0d7a74	0.13816243
20	0xbe397ed6	-0.1811479
21	0x3d573b0f	0.052546557
22	0xbdc3b868	-0.09556657
23	0xbe8955b5	-0.26823202
24	0x3e0cb51e	0.13740966
25	0xbdcc331c	-0.09970686
26	0x3dda302d	0.1065372
27	0xbd060b78	-0.03272578
28	0x3d64e6f9	0.055884335
29	0x3e23fe5b	0.16014998
30	0xbdf644be	-0.1202483
31	0x3db65cb9	0.08904404
32	0x3d83e4e0	0.06440139
33	0xbd9e1ace	-0.07719956
34	0xbca67065	-0.020317266
35	0x3dab5fea	0.083679035
36	0xbdf7a4ff	-0.120920174
37	0xbe2b748e	-0.16743681
38	0x3b5f17ff	0.0034041402
39	0x3e11decc	0.14245147
40	0xbd973592	-0.073832646
41	0xbce58de3	-0.028021758
42	0xbdafdbb4	-0.08586827
43	0xbd996384	-0.07489684
44	0xbbe5af85	-0.007009449
45	0xbc549213	-0.01297428
46	0xbdd778f6	-0.10521118
47	0x3dba203a	0.09088178
48	0xbbc4a6fb	-0.006001351
49	0x3caf9404	0.021432884
50	0xbda276fe	-0.07932852
51	0xbdaf3519	-0.085550494
52	0x3d249e3a	0.04018996
53	0xbdc60a5b	-0.09669944
54	0xbda6a0b2	-0.08136119
55	0x3dd88630	0.10572469
56	0xbbabd1e9	-0.005243529
57	0xbe37d6ff	-0.17953108
58	0x3ea4d125	0.32190815
59	0x3e6a94e1	0.22908355
60	0x3da1f6a5	0.07908372
61	0x3ce56f27	0.028007103
62	0xbdfb4912	-0.122697964
63	0xbc8273b8	-0.01592432
64	0xbe492e8a	-0.1964666
65	0x3d52e654	0.05148919
66	0x3cffb622	0.031214777
67	0x3e0207e9	0.1269833
68	0x3e5b0ccc	0.213916
69	0x3dcd9df5	0.100398935
70	0xbca8894d	-0.020573283
71	0xbde1f8a1	-0.1103375
72	0xbdadb0a9	-0.08480961
73	0x3eab6f67	0.3348343
74	0x3e3d1322	0.1846433
75	0xbd9ca073	-0.07647791
76	0xbdba96de	-0.09110807
77	0x3e10ce00	0.14141083
78	0x3d84ec14	0.06490341
79	0xbe254084	-0.16137892
80	0xbd4c4ef2	-0.049879976
81	0xbe1174fe	-0.14204785
82	0xbe17acb4	-0.14811975
83	0x3c87574e	0.016521122
84	0xbe1e0a05	-0.1543351
85	0x3e62f71b	0.22164576
86	0xbe289ccf	-0.16466068
87	0x3e473d1c	0.19456905
88	0x3d429097	0.047501173
89	0xbe02f1d4	-0.12787563
90	0x3d39988b	0.045311492
91	0x3e1c0ec3	0.15240006
92	0x3d7fc3a1	0.062442426
93	0x3e87f118	0.26551127
94	0xbe006337	-0.12537847
95	0xbdcd6a26	-0.10030012
96	0xbddfc394	-0.109259754
97	0xbde46c85	-0.11153511
98	0x3caf9a3b	0.021435848
99	0xbddad5ca	-0.10685308
100	0xbe00b74d	-0.12569924
101	0x3e1b1806	0.15145883
102	0x3e07f229	0.1327597
103	0x3d5e09cd	0.054208566
104	0xbd9f66d2	-0.07783283
105	0xbe44d11d	-0.19220395
106	0x3c9b90f9	0.018990027
107	0xbc114edd	-0.0088689
108	0xbeaa0ba1	-0.33211997
109	0xbdb49dfe	-0.08819197
110	0xbe0ad15f	-0.13556431
111	0xbda881c1	-0.082278736
112	0x3d91cde1	0.071193464
113	0xbdcd6c22	-0.1003039
114	0xbd03b3b5	-0.032153804
115	0xbdc0f5b7	-0.094218664
116	0xbdbe5710	-0.092939496
117	0x3d045cd7	0.0323151
118	0xbe25bc42	-0.16185096
119	0xbd26760a	-0.040639915
120	0x3d1c3512	0.03813655
121	0x3dacfeaa	0.08447011
122	0xbe03e149	-0.12878908
123	0xbe78d5cb	-0.24300306
124	0x3cd91929	0.026501255
125	0x3d8a345e	0.067482695
126	0x3cd8b783	0.026454693
127	0xbe0a78d6	-0.13522658
128	0x3e2a635a	0.16639462
129	0x3d380d93	0.04493482
130	0xbdce0073	-0.100586794
131	0x3d5ac148	0.053406984
132	0xbe7a8ad5	-0.24467023
133	0x3e83566e	0.25651878
134	0xbe2cfee6	-0.16894111
135	0x3e12ba15	0.14328797
136	0x3c292d34	0.010325719
137	0xbd456b58	-0.048198074
138	0xbe2b8203	-0.16748814
139	0x3dd8c982	0.105853096
140	0x3c1dd7b2	0.009633945
141	0xbd4aa554	-0.049474075
142	0x3c9d2f48	0.019187585
143	0x3dde5fe4	0.108581334
144	0xbe1d210e	-0.1534464
145	0xbe119220	-0.14215899
146	0x3defd29b	0.11710092
147	0x3d70a6ea	0.05875293
148	0x3eb750fb	0.3580397
149	0x3cc37118	0.023857638
150	0xbe0b2730	-0.13589168
151	0x3db07280	0.08615589
152	0x3e330bd5	0.17484982
153	0x3d89aabe	0.067220196
154	0xbe297adf	-0.16550778
155	0x3d983566	0.0743206
156	0x3db89789	0.09013278
157	0xbd0f59f9	-0.034997914
158	0x3e2f49e3	0.1711803
159	0xbd28d228	-0.041216046
160	0xbdda7804	-0.106674224
161	0xbde154c7	-0.11002498
162	0x3d345d54	0.044034317
163	0xbaa300b4	-0.0012436123
164	0x3bd4f8e4	0.0064993966
165	0x3df0390f	0.11729633
166	0x3e43a33f	0.19105242
167	0xbe0d9d79	-0.13829602
168	0x3d7ad29b	0.061236005
169	0xbcc4937c	-0.023996107
170	0xbe065c4c	-0.13121146
171	0x3e39aa01	0.18131258
172	0x3dfd5696	0.123700306
173	0x3e2a75c2	0.16646484
174	0xbe2b7e83	-0.16747479
175	0x3de0a5ac	0.109690994
176	0xbd82f074	-0.06393519
177	0xbca1b85a	-0.019741226
178	0xbdfd0aec	-0.12355599
179	0x3e33142d	0.17488165
180	0x3cb6fc38	0.022337064
181	0xbc6548f4	-0.013994444
182	0xbdbde12b	-0.09271463
183	0x3d98336d	0.07431684
184	0xbbdb9f23	-0.00670232
185	0x3e1ac0c7	0.15112601
186	0xbe701b11	-0.23447825
187	0x3c00a0fc	0.007850882
188	0xbd199a9e	-0.03750097
189	0x3b78b7a2	0.003795125
190	0x3dd330a8	0.10312015
191	0x3e0b7895	0.13620217
192	0x3e0bbef8	0.13647068
193	0x3e8d9bb9	0.2765787
194	0xbe23a9a1	-0.15982677
195	0x3b9f957a	0.004870114
196	0x3deb0fb0	0.114776015
197	0x3df6ecc2	0.12056877
198	0x3eb645dc	0.35600173
199	0xbe010309	-0.12598814
200	0xbccff343	-0.02538455
201	0x3d91714a	0.07101686
202	0x3e3dd173	0.1853693
203	0x3d5cc850	0.05390197
204	0xbe1309e2	-0.14359239
205	0xbd58b73e	-0.05290913
206	0xbdd54e9f	-0.104153864
207	0x3e0e774e	0.13912699
208	0x3d9a26db	0.07526942
209	0x3d9db7a2	0.07701041
210	0xbd77c6e9	-0.06049243
211	0xbdfdc88e	-0.123917684
212	0x3cadb94b	0.021206519
213	0xbcf83d16	-0.030302566
214	0xbe47998e	-0.1949217
215	0xbddd5df6	-0.10808937
216	0xbdb7576c	-0.08952221
217	0x3d6878b5	0.05675574
218	0xbd623511	-0.05522639
219	0xbdc66d2a	-0.0968879
220	0xbdab8670	-0.08375251
221	0xbdaa98d3	-0.0832993
222	0x3e1d13e1	0.15339614
223	0xbeb19cbb	-0.34689888
224	0xbe47e080	-0.19519234
225	0x3d189a9b	0.03725682
226	0xbd15a40e	-0.036533408
227	0xbdc851a6	-0.09781198
228	0x3c3c850a	0.011506328
229	0x3de7328b	0.11288937
230	0xbe407b05	-0.18796928
231	0x3e0dacb4	0.13835412
232	0x3e5b081c	0.21389812
233	0xbdf57d66	-0.119868085
234	0x3d16fea2	0.03686393
235	0xbd917850	-0.07103026
236	0x3e77c99e	0.24198005
237	0x3e1024fd	0.1407661
238	0x3e10358a	0.14082924
239	0x3e02e195	0.12781365
240	0xbe1e748c	-0.15474147
241	0xbe5f773f	-0.21822833
242	0x3d96e7a3	0.073684
243	0x3d56b474	0.052418187
244	0x3d841bc2	0.06450607
245	0x3e5ad679	0.21370877
246	0xbe6ecc02	-0.2332001
247	0x3d846f7b	0.06466576
248	0xbe928ff1	-0.28625444
249	0xbdd554bc	-0.104165524
250	0xbc709718	-0.014684461
251	0x3caeefe8	0.02135463
252	0xbe23ca37	-0.15995108
253	0x3e2354da	0.15950337
254	0xbd373cb0	-0.04473561
255	0xbcb76358	-0.022386238

embedding.bias f4 [128]
0	0x3e374042	0.17895606
1	0xbd32f80a	-0.04369358
2	0x3e0d56f0	0.13802695
3	0x3e0e893f	0.13919543
4	0x3b7a8837	0.0038228163
5	0x3d9c5ae4	0.076345235
6	0x3a1576b9	0.000570159
7	0xbda5ee42	-0.08102085
8	0xbc36baed	-0.011152965
9	0x3e4f505c	0.20245498
10	0x3de02cf6	0.109460756
11	0xbe20011d	-0.15625425
12	0x3e128543	0.14308648
13	0x3d187207	0.03721812
14	0xbdab08a5	-0.08351258
15	0x3d86d689	0.06583888
16	0xbdbbdf70	-0.09173477
17	0x3c97dd3f	0.018538116
18	0xbdc473e8	-0.0959242
19	0xbd9e9f7a	-0.077452615
20	0x3d39e531	0.04538459
21	0xbdbe6576	-0.09296696
22	0x3d2b9e34	0.04189892
23	0x3e27c323	0.16383033
24	0x3e15a135	0.14612277
25	0x3d625b82	0.05526305
26	0xbe0d5872	-0.1380327
27	0x3cf18493	0.029482162
28	0xbd9b45a5	-0.07581643
29	0x3d384a4b	0.044992726
30	0x3d134437	0.035953727
31	0x3da60067	0.081055455
32	0x3d7d91ee	0.061906748
33	0x3c3a3b2a	0.011366645
34	0x3a909e5d	0.0011033524
35	0xbdc8d775	-0.0980672
36	0xbd06ce92	-0.032911845
37	0xbd602cf3	-0.054730367
38	0x3e1eba9d	0.15500875
39	0xbc94286f	-0.018085686
40	0xbe1eeb4b	-0.15519445
41	0xbdc5a991	-0.09651483
42	0xbe10b2ce	-0.14130709
43	0xbe453606	-0.1925889
44	0x3e3e6117	0.18591724
45	0xbddbca99	-0.10732002
46	0x3cae7a74	0.021298625
47	0x3c9c2764	0.019061752
48	0xbcb4f0f8	-0.02208756
49	0x3dc258fe	0.0948963
50	0x3e0b54a5	0.13606508
51	0xbde4eb55	-0.111776985
52	0xbd3696f4	-0.044577554
53	0xbdd88dd6	-0.10573928
54	0x3d00bc85	0.031429786
55	0x3e09255c	0.13393158
56	0xbe32b3fc	-0.17451471
57	0xbdf873a4	-0.12131432
58	0x3c519398	0.012791537
59	0x3df97912	0.121812955
60	0xbe16f29d	-0.14740987
61	0xbd9226c3	-0.071362995
62	0x3e1aed03	0.15129475
63	0xbe0c3833	-0.13693313
64	0xbe1bf197	-0.15228878
65	0xbe000a3e	-0.12503907
66	0xbde2eba6	-0.110801026
67	0xbde73280	-0.11288929
68	0xbdd4f30b	-0.10397919
69	0x3def71db	0.11691638
70	0xbe0d1a98	-0.13779676
71	0xbd994fe9	-0.07485945
72	0x3d93f6ae	0.07224785
73	0xbe1c0493	-0.1523612
74	0x3de42f2c	0.1114181
75	0xbe25c15c	-0.16187042
76	0xbe4ff668	-0.2030884
77	0xbdf1d5f2	-0.11808385
78	0xbe1f4c5a	-0.1555647
79	0x3dc4e603	0.09614184
80	0x3cb56b81	0.022145988
81	0x3e278133	0.1635788
82	0xbe45e656	-0.19326147
83	0x3db9171e	0.090376124
84	0xbe0166f8	-0.12636936
85	0xbcf8e4ab	-0.030382475
86	0x3dfdf5e3	0.12400415
87	0x3c658f1b	0.01401117
88	0xbd875d82	-0.06609632
89	0xbdbab62c	-0.09116778
90	0xbc8b3ff8	-0.016998276
91	0x3de7d73c	0.113203496
92	0x3b76f608	0.0037683267
93	0x3e0630e1	0.13104583
94	0x3d19d333	0.03755493
95	0xbdeaf333	-0.11472168
96	0xbd6a7a0e	-0.057245307
97	0xbd323374	-0.0435061
98	0x3cc0c71c	0.023532443
99	0xb8dab97c	-0.00010429599
100	0x3e2c6f67	0.16839372
101	0x3d6d10c2	0.05787731
102	0x3df45750	0.11930716
103	0x3dd9160e	0.1059991
104	0x3daeefcb	0.08541831
105	0xbdeebd1f	-0.11657166
106	0x3daf828e	0.08569823
107	0x3b8129aa	0.0039417343
108	0xbddb3514	-0.10703483
109	0x3df35b93	0.11882701
110	0xbe0b27d2	-0.13589409
111	0x3c516444	0.012780253
112	0x3e382ee1	0.17986633
113	0x3e37e1e0	0.17957258
114	0xbd1bc3c5	-0.038028497
115	0x3d82f855	0.06395022
116	0x3e0278c6	0.12741384
117	0x3d64da2c	0.055872127
118	0x3d6de663	0.058081042
119	0x3d15e5f2	0.036596246
120	0x3e4ff65e	0.20308825
121	0x3dc93adc	0.0982568
122	0xbe3017a7	-0.17196523
123	0xbd5ca009	-0.05386356
124	0x3c1ad984	0.009451274
125	0x3e0f1e5e	0.13976428
126	0xbe204bfe	-0.15653989
127	0x3d6c310d	0.057663966

transformer_encoder.layers.0.self_attn.in_proj_weight f4 [384, 128]
0	0x3d36aa0a	0.044595756
1	0x3db6d913	0.08928122
2	0xbdca6f3b	-0.09884497
3	0x3c87a854	0.016559757
4	0x3d83f761	0.06443668
5	0xbced3da0	-0.02896005
6	0x3cfae2fc	0.030625813
7	0x3d40b146	0.04704406
8	0xbd286378	-0.041110486
9	0xbd58c37f	-0.052920815
10	0x3da83f2b	0.08215173
11	0xbd53f0b5	-0.051743228
12	0x3bcf4800	0.0063257217
13	0xbda2dd10	-0.079523206
14	0xbd9b18fc	-0.07573125
15	0xbd4e1bf3	-0.050319623
16	0xbd59d4ac	-0.053181335
17	0xbdda218a	-0.10650928
18	0xbdb301d0	-0.0874058
19	0xbd952c3a	-0.07283826
20	0xbcb606fc	-0.022220127
21	0x3d6802e2	0.056643374
22	0x3d99e3a1	0.0751412
23	0xbdd7f541	-0.10544825
24	0xbd87a930	-0.06624067
25	0xbd6cc5c4	-0.05780579
26	0xbd9883ae	-0.07446991
27	0x39685e00	0.00022160262
28	0xbd6aa0b5	-0.05728217
29	0xbce61fbc	-0.028091304
30	0xbdaa546f	-0.08316886
31	0xbd4a01ef	-0.04931825
32	0xbd213bd4	-0.039363697
33	0x3cf772a4	0.030206032
34	0x3d24f682	0.04027415
35	0x3d83d623	0.06437328
36	0xbbe93720	-0.007117167
37	0xbdaedb47	-0.085379176
38	0x3dc08ed5	0.09402243
39	0xbd3641b0	-0.04449624
40	0xbd54b44b	-0.051929753
41	0xbdae99c8	-0.08525425
42	0xbd9d1d45	-0.07671598
43	0x3cca2dc4	0.024680026
44	0xbd9fad66	-0.07796745
45	0x3dbc6a4b	0.09199961
46	0x3b2b2740	0.0026115924
47	0x3ce0c894	0.027439393
48	0x3cf8324c	0.03029742
49	0x3c87b678	0.0165665
50	0xbdabbcbc	-0.083856076
51	0x3cb175b4	0.02166257
52	0x3cf93384	0.030420072
53	0x3d5d844a	0.05408124
54	0x3daadaa7	0.08342486
55	0xbd2f749c	-0.042835817
56	0xbdc2173d	-0.094770886
57	0xbbf17ee0	-0.007369861
58	0x3c4bb8e8	0.012434222
59	0xbda6d6e9	-0.081464596
60	0x3c88fafc	0.016721241
61	0xbc2c2f90	-0.010509387
62	0x3d5ffffa	0.054687478
63	0x3d52e9aa	0.05149237
64	0x3dbbb687	0.09165674
65	0x3dd67fe7	0.10473614
66	0xbd52699e	-0.051370256
67	0x3dc4fc05	0.096183814
68	0x3c9a62bc	0.018845908
69	0x3d723702	0.05913449
70	0xbca4666c	-0.02006837
71	0x3d99504f	0.07486021
72	0x3d918c19	0.071068
73	0xbc8c379c	-0.01711636
74	0x3db293bd	0.08719585
75	0xbd5cbbcb	-0.05389003
76	0xbd4d13d7	-0.05006775
77	0x3db34d53	0.08754983
78	0xbd8ed292	-0.06973757
79	0x3cde40f4	0.027130581
80	0x3b6255a0	0.00345359
81	0x3c875824	0.01652152
82	0x3dd5a505	0.104318656
83	0xbd444eb9	-0.04792664
84	0xbc63edf8	-0.013911717
85	0x3cc0b68c	0.023524545
86	0xbd2e07d6	-0.04248794
87	0xbd37d5f8	-0.04488179
88	0xbc6880b8	-0.014190845
89	0x3d6ac0e2	0.057312854
90	0xbd33a54e	-0.04385882
91	0xbd87ada6	-0.06624918
92	0xbdc99f77	-0.09844869
93	0x3daed18d	0.085360624
94	0xbdc04131	-0.09387434
95	0xbbcd17a0	-0.00625892
96	0x3c714238	0.01472526
97	0xbda76fea	-0.08175643
98	0x3d214996	0.039376818
99	0xbd2bfdd0	-0.0419901
100	0x3d10eb36	0.035380565
101	0xbd334ac0	-0.04377246
102	0xbd5767d1	-0.05258924
103	0x3b553a40	0.003253594
104	0xbdacfa0e	-0.08446132
105	0xbdd1ee2e	-0.10250507
106	0x3b5f3460	0.0034058318
107	0xbdbc33d4	-0.09189573
108	0x3d9d85a3	0.07691505
109	0x3da2fa7b	0.079579316
110	0x3b514680	0.003193289
111	0xbd86d4cc	-0.065835565
112	0xbdc113ca	-0.094276026
113	0xbcf91bdc	-0.030408792
114	0xbdc818dc	-0.097703665
115	0xbd7f1621	-0.062276963
116	0x3db87c4d	0.090080835
117	0x3dcd7c93	0.10033526
118	0xbd95ea86	-0.073201224
119	0xbc0c7f38	-0.008575253
120	0xbcd20e4c	-0.025641583
121	0xbdbf9049	-0.09353692
122	0x3dc5ecdd	0.09664319
123	0x3dbf209b	0.09332391
124	0xbd7bf014	-0.061508253
125	0xbca6948c	-0.020334505
126	0x3db0ffd7	0.086425476
127	0x3aa14700	0.0012304485
128	0x3cc52c1c	0.024068885
129	0xbd4183a5	-0.047244687
130	0xbdaf3db8	-0.08556694
131	0xbcac8a60	-0.021062076
132	0xbbba73f0	-0.0056900904
133	0xbd66b4e0	-0.05632484
134	0xbc06f990	-0.008238211
135	0x3db58b11	0.088644154
136	0x3da40077	0.08007901
137	0xbbf17500	-0.007368684
138	0x3b4b6ea0	0.003104128
139	0xbd85e589	-0.06537921
140	0xbd73951e	-0.05946838
141	0x3d942553	0.072336815
142	0x3d3d17b2	0.046165176
143	0x3c1d9340	0.009617627
144	0xbb9cc380	-0.0047840476
145	0xbd921fdc	-0.07134983
146	0xbcb95278	-0.022622332
147	0x3db530df	0.08847212
148	0xbce8b4e4	-0.028406568
149	0x3d7e9d62	0.06216181
150	0xbd00b8f2	-0.031426378
151	0x3d8e8e9b	0.069607936
152	0xbd1062d0	-0.035250485
153	0x3d4cb27e	0.04997491
154	0xbdca5726	-0.098799035
155	0x3d219e76	0.03945776
156	0x3c7c2858	0.015390478
157	0x3dbc273b	0.0918717
158	0xbd35b600	-0.04436302
159	0x3d296e12	0.041364737
160	0xbdb9255e	-0.0904033
161	0x3d2d0a46	0.042246126
162	0x3d29197a	0.041284062
163	0xbda96d9e	-0.08272861
164	0x3cdbb244	0.026818402
165	0xbdacd928	-0.08439857
166	0x3dae8e73	0.08523264
167	0xbd5a9d03	-0.053372394
168	0x3cda86d4	0.02667562
169	0x3d08045e	0.03320729
170	0x3c991004	0.018684395
171	0xbc7fba00	-0.015608311
172	0xbdb8f724	-0.09031513
173	0x3c5ed4a8	0.013600506
174	0x3cf3d8d4	0.029766478
175	0x3d8236d1	0.06358112
176	0x3d55a4a2	0.05215896
177	0x3b8897a0	0.0041684657
178	0xbd411afd	-0.04714488
179	0x3d3625fa	0.04446981
180	0xbbf83ac0	-0.007575363
181	0x3d498f7a	0.049209096
182	0x3d607b16	0.054804884
183	0x3d2872da	0.041125156
184	0xbce0d3f8	-0.027444825
185	0xbd76a300	-0.060214043
186	0x3d071f0e	0.0329886
187	0x3d3a40a2	0.045471795
188	0xbd1aff44	-0.037841097
189	0x3d35e106	0.044404052
190	0xbda2d672	-0.079510584
191	0xbd4aaf05	-0.049483318
192	0xbd88a574	-0.06672183
193	0xbcd25348	-0.025674477
194	0x3da6424b	0.08118113
195	0x3cae5254	0.021279491
196	0x3d01a9aa	0.031655945
197	0xbda55f3d	-0.08074806
198	0x3d8efb83	0.06981566
199	0xbdc982d8	-0.098394096
200	0x3d608bce	0.05482083
201	0x3dd2fbe7	0.10301953
202	0x3cecfe44	0.028929837
203	0x3dcf4a3f	0.10121583
204	0x3dc53e43	0.09631016
205	0xbcbd1d50	-0.023085266
206	0x3d4c46ae	0.049872093
207	0xbda81b5f	-0.082083456
208	0x3d27fc76	0.04101225
209	0x3d882ec7	0.06649547
210	0x3d977861	0.07396007
211	0x3d56d3ca	0.05244807
212	0x3d16f9c6	0.036859296
213	0xbdd1fc94	-0.102532536
214	0xbdb07b10	-0.08617222
215	0x3d6de8be	0.05808329
216	0xbdd69ba1	-0.104789026
217	0x3c454c20	0.012042075
218	0xbcfca34c	-0.030839585
219	0x3cec24b4	0.028826095
220	0xbac70b40	-0.0015185848
221	0x3d4e948e	0.05043464
222	0xbcdc2dc0	-0.026877284
223	0x3dc3b9a1	0.0955689
224	0x3b84f0c0	0.00405702
225	0x3cacab84	0.021077879
226	0x3db43cc5	0.08800653
227	0xbd403b49	-0.04693154
228	0xbcc8871c	-0.024478488
229	0xbdaadede	-0.0834329
230	0x3d85f85b	0.06541511
231	0xbda41a29	-0.08012802
232	0xbd85e68b	-0.06538113
233	0xbc09ef70	-0.008418903
234	0xbd89d273	-0.06729593
235	0xbdaa4367	-0.08313637
236	0x3d4188f2	0.04724974
237	0xbd47e9e8	-0.048807055
238	0xbd54694a	-0.051858224
239	0xbd45d5c6	-0.048299573
240	0x3c134548	0.008988686
241	0xbd3eb27d	-0.04655694
242	0x3d9c441f	0.076301806
243	0x3da58c05	0.08083347
244	0xbdd31d14	-0.103082806
245	0x3db57cb9	0.088616796
246	0xbd9421f8	-0.072330415
247	0xbd13276a	-0.03592626
248	0x3d48d3f2	0.04903025
249	0x3cfbb1ec	0.030724488
250	0x3bdd1880	0.0067473054
251	0x3cd2d354	0.025735535
252	0x3da0f8f1	0.07859982
253	0xbd0f2e82	-0.034956463
254	0x3da7b4a5	0.08188752
255	0x3dd640a7	0.1046155

transformer_encoder.layers.0.self_attn.in_proj_bias f4 [384]
0	0x00000000	0.0
1	0x00000000	0.0
2	0x00000000	0.0
3	0x00000000	0.0
4	0x00000000	0.0
5	0x00000000	0.0
6	0x00000000	0.0
7	0x00000000	0.0
8	0x00000000	0.0
9	0x00000000	0.0
10	0x00000000	0.0
11	0x00000000	0.0
12	0x00000000	0.0
13	0x00000000	0.0
14	0x00000000	0.0
15	0x00000000	0.0
16	0x00000000	0.0
17	0x00000000	0.0
18	0x00000000	0.0
19	0x00000000	0.0
20	0x00000000	0.0
21	0x00000000	0.0
22	0x00000000	0.0
23	0x00000000	0.0
24	0x00000000	0.0
25	0x00000000	0.0
26	0x00000000	0.0
27	0x00000000	0.0
28	0x00000000	0.0
29	0x00000000	0.0
30	0x00000000	0.0
31	0x00000000	0.0
32	0x00000000	0.0
33	0x00000000	0.0
34	0x00000000	0.0
35	0x00000000	0.0
36	0x00000000	0.0
37	0x00000000	0.0
38	0x00000000	0.0
39	0x00000000	0.0
40	0x00000000	0.0
41	0x00000000	0.0
42	0x00000000	0.0
43	0x00000000	0.0
44	0x00000000	0.0
45	0x00000000	0.0
46	0x00000000	0.0
47	0x00000000	0.0
48	0x00000000	0.0
49	0x00000000	0.0
50	0x00000000	0.0
51	0x00000000	0.0
52	0x00000000	0.0
53	0x00000000	0.0
54	0x00000000	0.0
55	0x00000000	0.0
56	0x00000000	0.0
57	0x00000000	0.0
58	0x00000000	0.0
59	0x00000000	0.0
60	0x00000000	0.0
61	0x00000000	0.0
62	0x00000000	0.0
63	0x00000000	0.0
64	0x00000000	0.0
65	0x00000000	0.0
66	0x00000000	0.0
67	0x00000000	0.0
68	0x00000000	0.0
69	0x00000000	0.0
70	0x00000000	0.0
71	0x00000000	0.0
72	0x00000000	0.0
73	0x00000000	0.0
74	0x00000000	0.0
75	0x00000000	0.0
76	0x00000000	0.0
77	0x00000000	0.0
78	0x00000000	0.0
79	0x00000000	0.0
80	0x00000000	0.0
81	0x00000000	0.0
82	0x00000000	0.0
83	0x00000000	0.0
84	0x00000000	0.0
85	0x00000000	0.0
86	0x00000000	0.0
87	0x00000000	0.0
88	0x00000000	0.0
89	0x00000000	0.0
90	0x00000000	0.0
91	0x00000000	0.0
92	0x00000000	0.0
93	0x00000000	0.0
94	0x00000000	0.0
95	0x00000000	0.0
96	0x00000000	0.0
97	0x00000000	0.0
98	0x00000000	0.0
99	0x00000000	0.0
100	0x00000000	0.0
101	0x00000000	0.0
102	0x00000000	0.0
103	0x00000000	0.0
104	0x00000000	0.0
105	0x00000000	0.0
106	0x00000000	0.0
107	0x00000000	0.0
108	0x00000000	0.0
109	0x00000000	0.0
110	0x00000000	0.0
111	0x00000000	0.0
112	0x00000000	0.0
113	0x00000000	0.0
114	0x00000000	0.0
115	0x00000000	0.0
116	0x00000000	0.0
117	0x00000000	0.0
118	0x00000000	0.0
119	0x00000000	0.0
120	0x00000000	0.0
121	0x00000000	0.0
122	0x00000000	0.0
123	0x00000000	0.0
124	0x00000000	0.0
125	0x00000000	0.0
126	0x00000000	0.0
127	0x00000000	0.0
128	0x00000000	0.0
129	0x00000000	0.0
130	0x00000000	0.0
131	0x00000000	0.0
132	0x00000000	0.0
133	0x00000000	0.0
134	0x00000000	0.0
135	0x00000000	0.0
136	0x00000000	0.0
137	0x00000000	0.0
138	0x00000000	0.0
139	0x00000000	0.0
140	0x00000000	0.0
141	0x00000000	0.0
142	0x00000000	0.0
143	0x00000000	0.0
144	0x00000000	0.0
145	0x00000000	0.0
146	0x00000000	0.0
147	0x00000000	0.0
148	0x00000000	0.0
149	0x00000000	0.0
150	0x00000000	0.0
151	0x00000000	0.0
152	0x00000000	0.0
153	0x00000000	0.0
154	0x00000000	0.0
155	0x00000000	0.0
156	0x00000000	0.0
157	0x00000000	0.0
158	0x00000000	0.0
159	0x00000000	0.0
160	0x00000000	0.0
161	0x00000000	0.0
162	0x00000000	0.0
163	0x00000000	0.0
164	0x00000000	0.0
165	0x00000000	0.0
166	0x00000000	0.0
167	0x00000000	0.0
168	0x00000000	0.0
169	0x00000000	0.0
170	0x00000000	0.0
171	0x00000000	0.0
172	0x00000000	0.0
173	0x00000000	0.0
174	0x00000000	0.0
175	0x00000000	0.0
176	0x00000000	0.0
177	0x00000000	0.0
178	0x00000000	0.0
179	0x00000000	0.0
180	0x00000000	0.0
181	0x00000000	0.0
182	0x00000000	0.0
183	0x00000000	0.0
184	0x00000000	0.0
185	0x00000000	0.0
186	0x00000000	0.0
187	0x00000000	0.0
188	0x00000000	0.0
189	0x00000000	0.0
190	0x00000000	0.0
191	0x00000000	0.0
192	0x00000000	0.0
193	0x00000000	0.0
194	0x00000000	0.0
195	0x00000000	0.0
196	0x00000000	0.0
197	0x00000000	0.0
198	0x00000000	0.0
199	0x00000000	0.0
200	0x00000000	0.0
201	0x00000000	0.0
202	0x00000000	0.0
203	0x00000000	0.0
204	0x00000000	0.0
205	0x00000000	0.0
206	0x00000000	0.0
207	0x00000000	0.0
208	0x00000000	0.0
209	0x00000000	0.0
210	0x00000000	0.0
211	0x00000000	0.0
212	0x00000000	0.0
213	0x00000000	0.0
214	0x00000000	0.0
215	0x00000000	0.0
216	0x00000000	0.0
217	0x00000000	0.0
218	0x00000000	0.0
219	0x00000000	0.0
220	0x00000000	0.0
221	0x00000000	0.0
222	0x00000000	0.0
223	0x00000000	0.0
224	0x00000000	0.0
225	0x00000000	0.0
226	0x00000000	0.0
227	0x00000000	0.0
228	0x00000000	0.0
229	0x00000000	0.0
230	0x00000000	0.0
231	0x00000000	0.0
232	0x00000000	0.0
233	0x00000000	0.0
234	0x00000000	0.0
235	0x00000000	0.0
236	0x00000000	0.0
237	0x00000000	0.0
238	0x00000000	0.0
239	0x00000000	0.0
240	0x00000000	0.0
241	0x00000000	0.0
242	0x00000000	0.0
243	0x00000000	0.0
244	0x00000000	0.0
245	0x00000000	0.0
246	0x00000000	0.0
247	0x00000000	0.0
248	0x00000000	0.0
249	0x00000000	0.0
250	0x00000000	0.0
251	0x00000000	0.0
252	0x00000000	0.0
253	0x00000000	0.0
254	0x00000000	0.0
255	0x00000000	0.0

transformer_encoder.layers.0.self_attn.out_proj.weight f4 [128, 128]
0	0x3bf026a6	0.007328826
1	0x3d5d262d	0.053991485
2	0xbd03495f	-0.032052394
3	0xbd822109	-0.06353957
4	0xbc5545c1	-0.013017119
5	0x3cca0d1f	0.02466446
6	0x3d0e800f	0.034790095
7	0xbd5c7c65	-0.05382957
8	0x3d32af1e	0.043624036
9	0xbc8b7d40	-0.017027497
10	0xbd52f819	-0.051506136
11	0xbdafec8d	-0.0859004
12	0x3d191e5a	0.03738246
13	0xbcb9d5af	-0.0226849
14	0xbd1e669e	-0.038672082
15	0xbdf17077	-0.11789029
16	0x3d9a9df1	0.07549656
17	0x38cc5860	9.743939e-05
18	0x3cc7f9dc	0.024411134
19	0x3d0b3649	0.033987317
20	0x3dc9faa7	0.09862261
21	0xbd4cb1cd	-0.04997425
22	0x3c52f9f2	0.012876974
23	0xbd887c80	-0.066643715
24	0xbd0e5244	-0.034746423
25	0xbd2cbde5	-0.042173285
26	0x3d71ab3b	0.05900119
27	0xbcff7684	-0.031184442
28	0xbd39f018	-0.045394987
29	0x3c1dd701	0.00963378
30	0x3d5e7c59	0.054317806
31	0xbd4e9ae4	-0.050440684
32	0x3c7ca5a9	0.015420356
33	0xbc92a843	-0.017902499
34	0xbd9c1c9a	-0.07622643
35	0xbdeb3362	-0.1148441
36	0x3c801a89	0.015637653
37	0xbd92b93e	-0.071642384
38	0x3d78a8fe	0.06070804
39	0x3d89f76e	0.067366466
40	0x3c173359	0.009228551
41	0xbd96a5f3	-0.07355871
42	0xbd91c011	-0.07116712
43	0x3df4c1c8	0.11951023
44	0x3d5f4805	0.054512043
45	0xbc123125	-0.00892285
46	0xbd931e3e	-0.071835026
47	0xbd98522f	-0.0743755
48	0xbdabea18	-0.08394259
49	0x3c48b062	0.012249084
50	0x3c949c9e	0.018141087
51	0xbd92bbd8	-0.071647346
52	0xbd39c647	-0.045355108
53	0x3da1f0d6	0.07907264
54	0x3d41cc36	0.04731389
55	0x3bb8a6c3	0.005635114
56	0xbd2b45a4	-0.04181446
57	0x3bbe88ca	0.0058146464
58	0x3c1b5e6f	0.009482964
59	0xbdb69209	-0.08914573
60	0x3d140867	0.036140826
61	0x3daed928	0.08537513
62	0x3d0b046e	0.03393977
63	0x3d43b7d4	0.047782734
64	0xbd2a8612	-0.041631766
65	0x3da1a558	0.07892865
66	0xbd4a4679	-0.049383614
67	0x3d4458d7	0.047936287
68	0xbd5b804a	-0.053589143
69	0x3dd16b9e	0.102256045
70	0x3cf40f16	0.02979235
71	0x3dcfb84f	0.10142576
72	0xbd355ae1	-0.044276122
73	0x3d412fda	0.047164775
74	0x3da3122e	0.07962452
75	0x3d4981fa	0.04919622
76	0xbd8a4d4b	-0.06753024
77	0x3dc019f1	0.09379948
78	0xbc616586	-0.013757115
79	0xbd650bc5	-0.055919427
80	0x3bbeda5f	0.0058243717
81	0xbc935c99	-0.01798849
82	0xbc0bed50	-0.008540466
83	0x3c29f19c	0.010372546
84	0xbd68691d	-0.05674087
85	0x3cea3a7e	0.028592344
86	0x3cb0f7c9	0.021602528
87	0xbd092415	-0.033481676
88	0x3da9909b	0.082795344
89	0xbdab7302	-0.083715454
90	0x3dc761e0	0.09735465
91	0x3db5002e	0.08837925
92	0xbd7d6fa7	-0.061874058
93	0xbcaf0132	-0.021362875
94	0x3db1ce7f	0.08681964
95	0x3ce27290	0.027642518
96	0x3cda9d21	0.026686253
97	0xbdd53065	-0.10409621
98	0xbc41f14f	-0.011837318
99	0xbdbba454	-0.091622025
100	0xbba69288	-0.005083386
101	0xbd0e4e2e	-0.034742527
102	0x3dad1e02	0.08452989
103	0xbc7349a9	-0.014849105
104	0x3db605db	0.088878356
105	0x3d5f89d0	0.054574788
106	0x3b35ea0d	0.0027757913
107	0xbdab5c73	-0.08367243
108	0xbda6f6a9	-0.081525154
109	0xbd7ec726	-0.06220164
110	0x3cc38c36	0.023870569
111	0xbda2de1e	-0.07952522
112	0xbd9e66e7	-0.07734471
113	0x3d720015	0.05908211
114	0xbd1fe9d5	-0.03904136
115	0xbd3944a2	-0.04523147
116	0x3ad328a4	0.0016110134
117	0x3c9d7530	0.019220918
118	0xba404228	-0.0007334077
119	0x3d0c820c	0.03430371
120	0x3d80c50d	0.062875845
121	0xbb2c326e	-0.0026275176
122	0xbd85dd7b	-0.06536385
123	0xbceae57b	-0.028673878
124	0x3aad876e	0.0013239214
125	0x3dd703ca	0.104987696
126	0x3d114e78	0.035475224
127	0xba21d2d0	-0.0006173076
128	0xbd500f70	-0.050795972
129	0xbd8dccf0	-0.06923854
130	0x3dd37a82	0.10326101
131	0x3b106eb4	0.002203864
132	0x3c29d805	0.0103664445
133	0x3e0ae1a0	0.13562632
134	0x3da0db9a	0.07854386
135	0x3dd80a00	0.10548782
136	0x3cfb6ae6	0.030690622
137	0xbcc9fe20	-0.024657309
138	0xbc1e7f91	-0.009673969
139	0x3b5ed1bd	0.0033999525
140	0xbc00bd1a	-0.007857585
141	0xbd448972	-0.04798264
142	0xbcd848b4	-0.026401855
143	0x3d031797	0.03200492
144	0xbc90005c	-0.017578296
145	0xbd01cc72	-0.031689115
146	0x3ba0a211	0.0049021323
147	0x3dc7a9c4	0.09749177
148	0xbd871b06	-0.06596951
149	0x3d7987ed	0.060920645
150	0xbc1e8129	-0.009674349
151	0xbda4dbb1	-0.08049715
152	0xbcd650e6	-0.026161622
153	0x3bf7cefa	0.0075625153
154	0xbc02ac8e	-0.007975711
155	0xbd0896a6	-0.033346795
156	0x3d355bef	0.044277128
157	0x3d514e5f	0.05110013
158	0x3c20d8e8	0.0098173395
159	0xbc1a2957	-0.00940927
160	0xbd51bc2c	-0.051204845
161	0xbd6451f3	-0.055742215
162	0xbda4c86b	-0.08046039
163	0xbd6a0ff6	-0.057144128
164	0x3ce47d5c	0.027891807
165	0x3d02f109	0.03196815
166	0xbc032de5	-0.008006548
167	0xbca2bba8	-0.019864872
168	0x3d67c30f	0.056582507
169	0x3bae0729	0.005310912
170	0xbd2cb1fc	-0.042161927
171	0xbd64d09e	-0.055863015
172	0xbdce7953	-0.100817345
173	0xbdb5c5e4	-0.08875635
174	0x3d9ad04d	0.075592615
175	0x3d11a6ba	0.035559393
176	0x3cf4bbe3	0.029874748
177	0xbd49fe87	-0.049315
178	0x3d576e1c	0.052595243
179	0x3d03dae4	0.032191172
180	0xbd2098b1	-0.039208118
181	0xbd21b97f	-0.039483543
182	0xbb985e3a	-0.0046499046
183	0xbd50c297	-0.050966825
184	0x3b909306	0.004412058
185	0x3de464a7	0.111520104
186	0x3d0f43b4	0.034976676
187	0x3ca4eeca	0.020133395
188	0xbd7f86e7	-0.062384512
189	0xbcb42858	-0.021991894
190	0x3d01fdea	0.031736292
191	0x3c52257e	0.012826322
192	0x3d752bb8	0.059856147
193	0x3da74555	0.08167521
194	0xbcc01edc	-0.023452215
195	0xbd21c9ec	-0.03949921
196	0xbd4bfde5	-0.04980268
197	0xbd5565f5	-0.052099187
198	0xbd0affed	-0.033935476
199	0x3d9e5bb8	0.07732338
200	0xbd8dd788	-0.06925875
201	0xbd0dc83b	-0.034614783
202	0x3abd6ccd	0.0014451981
203	0x3c00e864	0.007867906
204	0x3dc0e900	0.09419441
205	0x3d3f3793	0.04668386
206	0xbd0535f8	-0.03252217
207	0xbd2231d2	-0.039598294
208	0x3be61ec3	0.00702271
209	0x3ccf40ee	0.025299516
210	0x3d48369b	0.0488802
211	0x3d10e9d2	0.03537924
212	0x3d24e58b	0.04025797
213	0x3d10fe90	0.03539902
214	0xbd55868f	-0.05213028
215	0xbd6ba9c0	-0.057534933
216	0x3da76371	0.08173264
217	0x3b62ddd7	0.003461709
218	0x3d5b1086	0.053482555
219	0x3c93e03d	0.018051261
220	0x3d01dd42	0.03170515
221	0xbba81970	-0.0051299855
222	0xbcc76908	-0.024342075
223	0xbb85ad8f	-0.0040795277
224	0xbcf7fc51	-0.030271681
225	0x3ce669d8	0.028126642
226	0xbca0b879	-0.019619213
227	0xbcd1eac3	-0.025624638
228	0x3da6cf3f	0.08144998
229	0xbd2b7e6e	-0.04186862
230	0x3cef38c1	0.029201867
231	0x3dddd6b6	0.108319685
232	0xbd558260	-0.05212629
233	0xbd08e3db	-0.033420425
234	0xbc4a550c	-0.012349378
235	0xbd161551	-0.036641423
236	0xbb55274b	-0.003252464
237	0x3d8496b3	0.06474056
238	0x3cb3f97b	0.021969547
239	0xbdb3658d	-0.08759604
240	0xbcf0d059	-0.029396223
241	0xbd7f281b	-0.062294107
242	0x3d354f3a	0.04426501
243	0x3d0eb8b8	0.03484413
244	0xbd67f621	-0.05663121
245	0xbc29db8c	-0.010367285
246	0xbddbdff9	-0.10736079
247	0xbd90a5b7	-0.070628576
248	0x3d2c72ed	0.04210179
249	0x3caa2496	0.020769399
250	0x3d8f0a89	0.06984431
251	0x3d7e259a	0.06204758
252	0x3d83bdec	0.06432709
253	0x3e00b6ff	0.12569807
254	0x3e024e30	0.12725139
255	0x3cec4240	0.028840184

transformer_encoder.layers.0.self_attn.out_proj.bias f4 [128]
0	0x3d2b6fce	0.041854672
1	0x3cba3f7b	0.022735348
2	0x3b8ec761	0.004357264
3	0x3c27bf34	0.0102384575
4	0x3c9906fa	0.018680084
5	0x3d185445	0.03718974
6	0xbbd63f2c	-0.0065382924
7	0xbd3e38ad	-0.04644077
8	0xbd551561	-0.05202234
9	0x3d55f464	0.052235022
10	0x3cc7af23	0.024375504
11	0xbd5ea224	-0.054353848
12	0x3bbb6b92	0.0057196105
13	0x3ccf4d52	0.025305424
14	0xbd32a4b3	-0.0436141
15	0x3d0244fa	0.031804062
16	0xbd0a5b83	-0.03377868
17	0x3c8dada5	0.017294714
18	0xba8f3864	-0.001092684
19	0xbb88d113	-0.004175314
20	0x3cffb7fb	0.031215658
21	0xbd6b5a5a	-0.057459213
22	0xbb2037bc	-0.0024447283
23	0x3d7ca731	0.061682884
24	0x3ca29cc7	0.019850148
25	0xbc49edf6	-0.012324801
26	0xbbb5f0e4	-0.005552398
27	0xbbc2c108	-0.0059434213
28	0x3d3cfbbf	0.04613852
29	0x3bfe4121	0.007759229
30	0x3cbc2bf9	0.022970187
31	0x3ab37da9	0.0013694066
32	0xbca59d32	-0.020216558
33	0x3d0b695b	0.03403602
34	0x3c275eab	0.010215442
35	0xbd24faf0	-0.040278375
36	0xbd50a002	-0.050933845
37	0xbc805234	-0.015664198
38	0x3d45fc0f	0.048336085
39	0x3a1f8016	0.0006084455
40	0xbc7a24e9	-0.015267589
41	0x3c82ba0b	0.015957853
42	0x3b599277	0.0033198872
43	0xbd5d7e23	-0.05407537
44	0x3c7067ba	0.014673168
45	0x3c9da39d	0.019243056
46	0xbcadf1ae	-0.021233406
47	0xbce1a172	-0.027542803
48	0x3c343278	0.010998361
49	0x3ca87d8b	0.020567676
50	0x3d2766e2	0.0408696
51	0xbd739d5b	-0.059476238
52	0x3ba381c2	0.0049898336
53	0x3c176853	0.009241181
54	0x3d7937d9	0.060844276
55	0x3b839be3	0.004016386
56	0xbd83e610	-0.06440365
57	0xbce2814e	-0.027649548
58	0xbcd039ee	-0.025418248
59	0x3d915298	0.07095832
60	0xbcf92edf	-0.030417858
61	0xbd37c168	-0.04486218
62	0x3c19f1a5	0.009395991
63	0x3c5231b8	0.012829237
64	0xbcc4dd8a	-0.02403142
65	0xbd3e1700	-0.046408653
66	0xbb82f258	-0.003996175
67	0x3c86d394	0.01645831
68	0xbb6f1fdd	-0.0036487498
69	0xbc28e5a3	-0.010308656
70	0xbcdfc96d	-0.027317727
71	0xbdb1911e	-0.08670257
72	0x3c54259e	0.012948422
73	0xbcf6b7e2	-0.030116979
74	0x3d080d35	0.03321572
75	0xbd187da6	-0.037229203
76	0xbd5b4be9	-0.05353919
77	0x3d04a903	0.032387745
78	0xbd65a15f	-0.0560621
79	0x3c6bec67	0.014399624
80	0x3d5ab7b4	0.05339785
81	0x3caad71b	0.020854523
82	0xbd938855	-0.07203738
83	0x3d8716c4	0.06596139
84	0x3c9d46de	0.019198831
85	0x3d62bdda	0.055356838
86	0x3d827f49	0.06371934
87	0xbcab6f9c	-0.020927243
88	0x3c586aff	0.013209104
89	0xbc2cc5bb	-0.0105451895
90	0xbd279443	-0.040912878
91	0x3d2cec20	0.042217374
92	0x3c16c3e5	0.009201978
93	0x3d62911d	0.055314172
94	0xbd1e2d0f	-0.03861719
95	0xbcd6dc20	-0.02622801
96	0xbcc36773	-0.02385304
97	0xbcc1d345	-0.023660311
98	0x3cb4818d	0.02203443
99	0x3be0d52e	0.0068613505
100	0x3d0bf73e	0.034171335
101	0xbd7fa23f	-0.06241059
102	0x3d6dfede	0.05810439
103	0x3aae52bb	0.0013299802
104	0x3ca2d2f3	0.019875979
105	0xbcf79e91	-0.030226978
106	0x3d08be36	0.033384524
107	0xbc65f713	-0.014035958
108	0xbc22df1f	-0.0099408915
109	0x3c837ded	0.016051257
110	0xbd121b6f	-0.035670694
111	0x3c8e050a	0.017336387
112	0x3c5557c7	0.013021416
113	0x3ca7d162	0.020485584
114	0xbc9d226f	-0.019181458
115	0xbd04bea1	-0.03240836
116	0x3d5a63e2	0.053317912
117	0x3a252056	0.0006299069
118	0x3cf2dd16	0.029646438
119	0xbcbf7134	-0.02336941
120	0x3c9d7c07	0.01922418
121	0x3d2c27a9	0.04203001
122	0xbc9eaa07	-0.019368185
123	0x3c6d5717	0.014486096
124	0xbd1cff78	-0.03832957
125	0x3ba4dee6	0.0050314544
126	0xbd54f8a8	-0.05199495
127	0x3b4c011b	0.0031128589

transformer_encoder.layers.0.linear1.weight f4 [128, 128]
0	0x3cfe041b	0.031007817
1	0xbd1a6c39	-0.037700865
2	0xbcb2739a	-0.021783639
3	0xbdce41b8	-0.100711286
4	0xbc690549	-0.0142224515
5	0xbdb24e58	-0.08706349
6	0xbd5b2613	-0.053503107
7	0xbcbea56c	-0.023272239
8	0xbcd32750	-0.025775582
9	0xbcb6b276	-0.022301894
10	0x3cd544cf	0.026033787
11	0xbcf23898	-0.029568002
12	0x3d132f9d	0.03593408
13	0xba9d8dce	-0.001202041
14	0x3c8ea175	0.017410973
15	0x3d6b858e	0.057500415
16	0xbdf02202	-0.117252365
17	0x3d3e30a8	0.04643312
18	0xbd0b6c7a	-0.034039
19	0x3d88bbdb	0.066764556
20	0xbc0b4511	-0.008500353
21	0x3c68453e	0.014176665
22	0xbd5ee555	-0.054417927
23	0xbc3c61b7	-0.011497906
24	0x3d3c22e2	0.045931704
25	0xbd1dac74	-0.038494542
26	0x3d9d6da8	0.07686931
27	0xbd1e07f5	-0.038581807
28	0x3ccae91b	0.024769356
29	0x3db06e45	0.08614782
30	0xbe0a6ec1	-0.13518812
31	0xbde87488	-0.113503516
32	0x3d48e476	0.049046002
33	0xbd8330b5	-0.064057745
34	0xbd8b06b4	-0.06788388
35	0xbc35dc42	-0.011099877
36	0x3da36104	0.07977489
37	0x3c094c9b	0.008380081
38	0x3d1c7979	0.038201783
39	0xbca2fc4c	-0.019895695
40	0x3d2259bd	0.039636362
41	0x3c9755df	0.018473564
42	0x3d102834	0.03519459
43	0x3cb3df2f	0.021957008
44	0x3cb745a8	0.022372082
45	0x3da76f9a	0.08175583
46	0x3c6c5925	0.014425551
47	0xbcb43d2a	-0.022001822
48	0xbd461b8e	-0.048366122
49	0xbdc4aa38	-0.09602779
50	0xbb83991c	-0.004016055
51	0x3cabe2a1	0.020982089
52	0x3cd9e5b7	0.026598794
53	0x3dff6bf3	0.124717616
54	0x3d19bf7b	0.037536126
55	0x3d3825aa	0.044957794
56	0x3b8fc03a	0.004386929
57	0x3c57d4e1	0.013173313
58	0xbbfff01a	-0.0078106048
59	0x3d7b630e	0.061373763
60	0x3c2722fd	0.010201213
61	0xbc611dd3	-0.013740021
62	0x3d94a79e	0.07258533
63	0xbd17ffd0	-0.037109196
64	0xbd5b3627	-0.05351844
65	0x3ab18f83	0.0013546798
66	0x3d9388d8	0.07203835
67	0xbdcb8ab7	-0.09938567
68	0xbdc2eed0	-0.09518206
69	0x3d1a54b1	0.037678424
70	0xbc6b9140	-0.014377892
71	0xbda664f2	-0.081247225
72	0xbc82b966	-0.015957545
73	0xbc06f9a9	-0.008238235
74	0x3d6574fc	0.056019768
75	0xbd4bb179	-0.049729798
76	0x3dac33ab	0.084082924
77	0xbd5e4211	-0.054262225
78	0x3d8e1989	0.06938464
79	0xbd9e95c2	-0.07743408
80	0xbbef9cb3	-0.007312381
81	0xbd97c6f1	-0.07410992
82	0x3d4332cf	0.047655877
83	0xbc3a761e	-0.0113807
84	0x3d976bd4	0.073936135
85	0x3d0f0b20	0.03492272
86	0x3d6f7d25	0.058468957
87	0xbcf7a80f	-0.030231504
88	0x3d182360	0.03714311
89	0xbd00c2b0	-0.03143567
90	0x3d44e2c3	0.04806782
91	0xbdd8c922	-0.10585238
92	0xbde1d1f6	-0.11026375
93	0xbd3c8cfd	-0.046032894
94	0xbc8621d6	-0.016373556
95	0x3cfa5aac	0.030560814
96	0x3c9d5d4d	0.019209528
97	0x3ca11497	0.019663138
98	0x3ccc9dbc	0.024977557
99	0x3d5b7643	0.05357958
100	0x3caf1a6d	0.021374905
101	0x3da64d41	0.08120204
102	0x3cc0ca21	0.023533883
103	0x3db4def2	0.08831586
104	0xbc56c218	-0.013107799
105	0x3b89d78f	0.004206605
106	0xbdddf6bc	-0.108380765
107	0xbcb8babc	-0.02254998
108	0x3db846db	0.089978896
109	0xbd598723	-0.053107392
110	0x3d488efb	0.04896448
111	0x3d42ca26	0.047556065
112	0x3d3f33dd	0.04668032
113	0x3d22e744	0.039771333
114	0xbd2f0630	-0.04273051
115	0x3c99d1b5	0.018776754
116	0xbcc8d08b	-0.024513504
117	0x3d34c6c1	0.04413486
118	0x3d899e63	0.06719663
119	0xbd9081b6	-0.070559904
120	0xbcb779bb	-0.022396913
121	0x3d3a7516	0.045521818
122	0x3c15cc70	0.00914298
123	0xbbc9411e	-0.006141796
124	0x3daddebb	0.08489748
125	0x3c930706	0.017947685
126	0x3d9a1fb7	0.075255804
127	0xbe123dc3	-0.14281373
128	0x3c405b66	0.011740541
129	0x3d8890c3	0.06668236
130	0xbde15006	-0.110015914
131	0x3c240de3	0.0100130765
132	0xbbefd1ee	-0.0073187267
133	0xbd97e431	-0.07416571
134	0xbc79f8b5	-0.01525705
135	0xbe20e14b	-0.15710942
136	0xbc9bc43e	-0.019014474
137	0x3dc1a6a2	0.09455611
138	0xbd3886e3	-0.045050513
139	0xbd9b79c3	-0.075915836
140	0x3cf70fbf	0.030158876
141	0xbdb75dda	-0.08953448
142	0x3dca2ed0	0.0987221
143	0x3dbe0891	0.09278978
144	0xbe6217e1	-0.22079422
145	0xbda84ca4	-0.08217743
146	0xbbf150e2	-0.0073643783
147	0x3dbb0512	0.091318265
148	0x3b2b407f	0.0026130972
149	0x3da7c6a3	0.08192184
150	0xbd55f65d	-0.052236903
151	0xbc9ac05e	-0.018890556
152	0xbdc91e45	-0.098202266
153	0x3d0cd484	0.03438236
154	0x3dc78171	0.09741486
155	0x3da09ccf	0.07842409
156	0x3db19f44	0.08672956
157	0x3b54af5d	0.0032453157
158	0xbd7b9ce2	-0.061428912
159	0x3cd657c6	0.0261649
160	0xbdfc917d	-0.12332437
161	0xbd4f73a8	-0.050647408
162	0x3cb0eb0d	0.021596456
163	0x3e2cfe22	0.16893819
164	0x3e07d811	0.13266017
165	0xbd707247	-0.058702733
166	0xbc651e26	-0.013984239
167	0x3b01217d	0.0019703798
168	0x3d55b69a	0.052176096
169	0x3de3830c	0.111089796
170	0xbc994f8f	-0.018714694
171	0xb981ac8d	-0.00024733358
172	0x3dc71036	0.09719889
173	0x3dfe6a1c	0.124225825
174	0x3e380871	0.1797197
175	0x3d9a826f	0.075444095
176	0xbc9aa2f8	-0.018876538
177	0xbc87663f	-0.016528247
178	0xbe0993b7	-0.13435255
179	0xbcd9604a	-0.026535172
180	0xbe30bf2d	-0.17260428
181	0x3e2b867f	0.16750525
182	0xbd76dea2	-0.060270913
183	0x3de307bd	0.1108546
184	0x3d9be4f4	0.07612029
185	0x3d94a485	0.07257942
186	0x3c6e7238	0.014553599
187	0x3d2f3eeb	0.042784613
188	0x3d9c45a9	0.07630474
189	0x3d2079ec	0.039178774
190	0x3d03414b	0.03204469
191	0x3dc044c2	0.093881145
192	0x3bca6de4	0.0061776508
193	0x3cb886a9	0.022525148
194	0xbcd9411b	-0.026520303
195	0xbe024d7d	-0.12724872
196	0xbe04f3a0	-0.1298356
197	0x3d0a8504	0.03381826
198	0xbd180eaa	-0.03712336
199	0xbb137239	-0.0022498502
200	0x3d3099ba	0.043115355
201	0xbce2ebf6	-0.027700406
202	0xbd6d9a0b	-0.058008235
203	0x3dd00860	0.101578474
204	0xbd890361	-0.066900976
205	0xbd9baf7d	-0.07601831
206	0x3cec2354	0.02882544
207	0x3d2ecd2e	0.042676143
208	0xbda3841d	-0.07984183
209	0xbd98ada1	-0.07454992
210	0xbb439572	-0.0029843715
211	0xbd9b1973	-0.075732134
212	0x3d56df19	0.052458856
213	0x3e0b70a1	0.13617183
214	0x3a9e0072	0.0012054576
215	0xbd2edeb0	-0.04269284
216	0x3c614f9d	0.013751891
217	0x3b16f56b	0.0023034464
218	0xbcf333f2	-0.029687855
219	0xbc814773	-0.01578114
220	0xbe092f9f	-0.13397072
221	0xbca7738a	-0.020440836
222	0x3da3c246	0.07996039
223	0xbda207fb	-0.079116784
224	0xbc568135	-0.013092329
225	0xbdb7b062	-0.08969189
226	0x3cd2aa7f	0.025716064
227	0xbaba5926	-0.0014217242
228	0xbc8eed82	-0.017447237
229	0xbd9febb9	-0.078086324
230	0x3c3ce6b8	0.011529617
231	0xbd949c38	-0.07256359
232	0x3c853045	0.016258368
233	0xbe229756	-0.15878043
234	0xbd66e82f	-0.05637377
235	0xbce75ac9	-0.028241532
236	0x3e107337	0.14106451
237	0xbd947f59	-0.07250852
238	0x3d7fc849	0.062446866
239	0x3dfba0d8	0.12286538
240	0xbab010b4	-0.0013432712
241	0x3ccf7256	0.025323074
242	0x3d9c2787	0.07624727
243	0x3d1c268f	0.03812271
244	0xbdd1726e	-0.10226904
245	0x3dcfbf1a	0.101438716
246	0x3e1bc33f	0.15211199
247	0x3ccb0c86	0.024786245
248	0xbce969e7	-0.028492881
249	0xbc5fabbd	-0.013651785
250	0xbc85992f	-0.016308395
251	0xbdde22e4	-0.108464986
252	0x3cd90b40	0.026494622
253	0xbda899bf	-0.0823245
254	0xbc8e4381	-0.017366173
255	0xbe3ac0a3	-0.18237548

transformer_encoder.layers.0.linear1.bias f4 [128]
0	0xbc78af2d	-0.015178484
1	0xbddf3b3b	-0.10899969
2	0xbc828a99	-0.01593523
3	0xbcbfaf62	-0.023399059
4	0xbdaa4c92	-0.08315386
5	0xbcbd286b	-0.023090562
6	0xbd14ae83	-0.03629924
7	0xbdc12f3a	-0.09432836
8	0x3d96b532	0.07358779
9	0xbdbebc18	-0.0931322
10	0xbd9f2a92	-0.077717915
11	0xbdba286b	-0.0908974
12	0xbe1d07d5	-0.15335019
13	0xbdc93460	-0.09824443
14	0xbd12cd0e	-0.035840087
15	0xbd005dc7	-0.031339433
16	0xbc9cdeb6	-0.019149166
17	0x3c0bc013	0.008529681
18	0xbcf78d1f	-0.030218659
19	0xbdd45f82	-0.10369779
20	0xbdb8adca	-0.09017523
21	0xbe132da1	-0.14372875
22	0xbd7836b7	-0.060599055
23	0xbd80dc4b	-0.062920175
24	0xbddccf7a	-0.107817605
25	0xbd1b97f6	-0.037986718
26	0x3a3348a3	0.0006839132
27	0xbd849e4a	-0.06475504
28	0xbccc507c	-0.024940722
29	0xbe0bb917	-0.13644825
30	0xbd33360f	-0.043752726
31	0xbe07758a	-0.13228431
32	0xbda26a5a	-0.07930441
33	0xbd714b29	-0.05890957
34	0xbde480d6	-0.11157386
35	0xbd95065e	-0.07276605
36	0x3d23908f	0.039932784
37	0x3cc35e0f	0.023848562
38	0xbd2b367a	-0.0418
39	0xbdb60708	-0.0888806
40	0xbc5561cc	-0.013023805
41	0xbdd02cf8	-0.10164827
42	0xbda5cd9a	-0.08095856
43	0xbe1cb00c	-0.15301532
44	0x3a3f444a	0.00072962476
45	0xbc3832f5	-0.011242618
46	0xbdea1abe	-0.11430882
47	0xbda184a1	-0.07886625
48	0xbdb29294	-0.08719364
49	0x3b8509d9	0.004060012
50	0xbdd53f95	-0.10412518
51	0xbd995387	-0.07486635
52	0xbd1c9bcb	-0.038234513
53	0xbd82b1c5	-0.06381563
54	0xbd2e772c	-0.04259412
55	0xbda48495	-0.080331005
56	0xbcb86b8d	-0.022512222
57	0xbd2aeebf	-0.041731592
58	0xba88b44a	-0.0010429707
59	0xbd6c6f79	-0.057723496
60	0xbdd7eb42	-0.10542919
61	0xbd6aff8b	-0.05737261
62	0xbe08d60b	-0.13362901
63	0x3c3731be	0.011181293
64	0x3c770d09	0.015078791
65	0xbc760480	-0.015015721
66	0xbda89385	-0.08231262
67	0x3cfddee9	0.03099008
68	0xbcf87790	-0.03033045
69	0xbc85b955	-0.016323725
70	0x3afbb51d	0.0019203756
71	0x3cce1cf0	0.025160283
72	0xbe067e58	-0.13134134
73	0xbdbf5582	-0.09342481
74	0xbdcecab4	-0.10097256
75	0xbe07d70b	-0.13265626
76	0xbc9dfd03	-0.019285684
77	0xbd279d35	-0.04092141
78	0xbe1ae3bb	-0.15125935
79	0xbd82cbeb	-0.063865505
80	0xbce7d68f	-0.028300552
81	0x3cce5737	0.025188072
82	0xbd851cbf	-0.064996235
83	0xbd43d0f1	-0.047806684
84	0xbd9efd26	-0.07763128
85	0xbcde5e80	-0.02714467
86	0xbd73f359	-0.059558246
87	0xbd453140	-0.04814267
88	0xbc3fe9d6	-0.011713466
89	0x3d044d14	0.03230007
90	0xbcfb508e	-0.03067806
91	0xbd9aa5db	-0.07551166
92	0xbdbe3297	-0.09286993
93	0xbdcf2aed	-0.10115609
94	0xbddb7f8b	-0.10717686
95	0xbd8576ae	-0.06516777
96	0xbd9165eb	-0.070995174
97	0xbda6087d	-0.08107088
98	0x3c5a2f66	0.013316965
99	0xbdbb2252	-0.091374055
100	0xbb9e8d83	-0.004838647
101	0xbc15bde8	-0.009139515
102	0xbbb6c436	-0.0055775894
103	0xbd0f7e0e	-0.035032324
104	0xbdaeca53	-0.08534684
105	0x3cc85c98	0.024458215
106	0xbd81345f	-0.06308817
107	0xbdc8784c	-0.0978857
108	0xbd91f5fb	-0.07126995
109	0xbaa9c26b	-0.0012951618
110	0xbbb16cd7	-0.005414586
111	0xbcb902f4	-0.022584416
112	0xbe04a0b7	-0.12951933
113	0xbc3bba83	-0.011458042
114	0x3d5c2def	0.053754743
115	0xbba4d591	-0.005030342
116	0xbd8b7f82	-0.068114296
117	0xbd8dfc1c	-0.06932852
118	0xbd0d21e3	-0.034456145
119	0xbcbcc74c	-0.02304425
120	0xbd520c6a	-0.05128137
121	0xbd3d81ac	-0.046266243
122	0xbda60379	-0.08106131
123	0xbd4349e0	-0.047677875
124	0xbddd46b8	-0.10804504
125	0x3ce8ded8	0.028426573
126	0xbdc6bcdf	-0.09703993
127	0x3c97d4c6	0.018534075

transformer_encoder.layers.0.linear2.weight f4 [128, 128]
0	0xbd99a1ac	-0.075015396
1	0x3e0353ba	0.12824908
2	0x3b53950a	0.003228488
3	0x3c843711	0.016139539
4	0xbb527a3b	-0.0032116312
5	0x3d9232db	0.07138606
6	0x3cbcf5b3	0.023066377
7	0x3c88d08c	0.016701005
8	0x3d4045d2	0.046941586
9	0x3df05280	0.117344856
10	0xbdba3d56	-0.0909373
11	0x3d9e6ed5	0.07735983
12	0x3c334a49	0.010943004
13	0x3d4e315a	0.050340034
14	0xbc968052	-0.018371735
15	0x3dde893e	0.108660206
16	0x3da95ea8	0.08270007
17	0x3ca7ffd2	0.020507727
18	0xbcfd8c1a	-0.030950595
19	0xbd2a9175	-0.041642625
20	0x3d15a4fc	0.036534294
21	0x3e1c0b9e	0.15238807
22	0xbd35c406	-0.044376396
23	0x3d5f2851	0.054481808
24	0x3cb5a3e1	0.02217287
25	0x3c73efcb	0.014888714
26	0x3dd2d789	0.10295016
27	0xbc026e55	-0.0079608755
28	0x3d9db81b	0.07701131
29	0x3db99a86	0.09062676
30	0xbdaf8154	-0.08569589
31	0x3ded7f94	0.11596599
32	0x3dea905d	0.11453316
33	0x3b3cf4ad	0.0028832362
34	0xbd984085	-0.07434181
35	0x3db771a9	0.08957226
36	0x3cc8aad3	0.024495518
37	0xbd54216e	-0.051789694
38	0xbd0d8d10	-0.034558356
39	0xbd82631d	-0.063665606
40	0x3bcceec9	0.0062540513
41	0x3cbf8c3e	0.023382302
42	0x3d2a0173	0.04150529
43	0x3dc35b65	0.095389165
44	0x3bea0ace	0.0071424013
45	0x3d571c75	0.052517373
46	0x3e01fd86	0.12694368
47	0x3d1ebd16	0.038754545
48	0xbd07d25b	-0.033159595
49	0xbdf7b691	-0.12095369
50	0x3cb843f4	0.02249334
51	0x3c7f25d7	0.015572987
52	0x3db8da71	0.090260394
53	0xbd2d4655	-0.042303402
54	0xbc580b72	-0.0131863225
55	0x3d62c0ed	0.05535977
56	0xbd1c5def	-0.03817552
57	0xbc9083fa	-0.017641056
58	0x3d01dbee	0.031703882
59	0xbc471040	-0.01214987
60	0xbc031f93	-0.008003133
61	0xbc869666	-0.016429137
62	0xbbff4026	-0.0077896295
63	0x3d0d2d05	0.034466762
64	0x3b195d07	0.0023401396
65	0x3d8b04e9	0.06788046
66	0x3cd13f1d	0.02554279
67	0x3d813c23	0.06310298
68	0xbcf405be	-0.029787894
69	0xbcf73be2	-0.030179922
70	0x3e1b35cc	0.1515724
71	0xbde84711	-0.1134168
72	0x3d53c5e6	0.051702403
73	0x3adc4609	0.001680554
74	0x3e109fb9	0.1412343
75	0x3d1cd537	0.038289275
76	0x3d8b80c5	0.0681167
77	0xbd685c91	-0.056728903
78	0xbd57c30f	-0.052676257
79	0xbd1d058d	-0.03833537
80	0xbd5495ae	-0.05190056
81	0xbdd7ee7e	-0.10543536
82	0xbda907cb	-0.082534395
83	0x3dd4df5f	0.10394167
84	0x3d8c32ed	0.06845651
85	0xbd3f1543	-0.046651136
86	0x3d970c3d	0.07375381
87	0xbd212054	-0.03933747
88	0xbcebeae6	-0.028798532
89	0x3d8fcb4c	0.07021198
90	0xbca9ef06	-0.020743858
91	0xbbf29ffd	-0.007404326
92	0xbd149913	-0.036278795
93	0xbd60ae7a	-0.054853894
94	0x3d83697b	0.06416603
95	0xbd9261ac	-0.07147536
96	0x3d8025c2	0.06257202
97	0x3d54a13a	0.05191157
98	0xbd3382aa	-0.043825783
99	0x3d949e06	0.07256703
100	0x3d99df25	0.075132646
101	0x3d4a470f	0.049384173
102	0x3d4f7d4a	0.050656594
103	0xbccad136	-0.024757963
104	0xbd5415c5	-0.051778574
105	0x3b83f100	0.004026532
106	0x3df28227	0.11841231
107	0xbc4c37b1	-0.01246445
108	0xbdc89971	-0.097948916
109	0x3da3b831	0.07994116
110	0x3df0d41b	0.11759206
111	0xbc8270a4	-0.015922852
112	0xbcdeadf3	-0.027182555
113	0x3c381e7e	0.011237739
114	0xbdf7ea4c	-0.121052355
115	0xbcd91cf8	-0.026503071
116	0xbd7435e8	-0.05962172
117	0x3c2fa281	0.010719896
118	0x3e24c333	0.16090088
119	0x3c8c5c81	0.017133953
120	0x3d9f06f8	0.07765001
121	0x3e0ee13e	0.1395311
122	0x3ca30d53	0.019903814
123	0x3d4e81ed	0.050416876
124	0x3dacb41b	0.0843279
125	0xbd182687	-0.037146118
126	0xbd674247	-0.05645969
127	0xbda12d26	-0.078699395
128	0x3d2feff4	0.042953447
129	0xbcb95eb4	-0.022628166
130	0xbbca0442	-0.0061650584
131	0xbcee92da	-0.029122759
132	0x3c6d4b00	0.014483213
133	0xbc19d644	-0.009389464
134	0x3db96636	0.09052698
135	0xbc93262d	-0.01796254
136	0x3da842b0	0.08215845
137	0x3cb01ce4	0.021498151
138	0xbdb04beb	-0.0860823
139	0x3d959627	0.0730403
140	0x3da6b30a	0.08139618
141	0x3def712a	0.11691506
142	0xbd935d10	-0.07195485
143	0x3e0cfe65	0.13768919
144	0xbd6f9cdc	-0.058499202
145	0x3d039972	0.03212876
146	0xbcf40e37	-0.029791934
147	0x3dc32c82	0.095299736
148	0xbc9b61b7	-0.018967493
149	0xbd83b3b7	-0.06430762
150	0xbc54b997	-0.012983701
151	0xbdb07061	-0.086151846
152	0xbd7a17a9	-0.06105772
153	0xbca6540f	-0.020303754
154	0xbcbf927d	-0.02338528
155	0x3d2f9cbb	0.04287408
156	0xbdb74b49	-0.089499064
157	0xbc637d39	-0.013884836
158	0xbd56c05e	-0.05242955
159	0xbd885b87	-0.066580825
160	0x3d8b59ef	0.06804263
161	0xbc5aeb4a	-0.013361761
162	0x3ac46042	0.00149823
163	0x3c822ace	0.015889551
164	0x3c03dc26	0.008048093
165	0xbd27ebf5	-0.04099651
166	0xbd1b753d	-0.037953604
167	0xbd6be601	-0.057592396
168	0x3d4a2066	0.049347304
169	0x3cb69719	0.022288846
170	0xbd12f664	-0.035879508
171	0xbda15b23	-0.07878711
172	0x3ddb5d1b	0.10711118
173	0xbd78463f	-0.060613867
174	0x3cea392e	0.028591719
175	0x3d5d1654	0.053976372
176	0x3bdd9fc3	0.00676343
177	0x3d2d8e89	0.04237226
178	0xbd69d060	-0.057083488
179	0xbc55a2b0	-0.013039276
180	0xbd790742	-0.060797937
181	0xbd74fafe	-0.059809677
182	0xbd0b3c9a	-0.03399334
183	0xbd780771	-0.06055397
184	0xbd1193b3	-0.035541248
185	0x3cf84106	0.030304443
186	0x3979696c	0.00023785763
187	0x3d550d4f	0.052014645
188	0x3d80d258	0.0629012
189	0xbd09d2d0	-0.033648312
190	0x3bd0e233	0.0063746213
191	0x3d1a3ae9	0.037653837
192	0xbd2330b3	-0.039841365
193	0x3db457ed	0.08805833
194	0x3e1b7041	0.1517954
195	0x3b7ec440	0.0038874298
196	0x3e038aa9	0.12845863
197	0x3ccd3329	0.02504881
198	0xbc73454f	-0.014848067
199	0xbcac786e	-0.02105352
200	0xbc239204	-0.009983543
201	0x3d190217	0.03735551
202	0x3d0b35a9	0.03398672
203	0x3d4ca375	0.049960572
204	0x3cc729fa	0.024312008
205	0xbced822f	-0.02899274
206	0x3d004ad2	0.031321354
207	0x3c2dde5d	0.010612098
208	0xbcc3ebf2	-0.023916218
209	0x3d0d9527	0.03456607
210	0x3da2032f	0.079107635
211	0x3d51e39a	0.05124245
212	0x3d63304f	0.055465993
213	0x3d8b2b15	0.067953266
214	0x3c302397	0.010750673
215	0x3cb1ae75	0.021689633
216	0xbdc21992	-0.094775334
217	0xbd7ef1bf	-0.062242266
218	0xbd24d31d	-0.040240396
219	0xbd1dcf77	-0.038527932
220	0x3a50887d	0.00079549087
221	0xba643bf4	-0.00087064435
222	0xbd0107b1	-0.031501476
223	0x3d7306c4	0.059332624
224	0x3a8aeec3	0.0010599721
225	0xbcd39b53	-0.0258309
226	0x3d8f8cea	0.07009299
227	0x3dc58302	0.096441284
228	0xbdced130	-0.10098493
229	0xbdc02bb8	-0.09383339
230	0x3e0194a6	0.12654361
231	0xbd8350f2	-0.064119235
232	0xbd066826	-0.032814167
233	0xbd8fca3b	-0.07020994
234	0xbd3f5a24	-0.046716824
235	0x3caffedd	0.021483833
236	0xbddef9b4	-0.10887471
237	0xbcd46d65	-0.02593107
238	0xbd92fd45	-0.071772136
239	0x3d2fe055	0.04293855
240	0xbdb853b9	-0.09000344
241	0x3d19f379	0.03758571
242	0x3d6aac17	0.057293024
243	0x3a985006	0.0011620529
244	0x3d3e0b66	0.04639759
245	0xbdb9d7c4	-0.09074357
246	0x3cb44ceb	0.022009334
247	0xbca5b981	-0.020230057
248	0xbd241e3d	-0.0400679
249	0x3c6bbeb8	0.014388733
250	0xbd349e32	-0.04409618
251	0xbd45d9ff	-0.0483036
252	0x3d87d750	0.066328645
253	0x3d002e7f	0.031294342
254	0x3d357d47	0.044308927
255	0x3cb2a633	0.021807766
