tuning_temporal_transformer_encoder/transformer_encoder_model_fold_4.pth (torch, 816034 bytes, 28 tensors)

embedding.weight f4 [128, 13]
000000 f4 c2 42 3e a2 d0 6c be 65 a6 ff 3d 8e b9 cf 3d
       0.19019681 -0.23126462 0.12482909 0.101428136
000010 a2 e9 0b 3e 40 1b 30 3e 9a 61 60 3e 4c dd 45 bc
       0.13663343 0.17197895 0.21912232 -0.012076687
000020 27 b0 09 be 96 1f 03 be 01 26 2c 3d 35 f4 a1 3d
       -0.13446103 -0.12805018 0.04202843 0.07907907
000030 dc fa f8 3c c3 28 f2 3d 56 6b 3f be d7 fb 56 be
       0.030393057 0.11824181 -0.18693289 -0.20994507
000040 2d a2 a4 be f6 91 e5 bc d4 7e b6 bd 33 a4 85 be
       -0.3215498 -0.028023701 -0.08910909 -0.26101837
000050 1f 95 67 be 64 6c 57 3d ee 56 73 be 3c 1c 08 be
       -0.22615479 0.052593604 -0.2376363 -0.1329202
000060 0a b6 6b 3e f2 56 4f 3e 97 0f 4b be ab 73 78 be
       0.23018661 0.20248011 -0.19830166 -0.24262874
000070 40 12 7f 3d 94 d0 52 be 52 b0 60 be 6c c5 ba 3d
       0.062273264 -0.20587379 -0.21942261 0.091196865
000080 7d 5a 42 be 99 3e 5c 3d ff 8a 16 be 08 89 6a 3e
       -0.18979831 0.053770635 -0.1470146 0.22903836
000090 2c 4b 0b ba 5f 02 18 bd ec 93 03 be 0e a2 43 be
       -0.00053136307 -0.037111636 -0.12849396 -0.19104788
0000a0 6a 0d 81 bd 9a 2a c7 bd d3 3b 46 3c d5 aa 9e bd
       -0.06301387 -0.097249225 0.012099224 -0.077474274
0000b0 24 fd e3 bd e4 8d 17 be 38 9c 7d bd 1a e7 28 be
       -0.11132267 -0.1480022 -0.06191656 -0.16494408
0000c0 e3 a2 3c 3e 4f e2 8c be 9e f4 99 3e aa 21 8c 3e
       0.18421511 -0.2751641 0.3006944 0.27369434
0000d0 3d 26 ee ba b1 bf 51 be fb 90 9b bb b8 e1 0a 3d
       -0.0018169355 -0.2048328 -0.0047475076 0.03390667
0000e0 54 9d 24 3e 1c c7 b6 3a 7e 76 7c be e7 2f 2e be
       0.16075641 0.0013944837 -0.24654576 -0.17010461
0000f0 45 6a 85 bc 9c f0 22 3e cc 05 e7 3d ee c2 25 be
       -0.016286025 0.15912098 0.112804025 -0.16187641
000100 51 e2 a5 bd b0 1c a3 bc 78 06 84 3d 71 3a 5e 3e
       -0.08099807 -0.01991114 0.06446546 0.21701981
000110 61 27 50 3e e9 8f f8 bd c3 be 88 3d 23 19 5c 3e
       0.20327522 -0.12136824 0.0667701 0.21493964
000120 3d 2f 2a be 02 c0 57 3e 97 44 8e bd b9 cc 35 be
       -0.16619582 0.21069339 -0.06946676 -0.17753877
000130 da c7 91 3e 4f 42 d2 bc ac a8 2d 3e 2e bc 69 3e
       0.28472787 -0.025666384 0.16958874 0.22825691
000140 d7 28 2c be fb c0 4a 3e 84 a4 a2 bc d8 7b 48 3e
       -0.16812454 0.19800179 -0.019853838 0.19578493
000150 66 4a c5 3d 01 72 6d be 1e a4 1c be f9 59 39 3e
       0.09633331 -0.2318802 -0.1529698 0.18100728
000160 bb eb 78 be 8a 89 6c be 95 37 7d 3e d0 06 21 bd
       -0.24308674 -0.23099342 0.24728234 -0.039313138
000170 7e 83 ea bd e5 e6 e0 bd 6e a7 5d be 1d f8 92 3e
       -0.114508614 -0.1098154 -0.216459 0.2870492
000180 2d e4 70 be 7f 44 e1 bd d7 0c 92 3d 72 07 b8 3d
       -0.23524542 -0.10999393 0.07131355 0.08985795
000190 d0 07 2f 3e df f5 36 3d 91 45 70 bd 52 2d 5e 3e
       0.17092824 0.044668075 -0.058660094 0.21696976
0001a0 41 2b 40 3d a8 2b a1 bd 3b ed 56 3e 20 d8 96 be
       0.04691625 -0.07869655 0.20988934 -0.29461765
0001b0 2f a1 37 3d 64 65 13 be ed 5a 16 3e 05 94 1d 3e
       0.04483145 -0.14394146 0.14683123 0.15388496
0001c0 5e ac 5a bd f7 2a 8e 3d 9c 86 a2 3d 34 f6 a6 3e
       -0.05338704 0.06941789 0.07935831 0.32609713
0001d0 dc fe 5c 3e f5 e3 f4 bd be 53 2a 3d c2 f8 1e be
       0.21581596 -0.11957542 0.04158377 -0.15524581
0001e0 13 cc 24 3e 52 35 f0 bd 58 2f d5 3b d0 d0 04 be
       0.16093473 -0.1172892 0.006505888 -0.1297028
0001f0 1f 0b f6 3c 79 b5 4b be 01 a1 9e 3d db ec 5f 3e
       0.0300346 -0.19893445 0.07745553 0.21867697
000200 71 ee 9b be 4d 7b 00 be ba be 1b 3c b9 4e 56 3e
       -0.30455354 -0.12547036 0.009505922 0.20928468
000210 6a 6e 35 3e d7 1a 87 3e 3b c8 40 be 78 22 e7 3d
       0.17717901 0.26387665 -0.18826382 0.11285871
000220 16 c0 84 3e 3f 93 15 be 07 a2 24 3e 32 14 35 3e
       0.259278 -0.14606951 0.16077434 0.17683485
000230 1f 15 dc 3b a9 ec dc 3d f7 3a 82 3d bc 56 19 be
       0.006716385 0.10787327 0.06358903 -0.14974493
000240 01 f6 af 3d 1e 30 0b be d4 f1 57 bc 60 e6 b4 3e
       0.085918434 -0.13592574 -0.013180215 0.35332012
000250 8f c3 2f 3e cd 31 94 3d 50 4a f2 3d 97 58 a6 3d
       0.17164443 0.07236061 0.1183058 0.08122366
000260 e3 eb 5b 3e 21 e2 26 be ce b2 12 3b 01 7d e1 3c
       0.21476702 -0.16297199 0.0022384408 0.027525427
000270 9c b0 f8 bd fd 24 3d bd 79 4c 74 be 25 74 a9 be
       -0.121430606 -0.046177853 -0.23857297 -0.33096424
000280 d5 c6 22 3c dd 47 d4 bd 67 3d f1 3d 94 5d a6 bd
       0.009935101 -0.10365269 0.1177929 -0.08123317
000290 13 7f 01 3e 44 e9 38 3e fc 48 3d be ef 5c 79 3e
       0.12646131 0.18057734 -0.18484873 0.24351858
0002a0 17 5f e9 3d e3 7e 48 be 85 ee 4c 3e 32 a9 32 be
       0.1139509 -0.19579653 0.20012863 -0.17447355
0002b0 36 1f 0d be b1 07 27 be 9c f9 af bd 6b 93 d8 3d
       -0.13781437 -0.16311528 -0.08592531 0.10574993
0002c0 56 2b 1f be bd 35 41 be c4 58 00 3e 76 8a aa bc
       -0.15543875 -0.18868156 0.12533861 -0.020817976
0002d0 e2 7a 4f 3e d0 e4 cd bd 90 87 2b bd 64 16 87 bc
       0.2026172 -0.10053408 -0.04187733 -0.016490169
0002e0 d5 e8 a1 3e df 11 33 be 5c 86 b2 3c 8b ef 44 be
       0.3162295 -0.17487286 0.021792583 -0.19232003
0002f0 40 0d 40 be fa fc 62 be e3 91 7a 3e 06 92 12 3e
       -0.18755054 -0.22166815 0.24469714 0.14313516
000300 dc 8b 24 3e a8 2f 23 be ea da 20 bd 75 63 cb bd
       0.16068977 -0.15936148 -0.039271273 -0.09931079
000310 1b 1a 2c be db 8c ca bd af 6e 38 be f9 35 24 bc
       -0.16806833 -0.09890147 -0.18010972 -0.010022634
000320 b6 a2 59 3e 89 98 9a 3e b6 ee b1 bd fe 5b 52 3e
       0.21253476 0.301945 -0.086881086 0.20542905
000330 fe 7b 14 3e d5 13 4a 3e 30 a9 e6 bd a7 02 17 be
       0.14500424 0.19734128 -0.11262739 -0.14747106
000340 ae e2 10 3e c4 05 ec 3d cb d5 5b 3e b1 54 ac bd
       0.14148971 0.11524537 0.21468274 -0.08414591
000350 d0 bd 35 3e 2b ce 12 3d 4d c3 72 3b c4 7c 33 be
       0.17748189 0.03584115 0.0037042678 -0.17528063
000360 7d 3c a3 bc 63 b6 83 be 4f 4f 82 3e a5 d6 73 be
       -0.019926304 -0.25725088 0.25451133 -0.23812349
000370 42 ae 7d 3d f3 e6 4f 3e 65 e0 16 be ef 74 33 be
       0.061933763 0.20302944 -0.14734037 -0.17525075
000380 4b 53 25 3e 2c 24 d5 bd 5a dd de 3d be 6f 26 3e
       0.16145055 -0.1040729 0.10882063 0.16253564
000390 22 ad b2 3d a9 d4 57 3e 51 8c 14 be ef 84 e7 bd
       0.08724429 0.21077217 -0.14506651 -0.11304652
0003a0 a2 01 dd 3d 92 00 3e be aa 84 67 3e 99 6e e9 bd
       0.10791327 -0.18554905 0.22609201 -0.11398048
0003b0 12 31 ab 3d 57 ad ba bc 75 26 b3 bd 2f 56 b1 3d
       0.08358969 -0.022787733 -0.087475695 0.08659016
0003c0 ae 22 73 bd ff a4 17 3e 30 72 07 3e 45 24 b9 3d
       -0.059359245 0.14809035 0.13227153 0.09040121
0003d0 14 6f ae bc 90 df 62 3e 96 27 cb 3d a9 c9 3d 3c
       -0.0212932 0.22155595 0.0991966 0.011583724
0003e0 cb 81 b0 3d 9b 32 4a 3e 89 6f 03 3c 70 32 90 3c
       0.08618506 0.19745867 0.0080221975 0.017602175
0003f0 fc c7 31 3b 82 66 1d be f9 b3 79 3e 52 04 ed bc
       0.0027127257 -0.15371135 0.2438506 -0.028932724

embedding.bias f4 [128]
000000 e5 e9 06 3e 60 2e 62 3e 19 b6 36 3e 3c 45 47 3e
       0.13175161 0.22088003 0.17842902 0.19460005
000010 be ac 24 3d 26 73 4c 3e 32 d1 6f 3d ed a7 fa 3d
       0.040203802 0.199658 0.058549114 0.122390606
000020 13 e1 f3 3a e8 54 64 be d1 e9 30 3e b3 1f 69 be
       0.0018606506 -0.22298014 0.17276694 -0.22765999
000030 bd 46 b8 3d 7f 47 8e 3d 61 bf e5 3d fe 74 ce bb
       0.08997867 0.069472305 0.11218143 -0.0063005676
000040 9c 6f c8 bc 37 9e c9 bd f6 ce 19 3e 56 e5 43 3e
       -0.024467282 -0.0984463 0.15020356 0.19130453
000050 5b e1 89 3c d6 5f c9 3c e0 a3 ed 3d 02 2c 0f be
       0.01683109 0.024581831 0.11603522 -0.13981631
000060 a9 1d e2 3c 6c 99 5e bc 88 9d 4f be 4b 11 27 be
       0.027602034 -0.013586383 -0.20274937 -0.1631519
000070 d1 74 34 be c9 f1 19 3d 67 04 6b be 8d 41 3e 3e
       -0.17622687 0.0375841 -0.22950898 0.18579693
000080 49 9e 25 be 4d 93 0b be 62 2c 4e be 67 54 6a bd
       -0.16173662 -0.1363041 -0.20134118 -0.0572094
000090 63 53 74 be 89 b6 32 3d 69 ca 4e be 94 6d 53 3e
       -0.23859935 0.04363111 -0.20194401 0.2064727
0000a0 4a 1e 68 3d 81 8c 30 3e d8 34 4f be 53 4a 64 bc
       0.05666951 0.17241098 -0.20235002 -0.013933736
0000b0 2c e5 36 bd bc 0f 8b 3e e9 91 e9 bc 39 40 f9 3d
       -0.04465215 0.27160442 -0.028511958 0.121704526
0000c0 51 51 8c bc e8 4f 87 be 35 4b 3f be ac 0e 54 be
       -0.017128618 -0.2642815 -0.18681033 -0.20708722
0000d0 81 ad 9b bd 6b 3f 07 3e 69 38 23 be ba c1 90 bd
       -0.076014526 0.13207786 -0.15939488 -0.070682004
0000e0 49 55 56 3c e3 52 54 be 43 2b d1 bc eb a8 df bd
       0.013081857 -0.20734744 -0.025533324 -0.109208904
0000f0 48 9f cb 3d 9a d3 0f be 13 e7 d6 bd 93 75 1e be
       0.0994249 -0.14045563 -0.10493293 -0.15474539
000100 96 74 3e be d5 d4 66 be 95 2c 10 3e 0e ca 5c 3e
       -0.18599162 -0.22542126 0.14079507 0.21561453
000110 85 4f 09 3e 0c ea 18 3e b7 2e 0b be a8 7a 03 3e
       0.1340924 0.14933032 -0.13592039 0.12839758
000120 02 24 40 be 4e c3 82 3e 73 25 25 3d 75 14 c2 3d
       -0.18763736 0.2553963 0.040318917 0.09476558
000130 9a 36 69 3e 2d 3d 6a 3e 47 43 00 3e 0e c9 d0 bd
       0.22774735 0.22874899 0.12525664 -0.10194598
000140 60 07 64 3e 37 3f 44 3e 67 fb 4a bd cf 16 0a be
       0.22268438 0.1916474 -0.049556162 -0.13485263
000150 8b b9 6d 3d 71 f4 01 be db 13 4f 3e 2d 6b 2c bd
       0.058038276 -0.12690903 0.20222418 -0.0420944
000160 43 2a f1 3d cb 4f a0 bc 6f 15 42 be c1 4b 84 be
       0.11775639 -0.019569298 -0.18953489 -0.25839046
000170 de 5f 6d 3c af ab f9 3d e9 59 8b bd 84 08 78 be
       0.014488189 0.12190949 -0.068042584 -0.24221998
000180 c3 43 0f 3e 82 f8 6b be 54 77 7e bd 2b f4 bc 3d
       0.13990693 -0.23044017 -0.06212552 0.09226259
000190 8d fa 12 3e 50 b2 42 3e 88 02 e4 bd 26 df 39 3e
       0.1435339 0.19013333 -0.11133295 0.1815153
0001a0 c7 fd 21 be b1 d9 76 3e 52 19 c9 bd a4 d3 6e 3e
       -0.15819465 0.2410648 -0.098192826 0.23322922
0001b0 78 d6 15 3c 54 ce 2a 3e 1b 13 0b 3e 2b 3a 4c bd
       0.009145372 0.1668027 0.13581507 -0.04986016
0001c0 aa 23 50 3e 53 4f 9c bd 51 5f 15 be 4b 84 9c 3d
       0.20326105 -0.076323174 -0.14587142 0.076424204
0001d0 be bd db 3d fb c3 f0 3c 69 c8 68 be 17 f3 c9 bd
       0.1072955 0.029390326 -0.227327 -0.09860819
0001e0 b8 a3 87 3e b0 49 10 3e 85 86 c4 3d 06 c1 3b bc
       0.26492095 0.1409061 0.0959597 -0.011459595
0001f0 eb 95 49 3e 72 87 0d 3d 21 bd 44 be 36 87 b9 3a
       0.19686095 0.034553 -0.19212772 0.0014154676

transformer_encoder.layers.0.self_attn.in_proj_weight f4 [384, 128]
000000 37 c3 44 bd db 82 db 3d a7 ad 8f 3d e2 f6 0f 3d
       -0.048037734 0.10718318 0.070155434 0.035147555
000010 70 57 60 3c 82 a5 cd bd c9 52 b7 3d bf 7c 6b bd
       0.013692722 -0.10041334 0.08951337 -0.057492014
000020 93 40 8c 3d 70 4d c5 3b b0 88 d5 bb f8 2e 35 bc
       0.06848254 0.006021194 -0.0065165386 -0.0110585615
000030 6b 58 94 3d 5e a8 97 bd a6 0b 84 bd 5e d7 06 3d
       0.07243427 -0.0740516 -0.06447534 0.032920234
000040 5f 95 be 3d 57 c7 c6 bd 40 9e a2 3a ab be be 3d
       0.09305834 -0.0970599 0.0012406781 0.09313711
000050 e8 b5 81 3c 44 c9 c5 bd c0 17 66 bb db b3 bb 3d
       0.01583381 -0.09657529 -0.003510937 0.09165164
000060 58 97 24 bd bb 93 65 bd 1b ae dc 3d 07 ed a4 3d
       -0.040183395 -0.05604909 0.107753955 0.08053022
000070 ab 35 b4 3d c0 df ec 3b 02 4b 43 3d 46 7a ae bd
       0.08799299 0.0072288215 0.047678955 -0.085194156
000080 05 06 97 3d d3 88 a4 3d dc af 05 bd 34 a4 99 bd
       0.07374195 0.0803391 -0.032638416 -0.075020224
000090 a4 01 b5 bc af d2 a5 bd 91 96 cb bd 4e 1d 7a 3d
       -0.022095509 -0.08096825 -0.09940828 0.061063103
0000a0 af de a7 3d 84 63 a5 3c 66 50 44 3d e9 75 a9 bd
       0.081967704 0.020189054 0.047928236 -0.08274443
0000b0 41 3d bd 3d da 35 bc bd 6b 49 d1 3d c1 1f ab 3d
       0.09240199 -0.09189959 0.102190815 0.08355666
0000c0 fd b3 d5 3d 5c 56 a1 3c 36 be 53 3d 8c 8a c3 3c
       0.10434721 0.0196945 0.05169507 0.023869775
0000d0 12 a7 3c 3d 34 e6 99 bd 0d 8a a5 3d 7c 85 13 bd
       0.04605777 -0.07514611 0.08082972 -0.036015972
0000e0 20 de 9d bc 00 fb 23 3a f8 64 46 3c 13 e4 8a 3d
       -0.019270957 0.00062553585 0.012109034 0.06781783
0000f0 30 09 c6 bd 96 9e 64 3d bc 6e 77 bd 60 52 78 3b
       -0.09669721 0.0558153 -0.06040834 0.0037890896
000100 1a 3b ba bd b8 fd 99 bc 70 d5 ac 3b 0b ac 91 3d
       -0.09093304 -0.01879774 0.005274467 0.07112893
000110 47 51 ae 3d 77 a8 86 3d a6 38 1d 3d f6 ee 11 3d
       0.08511596 0.06575101 0.038384102 0.03562828
000120 54 9f 8e 3c 3c 2e dd bc f8 6a 7f bc 3e b0 47 3d
       0.017409958 -0.026999585 -0.015589468 0.048752062
000130 b0 f3 c5 3b 8f 66 a4 3d 66 52 30 3d d8 71 d8 bc
       0.0060410127 0.08027374 0.04304733 -0.026421472
000140 ad 3b d0 3d 70 fe 50 3c 06 ad 22 bd b1 13 9d 3d
       0.10167632 0.012755975 -0.03971579 0.076697715
000150 a8 9c 28 bd 9c d7 cc bd 1e 4b 85 bd 4f 62 aa bd
       -0.041165024 -0.10002062 -0.06508468 -0.08319532
000160 19 e5 a8 3d 54 a0 b6 3c 52 00 8a bd 2e 1b 16 3d
       0.08246822 0.022293247 -0.06738342 0.036647014
000170 10 f6 42 bc ba 28 8f bd ae 17 19 3d 3f 3e d6 3d
       -0.011899486 -0.0699019 0.0373761 0.10461091
000180 18 ec 01 bd 4c c9 9c bd 00 c3 0d bc 36 0e 67 bd
       -0.031719297 -0.07655582 -0.008652449 -0.056410037
000190 00 a0 1d 3b a4 ce ff 3c 8e 9c 85 bd ea 9c b4 bd
       0.0024051666 0.031226464 -0.06524001 -0.088189915
0001a0 f7 16 5f bd e2 73 59 bd 17 6a 82 3d 40 0f 9b ba
       -0.05446526 -0.05308903 0.06367891 -0.0011830106
0001b0 e3 fe 92 3d 3c 05 b2 3c dd 48 3f bd de 48 50 3d
       0.07177522 0.021731012 -0.046700347 0.05085074
0001c0 bb 56 80 3d a1 0c a0 bd ae 0e 86 bd 9e 30 67 3d
       0.062665425 -0.07814909 -0.06545769 0.05644285
0001d0 06 bc 9a bd a4 7a b6 3c ac c3 86 bd 87 04 cc 3d
       -0.07555394 0.022275276 -0.0658029 0.09961801
0001e0 94 f2 9f bc 64 3b fc 3c 74 2f d1 bd 4e a7 2a 3d
       -0.01952485 0.030790038 -0.10214129 0.04166346
0001f0 f1 31 82 3d 2a c5 8a bd c2 e2 7e 3d 00 6d 98 bd
       0.06357182 -0.06775887 0.06222797 -0.07442665
000200 c5 34 cc 3d 63 c7 be 3d 35 ae c7 3d 67 07 8b 3d
       0.099710025 0.09315374 0.09750024 0.06788521
000210 b9 24 88 3d 5a 7b 37 3d e4 1f de 3c 13 60 9a 3d
       0.06647629 0.04479537 0.027114816 0.07537856
000220 e7 49 c4 3d dd 8e d7 3d dd e3 55 bd c9 a6 85 3d
       0.09584408 0.10525296 -0.05221926 0.06525952
000230 3e 0b dc bd 53 8a d9 bd 1e 67 16 3d 20 ee 82 bc
       -0.10744332 -0.106220864 0.036719434 -0.015982687
000240 f4 7f 73 bd e6 cf ab bd 08 b8 41 bc 23 b6 7e bd
       -0.059448197 -0.08389263 -0.011823662 -0.062185418
000250 c2 de 21 bd c4 08 b5 3c 67 63 b2 3d ea d3 a1 bd
       -0.03951908 0.022098906 0.08710366 -0.079017475
000260 a2 3c 31 3d a8 d7 bb bc 54 d9 aa 3c 90 ef 1b bd
       0.043270715 -0.022929981 0.020855583 -0.03807026
000270 ec 98 ec 3c be a8 13 3d 1b ff 9f 3d e9 eb b9 bd
       0.028881513 0.036049597 0.078123294 -0.090781994
000280 4a d4 3c 3d dd 5c c4 bd 72 9d 48 3d 2c de a9 bc
       0.046100892 -0.09588025 0.048978277 -0.020735823
000290 20 b5 28 3c 8e 88 7f bd d0 fb 59 bc f4 97 8d 3c
       0.01029709 -0.062386088 -0.013304666 0.017284371
0002a0 15 36 56 bd 00 4c 68 3a 45 ce d5 3d 24 c6 9a 3c
       -0.05229767 0.00088614225 0.104397334 0.018893309
0002b0 13 f7 45 bd 0f a4 ba 3d ee 10 21 3d 3d dc 95 3d
       -0.04833133 0.09113323 0.039322786 0.07317398
0002c0 2b 43 db 3d 05 5f 87 3d 83 c1 59 bd 45 79 b8 3d
       0.10706171 0.066099204 -0.053163063 0.09007505
0002d0 d0 b0 13 bd a4 d1 95 3c 7d e9 b0 3d a6 57 9c bd
       -0.036057293 0.018288441 0.08638284 -0.07633905
0002e0 e9 d8 a0 bd 15 64 c9 bd d8 32 77 bc c8 d5 b8 bc
       -0.07853872 -0.09833542 -0.015087806 -0.022562876
0002f0 d8 84 6d bc cd e7 c9 3d 8a ac 38 bd 2c e2 05 bd
       -0.014497004 0.098586656 -0.04508642 -0.032686397
000300 30 1b bc bd 12 ec 06 bd 04 2d b6 3c 86 1f 35 3d
       -0.09184873 -0.032939978 0.022238262 0.044219516
000310 09 8a 8c 3d 5a 6b 5e 3d 56 35 a7 bd 23 d8 bb bd
       0.068622656 0.054301597 -0.0816447 -0.09172084
000320 cd ef db 3d e6 68 28 bd fb 47 ba 3d d6 f5 11 3d
       0.10739098 -0.041115664 0.090957604 0.035634838
000330 83 e3 ad bd f8 71 15 bd 82 94 58 3d ed 40 c4 3d
       -0.0849066 -0.036485642 0.052876003 0.09582696
000340 23 60 93 3d 24 46 ff bc 80 af 06 3b 81 ab 93 3d
       0.07196071 -0.031161375 0.0020551383 0.07210446
000350 ea 37 3b 3d 10 3e c2 bd b6 ea 1d 3d 54 c1 aa bd
       0.04570762 -0.09484494 0.038553916 -0.08337656
000360 69 34 da bd 2c 35 e0 3c f9 3c 9f bd 62 bf 2e bd
       -0.10654528 0.027369104 -0.077753015 -0.042662986
000370 d4 24 1b bd 33 2a 95 3d 44 e0 ef 3c 5a 2f 82 bd
       -0.03787692 0.072834395 0.029281743 -0.06356688
000380 15 de d1 bd f4 1b d1 bc ff 84 dc 3d e6 22 b5 bd
       -0.10247437 -0.025526024 0.107675545 -0.08844547
000390 04 ac f6 3c 88 89 6a bc 97 5b d1 bd 0d cf 5f bd
       0.03011132 -0.014315017 -0.102225475 -0.05464082
0003a0 16 06 c8 bd 94 b2 dc 3c 06 6f 4d 3d 50 13 f0 3b
       -0.09766786 0.026940621 0.05015471 0.007326521
0003b0 06 b1 56 3d d9 97 83 3d 54 83 d0 bd 39 41 69 bd
       0.052414916 0.06425447 -0.10181299 -0.056946967
0003c0 68 ad c7 bd 2e 23 73 3d eb f2 b4 3d 2c 13 ad 3c
       -0.097498715 0.05935972 0.088353954 0.021127306
0003d0 c9 3e 89 bd 62 1b 2e 3d eb 82 89 bd e0 f6 67 bd
       -0.067014284 0.042506583 -0.06714424 -0.056631923
0003e0 93 95 cc bd 1b 17 9a bd a6 6d 1f 3d 8c 27 a5 bc
       -0.099894665 -0.07523938 0.03892293 -0.020160459
0003f0 78 12 80 bd b8 91 ad bd 55 13 b5 3d 40 7e 97 bb
       -0.06253523 -0.08475059 0.08841578 -0.0046232045

transformer_encoder.layers.0.self_attn.in_proj_bias f4 [384]
000000 00 00 00 00 00 00 00 00 00 00 00 00 00 00 00 00
       0.0 0.0 0.0 0.0
000010 00 00 00 00 00 00 00 00 00 00 00 00 00 00 00 00
       0.0 0.0 0.0 0.0
000020 00 00 00 00 00 00 00 00 00 00 00 00 00 00 00 00
       0.0 0.0 0.0 0.0
000030 00 00 00 00 00 00 00 00 00 00 00 00 00 00 00 00
       0.0 0.0 0.0 0.0
000040 00 00 00 00 00 00 00 00 00 00 00 00 00 00 00 00
       0.0 0.0 0.0 0.0
000050 00 00 00 00 00 00 00 00 00 00 00 00 00 00 00 00
       0.0 0.0 0.0 0.0
000060 00 00 00 00 00 00 00 00 00 00 00 00 00 00 00 00
       0.0 0.0 0.0 0.0
000070 00 00 00 00 00 00 00 00 00 00 00 00 00 00 00 00
       0.0 0.0 0.0 0.0
000080 00 00 00 00 00 00 00 00 00 00 00 00 00 00 00 00
       0.0 0.0 0.0 0.0
000090 00 00 00 00 00 00 00 00 00 00 00 00 00 00 00 00
       0.0 0.0 0.0 0.0
0000a0 00 00 00 00 00 00 00 00 00 00 00 00 00 00 00 00
       0.0 0.0 0.0 0.0
0000b0 00 00 00 00 00 00 00 00 00 00 00 00 00 00 00 00
       0.0 0.0 0.0 0.0
0000c0 00 00 00 00 00 00 00 00 00 00 00 00 00 00 00 00
       0.0 0.0 0.0 0.0
0000d0 00 00 00 00 00 00 00 00 00 00 00 00 00 00 00 00
       0.0 0.0 0.0 0.0
0000e0 00 00 00 00 00 00 00 00 00 00 00 00 00 00 00 00
       0.0 0.0 0.0 0.0
0000f0 00 00 00 00 00 00 00 00 00 00 00 00 00 00 00 00
       0.0 0.0 0.0 0.0
000100 00 00 00 00 00 00 00 00 00 00 00 00 00 00 00 00
       0.0 0.0 0.0 0.0
000110 00 00 00 00 00 00 00 00 00 00 00 00 00 00 00 00
       0.0 0.0 0.0 0.0
000120 00 00 00 00 00 00 00 00 00 00 00 00 00 00 00 00
       0.0 0.0 0.0 0.0
000130 00 00 00 00 00 00 00 00 00 00 00 00 00 00 00 00
       0.0 0.0 0.0 0.0
000140 00 00 00 00 00 00 00 00 00 00 00 00 00 00 00 00
       0.0 0.0 0.0 0.0
000150 00 00 00 00 00 00 00 00 00 00 00 00 00 00 00 00
       0.0 0.0 0.0 0.0
000160 00 00 00 00 00 00 00 00 00 00 00 00 00 00 00 00
       0.0 0.0 0.0 0.0
000170 00 00 00 00 00 00 00 00 00 00 00 00 00 00 00 00
       0.0 0.0 0.0 0.0
000180 00 00 00 00 00 00 00 00 00 00 00 00 00 00 00 00
       0.0 0.0 0.0 0.0
000190 00 00 00 00 00 00 00 00 00 00 00 00 00 00 00 00
       0.0 0.0 0.0 0.0
0001a0 00 00 00 00 00 00 00 00 00 00 00 00 00 00 00 00
       0.0 0.0 0.0 0.0
0001b0 00 00 00 00 00 00 00 00 00 00 00 00 00 00 00 00
       0.0 0.0 0.0 0.0
0001c0 00 00 00 00 00 00 00 00 00 00 00 00 00 00 00 00
       0.0 0.0 0.0 0.0
0001d0 00 00 00 00 00 00 00 00 00 00 00 00 00 00 00 00
       0.0 0.0 0.0 0.0
0001e0 00 00 00 00 00 00 00 00 00 00 00 00 00 00 00 00
       0.0 0.0 0.0 0.0
0001f0 00 00 00 00 00 00 00 00 00 00 00 00 00 00 00 00
       0.0 0.0 0.0 0.0
000200 00 00 00 00 00 00 00 00 00 00 00 00 00 00 00 00
       0.0 0.0 0.0 0.0
000210 00 00 00 00 00 00 00 00 00 00 00 00 00 00 00 00
       0.0 0.0 0.0 0.0
000220 00 00 00 00 00 00 00 00 00 00 00 00 00 00 00 00
       0.0 0.0 0.0 0.0
000230 00 00 00 00 00 00 00 00 00 00 00 00 00 00 00 00
       0.0 0.0 0.0 0.0
000240 00 00 00 00 00 00 00 00 00 00 00 00 00 00 00 00
       0.0 0.0 0.0 0.0
000250 00 00 00 00 00 00 00 00 00 00 00 00 00 00 00 00
       0.0 0.0 0.0 0.0
000260 00 00 00 00 00 00 00 00 00 00 00 00 00 00 00 00
       0.0 0.0 0.0 0.0
000270 00 00 00 00 00 00 00 00 00 00 00 00 00 00 00 00
       0.0 0.0 0.0 0.0
000280 00 00 00 00 00 00 00 00 00 00 00 00 00 00 00 00
       0.0 0.0 0.0 0.0
000290 00 00 00 00 00 00 00 00 00 00 00 00 00 00 00 00
       0.0 0.0 0.0 0.0
0002a0 00 00 00 00 00 00 00 00 00 00 00 00 00 00 00 00
       0.0 0.0 0.0 0.0
0002b0 00 00 00 00 00 00 00 00 00 00 00 00 00 00 00 00
       0.0 0.0 0.0 0.0
0002c0 00 00 00 00 00 00 00 00 00 00 00 00 00 00 00 00
       0.0 0.0 0.0 0.0
0002d0 00 00 00 00 00 00 00 00 00 00 00 00 00 00 00 00
       0.0 0.0 0.0 0.0
0002e0 00 00 00 00 00 00 00 00 00 00 00 00 00 00 00 00
       0.0 0.0 0.0 0.0
0002f0 00 00 00 00 00 00 00 00 00 00 00 00 00 00 00 00
       0.0 0.0 0.0 0.0
000300 00 00 00 00 00 00 00 00 00 00 00 00 00 00 00 00
       0.0 0.0 0.0 0.0
000310 00 00 00 00 00 00 00 00 00 00 00 00 00 00 00 00
       0.0 0.0 0.0 0.0
000320 00 00 00 00 00 00 00 00 00 00 00 00 00 00 00 00
       0.0 0.0 0.0 0.0
000330 00 00 00 00 00 00 00 00 00 00 00 00 00 00 00 00
       0.0 0.0 0.0 0.0
000340 00 00 00 00 00 00 00 00 00 00 00 00 00 00 00 00
       0.0 0.0 0.0 0.0
000350 00 00 00 00 00 00 00 00 00 00 00 00 00 00 00 00
       0.0 0.0 0.0 0.0
000360 00 00 00 00 00 00 00 00 00 00 00 00 00 00 00 00
       0.0 0.0 0.0 0.0
000370 00 00 00 00 00 00 00 00 00 00 00 00 00 00 00 00
       0.0 0.0 0.0 0.0
000380 00 00 00 00 00 00 00 00 00 00 00 00 00 00 00 00
       0.0 0.0 0.0 0.0
000390 00 00 00 00 00 00 00 00 00 00 00 00 00 00 00 00
       0.0 0.0 0.0 0.0
0003a0 00 00 00 00 00 00 00 00 00 00 00 00 00 00 00 00
       0.0 0.0 0.0 0.0
0003b0 00 00 00 00 00 00 00 00 00 00 00 00 00 00 00 00
       0.0 0.0 0.0 0.0
0003c0 00 00 00 00 00 00 00 00 00 00 00 00 00 00 00 00
       0.0 0.0 0.0 0.0
0003d0 00 00 00 00 00 00 00 00 00 00 00 00 00 00 00 00
       0.0 0.0 0.0 0.0
0003e0 00 00 00 00 00 00 00 00 00 00 00 00 00 00 00 00
       0.0 0.0 0.0 0.0
0003f0 00 00 00 00 00 00 00 00 00 00 00 00 00 00 00 00
       0.0 0.0 0.0 0.0

transformer_encoder.layers.0.self_attn.out_proj.weight f4 [128, 128]
000000 bf bc 13 bd 3a 73 d7 bd 78 21 bf b8 85 d7 5d 3d
       -0.036068674 -0.105200246 -9.113824e-05 0.054160614
000010 11 59 c0 bd 59 84 f0 3b ee 55 be 3c 4b 1a 48 3d
       -0.09391988 0.007339996 0.023234334 0.0488532
000020 b1 a6 fb bc 47 3e ac bd ca 06 a1 3d 7a 61 98 bd
       -0.030719133 -0.08410316 0.07862623 -0.07440467
000030 17 14 a7 bc be 93 16 3c ba 3a 5d 3d 27 13 3b 3d
       -0.020395322 0.009190498 0.054011084 0.045672562
000040 64 30 97 3d c0 fd 82 3d 01 62 3e bd cb fe b9 bc
       0.07382277 0.06396055 -0.046480183 -0.022704503
000050 c6 6c db 3c 43 24 b8 3c 08 64 40 bd 45 c2 04 3c
       0.026785266 0.022478228 -0.046970397 0.008102958
000060 34 a1 f1 3c 81 36 94 3d e4 23 d3 3c 10 5c 01 bd
       0.029495813 0.07236958 0.02577395 -0.03158194
000070 56 56 9e 3d 45 45 1d 3c 5e 3d 65 bd d7 7d 13 bc
       0.07731311 0.009599035 -0.055966727 -0.0090021705
000080 15 23 24 bd 07 2c 85 3c 87 6b bb 3d d6 fb 2d bd
       -0.04007252 0.016256345 0.091513686 -0.042476498
000090 52 f8 70 3d 88 50 43 3d 76 29 18 bd 4a f3 05 bb
       0.058830567 0.047684222 -0.037148915 -0.00204392
0000a0 b0 bd 2d bc a0 d3 d1 bc cf 7c 3f bd ee 8e d6 bc
       -0.010604307 -0.025613606 -0.046749886 -0.026191201
0000b0 13 29 1d bd 6b 00 9d 3d 14 c2 7a bd a5 bd ac bc
       -0.03836925 0.07666095 -0.061220244 -0.021086523
0000c0 67 18 44 3d 4d 64 11 3b 39 ec 33 3d b5 fb 39 38
       0.047874834 0.0022185028 0.04392645 4.4341858e-05
0000d0 35 d6 fc 3c f5 d2 57 3d 78 c0 e2 bc a9 e4 4b bd
       0.03086386 0.05269142 -0.027679667 -0.049778614
0000e0 93 56 cd 3c 7e 02 c2 3c c4 f9 06 bd cc 49 e9 bb
       0.025065696 0.023682829 -0.03295304 -0.007119393
0000f0 21 3b e7 bc 82 de 48 3d 27 50 f9 3c bb da 0d bd
       -0.028226437 0.049040325 0.030433727 -0.034632426
000100 04 73 6b bd 1e 81 9e 3d 8a 68 c0 bb 4d 8e 91 bb
       -0.057482734 0.07739471 -0.005871837 -0.0044420124
000110 56 86 6f bd bd d9 6a bd 33 d8 36 bd c3 7f 7c 3c
       -0.058477722 -0.057336558 -0.044639777 0.01541132
000120 1c 01 b9 bc 8d 6d d8 bb 64 e2 fd 3c 7f 34 25 bd
       -0.022583537 -0.0066048563 0.03099174 -0.040333267
000130 e8 34 f5 bc 78 ac 8f bd 51 a3 4c bc 7f 68 98 bd
       -0.029932454 -0.07015318 -0.01249011 -0.07441806
000140 db 83 99 bb e7 7d 36 bd 4e 83 19 3d a8 45 78 bb
       -0.004684908 -0.044553664 0.037478738 -0.0037883315
000150 da 8d c2 3d bc 75 71 bd f8 d0 8b 3b f1 21 80 bd
       0.09499712 -0.05895017 0.0042668544 -0.06256474
000160 fe ec c8 bd f8 6c 22 bc 63 72 b6 3d 9b 47 80 3b
       -0.09810828 -0.0099136755 0.08908536 0.003914786
000170 e2 46 d8 3c 81 eb c8 3c 30 8a 89 bc 3b 4e 5a bd
       0.026400987 0.02452636 -0.016789526 -0.053297263
000180 6a c1 7c bc 9c 8c 1f bd 06 00 31 3c 12 48 b6 3c
       -0.015426973 -0.038952455 0.010803228 0.022251163
000190 cd be 1b bc 1a aa cd 3b 79 3b 48 bd 3e a9 4e bc
       -0.00950594 0.006276381 -0.048884843 -0.012613593
0001a0 58 92 bd 3c a0 f0 a6 3d 94 95 43 3d 3b cb 78 bd
       0.023141071 0.08151364 0.04775007 -0.06074069
0001b0 49 6d 21 3d 0a 4e 15 3c 15 5f c8 bc b9 cc a2 bb
       0.039410863 0.009112844 -0.024459401 -0.0049682525
0001c0 95 81 39 3d eb 7d 4a bd 50 27 c4 3d 0f f5 1f bd
       0.045289595 -0.04943649 0.09577811 -0.039052065
0001d0 d6 f7 ca 3a 7f e7 0a bc 7c 46 35 bd 08 df 3d bd
       0.0015485238 -0.0084780445 -0.044256672 -0.046355277
0001e0 65 06 8e bd c3 4a a9 3d 0b f4 89 3c 2e c2 9b 3c
       -0.069348134 0.08266213 0.016840002 0.01901349
0001f0 b7 dc a8 bd ba 61 ea bb 64 a7 8e bd c8 bd 5f 3d
       -0.08245223 -0.007152763 -0.06965521 0.05462435
000200 9c d3 8a 3d 26 e6 89 bd d5 2e 0a 3d 1b 14 0f 3c
       0.067786425 -0.067333505 0.03373607 0.008732821
000210 bc 8a 93 bc 30 1d b1 3d 11 e3 af bd e1 99 71 bd
       -0.01801049 0.08648145 -0.08588231 -0.05898464
000220 a1 ed c7 3c ca bb cd bc b6 13 80 3c f7 82 f8 3c
       0.024405302 -0.025113959 0.015634399 0.030335886
000230 41 c6 c2 3c d8 8d 76 bc 38 f3 72 bc ba b4 8a bd
       0.023776175 -0.015048467 -0.014828496 -0.06772752
000240 dd e7 4d bd a0 26 0e 3d 7b 44 62 bd 70 b2 91 bd
       -0.05026995 0.034704804 -0.05524109 -0.071141124
000250 88 45 83 bd f6 9f c5 3d 5f e7 09 3b 17 33 ca 3c
       -0.064097464 0.09649651 0.002104245 0.024682565
000260 b7 9b 32 3d ee ca b0 bd 04 45 93 bc 0b 6f bb bc
       0.043605532 -0.08632456 -0.017977245 -0.022880098
000270 19 cc 65 bc eb 64 72 3d 22 b9 9f 3d a1 03 05 3d
       -0.014025711 0.059178274 0.07798983 0.032474164
000280 ca ce 83 bc ca 9e cc 3d d4 7e 5c bd ea 0f 55 3d
       -0.016089816 0.09991224 -0.05383189 0.05201713
000290 d3 d8 de bd 3e e9 ad 3d 51 b9 1e 3d 03 9c 2f 3d
       -0.108812 0.08491753 0.03875095 0.042873394
0002a0 5e 2e 8d bc f5 fc 15 3d c1 7d 85 3d f4 b2 d4 ba
       -0.017234024 0.03661819 0.06518126 -0.0016227649
0002b0 fd 50 59 bd 61 b8 9c 3d 1d ea 14 ba de 2c 64 bd
       -0.053055752 0.07652355 -0.00056806376 -0.05570685
0002c0 7f cf 89 bd 5c 0e 14 3d f3 b3 cd bc f6 fa 86 3b
       -0.0672903 0.036146507 -0.02511022 0.0041192723
0002d0 94 2e 51 bc 96 5d a8 bd e5 0d 1f bd 7d 66 bc 3d
       -0.012767453 -0.08220975 -0.03883161 0.091992356
0002e0 31 97 6d 3d e6 76 37 bd 73 a9 40 bd 4a f9 dc 3d
       0.058005515 -0.044791125 -0.0470366 0.107897356
0002f0 51 a6 6b bd 61 07 fa 3b cc c2 23 3d 1c 7c 2a bc
       -0.05753166 0.007630274 0.039980695 -0.010405567
000300 16 00 b9 bd 14 3b 02 3d 6b ca 7b 3d 5c 5f 53 3c
       -0.090332195 0.031794623 0.061472338 0.012901153
000310 29 e2 86 bc 91 79 09 bd 22 30 13 3c dd 07 80 3d
       -0.016465263 -0.0335632 0.008983644 0.062515
000320 1e 7e 52 3c 3b ab 1d bd 1d bc 83 3d c5 0f 89 3d
       0.0128474515 -0.038493376 0.06432364 0.06692461
000330 86 af 95 bc 7b 7d 81 bd 9a c6 df 3b 97 5c 2a 3c
       -0.018272173 -0.063227616 0.006829095 0.010398052
000340 a6 8a 06 3d 45 10 18 3d 23 27 7a 3d bb 3f 80 bc
       0.03284707 0.03712489 0.06107248 -0.015655389
000350 21 a2 af bc de b2 e2 bc 4d 00 2f 3d 73 1c 9e 3c
       -0.021439614 -0.027673181 0.042724896 0.019300675
000360 c7 70 d4 bd 7f 98 9f bb 1a 60 43 3c 44 14 23 bc
       -0.10373073 -0.004870474 0.011924768 -0.009953562
000370 42 fe d9 bd 95 d1 1d bd fa b5 6c bb 58 f6 d8 bd
       -0.10644199 -0.03852995 -0.0036119209 -0.10593861
000380 58 d3 9c bd 73 8d 5b bd be bc 47 3d bc 5d 35 3c
       -0.07657498 -0.053601693 0.048763983 0.011069711
000390 35 4a 7c 3c e3 db 48 3d 3e 0d db bd 9d d4 61 bd
       0.015398552 0.049037825 -0.10695885 -0.055134404
0003a0 5d ac 70 3c 98 a9 ef 3d c2 38 05 3d 3a b7 8a 3d
       0.014689532 0.11702269 0.03252483 0.06773229
0003b0 2e 4a 47 3d b8 62 74 3c f0 d7 32 bc b7 46 00 be
       0.048654728 0.0149161145 -0.010915741 -0.12526976
0003c0 53 94 36 3c 90 b5 4b 3d f6 cb 47 3d 87 ad 20 3b
       0.011143762 0.0497337 0.048778497 0.0024517493
0003d0 3f fe 02 bd 5d 1d 1c 3d 42 bb 43 3d 07 f5 83 bd
       -0.03198075 0.03811394 0.047786005 -0.0644322
0003e0 c3 81 28 3d b1 96 0a 3d 8e 50 ee 3b 18 f7 46 3d
       0.041139375 0.033835117 0.0072727865 0.04857549
0003f0 c5 4a f8 bc d7 8f b3 bd 46 cc 4e 3d 6e 17 53 3d
       -0.03030909 -0.0876767 0.05048778 0.051536016

transformer_encoder.layers.0.self_attn.out_proj.bias f4 [128]
000000 a4 bb f1 3c 9b f9 98 3c ea 40 58 bd e3 b6 d1 3b
       0.02950842 0.018673709 -0.052796282 0.0063999756
000010 d8 03 0a bb 9a 45 40 3d ba 30 d3 3b 3d d5 c6 3b
       -0.002105942 0.046941377 0.0064450176 0.0060679005
000020 44 a5 1b 3c 71 79 88 bc 92 ab 95 3c bd 40 b5 3b
       0.009499852 -0.01665947 0.018270288 0.005531399
000030 4f ba 2e 3b 30 ff ae bb 22 cc 3b 3c 0e 67 04 bc
       0.0026661342 -0.0053404793 0.011462243 -0.008081211
000040 9c c6 f4 3a c8 63 94 bc 2e 8b b3 3a 37 65 73 3c
       0.0018674913 -0.018113986 0.0013698095 0.0148556745
000050 14 63 7c bc 03 0f 52 3c 20 20 ee 3b 2a 49 81 3b
       -0.015404481 0.012820962 0.007267013 0.0039454894
000060 72 28 42 bc 73 38 65 bd 08 f7 ea 3b fd 90 cd 3c
       -0.011850463 -0.055962037 0.0071705617 0.02509355
000070 05 38 ee bc 63 88 98 bc 7c ac 8e bc d5 7e 09 bc
       -0.029079447 -0.018619722 -0.017416231 -0.0083920555
000080 82 a2 04 3c 40 78 03 bb 17 ee 19 bc 17 33 6b bc
       0.0080953855 -0.0020060688 -0.009395144 -0.0143554425
000090 24 73 3d bc 38 9d 93 3b 69 6c 70 3b 81 a9 82 3c
       -0.011563096 0.004504826 0.0036685711 0.015949966
0000a0 e6 9f 11 bc ac 61 d1 3c 08 03 2e bb 6c a4 64 3a
       -0.00888822 0.025559269 -0.00265521 0.00087220105
0000b0 65 ec 07 3d f1 a0 92 3c b6 78 50 bc bb 6d 52 3b
       0.033184428 0.017899008 -0.012724092 0.0032108861
0000c0 0a e5 3e bb 5d e1 f8 bb b7 6b 7f bc a6 21 40 3b
       -0.0029128217 -0.007595225 -0.015589646 0.002931693
0000d0 cd b5 b4 3c da 5c 47 bc bd d6 17 3d b9 d7 d9 3a
       0.022059346 -0.012168134 0.037070025 0.0016620076
0000e0 ff 73 cf bb a0 31 78 3c 9c d7 a3 bc fe 24 69 ba
       -0.0063309665 0.01514855 -0.020000271 -0.0008893757
0000f0 a4 26 2d bc 1e be ed bc 12 a8 01 3c 7c 55 1b 39
       -0.010568295 -0.029021319 0.007913606 0.00014813797
000100 f6 e2 50 bc e3 08 86 3c ab 44 25 3c 51 f2 ae 3b
       -0.012749424 0.01636166 0.0100871725 0.005338945
000110 51 8e 0d 3c 7f 96 a6 bc 0b d6 c1 bc 00 00 ca 3b
       0.008639888 -0.020335434 -0.023661634 0.006164551
000120 79 c5 04 b9 8d e5 4b bc d0 c9 49 3c a5 d6 09 bb
       -0.00012662065 -0.012444866 0.012316182 -0.002103248
000130 67 9d c2 bc c3 7f 6c bc de d1 05 bc 15 a9 15 bd
       -0.023756696 -0.014434758 -0.008167712 -0.036538202
000140 e8 0b f1 3c 5a df 26 bc ab f9 6e 3c 82 58 d6 3c
       0.029424623 -0.010185087 0.014585893 0.02616525
000150 e7 a8 5d ba 74 86 a9 bc a7 4c 4f bb 81 30 a2 3a
       -0.00084556494 -0.020693995 -0.0031631382 0.0012374074
000160 fb e6 d3 3c 32 85 ba 3a 04 43 91 bc 1b c4 b7 bc
       0.025866976 0.0014230369 -0.01773215 -0.022432378
000170 38 bc c8 3c c6 e3 f3 3b f2 dc 0a bd eb 46 2f 3c
       0.024503812 0.007442924 -0.033902116 0.0106980605
000180 58 b7 23 3b e1 ec 78 bc 00 3f ba b4 3d 23 4d 3c
       0.0024981108 -0.015193195 -3.4691038e-07 0.0125206085
000190 2a ba ef bb e1 94 82 3b 04 ba a5 bc 30 7a 19 3b
       -0.0073158937 0.003985033 -0.0202303 0.0023418777
0001a0 e7 05 29 bc 3d 08 0d bc bd 12 1e 3b aa a4 8d 3c
       -0.010316349 -0.008607921 0.0024120056 0.017290432
0001b0 e7 30 0e 3b da 08 d1 3c a9 be 92 3c e9 2f cc bb
       0.0021696629 0.025516916 0.01791318 -0.0062312973
0001c0 6c 9e 67 3b 30 8b 71 bc 94 4f 3f 3c a6 37 98 bc
       0.003534223 -0.014742658 0.011676688 -0.018581223
0001d0 d9 87 40 bc ed 3f f6 bc 5a 7a 41 bc 6a 59 fe 3c
       -0.011751139 -0.030059779 -0.011808956 0.031048495
0001e0 21 0c f7 3c 7a 25 95 bc 03 af da bc ab 42 c6 bb
       0.03015715 -0.018206347 -0.02669478 -0.006050428
0001f0 43 ba c6 bb e5 ae b8 3c 73 61 d5 bc 66 18 6d 3c
       -0.0060646846 0.022544334 -0.026047444 0.014471149

transformer_encoder.layers.0.linear1.weight f4 [128, 128]
000000 2e e1 04 be 63 f3 d4 3c bf 64 cd bd 3d aa cb bc
       -0.12976524 0.025994962 -0.100289814 -0.02486145
000010 42 a2 78 bd 0b 83 43 bb 9b 71 87 3d 10 c0 7c bc
       -0.060701616 -0.0029832746 0.066134654 -0.015426651
000020 82 89 58 3d d6 7b 35 3d ed 3c ea 3c 0d b2 a4 ba
       0.052865513 0.044307552 0.028593505 -0.001256527
000030 08 f9 69 3d 48 7f 08 3e 55 a9 97 bd c1 52 ee bd
       0.05712226 0.13329804 -0.074053444 -0.11636878
000040 c2 c7 81 3d ff 83 65 bc f7 d4 e6 bd d0 c1 ee bd
       0.06336929 -0.014008521 -0.112710886 -0.116580606
000050 e5 db 85 3d 88 22 07 be d1 ee 29 be 4d 0e c3 3d
       0.06536082 -0.13196766 -0.16595007 0.09524212
000060 65 39 9a 3d d2 9c 88 3c bf e1 ee bc 4a 28 b3 3d
       0.075304784 0.01667634 -0.029160379 0.08747919
000070 30 32 ed 3d 09 fc e2 3c 6b 05 e8 3c 65 38 c5 bd
       0.11581838 0.02770807 0.028322896 -0.09629897
000080 18 20 b8 3d b8 dc 3e bc 88 9e 08 3e 8b b8 ef 3d
       0.089904964 -0.011649303 0.13341725 0.11705121
000090 84 a3 99 3c 6f 06 bb 3c 1f c0 df bc 78 70 3c bb
       0.018754728 0.022830216 -0.02731329 -0.002875356
0000a0 10 05 c9 3c 22 95 c3 3d d3 56 0d bd dd 23 70 3d
       0.024538547 0.09549929 -0.03450663 0.058627952
0000b0 5e a1 77 bd f0 4b 89 3c 35 86 92 bd 86 ca f5 bd
       -0.060456626 0.016759843 -0.07154504 -0.12001519
0000c0 52 0f 90 bd 99 aa a5 bc 59 4b 0e 3d 24 7a 3b 3d
       -0.07034172 -0.020222949 0.034739826 0.04577078
0000d0 64 9b c3 3c 6a 7c 0a bd 2f ca 10 bd 5c 97 c0 bd
       0.023877807 -0.033810057 -0.035349067 -0.094038695
0000e0 1d 56 11 bc 59 ca e0 3c 05 04 26 3d 80 53 3f bd
       -0.008870629 0.027440237 0.040531177 -0.04671049
0000f0 b4 8f 71 bd 5d 9a 99 3d df d9 d7 3c 64 df 71 b9
       -0.058974937 0.075001456 0.026349006 -0.0002306677
000100 f4 ba 3d bd 8b 4d 3d 3d cf 3f 09 be 93 43 a2 bb
       -0.04632087 0.04621653 -0.13403247 -0.004951903
000110 37 48 61 bd 1b 3b ce 3d e9 5a 2d 3d b1 60 c9 bd
       -0.05500051 0.10069867 0.042323027 -0.098328955
000120 5d b1 18 3d 83 5b 08 bd bc 45 b4 3d f8 69 42 bc
       0.03727852 -0.033290397 0.08802363 -0.011866085
000130 2f c5 89 bc 19 6c 22 3d eb d1 89 3d e0 41 22 3e
       -0.016817657 0.03965387 0.06729492 0.15845442
000140 90 62 8f bb 58 9c 35 3d bc 74 4c 3d 94 f9 44 3d
       -0.0043757632 0.044338554 0.049916014 0.04808958
000150 a3 8e 99 3d aa 6d 9d bd 98 3b a1 bd 89 9a 05 3d
       0.07497909 -0.076869324 -0.07872695 0.03261808
000160 74 7a c9 bd f9 46 78 3d a1 73 cf 3c 75 25 2b 3e
       -0.09837809 0.06061456 0.02532369 0.16713507
000170 64 e4 d0 3d 2e bc 80 3c 43 3b a6 3d 99 9c e0 3d
       0.10199812 0.015714731 0.08116772 0.10967369
000180 7c df 40 3d 3c c9 13 3e f8 92 03 bd 02 de 55 3c
       0.04708813 0.14432234 -0.032122582 0.013053419
000190 d0 82 b8 3c ad c9 1b bd ea 08 36 bc 30 99 57 3c
       0.022523314 -0.03803413 -0.011110524 0.013159081
0001a0 c3 4b 70 bd df 8c 6e 3d d9 bf 22 3b b2 f5 67 bd
       -0.058666002 0.058239814 0.0024833588 -0.056630798
0001b0 9e 53 03 bc a4 0b 51 3d 6f 5d 81 bd a4 46 30 bd
       -0.008015541 0.051036492 -0.06316649 -0.04303612
0001c0 ad c7 04 be e2 7b 38 3d 94 a8 45 3b 7f 08 44 3d
       -0.12966795 0.04504002 0.0030160295 0.047859665
0001d0 b3 5f 00 be 0c 8f 9f bd 8e 01 d3 3c 66 40 2f bd
       -0.12536506 -0.07790956 0.025757577 -0.042786025
0001e0 b0 9d 5c 3c 83 89 fb 3c 14 9d 7d 3d f2 d6 4f bd
       0.01346533 0.03070522 0.06191738 -0.050742097
0001f0 b2 27 93 3b f1 03 4e bc 12 42 cd 3d 1b fd e4 bd
       0.004490816 -0.012574182 0.100223675 -0.111810885
000200 83 a9 5d bd 0f aa 57 3c 92 61 a0 bd 35 04 81 3c
       -0.054116737 0.013163104 -0.0783111 0.015749076
000210 f6 72 43 bd 7d 2b 80 bc 44 7a ef 3c d2 fb 7c bd
       -0.047717057 -0.015645737 0.029233105 -0.061763592
000220 78 b9 10 bd 40 32 69 3c 8d 87 ef 3d 6d 4e 21 3e
       -0.035333127 0.014233172 0.11695776 0.15752573
000230 f8 3e 63 bd 46 70 26 bd 13 c6 10 bd f8 91 0c bd
       -0.055479974 -0.040634416 -0.03534515 -0.034318894
000240 39 00 35 bd 00 7b 5b 3d 63 8c 8a bc c2 83 34 bc
       -0.044189665 0.0535841 -0.016912645 -0.011017742
000250 ce e9 44 3d 14 d9 31 3c 4d 0e be bb e9 d5 a4 bd
       0.048074536 0.010854978 -0.0058000446 -0.080486126
000260 04 64 68 bc 3d 2d b5 3d 29 f2 6e bc 7b ff 98 3d
       -0.014184002 0.08846519 -0.014584103 0.07470604
000270 dc 3c e7 3d 55 f7 43 3d 98 f7 bf 3d 0f 29 26 bd
       0.11290905 0.047843296 0.09373397 -0.0405665
000280 ee 43 09 bd 79 4c 2b 3d 23 f3 a4 3d 01 8e 9e 3d
       -0.03351205 0.041820977 0.08054187 0.07741929
000290 f1 87 4c 3d ff 9d bc bc ec 0a bc 3d d2 93 13 bd
       0.04993433 -0.023024557 0.09181771 -0.036029644
0002a0 e2 aa 0f be 9c 03 4e bd 2a 3e 55 3c e6 3b a2 3c
       -0.1403003 -0.05029641 0.013015309 0.019803952
0002b0 b0 98 59 3d f4 92 8c bd 57 80 e0 3d a2 f2 44 3d
       0.05312413 -0.068639666 0.10961979 0.048082955
0002c0 ed a5 b8 bc 43 85 c1 3d e0 00 2c bd 21 e5 77 bd
       -0.022540057 0.09449246 -0.041993022 -0.06052125
0002d0 c0 92 6c bc 54 a7 69 3c d6 f7 ef 39 d7 bd b6 3c
       -0.014439285 0.014261086 0.00045770284 0.02230732
0002e0 41 0d ae bd 78 2f c4 3d 4b 36 a6 bd b4 5d 8c bc
       -0.08498622 0.095793664 -0.08115824 -0.017134525
0002f0 6d f9 62 bd 59 c1 29 3d 50 9d 6d bb fa 4c 04 3c
       -0.055413652 0.041444156 -0.0036257096 0.008074993
000300 b2 bd f7 bc 3f fd 47 3b d9 72 6f 3d 7c 13 57 bd
       -0.030241821 0.0030515937 0.058459137 -0.052508816
000310 cb 4f ea 3d a4 aa 04 bd 1a a9 94 3a 0a 14 a1 bd
       0.114410006 -0.032389298 0.00113419 -0.0786515
000320 dd a1 b8 bc 1f ab d8 bc 9a f2 53 bd 34 58 4a bd
       -0.02253812 -0.026448784 -0.051745035 -0.049400523
000330 83 5e 9a 3d 50 0b ae 3d 48 c6 f8 3c 83 f0 3e bd
       0.07537558 0.084982514 0.030367985 -0.04661609
000340 be d2 5f bd f6 57 a2 bd c6 cc 55 bd 6c 10 13 3c
       -0.05464434 -0.079269335 -0.05219724 0.008976083
000350 bd 21 e3 3d 43 a0 b6 3d c3 b1 75 bd cc e9 08 bd
       0.110904194 0.08917286 -0.05998398 -0.03342609
000360 5d 99 cd bb 55 03 e5 bc ff e5 a0 3b bf 4c 27 3d
       -0.006274386 -0.02795569 0.00491023 0.040844675
000370 1c ea 8c 3c 74 11 c9 bd ee 87 0c bd 8b 6b c7 bd
       0.017201476 -0.09817782 -0.03430932 -0.09737309
000380 7e ee 3c 3d d0 c2 1a 3c 8d a0 ac bd 9e f3 00 be
       0.04612588 0.009445861 -0.0842906 -0.12592933
000390 c9 55 bf 3d 6d 0c c4 bd c5 d7 16 3d 39 3c 0c bd
       0.09342534 -0.095726825 0.036826868 -0.03423712
0003a0 09 b7 12 3c 6e 23 ad bd 20 41 22 3d 51 ad ae bc
       0.008954772 -0.08454023 0.03961289 -0.021322878
0003b0 24 24 8d bc 55 54 21 3d 42 7f 33 3d 29 fd f0 3c
       -0.017229147 0.039387066 0.043822534 0.029417591
0003c0 ac ba c2 bc a8 a4 e8 bb 3c 9a 17 3e 41 8d 4e bd
       -0.023770653 -0.0070997067 0.1480493 -0.05042768
0003d0 d4 49 8c bd 2d 83 99 3c 08 3e 6a bc b5 66 05 3d
       -0.06850019 0.018739307 -0.014297016 0.032568652
0003e0 0e ee 8e bd ec ec 5a 3d ac 8b 92 bd 40 4e 0b 3e
       -0.06978999 0.053448603 -0.071555465 0.13604069
0003f0 ea 33 6b 3c ae 26 e8 bc 63 2c 8b bd a3 6b ff bc
       0.014355639 -0.028338756 -0.067955755 -0.031179255

transformer_encoder.layers.0.linear1.bias f4 [128]
000000 65 66 25 bd 8f 3f 47 bd 14 2d 9c bc f2 49 d0 bd
       -0.040380854 -0.0486446 -0.019064464 -0.10170354
000010 20 4d f7 3b 77 c0 ce bd 01 c5 be bc 5b af bd bd
       0.007547036 -0.100953035 -0.023287298 -0.09261962
000020 dc 76 37 bd 89 91 86 3c 56 62 c6 bd 90 9e 64 bd
       -0.044791088 0.016426818 -0.09686725 -0.05581528
000030 1a 76 34 3c 39 cc b8 bd 9c b0 82 bb 7d 4f e3 3c
       0.011014486 -0.090233274 -0.0039883386 0.027747864
000040 22 c0 ef bc 24 59 2d 3d 6d 4f b9 bb f8 3b a7 bd
       -0.02926642 0.04232134 -0.0056552202 -0.08165735
000050 17 09 7c bb 0b a8 b4 bd 13 48 f9 bb d7 6b 93 bd
       -0.0038457566 -0.08821114 -0.007607469 -0.07198303
000060 31 70 d2 3c 34 1b 72 bd e9 2a df 3c fa 1b ee bd
       0.025688263 -0.059107974 0.02724214 -0.1162643
000070 85 5c 62 bd b9 be 7b bd 62 5f 1f be 87 b3 94 bc
       -0.055264015 -0.061461184 -0.1556373 -0.018152012
000080 86 ba 34 bc 51 25 f0 bb 6d 95 db bd 8c 65 67 bd
       -0.011030799 -0.007328667 -0.1072186 -0.056493327
000090 71 09 cd 3c 24 45 89 bd 42 6f 9c bc 8a f4 da bd
       0.025028916 -0.06702641 -0.01909602 -0.106911734
0000a0 8c b2 12 be 0b d3 04 bd 5c 14 63 bb 44 98 d4 bd
       -0.14325923 -0.03242783 -0.0034649586 -0.10380605
0000b0 31 dd bc 3c d3 4b 27 bd 6a a4 4f bd 02 4b 8a bc
       0.023054691 -0.040843796 -0.050693907 -0.01688147
0000c0 57 73 2d 3d 91 ff 02 3d 58 21 a4 bc 0f 81 13 bc
       0.042346325 0.03198201 -0.02003543 -0.009002938
0000d0 57 2e 8b bd 73 f3 f8 bc 85 5d 65 3d e5 f4 f9 3b
       -0.06795948 -0.030389523 0.05599739 0.0076280707
0000e0 29 6a 9f bd 2f 7d 59 3c 78 c9 1f bc 4d a8 22 bd
       -0.0778392 0.013274475 -0.009752624 -0.039711285
0000f0 20 eb 84 3d 7e 1d 6b 3d 6a e4 24 3d 7f 20 46 ba
       0.06490159 0.057401173 0.040256895 -0.0007557943
000100 4c 90 bf 3d 86 9a cf 3a 77 3a 3b 3d 34 29 db bc
       0.09353694 0.0015838898 0.045710053 -0.026753046
000110 b3 65 db bd 70 d0 dc bc 4b e4 a7 bd 7f f4 9e bd
       -0.10712757 -0.02695486 -0.0819784 -0.07761478
000120 68 0c 70 3b 7e 29 a1 bd 7f c8 cd bd e1 02 e1 bd
       0.0036628488 -0.07869242 -0.10048007 -0.10986877
000130 31 c6 06 3d b1 98 8f bd 0e 1f ba 3d 71 e8 2e bc
       0.032903854 -0.070115454 0.090879545 -0.010675536
000140 8d ef 19 bd d6 62 bb bd db d7 d6 bd ad 36 6a 3d
       -0.03758197 -0.09149711 -0.1049039 0.05718105
000150 70 18 c7 bd 55 b5 ba bd 4c 3b 5a 3d b6 1c 1a 3d
       -0.09721458 -0.091166176 0.053279206 0.037625037
000160 b6 9a 2f bd a2 b2 59 bd b9 5c 3d 3b 8f a9 2a ba
       -0.042872153 -0.053148873 0.0028894378 -0.00065102516
000170 32 b5 27 bc c5 e0 03 be 48 9b eb bd 30 f5 30 bc
       -0.010236071 -0.12878712 -0.11504227 -0.010800645
000180 0b 71 b9 3c 69 4e 7e 3d 56 a1 eb bc 84 59 0c 3d
       0.02263691 0.062086497 -0.028763454 0.034265056
000190 91 b8 7a 3d 1c e7 cc bd 86 9a 4f bd fe dc ed bd
       0.061211172 -0.10005018 -0.050684474 -0.116144165
0001a0 47 d8 e1 bd e8 7e 01 bd cf e0 e6 bc 02 17 5f bc
       -0.1102758 -0.031615168 -0.028183369 -0.013616325
0001b0 60 a8 b0 3d 5e ad 74 bc e7 a9 ab bd a3 88 03 3d
       0.08625865 -0.014933912 -0.08382016 0.03211273
0001c0 ce ac ed bd d0 46 90 bc c7 b7 7b 3d 0e 06 8a bd
       -0.116052255 -0.017611891 0.06145456 -0.06739436
0001d0 89 af 8d bd 8d 2d 51 bd 41 87 18 bd a2 21 e9 bd
       -0.06918246 -0.05106883 -0.037238363 -0.11383368
0001e0 6b f0 b4 bd de c5 8b 3d 89 18 90 3c 18 67 d8 bc
       -0.088349186 0.068248495 0.017589824 -0.026416346
0001f0 f8 95 37 3d 71 f5 0f bd c5 b3 b0 3c 3c 43 b1 bb
       0.044820756 -0.03514618 0.021570096 -0.0054096263
