tuning_temporal_transformer_encoder/transformer_encoder_model_fold_1.pth (torch, 816034 bytes, 28 tensors)

embedding.weight f4 [128, 13]
0	0xbda7d1c4	-0.081943065
1	0x3e6a44b2	0.22877768
2	0x3e178ed8	0.14800584
3	0xbd3f701f	-0.046737786
4	0xbdfa8f51	-0.12234367
5	0x3dc3b853	0.095566414
6	0xbe939309	-0.28823116
7	0x3df4a9d3	0.11946454
8	0x3e1dd90a	0.15414825
9	0xbddbcad4	-0.10732046
10	0xbd54e6b6	-0.051977836
11	0xbe7931b8	-0.24335372
12	0xbe3af1a2	-0.18256238
13	0xbd44a649	-0.048010144
14	0xbdb55b9b	-0.08855363
15	0x3e7ec371	0.24879242
16	0x3e3ab6e6	0.18233833
17	0x3e6cf024	0.23138481
18	0xbe55aac3	-0.20865922
19	0x3ea584ac	0.32327783
20	0xbd425133	-0.04744072
21	0x3e528015	0.20556672
22	0x3dfa2fc5	0.122161426
23	0xbcb1dacc	-0.021710776
24	0x3e2cd97d	0.1687984
25	0xbd9bb3e7	-0.07602673
26	0x3e51e0d0	0.20495915
27	0xbda6de5d	-0.08147881
28	0xbe0a9457	-0.1353315
29	0xbe4df2f5	-0.20112212
30	0xbe5af92e	-0.21384117
31	0xbcaecc54	-0.021337666
32	0xbd516882	-0.051125057
33	0xbd1d2fef	-0.03837579
34	0x3e344a70	0.1760652
35	0x3b22ea43	0.002485887
36	0xbd2bbd05	-0.04192831
37	0xbe7b21d9	-0.2452463
38	0xbe0fcb51	-0.14042403
39	0x3e523928	0.20529616
40	0xbe49930d	-0.19685002
41	0x3e1424a5	0.14467104
42	0x3e57902e	0.21051094
43	0x3dbf8d0b	0.09353074
44	0xbe350dac	-0.17680997
45	0xbe8759ff	-0.2643585
46	0x3c86e984	0.01646877
47	0xbe04de07	-0.12975322
48	0xbe0c08bf	-0.13675211
49	0x3e1ebe3a	0.15502253
50	0xbde87116	-0.113496944
51	0xbd9e92a9	-0.07742817
52	0x3e345bba	0.17613116
53	0x3dc5b830	0.096542716
54	0xbe714c7e	-0.23564336
55	0x3d0c3d97	0.034238424
56	0x3e388578	0.18019664
57	0xbe00731a	-0.12543908
58	0x3ea25f49	0.31713322
59	0xbe1680b0	-0.14697528
60	0xbe8640de	-0.26221365
61	0xbe8ea0bc	-0.27857006
62	0x3e6bca0c	0.23026294
63	0x3e1e01b2	0.15430334
64	0xbe6e795e	-0.23288485
65	0x3e338c2f	0.17533945
66	0x3e2edfe2	0.17077592
67	0xbe74d0d5	-0.23907788
68	0x3d2b5f5b	0.041838985
69	0x3e7254ba	0.23665133
70	0x3e144885	0.14480789
71	0xbe57eeac	-0.2108714
72	0xbd80b913	-0.062853
73	0xbe29b1ee	-0.16571781
74	0x3cd7653a	0.026293386
75	0xbe4bbd9c	-0.19896549
76	0xbd5d8430	-0.054081142
77	0x3e119d09	0.1422006
78	0xbe3f9b2c	-0.18711537
79	0xbde8ba44	-0.11363652
80	0xbdce454b	-0.1007181
81	0x3d8d9140	0.0691247
82	0x3e930104	0.28711712
83	0xbe2eecfb	-0.17082588
84	0x3e9aab66	0.30208892
85	0xbdb834fa	-0.089944795
86	0xbc89e69e	-0.0168336
87	0x3d389b88	0.0450702
88	0x3ddf7258	0.10910481
89	0xbe224ce1	-0.1584964
90	0x3d7b86a9	0.06140772
91	0xbac9cb75	-0.0015395718
92	0x3db41fae	0.08795105
93	0xbe914b75	-0.28377882
94	0x3e0b17c6	0.13583288
95	0x3e9f205d	0.3107938
96	0xbe7516c4	-0.23934466
97	0xbdeb30ec	-0.114839405
98	0x3d3bbd78	0.04583499
99	0x3e1bec34	0.15226823
100	0x3d587795	0.052848417
101	0xbe1bb256	-0.15204749
102	0x3dcd3afe	0.100210175
103	0xbe280026	-0.16406307
104	0x3e0e492b	0.13895099
105	0xbcb00c3f	-0.021490214
106	0xbe1a4f43	-0.15069298
107	0xbe501d39	-0.20323648
108	0x3e9bc55a	0.30424005
109	0xbccb3b56	-0.024808567
110	0x3ea2858f	0.31742522
111	0xbe4e9a3c	-0.20176023
112	0xbe864381	-0.26223376
113	0xbd048251	-0.032350842
114	0xbe5f7e31	-0.21825482
115	0x3ebc0b64	0.3672744
116	0x3dbe35c0	0.09287596
117	0x3e2550bc	0.16144079
118	0xbd897e2b	-0.06713518
119	0x3d6a2a2a	0.057169117
120	0xbd43d818	-0.047813505
121	0x3e3f7607	0.18697368
122	0x3e479ea9	0.19494118
123	0x3dac5b7c	0.08415887
124	0x3d308280	0.043093204
125	0x3e3c2b23	0.1837583
126	0xbc5c7234	-0.0134549625
127	0x3e84e4b0	0.25955725
128	0xbd7207f3	-0.059089612
129	0x3e48464f	0.1955807
130	0x3e500362	0.2031379
131	0xbd9bdb11	-0.07610143
132	0x3e3a337c	0.18183702
133	0xbda5f472	-0.08103265
134	0xbd0e47f1	-0.034736577
135	0xbe1bb3d5	-0.15205319
136	0xbe83e50e	-0.25760692
137	0xbe3a3524	-0.18184334
138	0x3ce34c2f	0.027746288
139	0xbe75ceed	-0.24004717
140	0x3e3fcb63	0.1872993
141	0x3e09a3f1	0.13441445
142	0x3e1d7ea6	0.15380344
143	0xbe9089c4	-0.28230107
144	0xbe4e6454	-0.2015546
145	0x3b918777	0.0044411975
146	0x3db1646d	0.08661733
147	0x3d7f192f	0.062279876
148	0x3e6b5743	0.22982506
149	0x3e847b4c	0.25875318
150	0x3d6ea0d2	0.05825884
151	0xbe0000b0	-0.12500262
152	0xbe82aa8a	-0.25520736
153	0x3e15bfbe	0.14623925
154	0x3ea02128	0.31275296
155	0xbe0719db	-0.13193457
156	0x3e21d5e1	0.15804245
157	0xbdd88977	-0.10573094
158	0x3cc226f7	0.02370022
159	0x3e4c152f	0.19929956
160	0x3e476145	0.19470699
161	0x3dcc1e8d	0.099667646
162	0xbe37664c	-0.17910117
163	0x3dd75dc0	0.10515928
164	0x3e30de9c	0.17272419
165	0x3e32df2d	0.17467947
166	0xbcb4f84c	-0.022091053
167	0xbe63d068	-0.2224747
168	0x3e316271	0.17322709
169	0x3e77cc31	0.24198987
170	0xbdbc64d9	-0.09198923
171	0x3ac29494	0.0014845305
172	0x3e9e3f0a	0.3090747
173	0x3e3c2d9e	0.18376777
174	0xbb90b0b6	-0.004415597
175	0xbea0ad15	-0.3138205
176	0xbe0b0ef8	-0.13579929
177	0x3d868da2	0.06569983
178	0x3d9783f9	0.07398219
179	0xbdaa675e	-0.08320497
180	0xbd258bb1	-0.040416423
181	0xbe01fe56	-0.12694678
182	0xbe572f5f	-0.21014164
183	0xbda049bd	-0.078265645
184	0xbe2acc86	-0.16679582
185	0xbc02d28e	-0.00798477
186	0x3e03a8a3	0.12857299
187	0xbe7261be	-0.23670098
188	0xbd8025c9	-0.06257207
189	0x3e836087	0.25659582
190	0xbbdcf4e2	-0.0067430595
191	0xbb393a7e	-0.0028263624
192	0xbd8f5b39	-0.06999821
193	0x3e75f1af	0.24017976
194	0x3de60f21	0.11233354
195	0x3e4a32f3	0.19745998
196	0x3e615455	0.22004826
197	0xbdb00671	-0.085949786
198	0x3e0e2ce3	0.1388431
199	0xbe852bab	-0.2600988
200	0xbcc07a67	-0.023495866
201	0xbe6d5855	-0.23178227
202	0x3cfe2451	0.031023176
203	0x3ce5b18c	0.028038763
204	0xbe424134	-0.18970186
205	0x3d0f3e98	0.034971803
206	0xbe3cb07c	-0.18426698
207	0xbd9321f3	-0.0718421
208	0x3e3d6b8a	0.18498054
209	0x3e14b04f	0.14520381
210	0xbce09857	-0.027416391
211	0xbc28ebee	-0.010310156
212	0xbe83c4d2	-0.257361
213	0x3e26598d	0.16245098
214	0xbe757582	-0.23970607
215	0xbe669bbb	-0.22520344
216	0xbe02815d	-0.1274466
217	0xbe07e4a3	-0.13270812
218	0x3e86f881	0.26361468
219	0xbeb0ae3b	-0.34507927
220	0xbe0d8858	-0.13821542
221	0xbe863486	-0.26211947
222	0xbe3bd6b6	-0.18343624
223	0xbe7eb07d	-0.24872012
224	0x3e8f534a	0.27993232
225	0xbcd1a885	-0.025593052
226	0xbe6636f2	-0.22481897
227	0x3e2a4a35	0.1662987
228	0x3d803123	0.06259372
229	0xbe632c88	-0.22184956
230	0xbd6a8054	-0.05725129
231	0xbe179a82	-0.14805034
232	0xbeb0e7c0	-0.3455181
233	0x3e8361a8	0.25660443
234	0x3e7e32fe	0.2482414
235	0x3e85500f	0.26037642
236	0xbddde0e9	-0.10833914
237	0x3dfb32cf	0.1226555
238	0x3e8339c8	0.2563002
239	0x3d089d95	0.033353407
240	0x3dd02cf9	0.10164828
241	0x3e26da15	0.16294129
242	0xbd0a10ea	-0.033707537
243	0x3e1bfbb7	0.1523274
244	0xbcceed3d	-0.025259608
245	0x3ea130a7	0.3148243
246	0xbe93e130	-0.28882742
247	0x3e55c532	0.20876005
248	0xbe648372	-0.22315767
249	0x3e8d6ec8	0.27623582
250	0x3d8439b7	0.06456321
251	0x3e2f95d7	0.17147003
252	0xbe3300f1	-0.17480828
253	0x3a39b5e9	0.00070842967
254	0xbd4f36df	-0.05058944
255	0x3d81e82d	0.06343112

embedding.bias f4 [128]
0	0xbe3463d4	-0.17616206
1	0xbe251113	-0.16119795
2	0x3d3b1d9c	0.045682535
3	0xbe105664	-0.14095455
4	0xbe54a206	-0.20764932
5	0x3da8411f	0.08215546
6	0xbded3833	-0.11582985
7	0xbe122b27	-0.14274274
8	0xbdeecc65	-0.11660079
9	0xbd65b906	-0.056084655
10	0x3ac7f757	0.0015256208
11	0x3e53c622	0.2068105
12	0xbdfb2716	-0.122633144
13	0x3d131eee	0.03591817
14	0x3e527700	0.20553207
15	0x3e815c8c	0.2526592
16	0x3cfb2576	0.030657511
17	0xbe749d55	-0.23888142
18	0x3b9c928a	0.004778211
19	0xbda697b3	-0.08134403
20	0xbd95b0bf	-0.07309102
21	0xbd74d296	-0.059771143
22	0x3e225c2e	0.15855476
23	0xbd4de9be	-0.050271742
24	0x3d6629af	0.056192096
25	0xbdd4ced6	-0.10391013
26	0x3e848bb0	0.25887823
27	0xbddc59c8	-0.10759312
28	0xbcc9cd9e	-0.024634179
29	0xbdb86483	-0.09003546
30	0x3e2a64f4	0.16640073
31	0xbe3dffe1	-0.18554641
32	0xbdc52ae4	-0.09627321
33	0x3ddc7a3c	0.10765502
34	0x3e6425c0	0.22280025
35	0xbcd3b47c	-0.025842898
36	0x3e5413dc	0.20710701
37	0x3c5fff35	0.013671686
38	0x3dd59f8d	0.104308225
39	0xbe4ecd1a	-0.20195428
40	0xbe4d768a	-0.2006475
41	0x3e7646b1	0.24050404
42	0x3dd8bcd6	0.105828926
43	0xbe136620	-0.14394426
44	0xbe651b84	-0.22373778
45	0xbd0cd0f8	-0.034378976
46	0xb9945edc	-0.00028299436
47	0xbe1f0bb9	-0.15531816
48	0xbb3c55f8	-0.0028737765
49	0xbe692125	-0.2276655
50	0xbd44d7ce	-0.04805737
51	0x3e06ebd5	0.131759
52	0x3def8b61	0.11696506
53	0x3de9f473	0.11423578
54	0xbe27fce8	-0.1640507
55	0xbddd0126	-0.10791235
56	0x3e0c9e26	0.13732204
57	0x3c829296	0.015939038
58	0x3cad112c	0.021126352
59	0x3e1900af	0.14941667
60	0x3e3481e9	0.17627682
61	0xbd964cb1	-0.073388465
62	0xbe4feb92	-0.20304707
63	0xbd6d6ce2	-0.057965167
64	0xbe90072d	-0.28130475
65	0x3dc9e5e7	0.098583035
66	0x3d1de4e8	0.03854838
67	0x3dc5eb27	0.096639924
68	0xbe4d44e4	-0.20045811
69	0x3e637079	0.22210874
70	0x3df1d5be	0.11808346
71	0xbe840192	-0.25782448
72	0x3e51db6b	0.20493858
73	0x3e0bc928	0.13650954
74	0xbe78c7bc	-0.24294943
75	0xbe43c53d	-0.19118209
76	0xbdafb9d7	-0.08580368
77	0x3d88b3ee	0.06674944
78	0xbd14da72	-0.03634114
79	0xbe14e801	-0.14541627
80	0xbe888844	-0.26666462
81	0xbe6c7f8c	-0.2309553
82	0x3e04a40c	0.12953204
83	0xbd8d088a	-0.06886394
84	0x3dc8df9f	0.09808277
85	0x3d9e80e4	0.07739428
86	0x3cf9d5e7	0.030497504
87	0x3d27368a	0.040823497
88	0x3e1580ee	0.14599964
89	0x3e233fd7	0.15942322
90	0xbe7a7075	-0.24456961
91	0x3e356288	0.17713368
92	0x3e56d85a	0.20980969
93	0x3e873ac8	0.26412034
94	0x3e7f090b	0.24905793
95	0xbd94e4c1	-0.07270194
96	0xbd180576	-0.037114583
97	0xbd1cb32d	-0.038256813
98	0x3e4a03c6	0.19728002
99	0x3da6715a	0.08127089
100	0xbe70dc07	-0.23521434
101	0x3e57a4c5	0.21058948
102	0xbe4c71ee	-0.19965336
103	0x3e0432e2	0.12910035
104	0x3e6b9617	0.23006473
105	0xbe5e6db4	-0.21721536
106	0x3e7a29f6	0.2443007
107	0xbe4f42da	-0.20240346
108	0x3d8919b5	0.06694356
109	0x3e21d475	0.15803702
110	0x3e072348	0.13197052
111	0x3d459c2e	0.048244648
112	0x3d2efd01	0.042721752
113	0x3b4739ef	0.0030399521
114	0xbe24bfe8	-0.16088831
115	0xbd2329c8	-0.039834768
116	0x3e5d3316	0.21601519
117	0xbd6c07f8	-0.057624787
118	0x3e3c600d	0.18396015
119	0xbd876bfd	-0.06612394
120	0x3dc5221b	0.09625646
121	0xbe68edaa	-0.22746912
122	0x3e4addb9	0.19811143
123	0x3e64fdf9	0.22362508
124	0xbce78835	-0.02826319
125	0xbdb2e6de	-0.08735441
126	0x3e41312c	0.18866414
127	0x3dc28a51	0.09499038

transformer_encoder.layers.0.self_attn.in_proj_weight f4 [384, 128]
0	0x3da4017f	0.08008098
1	0xbdba7c15	-0.09105698
2	0xbdc8161d	-0.09769843
3	0x3cd4403c	0.025909536
4	0xbd919fa0	-0.07110524
5	0xbcf88fbc	-0.030341975
6	0x3c7d2b70	0.015452251
7	0xbc719368	-0.014744617
8	0xbd64d96a	-0.055871405
9	0x3d4ad3f6	0.049518548
10	0x3bca32c0	0.0061706007
11	0xbb3681a0	-0.0027848259
12	0xbaacc600	-0.0013181567
13	0x3b898500	0.004196763
14	0xbd9240e0	-0.0714128
15	0xbdda8d73	-0.106715105
16	0x3c0db058	0.008648001
17	0xbc4e7b70	-0.012602672
18	0xbb8f0a10	-0.004365213
19	0x3d2bf0a6	0.041977547
20	0xbdb9da57	-0.09074848
21	0x3cffddd4	0.031233706
22	0xbd8134b2	-0.06308879
23	0x3c358b28	0.011080541
24	0xbc749e48	-0.014930315
25	0xbd9a93b4	-0.075477034
26	0x3c0bf108	0.008541353
27	0xbd94d3ba	-0.07266946
28	0xbdba9794	-0.091109425
29	0x3d4092aa	0.04701487
30	0xbdbf926a	-0.09354098
31	0x3c83d270	0.016091555
32	0xbd1cf12a	-0.03831593
33	0x3daaf949	0.083483286
34	0x3dbdabbf	0.092612736
35	0x3dd99a81	0.106251724
36	0x3d354ade	0.044260852
37	0x3da0d439	0.07852978
38	0x3d3e1fc6	0.04641702
39	0xbdbc0e89	-0.0918246
40	0x3ce23e8c	0.027617715
41	0x3c6fbcc8	0.014632411
42	0xbc8f00a0	-0.017456353
43	0x3dc9c3bd	0.09851787
44	0xbd7fc4f6	-0.062443696
45	0x3bc23810	0.0059270933
46	0x3cd8d9ec	0.0264711
47	0xbcc29d48	-0.023756638
48	0x3c426300	0.011864424
49	0xbd8e1a77	-0.069386415
50	0x3d8ac573	0.06775942
51	0xbdae98d4	-0.085252434
52	0x3dad5dd7	0.08465164
53	0x3c768e38	0.015048556
54	0x3c8679d0	0.016415507
55	0x3d81746f	0.06321036
56	0xbd8ca1f6	-0.06866829
57	0x3d756612	0.059911795
58	0x3d12ffd6	0.035888515
59	0xbdda478f	-0.1065818
60	0x3d858959	0.065203376
61	0x3c5e7db8	0.013579778
62	0xbdc7f701	-0.09763909
63	0x3cc2be1c	0.023772292
64	0x3d2c38c2	0.042046316
65	0xbc90a894	-0.01765851
66	0x3d9ff1a1	0.07809759
67	0xbc1d4f38	-0.009601407
68	0x3d27a712	0.040930815
69	0xbdb2c61f	-0.08729195
70	0xbc6f39b0	-0.014601156
71	0xbd022992	-0.031777926
72	0xbd9bf54e	-0.076151475
73	0xbc0f0900	-0.008730173
74	0x3d06a566	0.03287258
75	0x3d8db34b	0.06918963
76	0xbdb78cd5	-0.089624085
77	0xbc886b64	-0.01665277
78	0xbb4541c0	-0.0030099005
79	0xbca3aba8	-0.019979313
80	0xbc218fd0	-0.009860948
81	0xbd09d04e	-0.03364592
82	0xb9e8bb00	-0.00044389814
83	0xbd80b84a	-0.0628515
84	0xbc7459f0	-0.014914021
85	0x3db0bf33	0.08630218
86	0x3d2a50aa	0.041580833
87	0x3ddd958d	0.1081954
88	0x3dad8d0b	0.084741674
89	0x3c000258	0.007813059
90	0xbd7f6914	-0.06235607
91	0xbd779512	-0.0604449
92	0xbdda3a9f	-0.10655712
93	0x3ca57534	0.020197488
94	0xbdc471f0	-0.09592044
95	0xbc7b4cf8	-0.015338175
96	0xbdbaaf84	-0.09115508
97	0xbd333056	-0.04374727
98	0xbd4f4be6	-0.05060949
99	0xbd08d8fa	-0.03341005
100	0x3d5d363a	0.054006793
101	0x3b053460	0.0020325407
102	0x3d9525c7	0.07282596
103	0x3da01a99	0.07817573
104	0xbd912b4d	-0.07088337
105	0x3ca92564	0.020647712
106	0x3c347a10	0.01101543
107	0x3d646c46	0.05576732
108	0x3daf07af	0.085463874
109	0x3d3137f6	0.04326626
110	0xbdb9dd12	-0.09075369
111	0x3c2264a0	0.009911686
112	0x3ce110f4	0.027473904
113	0xbd8481d8	-0.06470078
114	0x3ce3a574	0.027788855
115	0xbdb398d8	-0.08769387
116	0x3d9f8d9b	0.07790681
117	0xbd94eaea	-0.07271369
118	0xbc3b6b70	-0.011439189
119	0x3d5bab96	0.053630434
120	0x3d852ccb	0.06502684
121	0xbd7b5ef0	-0.061369836
122	0x3d523f7e	0.051330082
123	0xbddaa0e8	-0.10675222
124	0xbdae5e00	-0.08514023
125	0x3d354c96	0.04426249
126	0xbd7f3440	-0.06230569
127	0x3d88ec49	0.06685693
128	0x3d99b653	0.07505479
129	0xbc990e18	-0.018683478
130	0x3d4570c6	0.048203252
131	0xbd6dd875	-0.058067758
132	0x3ade65c0	0.001696758
133	0x3d96965d	0.07352898
134	0xbd0da4c8	-0.034580976
135	0xbc130270	-0.008972749
136	0xbd270106	-0.04077246
137	0x3d483012	0.04887397
138	0xbdad749b	-0.08469506
139	0xbd90f09d	-0.07077143
140	0x3cc55984	0.024090536
141	0x3caa8b64	0.02081842
142	0x3da268c5	0.079301395
143	0xbdc92bcc	-0.09822807
144	0x3d4599a2	0.04824222
145	0x3aa74600	0.001276195
146	0x3b7a8060	0.003822349
147	0xbc0e2810	-0.008676544
148	0x3da1fccb	0.079095446
149	0x3d15b832	0.036552615
150	0xbc5f99d8	-0.013647519
151	0xbc70ba00	-0.014692783
152	0xbd64a83d	-0.055824507
153	0x3d1cd45a	0.03828845
154	0x3d326922	0.043557294
155	0x3c8224a0	0.015886605
156	0xbdabace6	-0.08382587
157	0xbd617454	-0.05504258
158	0xbdd3f08f	-0.10348617
159	0xbd041178	-0.032243222
160	0xbdc66b74	-0.09688464
161	0x3d13d3de	0.036090724
162	0x3ddd327b	0.10800644
163	0xbd69dc48	-0.057094842
164	0x3c63dba0	0.013907343
165	0x3d9e5d63	0.07732656
166	0xba2cae80	-0.0006587282
167	0x3c359ba8	0.011084475
168	0x3d3ce986	0.046121143
169	0x3d15cbc6	0.036571287
170	0x3d002f8a	0.031295337
171	0xbdda33e2	-0.10654427
172	0xbd0869aa	-0.033303894
173	0x3d84e0dd	0.06488202
174	0xbd70ebf6	-0.05881878
175	0xbb97ff60	-0.0046385974
176	0xbd4d7eb6	-0.05016967
177	0xbc61e380	-0.01378715
178	0xbd152908	-0.036416084
179	0x3d540242	0.051759966
180	0x3dd3b5ab	0.10337385
181	0x3cfaf61c	0.030634932
182	0x3d91d31b	0.07120343
183	0x3d9cf625	0.07664136
184	0x3dd27523	0.10276248
185	0xbdd7f626	-0.10544996
186	0x3cc23754	0.023708023
187	0xbdd8eb25	-0.10591725
188	0xbd419d26	-0.04726901
189	0xbc8c9cf0	-0.017164677
190	0x3d552ba6	0.05204358
191	0x3dc23749	0.09483201
192	0x3d2afc06	0.041744255
193	0x3c6e2510	0.014535204
194	0xbd9e3c21	-0.077263124
195	0xbcc237f4	-0.023708321
196	0xbd111f68	-0.035430342
197	0x3d41cb12	0.047312804
198	0xbdd65908	-0.104662
199	0xbb9f5730	-0.0048626885
200	0x3d443bea	0.0479087
201	0xbd119618	-0.03554353
202	0x3d03fd2a	0.032223858
203	0x3c949c14	0.01814083
204	0x3c348bf0	0.011019692
205	0xbd5dcd3a	-0.054150797
206	0x3a0b5880	0.0005315617
207	0x3cf3715c	0.02971714
208	0x3dd2d733	0.10294952
209	0xbd30e6e0	-0.04318893
210	0x3d8e7839	0.069565244
211	0xbd8cd016	-0.06875627
212	0xbcff0a84	-0.031132944
213	0x3d01b5a6	0.031667374
214	0xbcd73e30	-0.02627477
215	0xbcf38198	-0.029724881
216	0xbda856b4	-0.08219662
217	0xbdc8c3cc	-0.0980297
218	0xbdb5c228	-0.08874923
219	0x3c06f150	0.008236244
220	0xbcf369fc	-0.029713623
221	0xbda1e8a7	-0.07905703
222	0x3c87c504	0.016573437
223	0x3d58f612	0.052969046
224	0x3d7b016a	0.061280645
225	0xbd47f2f9	-0.0488157
226	0x3cdd9534	0.027048685
227	0xbb810e40	-0.0039384663
228	0x3d1db29e	0.03850042
229	0xbd9598f4	-0.07304564
230	0xbd7f6cde	-0.062359683
231	0xbd18e1ae	-0.0373246
232	0xbb808b90	-0.003922887
233	0xbd472bfd	-0.048625935
234	0xbd5d6d8b	-0.054059546
235	0xbd06a3ec	-0.03287117
236	0xbdd9a839	-0.10627789
237	0x3cc0131c	0.023446612
238	0x3ca345ac	0.019930683
239	0x3ccb9f94	0.024856366
240	0xbca2c830	-0.019870847
241	0xbd107c3e	-0.035274737
242	0xbdd33c4c	-0.10314235
243	0x3c86d878	0.016460642
244	0xbda40f86	-0.08010773
245	0x3d9241c7	0.07141452
246	0xbd1fb9e8	-0.038995653
247	0xbd16300a	-0.036666907
248	0xbd2d1a7e	-0.042261593
249	0xbc32b388	-0.010907061
250	0xbcb344d4	-0.021883406
251	0xbc816d74	-0.015799262
252	0x3dc17d51	0.0944773
253	0x3cc1bc6c	0.023649417
254	0xbd010d12	-0.031506605
255	0x3c4b3110	0.012401834

transformer_encoder.layers.0.self_attn.in_proj_bias f4 [384]
0	0x00000000	0.0
1	0x00000000	0.0
2	0x00000000	0.0
3	0x00000000	0.0
4	0x00000000	0.0
5	0x00000000	0.0
6	0x00000000	0.0
7	0x00000000	0.0
8	0x00000000	0.0
9	0x00000000	0.0
10	0x00000000	0.0
11	0x00000000	0.0
12	0x00000000	0.0
13	0x00000000	0.0
14	0x00000000	0.0
15	0x00000000	0.0
16	0x00000000	0.0
17	0x00000000	0.0
18	0x00000000	0.0
19	0x00000000	0.0
20	0x00000000	0.0
21	0x00000000	0.0
22	0x00000000	0.0
23	0x00000000	0.0
24	0x00000000	0.0
25	0x00000000	0.0
26	0x00000000	0.0
27	0x00000000	0.0
28	0x00000000	0.0
29	0x00000000	0.0
30	0x00000000	0.0
31	0x00000000	0.0
32	0x00000000	0.0
33	0x00000000	0.0
34	0x00000000	0.0
35	0x00000000	0.0
36	0x00000000	0.0
37	0x00000000	0.0
38	0x00000000	0.0
39	0x00000000	0.0
40	0x00000000	0.0
41	0x00000000	0.0
42	0x00000000	0.0
43	0x00000000	0.0
44	0x00000000	0.0
45	0x00000000	0.0
46	0x00000000	0.0
47	0x00000000	0.0
48	0x00000000	0.0
49	0x00000000	0.0
50	0x00000000	0.0
51	0x00000000	0.0
52	0x00000000	0.0
53	0x00000000	0.0
54	0x00000000	0.0
55	0x00000000	0.0
56	0x00000000	0.0
57	0x00000000	0.0
58	0x00000000	0.0
59	0x00000000	0.0
60	0x00000000	0.0
61	0x00000000	0.0
62	0x00000000	0.0
63	0x00000000	0.0
64	0x00000000	0.0
65	0x00000000	0.0
66	0x00000000	0.0
67	0x00000000	0.0
68	0x00000000	0.0
69	0x00000000	0.0
70	0x00000000	0.0
71	0x00000000	0.0
72	0x00000000	0.0
73	0x00000000	0.0
74	0x00000000	0.0
75	0x00000000	0.0
76	0x00000000	0.0
77	0x00000000	0.0
78	0x00000000	0.0
79	0x00000000	0.0
80	0x00000000	0.0
81	0x00000000	0.0
82	0x00000000	0.0
83	0x00000000	0.0
84	0x00000000	0.0
85	0x00000000	0.0
86	0x00000000	0.0
87	0x00000000	0.0
88	0x00000000	0.0
89	0x00000000	0.0
90	0x00000000	0.0
91	0x00000000	0.0
92	0x00000000	0.0
93	0x00000000	0.0
94	0x00000000	0.0
95	0x00000000	0.0
96	0x00000000	0.0
97	0x00000000	0.0
98	0x00000000	0.0
99	0x00000000	0.0
100	0x00000000	0.0
101	0x00000000	0.0
102	0x00000000	0.0
103	0x00000000	0.0
104	0x00000000	0.0
105	0x00000000	0.0
106	0x00000000	0.0
107	0x00000000	0.0
108	0x00000000	0.0
109	0x00000000	0.0
110	0x00000000	0.0
111	0x00000000	0.0
112	0x00000000	0.0
113	0x00000000	0.0
114	0x00000000	0.0
115	0x00000000	0.0
116	0x00000000	0.0
117	0x00000000	0.0
118	0x00000000	0.0
119	0x00000000	0.0
120	0x00000000	0.0
121	0x00000000	0.0
122	0x00000000	0.0
123	0x00000000	0.0
124	0x00000000	0.0
125	0x00000000	0.0
126	0x00000000	0.0
127	0x00000000	0.0
128	0x00000000	0.0
129	0x00000000	0.0
130	0x00000000	0.0
131	0x00000000	0.0
132	0x00000000	0.0
133	0x00000000	0.0
134	0x00000000	0.0
135	0x00000000	0.0
136	0x00000000	0.0
137	0x00000000	0.0
138	0x00000000	0.0
139	0x00000000	0.0
140	0x00000000	0.0
141	0x00000000	0.0
142	0x00000000	0.0
143	0x00000000	0.0
144	0x00000000	0.0
145	0x00000000	0.0
146	0x00000000	0.0
147	0x00000000	0.0
148	0x00000000	0.0
149	0x00000000	0.0
150	0x00000000	0.0
151	0x00000000	0.0
152	0x00000000	0.0
153	0x00000000	0.0
154	0x00000000	0.0
155	0x00000000	0.0
156	0x00000000	0.0
157	0x00000000	0.0
158	0x00000000	0.0
159	0x00000000	0.0
160	0x00000000	0.0
161	0x00000000	0.0
162	0x00000000	0.0
163	0x00000000	0.0
164	0x00000000	0.0
165	0x00000000	0.0
166	0x00000000	0.0
167	0x00000000	0.0
168	0x00000000	0.0
169	0x00000000	0.0
170	0x00000000	0.0
171	0x00000000	0.0
172	0x00000000	0.0
173	0x00000000	0.0
174	0x00000000	0.0
175	0x00000000	0.0
176	0x00000000	0.0
177	0x00000000	0.0
178	0x00000000	0.0
179	0x00000000	0.0
180	0x00000000	0.0
181	0x00000000	0.0
182	0x00000000	0.0
183	0x00000000	0.0
184	0x00000000	0.0
185	0x00000000	0.0
186	0x00000000	0.0
187	0x00000000	0.0
188	0x00000000	0.0
189	0x00000000	0.0
190	0x00000000	0.0
191	0x00000000	0.0
192	0x00000000	0.0
193	0x00000000	0.0
194	0x00000000	0.0
195	0x00000000	0.0
196	0x00000000	0.0
197	0x00000000	0.0
198	0x00000000	0.0
199	0x00000000	0.0
200	0x00000000	0.0
201	0x00000000	0.0
202	0x00000000	0.0
203	0x00000000	0.0
204	0x00000000	0.0
205	0x00000000	0.0
206	0x00000000	0.0
207	0x00000000	0.0
208	0x00000000	0.0
209	0x00000000	0.0
210	0x00000000	0.0
211	0x00000000	0.0
212	0x00000000	0.0
213	0x00000000	0.0
214	0x00000000	0.0
215	0x00000000	0.0
216	0x00000000	0.0
217	0x00000000	0.0
218	0x00000000	0.0
219	0x00000000	0.0
220	0x00000000	0.0
221	0x00000000	0.0
222	0x00000000	0.0
223	0x00000000	0.0
224	0x00000000	0.0
225	0x00000000	0.0
226	0x00000000	0.0
227	0x00000000	0.0
228	0x00000000	0.0
229	0x00000000	0.0
230	0x00000000	0.0
231	0x00000000	0.0
232	0x00000000	0.0
233	0x00000000	0.0
234	0x00000000	0.0
235	0x00000000	0.0
236	0x00000000	0.0
237	0x00000000	0.0
238	0x00000000	0.0
239	0x00000000	0.0
240	0x00000000	0.0
241	0x00000000	0.0
242	0x00000000	0.0
243	0x00000000	0.0
244	0x00000000	0.0
245	0x00000000	0.0
246	0x00000000	0.0
247	0x00000000	0.0
248	0x00000000	0.0
249	0x00000000	0.0
250	0x00000000	0.0
251	0x00000000	0.0
252	0x00000000	0.0
253	0x00000000	0.0
254	0x00000000	0.0
255	0x00000000	0.0

transformer_encoder.layers.0.self_attn.out_proj.weight f4 [128, 128]
0	0x3c7659e2	0.015036078
1	0xbc10cbc2	-0.008837642
2	0xbbbe4b35	-0.005807305
3	0x3cdf404e	0.027252343
4	0xbd1a0452	-0.037601776
5	0x3d28a4c1	0.041172747
6	0xbd1c2a5a	-0.038126327
7	0xbcb39712	-0.021922622
8	0xbd1c2371	-0.038119737
9	0x3d7ebfdf	0.0621947
10	0x3db93ee2	0.09045197
11	0xbd48ac99	-0.048992727
12	0xbd7b49cb	-0.06134967
13	0xbc295773	-0.010335791
14	0xbbeb951c	-0.007189406
15	0xbd4271a9	-0.047471676
16	0xbd9fd021	-0.07803369
17	0x3d641ce0	0.0556916
18	0xbc3da576	-0.0115750935
19	0xbd071ace	-0.032984547
20	0x3ce7f149	0.028313296
21	0x3e034fcd	0.1282341
22	0xbd01723a	-0.031603076
23	0x3d4c9410	0.04994589
24	0x3cc6c1e3	0.024262374
25	0xbdd06f6e	-0.101775035
26	0x3d801b5f	0.062552206
27	0xbd1f51ea	-0.03889648
28	0x3c4e2afe	0.012583492
29	0x3dd76e25	0.10519055
30	0x3d9a0abc	0.07521579
31	0x3d0f7b78	0.03502986
32	0xbd06b007	-0.032882717
33	0x3d68c472	0.05682797
34	0xbd29c54a	-0.041447915
35	0xbd01e4f8	-0.031712502
36	0xbd9238ec	-0.07139763
37	0x3d3da0dc	0.046295986
38	0x3d7e6cde	0.062115543
39	0x3da2cd12	0.0794927
40	0x3dd300d0	0.10302889
41	0x3b1f3d2a	0.0024297931
42	0xbd20f414	-0.03929527
43	0xbde5a767	-0.1121357
44	0x3d428cb8	0.04749748
45	0x3cc12457	0.023576899
46	0x3c220ce8	0.009890772
47	0xbc344f0b	-0.011005173
48	0xbd2c1032	-0.042007633
49	0x3b633ceb	0.003467376
50	0xbd7ee523	-0.06223024
51	0x3d823131	0.06357039
52	0xbd6904e8	-0.056889445
53	0x3d9b48f4	0.07582274
54	0xbd08b8eb	-0.033379477
55	0xbb1b561d	-0.002370245
56	0x3cb892ae	0.02253088
57	0x3cd7dde4	0.026350923
58	0x3cb7c941	0.022434833
59	0xbdb808d8	-0.08986062
60	0x3d426155	0.047456104
61	0xbd318610	-0.043340743
62	0x3d7d4bd3	0.06183989
63	0xbd221bb1	-0.03957719
64	0x3d20c0ba	0.0392463
65	0xbc27ea63	-0.010248753
66	0x3d31da7b	0.04342125
67	0xbd8470b4	-0.06466809
68	0x3dc57ff9	0.096435495
69	0xbd92d3f0	-0.0716933
70	0x3d401769	0.046897326
71	0x3daafa60	0.083485365
72	0xbcf439de	-0.02981275
73	0x3d945a83	0.07243826
74	0x3d52c542	0.05145765
75	0x3c679351	0.014134244
76	0x3b628fa1	0.0034570473
77	0xbdacf7a4	-0.08445671
78	0xb897c042	-7.236052e-05
79	0xbd38adcd	-0.045087624
80	0xbd8b1a93	-0.06792178
81	0x3d472c4d	0.048626233
82	0xbc85fa18	-0.016354606
83	0xbc1df5b5	-0.009641101
84	0xbda3aa73	-0.07991495
85	0x3d972c0c	0.07381448
86	0x3d89a436	0.06720774
87	0xbd8d9c97	-0.06914633
88	0x3cccb775	0.024989823
89	0x3d6a050f	0.05713373
90	0xbc431559	-0.011906945
91	0xbd28a22e	-0.04117029
92	0x3ccdf544	0.025141366
93	0xbb717051	-0.0036840627
94	0xbd47127a	-0.048601605
95	0xbd4dc3f9	-0.050235722
96	0x3d8e9b74	0.06963244
97	0x3d4f2c73	0.0505795
98	0xbd11f582	-0.035634525
99	0x3dd15693	0.10221591
100	0x3d9d843f	0.076912396
101	0x3dc05c07	0.09392553
102	0xbd1a75b4	-0.037709907
103	0xbc6ef4ad	-0.014584702
104	0xbcb2969a	-0.021800328
105	0x3cc826ab	0.0244325
106	0xbd941cc2	-0.072320476
107	0xbc6392c7	-0.013889975
108	0x3d8a0f03	0.067411445
109	0xbd8afabd	-0.06786106
110	0xbda0e12c	-0.07855448
111	0x3c0c4447	0.0085612
112	0xbd8a649d	-0.06757472
113	0x3d1c5ca3	0.038174283
114	0x3d06fa39	0.032953475
115	0x3d945631	0.07243002
116	0x3d0eca58	0.03486094
117	0xbd69532d	-0.05696409
118	0x3d878b1e	0.066183314
119	0xbdc85897	-0.09782522
120	0x3cd44dd5	0.02591602
121	0xbd8d7eac	-0.06908926
122	0x3cf84518	0.030306384
123	0xbd9874aa	-0.07444127
124	0xbd7bb07b	-0.0614476
125	0x3b251434	0.0025189044
126	0x3d2e9e36	0.04263135
127	0x3bb7efdc	0.0056133103
128	0xbc3b7c3f	-0.011443197
129	0x3d102977	0.035195794
130	0xbd0a518f	-0.033769187
131	0x3c38cf4a	0.01127989
132	0xbcbda487	-0.023149742
133	0x3d5280de	0.05139243
134	0xbb595e74	-0.003316787
135	0x3cc2346e	0.023706641
136	0xbaf8a12d	-0.0018968933
137	0x3d003d02	0.03130818
138	0x3d5fe258	0.054659218
139	0x3d1bd09c	0.038040742
140	0xbd3acbcf	-0.045604523
141	0xbca0a450	-0.0196096
142	0x3d60f80e	0.054924063
143	0xbd7565b0	-0.05991143
144	0x3dc230ab	0.09481939
145	0xbb90d31f	-0.004419699
146	0xbd2b6f80	-0.04185438
147	0x3d8db648	0.06919533
148	0xbda54c6c	-0.08071217
149	0xbda0bc33	-0.07848396
150	0xbd2f1a66	-0.042749785
151	0x3d167233	0.036730003
152	0xbcaed623	-0.021342343
153	0xbc0536f7	-0.00813078
154	0x3d19c454	0.03754075
155	0x3cd455fd	0.025919909
156	0xbd743d13	-0.059628557
157	0xba870b5b	-0.0010303067
158	0xbd975f00	-0.07391167
159	0x3c5eb47f	0.013592838
160	0x3942b41f	0.00018568382
161	0xbb57b141	-0.0032912048
162	0xbc78c03b	-0.01518255
163	0xbd85b072	-0.06527795
164	0xbcb9183b	-0.022594562
165	0xbd837c6f	-0.06420218
166	0xbc95d4ec	-0.018290006
167	0x3dc266c7	0.094922595
168	0x3c375af6	0.01119112
169	0xbc1ae140	-0.009453118
170	0xbda87ee6	-0.08227329
171	0xbd5c2cf4	-0.05375381
172	0x3da599f7	0.08086007
173	0x3d835f48	0.06414658
174	0x3b3e7bd7	0.0029065514
175	0x3dcdb963	0.10045125
176	0xbca54663	-0.020175165
177	0xbdd37d7d	-0.10326669
178	0x3c8fa5ee	0.017535176
179	0x3d42f84d	0.04760008
180	0xbd32107d	-0.043472756
181	0xbd89c50f	-0.06727039
182	0x3cbbb9df	0.022915779
183	0xbc4122cb	-0.01178808
184	0xbd34a647	-0.044103887
185	0xbd0bf4d3	-0.03416903
186	0xbc881369	-0.016610818
187	0x3cc32696	0.02382211
188	0x3c970d0d	0.01843884
189	0x3d4ef32e	0.050524883
190	0xbd016caf	-0.03159779
191	0x3d4fb89a	0.05071316
192	0xbd9f3909	-0.077745505
193	0xbd164188	-0.03668359
194	0x3d1bbf91	0.03802449
195	0xbdb19ddc	-0.086726874
196	0x3d49c5fa	0.04926107
197	0xbc0c4037	-0.008560232
198	0x3d579d95	0.052640516
199	0xbc341534	-0.010991383
200	0x3d568ffc	0.052383408
201	0x3d24ac83	0.040203582
202	0x3d606f68	0.054793745
203	0x3d4ab6f4	0.049490884
204	0xbde80a06	-0.11330037
205	0x3c28677d	0.01027858
206	0x3db307d3	0.08741727
207	0x3bb5ffb9	0.005554166
208	0x3ce11383	0.027475124
209	0x3d604ef4	0.054762796
210	0xbc9d7d9d	-0.019224936
211	0x3c20e39e	0.009819893
212	0x3c79300d	0.01520921
213	0x3d69f2df	0.057116386
214	0x3d9f709d	0.07785151
215	0xbd25057b	-0.04028843
216	0x3d0a0d37	0.03370401
217	0x3cffd028	0.031227186
218	0x3d448e40	0.047987223
219	0xbc094c9c	-0.0083800815
220	0xbd55082d	-0.05200975
221	0xbd906431	-0.0705036
222	0x3c03d1b1	0.0080456
223	0xbd1e9625	-0.038717408
224	0xbd4aadcd	-0.049482156
225	0x3d8191e1	0.06326652
226	0xbadca1e0	-0.001683291
227	0x3b7eb1f8	0.0038863402
228	0x3d894c0f	0.0670396
229	0xbcd6f082	-0.02623773
230	0xbd0be879	-0.03415725
231	0xbdb0f6e5	-0.086408414
232	0xbc3af4d5	-0.011410912
233	0xbd7f0fba	-0.062270857
234	0x3c5ca780	0.0134676695
235	0x3d6653cd	0.056232262
236	0x3dc6b465	0.09702376
237	0x3d871a6a	0.06596835
238	0x3bb84f26	0.0056246696
239	0xbb934ce2	-0.004495249
240	0xbd2ac0d6	-0.04168781
241	0xbdda6198	-0.10663146
242	0x3cb67bf9	0.022275912
243	0x3dfb8335	0.12280885
244	0xbc32618e	-0.010887517
245	0x3db25d28	0.087091744
246	0xbdb705d7	-0.08936661
247	0xbd524b16	-0.05134114
248	0x3cdb03cd	0.02673521
249	0x3b5dd371	0.0033847953
250	0xbda7a19a	-0.0818512
251	0x3cf2cae3	0.02963776
252	0xbc896229	-0.01677044
253	0x3d12e952	0.035867043
254	0xbda1d972	-0.079028025
255	0x3d16a16a	0.03677503

transformer_encoder.layers.0.self_attn.out_proj.bias f4 [128]
0	0x3b9295ba	0.004473415
1	0xbbb5dee3	-0.005550252
2	0xbb8d15d7	-0.004305582
3	0xbcaca5c2	-0.021075133
4	0xbcc46903	-0.023975855
5	0x3c587d81	0.013213516
6	0x3c82db2a	0.015973646
7	0xbcb0be0a	-0.021574993
8	0xbc65be5a	-0.014022434
9	0xbb492c01	-0.0030696394
10	0xbc68f00e	-0.01421739
11	0xbbf97104	-0.0076123495
12	0x3cb8b0f3	0.022545313
13	0x3d25017f	0.04028463
14	0x3bcb4cf4	0.006204242
15	0xbc5761f3	-0.0131459115
16	0x3c2b86ae	0.010469122
17	0xbbea728c	-0.0071547683
18	0xbc8d0b34	-0.017217256
19	0xbd3785a0	-0.04480517
20	0x3aa43685	0.0012528455
21	0xbc862785	-0.016376266
22	0xbd06b9d5	-0.032892067
23	0x3cd038a7	0.025417639
24	0x3c1bc281	0.009506823
25	0x3c1f4ad7	0.009722433
26	0x3cab1fe0	0.020889223
27	0xbbe88034	-0.007095361
28	0x3d0ad4ba	0.033894278
29	0x3cb7be94	0.022429742
30	0xbc5f80ef	-0.01364158
31	0x3c4eb364	0.012616012
32	0x3bcb05eb	0.006195774
33	0x3ac26b54	0.0014833012
34	0x3bfe1e5f	0.0077550854
35	0xbd18d6b7	-0.037314143
36	0xbb9f13b1	-0.0048546423
37	0xbb378255	-0.0028001268
38	0xbbd9d425	-0.006647604
39	0x3b677dca	0.003532278
40	0x3b3fb364	0.0029251212
41	0xbbef993a	-0.007311967
42	0x3d06ea92	0.032938547
43	0x3a0e32bd	0.0005424431
44	0xbcb5c8a0	-0.022190392
45	0xbcc4edbe	-0.024039146
46	0xbca89686	-0.020579588
47	0x3d3ed7cf	0.04659253
48	0x3ccf06e5	0.025271842
49	0xbb22c09c	-0.0024834042
50	0x3d03bbc2	0.03216148
51	0x39f0578a	0.0004584159
52	0x3b6b3868	0.0035891775
53	0x3b7ef081	0.0038900676
54	0xbcdb4d5b	-0.026770284
55	0xbcd3413b	-0.02578794
56	0xbbde669a	-0.0067871334
57	0x3c85f7d0	0.016353518
58	0xbc9f25a8	-0.019427136
59	0x3caa89e5	0.020817706
60	0x3c3965be	0.011315761
61	0x3b73c19e	0.0037194262
62	0xbc6b1c1a	-0.014349962
63	0x3b85016a	0.0040590065
64	0xbcfde92c	-0.030994974
65	0xbb285da8	-0.002569059
66	0xbc9c3830	-0.019069761
67	0xbac20fe8	-0.0014805766
68	0xbc677c4c	-0.014128756
69	0xba895aba	-0.0010479309
70	0xba7c05e2	-0.0009613914
71	0xbc1b7515	-0.009488364
72	0x3ce6e402	0.028184894
73	0x3b5ee5f8	0.0034011584
74	0x3d171bab	0.03689162
75	0xbbfcbc8d	-0.0077129067
76	0xbc70133e	-0.014653025
77	0x3a9b6e38	0.0011858409
78	0x3c7c8aa7	0.015413917
79	0x3be52187	0.006992522
80	0xbb4dce9f	-0.0031403673
81	0x3ac84ee7	0.0015282304
82	0x3c815068	0.015785411
83	0xbc55d58d	-0.013051403
84	0x3d02df8f	0.031951483
85	0x3a58bf9c	0.0008268298
86	0x3ca38a08	0.01996328
87	0xbca4f11e	-0.020134505
88	0xbc7e349a	-0.015515471
89	0x3be60607	0.0070197615
90	0xbbb80dd9	-0.005616885
91	0x3ce15d75	0.027510384
92	0x3bf5e3fc	0.0075039845
93	0x3d0150e3	0.03157128
94	0x3b97dd4b	0.0046345345
95	0x3bd682ee	0.0065463698
96	0x3b6f4a55	0.0036512811
97	0xbc6fba04	-0.014631752
98	0x3ba8288f	0.005131788
99	0xbc9470a3	-0.018120116
100	0x3a8d1e32	0.0010766445
101	0xbc8e34e8	-0.017359212
102	0x3b7b7933	0.00383718
103	0xbc94d265	-0.01816673
104	0xbbb417ef	-0.005496017
105	0x3afab2fa	0.0019126826
106	0x3c1177d7	0.00887867
107	0x3b876816	0.004132281
108	0x39e115c2	0.00042931555
109	0x3cda21ed	0.026627505
110	0xbb835528	-0.004007954
111	0x3ccecd81	0.025244476
112	0xbbefc3aa	-0.007317026
113	0x3b8dcc1e	0.004327311
114	0xbc80e661	-0.015734853
115	0x3d06a186	0.032868885
116	0xbb7c4b9e	-0.003849722
117	0x3d127847	0.035759237
118	0xbc0a06f8	-0.008424513
119	0x3c7cc6e8	0.015428282
120	0xbbb0c4bc	-0.0053945463
121	0x3b7cf196	0.0038596145
122	0x3c043abd	0.008070645
123	0xbc855a53	-0.016278422
124	0x3b9547de	0.0045556864
125	0x3c1cca55	0.009569724
126	0xbac8a28d	-0.0015307233
127	0xbc524d43	-0.012835803

transformer_encoder.layers.0.linear1.weight f4 [128, 128]
0	0x3d3cacf1	0.046063367
1	0xb8942e63	-7.06583e-05
2	0xbd25ba63	-0.040460955
3	0x3c4c9a19	0.012487912
4	0x3dc3dd86	0.095637366
5	0xbd83a917	-0.06428736
6	0xbdac5101	-0.08413888
7	0xbd9a2806	-0.07527165
8	0x3e0dd219	0.13849677
9	0x3dd6c171	0.10486115
10	0x3cd5d3e5	0.026102016
11	0x3d179401	0.037006382
12	0xbd53e142	-0.051728494
13	0xbd956df7	-0.07296365
14	0xbd87949b	-0.06620141
15	0xbdc8fe95	-0.09814183
16	0xbd945d67	-0.072443776
17	0xbce2ab90	-0.027669698
18	0x3d1ebc7f	0.038753983
19	0x3d574762	0.05255831
20	0x3d64f641	0.05589891
21	0x3dbae889	0.09126384
22	0xbacc72b9	-0.0015598155
23	0x3b7da4f0	0.0038703047
24	0xbc97df3d	-0.018539065
25	0xbb9d57d2	-0.0048017288
26	0x3d0bbe1e	0.034116857
27	0x3d78b6f3	0.06072135
28	0xbbbe0f64	-0.0058001745
29	0x3d797d84	0.060910717
30	0x3c817479	0.015802609
31	0x3a37651f	0.0006995964
32	0xbb0e6b91	-0.0021731595
33	0xbd00e046	-0.031463884
34	0xbd06d938	-0.032922
35	0x3ce4bfaf	0.027923433
36	0x3c1539a1	0.009107978
37	0x3dc3ba2a	0.09556992
38	0x3d70d819	0.058799837
39	0x3d9def9b	0.07711717
40	0x3d58a087	0.052887466
41	0xbe037040	-0.12835789
42	0xbdb2c2e0	-0.08728576
43	0xbba1dca3	-0.004939632
44	0x3dd29295	0.102818646
45	0x3e0ad66e	0.13558361
46	0xbca6984b	-0.02033629
47	0x3d48112c	0.0488445
48	0xbdc5a10d	-0.096498586
49	0xbdff5b0f	-0.1246854
50	0xbcd9626d	-0.02653619
51	0xbc725173	-0.014789927
52	0x3d038a3f	0.032114264
53	0xbd65f013	-0.056137156
54	0x3dbef658	0.0932433
55	0x3d5e70a0	0.054306626
56	0xbd8b8757	-0.068129234
57	0x3c31349c	0.010815766
58	0x3ca647fb	0.020297995
59	0x3d01a9c1	0.03165603
60	0x3d3dc321	0.046328668
61	0x3d270f9b	0.040786367
62	0xbd4f22fd	-0.050570477
63	0xbd82f25a	-0.06393881
64	0x3db39f20	0.08770585
65	0x3d692ee4	0.056929484
66	0xbd504b2f	-0.05085295
67	0xbd97ae47	-0.07406288
68	0xbb8ad694	-0.0042370055
69	0xbc280a92	-0.010256426
70	0xbd8aad11	-0.06771291
71	0x3e252740	0.16128254
72	0xbcc6441c	-0.024202399
73	0xbcaed645	-0.021342406
74	0xbd046e21	-0.03233159
75	0x3dedb4be	0.116067395
76	0x3cb806f7	0.022464259
77	0x3e01529e	0.12629172
78	0x3d54567c	0.05184029
79	0x3c088201	0.008331777
80	0x3d9c971f	0.076460116
81	0xbbacad7c	-0.0052697044
82	0x3d281ce5	0.04104318
83	0xbddd0dd5	-0.10793654
84	0x3cbd7259	0.023125814
85	0xbd86da4c	-0.065846056
86	0x3da8846b	0.08228382
87	0x3bf4f674	0.0074756686
88	0xbd9fdf35	-0.07806245
89	0x3b90207c	0.0043984037
90	0xbb142053	-0.0022602275
91	0xbd9f08ce	-0.07765351
92	0x3d52b909	0.051445995
93	0xbc442baa	-0.011973301
94	0x3d8c4963	0.06849935
95	0xbd2bf548	-0.041981965
96	0x3cec2df6	0.02883051
97	0x3d8e4a7d	0.06947801
98	0xbd73b88f	-0.05950218
99	0x3cdf7823	0.027278965
100	0xbd406e4b	-0.046980184
101	0xbde41f09	-0.11138732
102	0x3e1e6849	0.15469469
103	0xbcdca866	-0.026935767
104	0xbabef0d5	-0.0014567623
105	0x3c34d88f	0.01103796
106	0xbaa6a8cd	-0.0012715101
107	0xbd886b11	-0.06661046
108	0xbde3838d	-0.11109076
109	0x3d2cd3e2	0.042194255
110	0xbdb40c87	-0.08791452
111	0xbdb5c5d5	-0.08875624
112	0xbd6af286	-0.057360195
113	0xbdb6cf30	-0.08926237
114	0xbd962d78	-0.07332891
115	0xbd8273fe	-0.0636978
116	0xbd87f723	-0.066389345
117	0xbd1535ed	-0.03642838
118	0xbcedd0eb	-0.029030284
119	0x3d865b84	0.06560424
120	0xbd569929	-0.05239216
121	0x3e299848	0.16561997
122	0x3d866000	0.06561279
123	0x3c80175a	0.015636135
124	0x3ce861fb	0.028367033
125	0x3d76e44f	0.060276326
126	0xbdcc16b6	-0.09965269
127	0xbcdcc526	-0.026949476
128	0xbd50f76c	-0.05101721
129	0x3c98044a	0.018556733
130	0xbd2f0c40	-0.042736292
131	0xbce0bedc	-0.027434759
132	0x3d8f0c56	0.06984775
133	0xbbeae31b	-0.0071681864
134	0x3cf7cfde	0.030250486
135	0x3d99afa4	0.07504204
136	0x3d2e9879	0.042625878
137	0x3d5c7ce0	0.053830028
138	0x3dea9494	0.1145412
139	0xbca5623d	-0.020188445
140	0xb9f50b48	-0.00046738447
141	0xbd18aca5	-0.03727402
142	0x3d5a5ce1	0.053311232
143	0xbd7ff854	-0.062492684
144	0xbd9cd200	-0.07657242
145	0x3dbfda3c	0.09367797
146	0xbd923167	-0.07138329
147	0x3e0b0e5b	0.13579695
148	0x3d27d6af	0.040976223
149	0x3db343ac	0.08753142
150	0xbd871689	-0.06596095
151	0xbd3790fb	-0.044816
152	0x3ce92059	0.028457807
153	0xbd60d8fb	-0.05489443
154	0xbd91e721	-0.071241625
155	0x3d5ec066	0.054382704
156	0xbd99d033	-0.07510414
157	0xbcb6395a	-0.022244144
158	0x3c0af224	0.008480582
159	0xbd74991e	-0.059716336
160	0xbd90ace0	-0.07064223
161	0x3dccdfc0	0.100036144
162	0xbd8bfec6	-0.068357036
163	0xbdd92f1b	-0.10604688
164	0x3d4565a7	0.048192646
165	0x3d5c3ff1	0.053771917
166	0x3b48abdd	0.0030620017
167	0x3d0b0f79	0.033950303
168	0xbc762476	-0.015023341
169	0x3c5d28b3	0.013498473
170	0xbb858fbb	-0.004075972
171	0xbad04d37	-0.0015892152
172	0xbcbd2f53	-0.023093855
173	0x3ca1a599	0.019732283
174	0x3d528e10	0.051405013
175	0x3d335630	0.043783367
176	0xbdc249c0	-0.09486723
177	0xbd18223e	-0.03714203
178	0xba50a5a6	-0.0007959254
179	0x3d99b835	0.07505838
180	0xbd4b50bf	-0.049637552
181	0xbd8b2c86	-0.067956015
182	0xbce47f17	-0.027892632
183	0xbd3cffc6	-0.046142362
184	0x3d6436d5	0.055716354
185	0xbc3f40c2	-0.011673154
186	0xbd87f403	-0.066383384
187	0xbcbef06a	-0.023307998
188	0xbd0ab273	-0.03386159
189	0x3cb03025	0.021507332
190	0xbdd3a743	-0.10334637
191	0x3d43057b	0.04761265
192	0x3d770617	0.060308542
193	0xbd41f35f	-0.047351237
194	0xbd878d96	-0.06618802
195	0xba1f1e37	-0.0006069871
196	0x3d1108f5	0.035408933
197	0xbc8fd91d	-0.017559582
198	0xbdebe2b1	-0.11517847
199	0x3dd97da6	0.10619669
200	0xbdc26d0f	-0.094934575
201	0x3d645c13	0.05575187
202	0xbca6381c	-0.020290427
203	0x3d7d2a88	0.06180814
204	0x3ca4d234	0.020119764
205	0x3d0efeef	0.034911092
206	0x3d340c12	0.043956824
207	0xbd8acffe	-0.067779526
208	0x3e429f73	0.19006138
209	0x3ca89f63	0.020583814
210	0xbc868e0c	-0.016425155
211	0xbde5fbe1	-0.11229683
212	0xbc3a0af0	-0.011355147
213	0xbd27dc11	-0.040981356
214	0xbdc84d62	-0.097803846
215	0x3d1224c5	0.035679597
216	0xbb88cb70	-0.0041746423
217	0xbd0b7c97	-0.034054365
218	0xbc49dfea	-0.012321452
219	0xbe140806	-0.14456186
220	0xbd0937de	-0.033500545
221	0xbd9d8bdb	-0.07692691
222	0x3d3b3406	0.04570391
223	0x3d714e3e	0.05891251
224	0x3c1aa144	0.009437863
225	0xbd5cb0da	-0.053879596
226	0xbd37c225	-0.044862885
227	0xbd04f601	-0.03246117
228	0x3d0ab8f5	0.033867795
229	0xbde0aa0b	-0.10969933
230	0x3bc68b22	0.0060590664
231	0xbd85125d	-0.06497643
232	0xbc35fbea	-0.011107424
233	0x3c81bf15	0.015838185
234	0xbd9b2452	-0.07575287
235	0x3d5772d1	0.05259973
236	0xbc34a46c	-0.011025529
237	0xbd6a8fda	-0.057266094
238	0x3d92be15	0.071651615
239	0xbdaf0a32	-0.085468665
240	0x3dbc0e31	0.09182394
241	0xbd271d17	-0.040799227
242	0xbce3240d	-0.027727151
243	0xbdab64c0	-0.08368826
244	0x3ca837b9	0.020534383
245	0xbd763e2c	-0.060117885
246	0xbddddf58	-0.10833615
247	0x3d304f47	0.043044355
248	0x3da5ef68	0.08102304
249	0x3d64d1b6	0.05586406
250	0x3da345c0	0.07972288
251	0x3d911156	0.07083385
252	0x3d4a7f46	0.049437784
253	0xbc40620f	-0.011742129
254	0xbd27cb2d	-0.040965248
255	0xbd9f3f5b	-0.07775756

transformer_encoder.layers.0.linear1.bias f4 [128]
0	0xbde7e738	-0.11323398
1	0x3d20d39b	0.039264303
2	0xbd7fdac3	-0.062464487
3	0x3cad80b6	0.021179538
4	0xbde03f05	-0.1094952
5	0x3c44576d	0.011983735
6	0xbd72f9a0	-0.059320092
7	0x3d29c7b1	0.041450206
8	0x3d45ecee	0.048321657
9	0xbcba62fb	-0.022752276
10	0x3d083f4b	0.033263486
11	0xbd6732d4	-0.056444958
12	0x3c96d1f1	0.018410655
13	0x3d526c72	0.051372953
14	0x3d0fde82	0.03512431
15	0xbd122d8a	-0.03568796
16	0xbdb74e68	-0.08950502
17	0xbd8a219d	-0.067446925
18	0xbd15ff1d	-0.036620248
19	0xbd7acb4d	-0.06122904
20	0x3cff55d7	0.031168861
21	0xbd992c6e	-0.074791774
22	0xbd770e3f	-0.06031632
23	0xbcc2eec0	-0.023795485
24	0xbdd203d4	-0.102546364
25	0x3c023178	0.007946365
26	0x3acffe3e	0.0015868617
27	0xbc80ad67	-0.015707685
28	0x3cc3f307	0.023919595
29	0xbddc24fe	-0.10749243
30	0xbde75ab7	-0.11296599
31	0xbc0e90ed	-0.008701545
32	0x3cd73886	0.02627207
33	0x3d5dae42	0.054121263
34	0xbd28f8dd	-0.04125296
35	0xbd5530a5	-0.052048344
36	0xbd394164	-0.045228377
37	0xbd8f1c96	-0.06987874
38	0x3d43e4e4	0.04782571
39	0xbdb01226	-0.085972115
40	0xbc19a256	-0.009377083
41	0xbc20dbb1	-0.0098180035
42	0x3cd6e775	0.026233414
43	0x3b9b2d4b	0.004735624
44	0xbc19045d	-0.009339419
45	0xbd61c628	-0.055120617
46	0xbc298444	-0.010346476
47	0xbccc3f04	-0.024932392
48	0xbdcc5abd	-0.099782445
49	0x3c99e2a0	0.018784821
50	0xbca1bb38	-0.019742593
51	0xbd9a5275	-0.07535259
52	0xbda5f723	-0.08103778
53	0xbd376f2f	-0.044783767
54	0xbdca194a	-0.09868105
55	0xbd355b72	-0.044276662
56	0x3d9d431e	0.07678817
57	0xbd31da08	-0.04342082
58	0xbce12812	-0.027484927
59	0xba1e236d	-0.00060325005
60	0xbda00e59	-0.078152366
61	0xbd5ead69	-0.054364596
62	0x3b6e38ff	0.003634989
63	0x3d7e622c	0.062105343
64	0xbd0f8a29	-0.03504387
65	0xbd035c6e	-0.03207057
66	0xbded2b9c	-0.115805835
67	0x3d5ff9cb	0.05468158
68	0xbdd55047	-0.10415702
69	0xbd50b8d5	-0.05095752
70	0xbd284715	-0.041083414
71	0xbd5e0c32	-0.05421085
72	0xbd904642	-0.070446506
73	0xbddcc6a3	-0.107800744
74	0xbd8fb8db	-0.0701768
75	0x3b8fd66a	0.004389574
76	0xbdd4e100	-0.10394478
77	0xbca65687	-0.020304931
78	0x3d4174cf	0.047230538
79	0x3b783f96	0.0037879697
80	0xbcd9de0f	-0.026595144
81	0xbdbe7983	-0.0930052
82	0x3cbd936f	0.02314159
83	0x3d98ec39	0.07466931
84	0xbcc82254	-0.024430431
85	0xbdfa836d	-0.12232099
86	0xbded7554	-0.11594644
87	0xbdb3dbc6	-0.08782153
88	0xbd1010b5	-0.035172183
89	0xbe12252c	-0.14271992
90	0xbafe357a	-0.0019394599
91	0xbd94d6c9	-0.072675295
92	0x3bf77535	0.007551814
93	0xbdaf02f1	-0.08545483
94	0xbda71373	-0.081580065
95	0xbdddaa25	-0.10823468
96	0x3d0025fa	0.031286217
97	0xbd4c71b5	-0.049913127
98	0xbd9fc699	-0.07801551
99	0x3cc514d1	0.024057778
100	0xbc5d41fc	-0.013504501
101	0xbc085282	-0.008320453
102	0xbd39440f	-0.04523092
103	0x3be7a03e	0.007068663
104	0x3c712414	0.014718074
105	0xbd2ec23e	-0.042665713
106	0xbde4f5f3	-0.111797236
107	0xbdd97197	-0.10617369
108	0xbb942ec4	-0.0045221765
109	0xbd2f9f56	-0.042876564
110	0xbd17783d	-0.036979903
111	0xbda1ff3c	-0.0791001
112	0x3c12b81b	0.008955027
113	0xbd8f86e4	-0.0700815
114	0x3ba0b9b6	0.004904951
115	0x3c9995e4	0.018748231
116	0xbd4ea102	-0.050446518
117	0x3a044390	0.0005045468
118	0xbd0ed831	-0.034874145
119	0xbd973254	-0.07382646
120	0xbd3260d7	-0.043549385
121	0xbd6e78e0	-0.058220744
122	0x3d8cd7df	0.06877112
123	0xbb9b5b9e	-0.004741146
124	0xbc2321a6	-0.009956753
125	0xbdd2a754	-0.102858216
126	0x3d212a89	0.039347205
127	0x3cdd2497	0.026994986

transformer_encoder.layers.0.linear2.weight f4 [128, 128]
0	0xbd82f4ea	-0.0639437
1	0xbda64d86	-0.08120255
2	0xbcfb6e7c	-0.030692331
3	0xbddf5e5d	-0.1090667
4	0x3d15e7eb	0.036598127
5	0xbd93f94c	-0.07225284
6	0x3cda7e38	0.026671514
7	0xbdbcc9c3	-0.092181705
8	0xbda4e1a0	-0.08050847
9	0x3d9c90a2	0.07644774
10	0xbb1d6ec0	-0.002402231
11	0xbc844a37	-0.01614867
12	0x3d1fcd7b	0.03901432
13	0x3cc7c2cb	0.024384877
14	0xbc2ba224	-0.010475669
15	0xbccd215f	-0.025040327
16	0x39bfd6fc	0.00036590535
17	0xbd9924f1	-0.07477749
18	0xbd1890ef	-0.037247594
19	0xbcaaadb6	-0.020834785
20	0x3cfc9ca0	0.030836403
21	0x3d994361	0.07483555
22	0xbd684b5b	-0.05671249
23	0xbc43511e	-0.011921195
24	0x3c814d0a	0.015783805
25	0x3d9481a5	0.0725129
26	0x3d19f1da	0.037584163
27	0x3d17821c	0.036989316
28	0x3d8b488d	0.06800947
29	0xbd9c3a97	-0.076283626
30	0xbd098c73	-0.03358121
31	0xbd259b6e	-0.040431432
32	0xbd197e6d	-0.037474085
33	0x3d994244	0.07483342
34	0x3d99dfda	0.075133994
35	0xbcf4aa9d	-0.029866511
36	0x3c93a342	0.018022183
37	0x3de69931	0.11259688
38	0xbd983859	-0.074326225
39	0xbd80a427	-0.062813096
40	0xbdf1c636	-0.11805384
41	0x3cf0032e	0.029298391
42	0xbd230112	-0.039795943
43	0xbd016d8e	-0.03159862
44	0xbc3ffa75	-0.011717428
45	0x3d837db1	0.06420458
46	0x3cdf02b7	0.027222974
47	0x3d29a895	0.041420538
48	0xbca94da0	-0.020666897
49	0xbdf0bffd	-0.11755369
50	0x3d1d3b71	0.038386766
51	0xb9b80d29	-0.0003510502
52	0x3df8c59a	0.121470645
53	0xbd266651	-0.04062492
54	0x3cafa92e	0.021442976
55	0x3c308690	0.01077427
56	0x3c859d08	0.01631023
57	0xbd24d622	-0.040243275
58	0x3c201fcd	0.009773207
59	0x3ca80347	0.020509375
60	0xbd6bda63	-0.057581317
61	0xbd2bc727	-0.041937973
62	0x3c36546c	0.011128526
63	0xbd53b572	-0.05168671
64	0x3cb90b7c	0.022588484
65	0x3cfa200d	0.030532861
66	0x3d802633	0.06257286
67	0x3dbf019b	0.09326478
68	0x3d6a3a77	0.057184663
69	0x3d96b49f	0.073586695
70	0x3d143f05	0.036192913
71	0x3d458a80	0.048227787
72	0xbc3b730d	-0.011441004
73	0x3cbcba7b	0.02303814
74	0x3c2b0218	0.010437511
75	0xbc60b958	-0.013716064
76	0x3cc7ac68	0.024374202
77	0x3dd0f4a2	0.1020291
78	0x3d069ef6	0.03286644
79	0x3dbb396b	0.09141811
80	0xbcee89c0	-0.029118419
81	0xbdc4406f	-0.09582602
82	0xbd7236bc	-0.05913423
83	0xbd212d8f	-0.03935009
84	0xbd484af6	-0.048899613
85	0x3ae9d633	0.0017840326
86	0x3d8d741c	0.06906912
87	0x3d9ac014	0.07556167
88	0xbd00c5fe	-0.03143882
89	0x3c592bee	0.013255103
90	0x3ca8c884	0.020603426
91	0xbd4a6ca2	-0.049420007
92	0x3d89ffec	0.06738266
93	0x3da0fe2f	0.07860982
94	0x3d6b810e	0.057496123
95	0x3cd06e1a	0.025443126
96	0x3d9d66f8	0.07685655
97	0xbcaceecb	-0.02110996
98	0xbc11af32	-0.0088918675
99	0x3d2d72c4	0.042345777
100	0x3ca4b978	0.02010797
101	0x3bff1675	0.0077846595
102	0xbd5e56b7	-0.054281916
103	0xbc9d6e48	-0.019217625
104	0xbcd7b568	-0.026331618
105	0xbc3bff9c	-0.011474516
106	0x3c544f8a	0.012958417
107	0x3c9b4620	0.018954337
108	0x3d4c0475	0.049808938
109	0xbd55ebc9	-0.052226815
110	0x3c9cf5a4	0.0191601
111	0x3c8862d9	0.016648697
112	0x3cda04fd	0.026613707
113	0x3da4ce4c	0.080471605
114	0x3d6d3992	0.05791623
115	0xbd1b7a06	-0.037958167
116	0xbdb1126f	-0.08646094
117	0x3cc5994f	0.024120955
118	0x3d88e53b	0.06684347
119	0xbde1ae46	-0.11019568
120	0xbccca768	-0.02498217
121	0x3bea353c	0.0071474593
122	0xbdb2beb3	-0.08727779
123	0xbdb7da93	-0.089772366
124	0x3d8dd965	0.0692623
125	0xbcf91f89	-0.030410545
126	0xbccb38d6	-0.024807375
127	0xbce5fe41	-0.02807534
128	0xbdde0e72	-0.10842599
129	0xbb7985c1	-0.0038074108
130	0xbd4fc285	-0.050722618
131	0xbd30d8c4	-0.043175474
132	0xbd21f97d	-0.03954457
133	0x3db92844	0.09040883
134	0x3d38fc5e	0.04516255
135	0xbdcf216c	-0.101137966
136	0xbdb2db8c	-0.087332815
137	0xbe01b51f	-0.12666748
138	0xbbf64c2c	-0.0075164046
139	0x3d38447a	0.04498718
140	0x3dd36fe1	0.103240736
141	0x3d812a46	0.06306891
142	0x3dad428d	0.08459959
143	0xbd662fb6	-0.056197844
144	0x3da4e825	0.080520906
145	0x3d01d3ec	0.031696245
146	0xbbd6f8f3	-0.006560439
147	0xbdfeffb2	-0.12451114
148	0x3d993e9b	0.07482644
149	0x3da2de76	0.07952587
150	0xbd329d54	-0.04360707
151	0xbc4aac16	-0.01237013
152	0x3d70b4a2	0.058766015
153	0xbc32b9ed	-0.010908586
154	0x3bc3a965	0.005971121
155	0x3bdd1488	0.0067468323
156	0xbd6cd070	-0.05781597
157	0xbd10eee8	-0.03538409
158	0xbcb9bbbe	-0.02267253
159	0x3d8659f1	0.06560124
160	0xbd22db10	-0.039759696
161	0xbe04d754	-0.12972766
162	0x3d1a2010	0.037628233
163	0x3ce2824c	0.027650021
164	0xbc90ff7a	-0.017699946
165	0x3dcafc6f	0.09911429
166	0x3d33ac43	0.043865453
167	0x3dafe5a2	0.08588721
168	0xbbe6e5e7	-0.0070464495
169	0xbcef5476	-0.029215079
170	0xbb88a799	-0.00417037
171	0xbd37dcf1	-0.04488844
172	0x3dbd6a67	0.0924881
173	0x3d1c3bf4	0.038143113
174	0x3df63d2d	0.12023387
175	0x3abda72c	0.0014469377
176	0xbb17907b	-0.0023126889
177	0xbcff9a4b	-0.031201502
178	0xbdbd2fa3	-0.092376016
179	0xbd06ccfe	-0.03291034
180	0x3d7840df	0.06060874
181	0x3c11e583	0.0089048175
182	0x3d94968d	0.07255278
183	0x3d38d108	0.045121223
184	0xbd99c639	-0.07508511
185	0xbe110891	-0.14163424
186	0x3daa8c15	0.083275
187	0x3cc9c78c	0.024631284
188	0xbc06afae	-0.008220596
189	0x3d988efb	0.07449146
190	0x3d129197	0.035783377
191	0x3c739cce	0.014868928
192	0xbd329c71	-0.043606225
193	0x3d9edeff	0.07757377
194	0x3d01b7b4	0.031669334
195	0xbd8cb064	-0.06869581
196	0xbd17b0b8	-0.037033767
197	0xbd22be4d	-0.039732266
198	0xbd092357	-0.03348097
199	0x3e315459	0.17317332
200	0x3ce4aeac	0.027915321
201	0x3d0d56d5	0.034506638
202	0x3d712f0b	0.058882754
203	0x3c314ed0	0.010822013
204	0xbccb96e8	-0.024852231
205	0xbb7cae40	-0.003855601
206	0x3cdccc37	0.026952846
207	0x3c969dff	0.018385885
208	0xbd22461d	-0.039617646
209	0x3d367541	0.044545416
210	0xbd7a5865	-0.061119456
211	0x3d5b605a	0.053558685
212	0x3daf095f	0.08546709
213	0x3d604e40	0.054762125
214	0x3de94c85	0.11391548
215	0x3d36b10e	0.044602446
216	0x3d920f6e	0.07131849
217	0xbc4b8d79	-0.012423866
218	0x3de9fcf1	0.11425198
219	0xbd55ea31	-0.052225295
220	0xbd038761	-0.03211153
221	0x3b117e43	0.0022200502
222	0x3d0ec088	0.03485158
223	0xbd337101	-0.04380894
224	0xbdf7d630	-0.121014
225	0x3df1d168	0.11807519
226	0x3b27534c	0.0025531827
227	0x3de22b33	0.11043396
228	0xbe30fe98	-0.1728462
229	0x39568f48	0.00020462007
230	0x3dd9a3d8	0.10626954
231	0xbbaf4e55	-0.005349914
232	0xbd0be4a3	-0.03415359
233	0x3d4a11b0	0.049333274
234	0xbd74467d	-0.059637535
235	0x3ccb3321	0.024804654
236	0x3d49a8f6	0.0492334
237	0x3df07129	0.117403336
238	0x3cc89ce1	0.024488868
239	0x3d5bcfc4	0.053664938
240	0xbcaa07fb	-0.020755759
241	0x3d09634e	0.03354197
242	0xbc977d40	-0.018492341
243	0x3c9d3561	0.019190492
244	0x3d059cbe	0.032620184
245	0x3e01d243	0.12677865
246	0xbd44d269	-0.048052225
247	0x3d15155a	0.036397316
248	0xbd2a239a	-0.04153786
249	0x3c97bf53	0.018523848
250	0x3d572749	0.0525277
251	0xbd900205	-0.07031635
252	0xbcdf657b	-0.02727007
253	0xbd68e31d	-0.056857217
254	0x3d3e7cbd	0.04650568
255	0xbd903b05	-0.07042507
